saved_weights/Grid_5_5/529/actor.pth (torch, 73637 bytes, 12 tensors)

attentions1.linear.weight f4 [16, 1]
000000 11 fe 06 bf 05 e9 73 bf 1a 23 6c bf a4 dc 11 bf
       -0.52731425 -0.95277435 -0.9224106 -0.56977296
000010 02 e9 0f bf ef eb 05 bf 71 5f 61 3f ff c2 37 3e
       -0.56214917 -0.5231313 0.8803626 0.17945479
000020 7b d8 20 bf ac 08 33 bf 2e a1 2e be 87 01 62 be
       -0.62830323 -0.6993511 -0.17053673 -0.22070895
000030 46 5f 89 3f 49 a6 23 bf 36 12 69 be 5f 8d 62 bf
       1.07322 -0.63925606 -0.22760853 -0.88496965

attentions1.attn.weight f4 [1, 8]
000000 1f 0f 19 3f 4c ff 6c 3f ce ca 2e 3f b0 23 00 3f
       0.597887 0.9257705 0.68278205 0.50054455
000010 1d c2 0e bf d0 96 87 be 56 9d 0c bf 98 da 90 3d
       -0.55764943 -0.26482248 -0.54927576 0.070729434

attentions2.linear.weight f4 [16, 16]
000000 d9 6f b9 3e 40 88 32 3e 43 70 43 3e 81 02 bb 3e
       0.36218145 0.17434788 0.19085793 0.36525348
000010 5f cb 00 3e 9c 25 82 3d e5 84 60 3e a9 55 e4 3d
       0.1257758 0.0635483 0.21925695 0.11149151
000020 d5 37 a4 bd 1d 3a a8 3e a9 88 5e 3d c9 01 66 3e
       -0.080184616 0.32856837 0.054329548 0.22461618
000030 fe 2a 87 3c b7 48 77 be fd 0e 52 be 3d 12 4d 3d
       0.016499992 -0.24148832 -0.2051353 0.05006622
000040 f3 6c 6a be b2 5f 64 be 77 a8 41 be 17 d7 8b be
       -0.22893123 -0.2230213 -0.1891192 -0.27312538
000050 bc 4c 15 be af d3 af 3d 79 5e 42 be b2 6d 8c be
       -0.14580053 0.08585297 -0.18981351 -0.2742744
000060 a8 b0 4a be 4d 41 7c bc bf 0a 2e be 0f d7 01 3d
       -0.19793952 -0.015396428 -0.16996287 0.031699236
000070 89 7c 8e 3c 82 56 87 3e 05 66 99 bd 96 96 ba 3e
       0.017393367 0.26433188 -0.07490162 0.36443013
000080 85 10 32 be 60 80 b9 be c6 90 02 3d 7f c4 c2 be
       -0.17389114 -0.36230755 0.031876348 -0.3804054
000090 e0 22 20 3d 75 c0 47 be 09 7b 09 3e 85 45 28 be
       0.03909576 -0.1950701 0.1342584 -0.1643277
0000a0 c8 00 8d be 70 7e 89 be 51 28 28 be a1 d6 7b bd
       -0.2753966 -0.26854277 -0.1642163 -0.061483983
0000b0 9a 41 7b 3e ff 6c 22 3e f8 d6 0a be 32 f5 e7 3d
       0.24536744 0.15861891 -0.13558567 0.11326064
0000c0 4a 75 61 bd 72 e4 4c be da e9 a2 be 21 19 cb be
       -0.055043496 -0.2000902 -0.3181904 -0.3966761
0000d0 96 03 e7 bd 9a 04 28 be 11 f3 3a be 23 fd 33 be
       -0.11279981 -0.16408005 -0.18256785 -0.17577033
0000e0 da 8b 06 3d cd a6 72 be 77 89 fc bc 4a a1 93 bd
       0.032848217 -0.23696442 -0.030827267 -0.07208498
0000f0 02 5d 3d bd fe 05 0d 3e 25 b8 fc 3c e0 5f a8 bd
       -0.046231277 0.13771817 0.030849526 -0.08221412
000100 95 e7 b7 3c 12 45 8a 3e 57 63 d8 3d 84 30 71 3e
       0.022449294 0.2700582 0.105658226 0.23553663
000110 0b c8 70 3e db 18 fc bd d4 b3 84 be 4c e0 d9 bc
       0.2351381 -0.12309428 -0.25918448 -0.02659621
000120 52 fc 25 be df 91 b3 3d 50 13 a8 be 7f b3 91 3e
       -0.16209534 0.08768057 -0.32827234 0.28457257
000130 b3 34 1f be 70 ed 68 3e 06 4e d5 bd 15 79 68 3e
       -0.15547447 0.22746825 -0.104152724 0.22702439
000140 75 f0 e4 bc 03 e2 67 3e 21 5d 18 be 34 04 96 bd
       -0.02794669 0.2264481 -0.14879276 -0.073250204
000150 a5 45 05 3e be 2b c2 bc b8 07 dc bd 3e 82 c2 be
       0.13014849 -0.023702499 -0.1074366 -0.37989992
000160 a3 8b 83 bd a5 78 28 be 47 c3 6c bd 94 45 7d bd
       -0.06423118 -0.16452272 -0.05780342 -0.061833933
000170 bd a6 2d be d3 3d d0 3d 2c 7c 58 3d f3 8c 18 3e
       -0.16958137 0.10168042 0.052852795 0.14897518
000180 8d 66 5a 3c f9 73 80 be b0 f6 75 3d e4 56 81 3d
       0.013330114 -0.2508848 0.060049713 0.06315401
000190 19 59 4f bc 69 27 59 3e fb 4a 24 bd 47 df 85 bd
       -0.01265552 0.2120644 -0.04011057 -0.065367274
0001a0 12 c3 8a be 38 fd 97 bd 9c 2c d6 bc 1d d2 3e be
       -0.27101952 -0.074213445 -0.026144318 -0.1863484
0001b0 d9 db 14 bd c8 04 65 3e 5b 95 81 3e 34 79 69 bd
       -0.036342476 0.22365105 0.25309262 -0.057000354
0001c0 8b 5b bc bd 3c 10 22 3c f9 88 28 3e 85 c3 fe 3d
       -0.09197148 0.009891566 0.16458501 0.12439636
0001d0 22 6c d3 be 44 75 e0 be 28 87 13 bc 1a 55 c5 bc
       -0.41293436 -0.43839467 -0.009004392 -0.024088431
0001e0 2d ac 12 3e 30 71 01 39 a9 6d b4 bd c1 9a 6a 3d
       0.14323492 0.00012344564 -0.088099785 0.05727649
0001f0 ee 2a ed 3e 92 cc f3 be 8c a7 0b be 8a 05 49 be
       0.46321815 -0.47617012 -0.13638133 -0.19631019
000200 9c af 78 3e f9 bf a8 3e 15 df 73 3e 6f a2 ac 3d
       0.2428574 0.32958964 0.23815568 0.08429419
000210 3f 57 60 bd e4 bc 9b 3e f3 4f 81 be aa 20 d1 3d
       -0.054770704 0.3041755 -0.2525631 0.10211308
000220 4e d0 38 3e f6 85 88 ba 65 1d 0d 3e c8 16 02 be
       0.18048212 -0.00104159 0.13780744 -0.12704003
000230 14 bf a9 bb 68 7b bd bd 6f fc 9a 3e c3 dc 2a 3e
       -0.005180249 -0.092520535 0.30270717 0.16685776
000240 cc c9 40 3e 75 48 d7 bc 7c 7c be 3d aa ee 6f 3e
       0.1882698 -0.026279667 0.09301087 0.23430887
000250 75 27 46 3e f8 bc 40 3e 47 c9 62 be b7 33 06 be
       0.19350989 0.18822086 -0.22147094 -0.13105665
000260 17 a3 87 bd 64 56 6b bd e3 d3 4f bd c0 bb 3d 3c
       -0.06622904 -0.057455435 -0.05073918 0.011580408
000270 f6 2b 55 be f8 ce 4b be 6b 63 0b 3e 27 f6 3a be
       -0.20817551 -0.19903171 0.13612144 -0.18257962
000280 2c 07 9a 3d 44 24 8b be 21 9b 82 3d ab 11 1f 3e
       0.07520899 -0.27176106 0.06377245 0.15534084
000290 24 d3 bc be 10 be 98 be ba 4f 73 3e 4c 89 c2 3e
       -0.36879838 -0.29832506 0.23760882 0.37995374
0002a0 1c d7 24 be f3 46 64 bd 0e 56 2b be d3 67 e9 bd
       -0.16097683 -0.055731725 -0.16732046 -0.11396756
0002b0 f5 cc 24 3d 2b 6f b8 be bd 98 4b be 77 29 19 be
       0.040234525 -0.36022314 -0.19882484 -0.14957224
0002c0 ba 57 62 3e ad 4a 54 3c 09 b8 b9 3d 69 a7 05 3e
       0.22103778 0.012957257 0.09068305 0.13052143
0002d0 ea 24 ca be 96 4d 89 be 66 9b a2 39 bb 48 13 3d
       -0.39481288 -0.26817006 0.0003101483 0.035958033
0002e0 3f 74 81 bd b1 ea 10 3e 19 c6 90 3d b2 60 d2 bd
       -0.06321 0.14152028 0.07069034 -0.102723494
0002f0 ff 71 de 3e 33 7c aa bd 65 6c 43 be c7 da 0c be
       0.43446347 -0.0832447 -0.19084318 -0.13755332
000300 b6 11 52 3e c4 52 91 3e 1c 96 81 3e cd 5d 81 3e
       0.20514569 0.28383458 0.25309837 0.25266877
000310 37 cd bf 3d 59 57 03 3d 07 41 be bc 91 50 44 bd
       0.093653135 0.032065723 -0.023224367 -0.047928397
000320 0a 77 3c 3c 8c ba 04 be b6 fb 25 bd 49 39 7e bd
       0.0115029905 -0.12961787 -0.040523253 -0.06206635
000330 fd dd 49 3d 75 45 6a be bf c8 4f be e6 c8 4e be
       0.04928397 -0.22878058 -0.20291422 -0.20193824
000340 d4 e4 0a 3e 6a ab 03 3d b4 3a 71 3e ef c9 3a 3e
       0.13563854 0.032145895 0.2355755 0.18241094
000350 97 01 b2 be e3 59 c3 bc 32 a9 bb bd e2 39 07 bd
       -0.34766838 -0.023846572 -0.09163131 -0.033014186
000360 2f 1c 82 3e 42 53 4c be f7 7b 17 3e a3 fc 6a bd
       0.25412127 -0.19953635 0.14793383 -0.05736984
000370 99 5d bd 3e 6a dd cd be c5 b0 f9 bd 13 9d ba bd
       0.36985472 -0.40207988 -0.12191919 -0.09111991
000380 74 36 85 be 9e ce 55 be 7e d0 47 bd d0 8e e6 be
       -0.26018107 -0.208796 -0.048782818 -0.45030832
000390 58 0c 51 3e 24 19 00 bd 16 06 fe bc c3 52 07 3e
       0.20414865 -0.031273976 -0.031008761 0.13215165
0003a0 17 0d 8d be 6f 9a 1a be 4a e0 5a be 5e ae de be
       -0.2754905 -0.15097974 -0.21374622 -0.43492407
0003b0 a9 ee 06 3e bf 0d 52 3e eb a9 b3 bd 29 56 23 3e
       0.13176979 0.20513056 -0.08772644 0.15950836
0003c0 e8 dc e4 be 34 63 cd be ea 17 b6 be 71 d8 9e be
       -0.44699788 -0.40114748 -0.3556512 -0.31024507
0003d0 5e f3 fc 3d 60 a2 42 be 82 0b f2 bd 77 9c 0e 3c
       0.12351106 -0.19007254 -0.11818601 0.008704296
0003e0 99 fc 00 3d 20 46 c0 be 3c a1 2a be fa b9 2a 3b
       0.031490896 -0.375535 -0.16663069 0.0026050792
0003f0 d4 9a f0 3d 3b c2 17 3c 9a 2b cd bc 26 38 da bc
       0.11748281 0.009262617 -0.025045205 -0.026638102

attentions2.attn.weight f4 [1, 8]
000000 f8 7a 1b 3f a3 6c 9c 3e e5 f3 9a be 4e 3a 03 3f
       0.6073451 0.30551633 -0.30264202 0.5126084
000010 ce 67 41 bf 43 2f 7b 3d 69 16 56 3f df 97 79 3f
       -0.7554902 0.06132437 0.83627945 0.9749736

attentions3.linear.weight f4 [16, 16]
000000 1a 8f 0a 3e df 3b 5e be 80 9a 69 3e 11 ff 90 bd
       0.13531151 -0.21702527 0.22812843 -0.070799
000010 ce f6 53 3e dc d7 25 be 60 b2 6c be be b3 93 3e
       0.20699617 -0.16195625 -0.2311492 0.2884807
000020 f5 16 03 be 7a 31 25 3e c7 83 26 3e b7 94 04 3d
       -0.12801726 0.16132155 0.16261207 0.032368388
000030 b2 5a a8 3e f0 3a bb 3e 32 f5 ec bc c1 8a a8 be
       0.32881695 0.36568403 -0.028925512 -0.3291836
000040 7b 6e 8b 3b 45 e8 40 bc 56 90 4f bc dd 11 03 3d
       0.0042551137 -0.011774127 -0.01266869 0.031999458
000050 3c 2f bb bd 82 48 43 3c 38 e3 b0 3d c4 53 ac 3e
       -0.091398686 0.011919143 0.086370885 0.33657658
000060 d8 88 95 3d 99 76 b5 3d c6 a6 a5 3e cf 98 6a 3e
       0.073014915 0.08860511 0.323538 0.22909854
000070 4c 6f 0c bd 1c 61 dc 3e ec 76 11 bd 6e f9 af be
       -0.03428583 0.4304284 -0.035513803 -0.34369987
000080 e2 0f 58 3e 7a 2c 51 be be fa a0 3d 65 c3 0d bd
       0.21099809 -0.20427123 0.07860325 -0.03461017
000090 a5 40 a0 3d 33 3c 0a 3c 4b 98 a2 3c 53 1a db 3e
       0.0782483 0.008437204 0.01984801 0.4279352
0000a0 59 ae 87 3e 23 3f 50 3e fa d0 18 be 82 28 b8 3e
       0.26500204 0.20336585 -0.14923468 0.35968405
0000b0 28 31 29 bd a5 1d 49 3e 0e ec 53 be a6 19 1c be
       -0.041306645 0.19640215 -0.20695516 -0.15244159
0000c0 06 7c b5 be 7e 7f 39 3d 56 d6 b5 3e 48 d6 cd 3d
       -0.35446185 0.0452876 0.35515088 0.100506365
0000d0 01 84 cc 3d 89 13 16 3e 05 e2 c1 3e ee fc 32 be
       0.09986115 0.1465589 0.37867752 -0.17479298
0000e0 1f 88 86 bd e2 0f b2 3d 40 78 01 3e 6a 92 69 be
       -0.06568932 0.08694436 0.12643528 -0.22809759
0000f0 db 75 33 be 1f 82 bc be b4 6b 38 bd 16 43 f4 3d
       -0.17525427 -0.36818025 -0.04502459 0.11926858
000100 55 fc 06 3e 7c 9d 4d 3e 51 17 e0 3d b5 6b 86 bd
       0.13182195 0.20079607 0.10941947 -0.06563512
000110 76 d5 3a 3b be 38 80 3e 02 62 a0 3d cc 84 3c be
       0.002850858 0.2504329 0.078311935 -0.18410033
000120 82 d9 8d 3e 7d 59 9b 3e ac 71 99 be 17 cf 52 bc
       0.27705008 0.30341712 -0.29969537 -0.012866757
000130 ac 11 8d bd b7 ee 77 be 0f 31 8f bd c2 73 bb 3d
       -0.06888136 -0.24212156 -0.06991779 0.091529384
000140 e5 45 43 3e 25 c7 0c 3e f0 37 bf bd ac a3 12 3e
       0.19069631 0.13747843 -0.09336841 0.14320248
000150 99 1b 19 3d fe bf ea 3c 49 a0 bc 3d 55 5c 8e bb
       0.037379835 0.028656002 0.092102595 -0.004344503
000160 92 d4 44 be 1e 8b 1f 3d 7e 65 39 be b6 93 d2 3d
       -0.19221714 0.038951032 -0.18105122 0.1028208
000170 b5 b9 d5 3d a7 75 b5 bd 77 24 12 be f8 a4 06 3e
       0.104358114 -0.08860331 -0.14271723 0.13148868
000180 7d 30 b6 3d 56 e7 c0 3d 7e b8 01 3d 66 9a e8 3d
       0.08895967 0.09419124 0.031670086 0.11357574
000190 b8 5c 4d be c7 08 cf 3c a4 e5 89 3d 8c 00 e8 be
       -0.200549 0.02527274 0.067332536 -0.45312917
0001a0 1b 8c 74 bc de 56 32 bd 2a f5 fa 3d da 6f 37 be
       -0.014925982 -0.043539874 0.122537926 -0.17913762
0001b0 50 ec 05 be 4e e7 94 bd 47 3a 0a 3e bd c1 26 3e
       -0.13078427 -0.0727068 0.13498794 0.16284843
0001c0 1c a3 90 3b 92 f3 dd 3d b2 ad a5 bd c2 ad fd 3d
       0.0044139754 0.10837473 -0.080897704 0.12386657
0001d0 b8 99 40 be da a6 06 3e a2 c8 e9 3d 5d 7e bc bc
       -0.18808639 0.13149586 0.11415221 -0.023009473
0001e0 1f 4d dd 3c a4 89 11 be b5 1b 9d be 3c 9a 2f bd
       0.027014313 -0.14212662 -0.306852 -0.0428717
0001f0 ca 16 ff 3c 47 c7 ac be e0 ca 89 bc 8a 5c 2f 3e
       0.031138796 -0.33745787 -0.016820371 0.17125145
000200 4d a5 31 bd ad 44 06 be e6 b7 42 be 4d de 90 be
       -0.043370534 -0.13112135 -0.19015464 -0.28294602
000210 15 43 48 3e 58 6c 44 3e c6 ac 49 be 97 a8 37 3d
       0.1955684 0.19181955 -0.19694814 0.044838514
000220 03 d7 a9 bd a0 97 2d 3e 93 be 9e 3e 51 1b 70 3d
       -0.08292963 0.16952372 0.31004772 0.0586198
000230 0d 31 f3 bc 95 97 e8 3d 0d c7 85 3d 2c 43 2a 3e
       -0.029686475 0.11357037 0.065321065 0.16627187
000240 6c ab 3d be 54 48 62 be 56 85 6f 3e d6 c9 e1 bd
       -0.18522424 -0.22097903 0.23390707 -0.11024825
000250 9b b1 7c be 66 ed 8f be fe e4 63 bc 70 ca ad 3e
       -0.24677126 -0.28110808 -0.013909576 0.3394351
000260 97 1b a9 be d4 55 9b be 06 00 cf 3d dd cd 0f 3e
       -0.33028862 -0.3033892 0.10107426 0.14043374
000270 d8 2c ad bd 90 0d b2 3e 5b 66 9c 3b 28 38 13 be
       -0.08455819 0.34775972 0.004772944 -0.1437689
000280 83 7d 43 be a0 eb 9f 3e 0d bd 12 3d b7 e7 fa 3d
       -0.19090848 0.31234455 0.035824824 0.12251227
000290 ae 86 f2 3d 42 62 32 3e 50 5e a7 bd ba b8 b8 be
       0.11842094 0.17420295 -0.081722856 -0.36078435
0002a0 95 36 03 3e 62 29 f5 3d 04 e0 88 be e9 15 d7 be
       0.1281379 0.11970784 -0.2673341 -0.42008904
0002b0 77 5f 83 be bc e0 8a bd 0f bd 4a bd bc b2 57 3e
       -0.2565877 -0.06781146 -0.049496707 0.21064276
0002c0 25 0e 3b 3e 5a 18 2d 3d d8 05 fd bd fb 9d 0e 3e
       0.18267114 0.04225955 -0.1235463 0.13927452
0002d0 dc 76 ab 3d 2c 3c fe 3b b4 c2 37 3e df 3d 1f be
       0.0837228 0.007758638 0.17945367 -0.15550946
0002e0 b1 b0 56 3e cf 9f 06 be 54 0a 10 be 27 11 12 3e
       0.2096584 -0.131469 -0.1406644 0.14264356
0002f0 1e 96 66 3d 94 5d 7f bd 52 ea c3 3c 0e 7d a2 3c
       0.056295507 -0.062345102 0.023915444 0.019835021
000300 00 c5 88 3d ff 36 8c 3d a3 c4 39 be 7a 6f 67 be
       0.066782 0.06846427 -0.18141417 -0.22601119
000310 1e 37 93 3d e7 72 8b be 3c 67 34 3e 1f a8 fe 3e
       0.07188247 -0.272361 0.17617506 0.4973764
000320 7d 88 a6 bd 08 ab 24 be 23 39 8a 3e 63 11 1c 3e
       -0.08131502 -0.16080868 0.26996717 0.15241008
000330 16 1b 8c bd 9c e7 da 3e f9 c0 59 be bd 8c 7a be
       -0.06841104 0.4275483 -0.2126502 -0.2446775
000340 4c 3c 54 bd b2 1c 36 3c 7c cf 71 bd 3e bc 27 be
       -0.051815316 0.01111524 -0.059035763 -0.16380402
000350 fe fe 15 bc 59 66 5b be 01 02 19 be c0 53 e9 3e
       -0.009155033 -0.21425761 -0.1494217 0.4557171
000360 05 60 43 3e 47 eb 88 bc 40 6b 85 3d fe f6 20 3e
       0.19079597 -0.016713751 0.06514597 0.1571922
000370 d5 db b3 3e 0f 10 22 3c a8 bd c0 bd 2f 01 4d be
       0.35128656 0.009891524 -0.09411174 -0.20019983
000380 87 27 07 3e ee d3 63 be 21 8e 51 3c 37 a8 53 bd
       0.13198672 -0.22248814 0.012790234 -0.051674094
000390 80 4c 27 3e 9e 40 05 be 9b 7b 9b bd f2 ec 47 3e
       0.16337776 -0.13012931 -0.07591935 0.19523981
0003a0 3d 67 d2 ba e3 35 43 bd 34 0e 45 3e 1a 57 aa 3e
       -0.0016052496 -0.047658812 0.192437 0.33269578
0003b0 22 2c fe 3d 12 82 5f 3e 0d fa 72 be f5 ab a5 be
       0.124107614 0.21826962 -0.237282 -0.32357755
0003c0 70 22 d6 bd c4 54 65 3e 96 61 7f 3e 75 c8 11 3e
       -0.10455787 0.22395617 0.2493957 0.14236625
0003d0 4a 7e 4b 3e a8 d5 bc 3d f6 ce d3 3d 70 db b1 be
       0.19872394 0.09220439 0.10342209 -0.3473773
0003e0 cc a3 06 bd da 68 6d bd 33 7c c8 bd fb 0d e9 be
       -0.032871053 -0.057961322 -0.09789314 -0.4551848
0003f0 25 e9 9a be ef fa 9f be 7f 34 7a 3e 5b d4 26 3d
       -0.30256 -0.31246135 0.24434088 0.04072986

attentions3.attn.weight f4 [1, 8]
000000 f7 96 77 be b2 32 10 bd 65 4b 93 bd 3a 69 14 3e
       -0.24178682 -0.035204597 -0.07192115 0.14493266
000010 bc d7 03 bf 24 34 54 bf 75 db 84 bf 25 7d 5d 3f
       -0.5150106 -0.8289206 -1.0379473 0.8651908

output_layer.linear.weight f4 [5, 16]
000000 b0 59 85 3e 48 0d cc 3d 7a 53 a5 3e e6 38 a0 bd
       0.2604499 0.09963471 0.3229025 -0.078233525
000010 af 3b 12 be 0c 2a 47 bd 47 87 14 3e f6 b7 77 be
       -0.1428058 -0.048624083 0.14504729 -0.2419127
000020 8a bb 90 bc b7 53 8e 3d 1c e5 89 be c5 d2 f6 bd
       -0.01766755 0.06949561 -0.2693261 -0.1205192
000030 46 b1 57 3e 11 9f 92 3e 88 8e 84 3e 96 66 1e bd
       0.21063718 0.28636983 0.25889993 -0.038672052
000040 fd c7 21 be df 98 7f bd 74 d1 9f be 9f 35 64 3e
       -0.15798946 -0.06240165 -0.31214488 0.2228608
000050 eb 51 40 3e 01 bd 57 3d ae d3 8e 3e 4e 3d 9b 3d
       0.18781249 0.052670483 0.27895874 0.07580052
000060 fa a5 03 be ac dc b1 be d0 99 90 3e 8f 5c e4 bc
       -0.12856284 -0.34738672 0.2824235 -0.027876167
000070 f1 e6 7a be 08 a6 36 bd 76 f2 14 3e 94 dd 75 3d
       -0.2450216 -0.044591933 0.14545617 0.060025766
000080 e8 9f 0a be c4 a3 85 be 0b fa 11 3e f6 20 69 3d
       -0.13537562 -0.26101506 0.1425554 0.0569162
000090 40 45 66 3e b8 48 a5 bd f4 da 22 be 3e 59 a4 bd
       0.22487354 -0.080705106 -0.15903836 -0.08024834
0000a0 28 40 b0 3d 5a e5 be be 61 09 99 3c d9 8f 47 3e
       0.08605987 -0.37284356 0.01868123 0.19488467
0000b0 7a b8 11 be 53 bb 47 bd da 5c f6 bd 33 35 9a 3e
       -0.14230528 -0.04876263 -0.12029429 0.30118713
0000c0 9f a3 3b be dc 28 6b be ee 19 71 be ad 00 10 be
       -0.18324135 -0.22964805 -0.23545048 -0.14062758
0000d0 0c 2d 92 bd 63 c8 64 3d 50 7c 39 3e 32 de 68 be
       -0.07137498 0.055855166 0.18113828 -0.22741011
0000e0 f7 52 9f ba 6f 47 60 be 6d b9 a2 bd e5 fd 7c bd
       -0.0012155463 -0.2190225 -0.079455234 -0.06176557
0000f0 46 b6 a9 bd 58 88 f4 bd d3 16 8b be 9e 8b 9e 3e
       -0.08286719 -0.11940068 -0.2716585 0.30965894
000100 98 11 18 3e 19 0c 3e 3e bf 10 e5 3d ab 07 69 3d
       0.14850461 0.18559302 0.11184835 0.05689208
000110 e5 e1 4d be 3b 60 80 3d 21 ac 33 be 9e 7e f1 bc
       -0.20105703 0.062683545 -0.1754613 -0.029479321
000120 b7 89 eb 3d 9d 90 07 3e 06 66 45 be e3 89 98 bc
       0.115008764 0.1323876 -0.192772 -0.018620437
000130 63 6d 64 bc a4 b3 be bc d6 db 71 3c b8 d0 a6 be
       -0.013942095 -0.023279019 0.014761886 -0.32581115

output_layer.attn.weight f4 [1, 10]
000000 b2 a4 eb bd 9f 76 45 bd 26 4d 8a 3d 01 5e 8e be
       -0.115060225 -0.04820883 0.06752996 -0.27806094
000010 0c 3c 9e be f4 11 bf be 37 e8 3b 3f 17 60 11 3f
       -0.30905187 -0.37318385 0.73401207 0.56787246
000020 c7 de 07 3f b4 de 05 bf
       0.53074306 -0.52292943

fc1.weight f4 [128, 125]
000000 65 0c 97 bd 2a 83 81 bd ee 33 e6 bc cc 89 7c bd
       -0.07375411 -0.06323846 -0.028100934 -0.06165485
000010 45 c3 90 3d 8b b7 86 3d cc 5c a3 bd 04 26 92 bd
       0.07068495 0.06577977 -0.07976684 -0.07136157
000020 0d 9a 32 bd 26 dc 83 bd 42 96 b6 3d db 7a 3d bd
       -0.043603946 -0.06438474 0.08915378 -0.046259742
000030 98 ce 2d bd 04 13 83 3d 1c f0 81 3d 3b 72 a8 bc
       -0.04243335 0.06400111 0.06344625 -0.020562282
000040 fa da 90 bd bc 97 8a bb 66 8a 88 ba e0 0b b9 bb
       -0.070730165 -0.004229514 -0.0010417223 -0.0056471676
000050 e5 69 1c 3d dd 3a bc bd 16 5f 59 bd 6f b5 dd bb
       0.038186926 -0.09190915 -0.053069197 -0.0067660133
000060 c6 ad a9 3d 3c 42 09 bc 17 06 81 bd 25 ee 5d bd
       0.08285098 -0.008377608 -0.0629999 -0.05418219
000070 bb 49 55 bb 22 b4 a0 bd c8 af 7c bd 1d 67 23 3d
       -0.0032545167 -0.078468576 -0.061691076 0.03989326
000080 5e 9f 48 bd fe 4f 4c bd fa 12 61 3d 17 af 4a 3d
       -0.04898011 -0.049880974 0.054949738 0.049483385
000090 04 cc 1a 3d da 28 3e bc b8 72 8a bd cf de c0 3d
       0.03779222 -0.011606419 -0.06760162 0.09417497
0000a0 0e ee 2e 3d 26 a5 79 ba a0 83 64 3c 45 e4 2d 3d
       0.042707495 -0.0009523205 0.0139473975 0.042454023
0000b0 35 fa 3f 3d 76 0b 99 3d 9c e1 9d 3c 21 fc 12 bd
       0.046869475 0.07472889 0.019272618 -0.03588498
0000c0 bc 2c 80 bd 21 db 86 3b 3f 08 a0 3d b5 1c 9b 3d
       -0.062585324 0.0041154777 0.07814073 0.07573835
0000d0 1c 1d b2 3d 84 23 4a bd 21 52 b1 3d 2d e0 5e 3c
       0.086969584 -0.049350277 0.08658243 0.013603252
0000e0 6a 45 52 bd 6f a4 d2 bc 7c 91 be 3c 42 ca 8d bd
       -0.05133573 -0.025713174 0.023262732 -0.06923343
0000f0 23 88 9a bd 29 2f ce 3c 27 1c 4c bd af 77 5f bd
       -0.07545497 0.025168972 -0.049831536 -0.0545575
000100 75 52 79 3c 98 07 5d 3d c8 9e f6 38 19 51 0e bd
       0.015217413 0.05396232 0.000117597694 -0.03474531
000110 2f 05 46 bc 3e 66 9a bc 8b 7d 61 3d e7 c6 96 bd
       -0.012086197 -0.018847581 0.055051368 -0.07362156
000120 52 4a 31 3c bb b1 c0 3c c4 08 6e bc 87 17 a0 bb
       0.010820942 0.023522248 -0.014528457 -0.004885617
000130 cb 27 dd bc 49 86 aa 3d da 04 74 3d f2 70 b4 3d
       -0.026996514 0.08326394 0.05957494 0.08810605
000140 0b 00 88 3d 5a 87 7c bc 29 27 65 3d 6d 61 21 3d
       0.06640633 -0.01541313 0.05594555 0.039399553
000150 b5 7b 86 bc 39 71 8c bd 0e 99 a6 bc 5e b8 8e bd
       -0.01641641 -0.06857533 -0.020336654 -0.06968759
000160 0b 36 f0 bb a9 8e 11 bd 7a dd 5e bc 18 c7 1c 3d
       -0.007330661 -0.035536442 -0.013602609 0.038275808
000170 b0 63 e5 bc 2b e4 1c 3d b3 36 09 3d 1f b1 1d bd
       -0.028001636 0.038303535 0.03349943 -0.038498994
000180 0d ac b8 bd ee 53 a7 3d 1d ae 6c 3d 5e 1d e8 3c
       -0.09017191 0.08170305 0.057783235 0.028334316
000190 56 15 d0 3d cb 39 b8 3a 2d ff 6d 3d 9f 0a 16 bd
       0.101603195 0.001405531 0.058104683 -0.036631223
0001a0 81 50 08 3c d4 86 78 bd 14 b2 9d bd 6d c6 8d 3c
       0.008319975 -0.060675457 -0.07699981 0.01730653
0001b0 0b 34 81 3d d1 d0 34 3d 2e c1 2b 3d d0 a3 00 3d
       0.063087545 0.044144455 0.041932277 0.031406224
0001c0 24 8a 86 3c 9c 84 04 3d df ca 26 3d ae 54 12 bd
       0.016423292 0.03235303 0.040720817 -0.035725288
0001d0 78 6b f5 3c b9 f0 47 3d b1 b3 b8 bd 8d f7 2f bd
       0.029958472 0.048813555 -0.090186484 -0.042960692
0001e0 a5 d9 06 3c 9b f3 6c 3c 2a 4c 28 bd 6a 66 69 3d
       0.008230601 0.014462377 -0.04108826 0.056982435
0001f0 93 e0 85 bc 49 6f 74 bd 03 62 3e bd 0b c2 94 3d
       -0.016342437 -0.059676442 -0.04648019 0.07263573
000200 8c 0c be 3b 82 26 58 bd 7d 27 a3 3d 51 e0 90 bd
       0.0057998355 -0.0527711 0.07966516 -0.07074035
000210 9d 35 6c 3d 82 98 66 3d 2f 3b d8 bc c0 ca 1c 3d
       0.057668317 0.056297787 -0.026395408 0.038279295
000220 6a 1a 8e 3d 73 c0 07 bd ea 0b 9b bd ca e5 47 bd
       0.06938632 -0.03314252 -0.07570632 -0.04880313
000230 a6 4f d4 bc d6 8f 63 bc cb 45 c1 bc be a2 36 bd
       -0.025916886 -0.013889274 -0.02359285 -0.044588797
000240 08 30 a4 3d b7 8e 9e 3d 43 75 a4 bd d3 d2 aa 3c
       0.08016974 0.077420644 -0.080301784 0.020852482
000250 16 41 00 bc 42 18 9f 3b 88 70 85 bc f2 9b 3d 3d
       -0.007828018 0.0048551867 -0.01628901 0.0462913
000260 38 d0 53 bd 35 32 e3 bb 77 bb 23 3d 79 7d 27 3d
       -0.051712245 -0.0069334754 0.039973702 0.040891144
000270 f4 19 33 bd c6 88 5a 3d 8e 5f 51 3c 99 51 89 3d
       -0.043725923 0.053353094 0.01277913 0.06705017
000280 fc c2 82 3d 7d f7 bc 3c 60 a7 60 bc 55 50 14 3c
       0.063848466 0.02306723 -0.01371178 0.009052356
000290 7e aa 95 bd 88 f7 74 3d 37 2f 8f bc 02 54 05 bd
       -0.073079094 0.059806377 -0.017478568 -0.03255082
0002a0 b1 c5 58 bd ec 20 9e 3b 82 18 34 3b ef 89 63 bc
       -0.05292291 0.004825702 0.0027480428 -0.013887866
0002b0 93 97 f8 3d 87 d7 88 3c bd 86 6b 3d 79 4e d1 bc
       0.121382855 0.016704334 0.057501543 -0.025550114
0002c0 a0 c1 96 3c 63 07 b7 3d 71 e4 28 bc 76 e8 2a bd
       0.018402874 0.08936956 -0.010308371 -0.0417256
0002d0 c8 41 b3 bb cf 10 75 3c 6c f1 c3 3a 09 7e 37 bd
       -0.005470488 0.014957621 0.0014949269 -0.04479793
0002e0 2c 3b 15 3d 79 05 96 3a 31 00 3c bc e3 d4 ca 3d
       0.036433384 0.0011445723 -0.011474655 0.09903886
0002f0 05 f9 8e bd 7c fa 75 3d b7 d7 c2 3d 6d 68 30 3c
       -0.069810905 0.060053334 0.095138006 0.010767085
000300 9b 1c 1c 3c 4f d0 d1 bc 25 b9 95 bb 61 ca 85 bd
       0.009528304 -0.025612025 -0.00456919 -0.06532741
000310 59 97 94 bd 6f 58 b8 bc 47 ca 8c bd 02 7e 1d 3d
       -0.0725543 -0.022503106 -0.06874519 0.03845025
000320 71 31 08 bd 1d 1d 21 3c 54 f7 87 bd 7d ae a9 bd
       -0.033250276 0.009833601 -0.06638971 -0.08285234
000330 22 e9 49 3b 6c 92 28 3d e0 ba ce 3b 09 4d a4 3d
       0.0030809124 0.041155264 0.0063088983 0.08022506
000340 30 a2 e4 3c 3a f8 6a bc ad fc 95 3d ba a0 76 3c
       0.027909368 -0.014341408 0.07323585 0.015052969
000350 37 b2 a7 bc 9f 0f 2b bd 58 82 0b bd 01 09 51 bd
       -0.020470722 -0.041762944 -0.034059852 -0.051033977
000360 01 d1 61 bb 78 18 82 bd 2b 06 ca bd 6d 46 55 bd
       -0.0034456851 -0.06352323 -0.09864458 -0.052069116
000370 29 f7 93 bd a0 11 b9 3c c4 a1 d9 bd 52 63 34 bd
       -0.072248764 0.022591412 -0.106265575 -0.04404003
000380 f5 eb 33 bd 24 e7 61 ba a8 27 d2 3c 6b 8e 6c 3d
       -0.043926198 -0.00086175115 0.025653675 0.057753008
000390 48 14 46 3d 8b 99 a7 bb 7f 7d 41 bd d9 13 d2 bd
       0.048359185 -0.0051147393 -0.047238823 -0.10257692
0003a0 d7 96 f7 3c 0e bb 71 bd b8 00 9f 3c c7 ca 72 ba
       0.030223293 -0.05901628 0.019409522 -0.00092617836
0003b0 d1 01 a0 bd 9a 43 79 bd 06 b8 83 3d 5d df b0 3d
       -0.078128465 -0.060855485 0.06431584 0.08636353
0003c0 0f 6c cb bc f1 54 c7 bd 23 47 c8 bd 8a 61 d1 bd
       -0.0248318 -0.09732998 -0.09779193 -0.10223682
0003d0 c3 89 5a bd 4e 00 14 3d a4 16 49 3c 3f a1 26 bd
       -0.053354036 0.036133103 0.012273464 -0.04068112
0003e0 0e 9f 95 3d ef bd 9a 3b ec 35 b0 3c 34 e9 ce bd
       0.07305728 0.004722349 0.021510087 -0.10103074
0003f0 cc ea ea bc e3 10 85 3c d7 56 96 3d a0 b7 da 3b
       -0.028676413 0.016243404 0.07340782 0.006674722

fc1.bias f4 [128]
000000 43 a9 57 bd ba 40 78 bd 02 36 9c bd 26 3f 45 3d
       -0.052651655 -0.060608603 -0.07627489 0.048155926
000010 cf e8 7a bd e7 0c 31 3d 72 4a ad 3d 9a ff a8 bc
       -0.06125718 0.043225195 0.08461465 -0.020629693
000020 b9 51 03 be e5 6c d9 bb 38 28 08 bd 41 07 af 3c
       -0.12824143 -0.0066352957 -0.03324148 0.021365764
000030 a7 7b 82 3d 8b 78 ea bc bd f5 34 bc dd c3 98 bd
       0.06371241 -0.028621932 -0.011044917 -0.07459233
000040 2b ae e3 bd 21 4c 29 bd b2 15 c9 3d e9 7e fb 3d
       -0.11117204 -0.041332368 0.09818591 0.122800656
000050 1d 2d 49 3d d2 e1 39 3d bb 1d 50 3d 80 3d 97 3d
       0.04911529 0.045381375 0.050809603 0.07384777
000060 f3 4e 07 3e 68 f6 cc bd c4 b6 9e 3c 65 4c 0a 3d
       0.1321371 -0.10007936 0.019374259 0.03376426
000070 b6 20 40 3c dd fc fa 3c e6 63 bc 3d a3 34 da 3d
       0.011726549 0.030638153 0.091987416 0.10654571
000080 aa ca 90 bd ee 8c f9 3d 40 86 7b bd 54 b2 33 bd
       -0.07069905 0.12185083 -0.061407328 -0.04387124
000090 d7 b8 7f 3d 0c cf 98 3d aa 60 0a be b7 89 23 3d
       0.062432136 0.07461366 -0.13513437 0.039926257
0000a0 bd a9 5c 3a d2 d0 17 bd 0d 78 06 bc 62 f0 16 3e
       0.0008417627 -0.03706438 -0.008207333 0.14740136
0000b0 92 a9 1b 3e e4 8c ca bd 92 41 b0 bd f8 31 d5 bd
       0.15201405 -0.09890154 -0.086062565 -0.104099214
0000c0 46 7a b8 3d 50 00 07 3d 3f f9 af bd 03 12 12 3e
       0.09007697 0.032959282 -0.08592462 0.14264683
0000d0 8f 2a ce bc 56 55 fe 3d d1 28 e5 bd 7e 85 9f bd
       -0.025166778 0.1241862 -0.11189426 -0.077891335
0000e0 a0 42 c2 bd bd 2d 8c bd 41 83 ff 3b 79 86 9d bd
       -0.09485364 -0.068446614 0.007797629 -0.07691664
0000f0 9a 4e 46 bd e1 ed dc 3c a9 96 ba bd 9f 90 54 3d
       -0.048414804 0.026968898 -0.091107674 0.051895734
000100 4d 7d 93 bd 7a ac 80 3c d8 2b cb 3d 49 7e 50 bc
       -0.072016336 0.015707243 0.09920472 -0.012725421
000110 c2 98 38 bd 43 c2 dd bd 44 04 e3 3c 1a 10 68 3d
       -0.045067556 -0.10828068 0.027711995 0.05665598
000120 f2 2d d0 bc 7f b3 95 bd cb 5c 69 bd 2b 5a e9 bc
       -0.025412533 -0.07309627 -0.05697326 -0.028485378
000130 61 f1 cb bd 85 d8 9c bd c1 a3 e4 bc 9a 4e 80 bd
       -0.09958149 -0.07658485 -0.027910115 -0.06264992
000140 31 d2 76 3d 48 42 f8 3d 17 be 9b bd b9 c7 6b 3d
       0.060259048 0.12122017 -0.07604616 0.057563517
000150 58 6c b8 3d 6e 44 07 3d ae 5c 01 3e ea 2f 98 bd
       0.0900504 0.033024244 0.1263301 -0.07431014
000160 88 fe b5 3b 46 c4 46 bd d1 92 e9 3d 38 68 fa bd
       0.005554024 -0.048527025 0.11404956 -0.122269094
000170 c4 a3 8e 3c 7f 4c 43 3c 86 2d 00 bb ba cf d1 3d
       0.017412074 0.011920094 -0.0019558384 0.10244699
000180 7f 9f 0a 3e e8 45 b3 bd b7 38 e7 bd b0 04 50 bc
       0.13537405 -0.08753568 -0.112901144 -0.01269643
000190 80 ab 0f bd 5b 2b ea 3d 76 ff b2 3c 64 18 a3 bc
       -0.035075665 0.11434051 0.021850329 -0.019909091
0001a0 27 7a 38 3d 4d eb cf bc ab cf a3 3b 4f 07 c6 3d
       0.04503837 -0.025380755 0.004999121 0.09669363
0001b0 da c1 c0 bd 92 8c 1d 3d 4f 0d be bd 26 87 6c bd
       -0.09411974 0.038464136 -0.09279882 -0.057746075
0001c0 77 fd d9 3d 53 a2 b3 3d 49 07 08 3d 1a fa e5 bc
       0.10644048 0.08771195 0.033210073 -0.02807336
0001d0 3d 46 c0 3c a9 cc eb bd 6a c2 af bd d4 75 cb 3d
       0.023470992 -0.11513645 -0.085820034 0.09934583
0001e0 96 60 20 bd 3b ac 8a bd 88 ff bc bd 1e 99 3c bd
       -0.03915461 -0.067711316 -0.09228426 -0.04604446
0001f0 35 46 67 bd 1b 29 98 3b f2 0e d5 bd 80 f9 e7 bc
       -0.05646344 0.004643572 -0.10403241 -0.028317213

fc2.weight f4 [5, 128]
000000 3e a1 24 bc c7 c5 ba 3c 85 86 07 3d a0 9b 8e 3d
       -0.010048209 0.022799386 0.033087272 0.06963277
000010 ae ef 28 3d 28 94 29 bc e2 4d 35 be d5 97 6b 3d
       0.0412442 -0.010350265 -0.17705491 0.057517845
000020 4c f4 24 bc 69 53 66 3d 86 4e 18 3b 02 c7 3e bd
       -0.010068011 0.05623189 0.0023240163 -0.046576507
000030 5b d7 da 3d c2 75 7e bb 9c ab 99 bd ba 2a e3 3c
       0.10685607 -0.0038827513 -0.07503435 0.027730335
000040 00 62 0c 3d 82 9e 3d 3a 9a 6e 08 3e 1f d8 52 be
       0.034273148 0.00072333973 0.13323441 -0.20590256
000050 b0 19 0a 3e 55 01 bc bb 88 1f 32 bd dc 57 bd 3d
       0.13486362 -0.0057374635 -0.0434871 0.092452735
000060 0a d5 c4 be 11 f7 9b bc b3 b9 23 bd 25 14 5d 3d
       -0.38443786 -0.019038709 -0.03997202 0.05397429
000070 1a a6 0c bd 3d 3e 13 bd 01 af 38 3d 9d c1 1c be
       -0.034338094 -0.035948027 0.04508877 -0.15308233
000080 5a 83 70 3d d5 1c df bb 1c e6 35 3d 40 0e b2 3c
       0.058719017 -0.006808857 0.044408903 0.02173531
000090 e1 48 bc 3d 2a 43 82 be 66 74 42 3d 66 82 00 3d
       0.09193588 -0.25441867 0.047474287 0.031374358
0000a0 f9 b1 fb 3c b2 4b 0a 3d 7c a6 8c b9 3b 85 85 3c
       0.030724512 0.033763595 -0.0002682692 0.01629888
0000b0 39 14 81 3d 76 e5 4c 3d a4 11 81 bd 4b e9 65 bd
       0.06302685 0.05002352 -0.06302193 -0.05613069
0000c0 d7 73 db 3d 25 6e 24 3e cc d8 2c bd e8 eb 71 3d
       0.10715454 0.16057642 -0.04219894 0.05906287
0000d0 2b fd e3 bd 8e 77 fd 3d f9 6b 1e 3c 66 6b d3 b9
       -0.11132272 0.12376319 0.009669297 -0.00040325074
0000e0 05 13 be 3c d4 cd a4 bb 60 a4 26 3d 8e 3a 17 bd
       0.023202429 -0.0050294194 0.040684104 -0.036921076
0000f0 f9 73 08 bb ca ad 95 3d d5 41 06 3d 0a 1d 1b 3e
       -0.0020821078 0.07308538 0.032777626 0.15147796
000100 31 e0 85 3d 49 c3 73 bd bd 08 c7 3d 58 46 9f bd
       0.06536902 -0.05951241 0.097184636 -0.07777089
000110 f0 12 45 bc c1 f9 8c 3a a7 db 1f 3d fe a0 89 3e
       -0.012028441 0.0010755585 0.039027836 0.2688064
000120 eb 35 5d bc 30 f3 68 bc bc 6c 63 3c 19 6f ae 3c
       -0.013501625 -0.014218137 0.013880905 0.02129321
000130 9e 7b dd bd 36 6f 77 bd b3 e7 3a bd fc 78 92 3d
       -0.10814594 -0.060408793 -0.04563112 0.07151982
000140 94 82 0f be 9d fa 80 bd 46 ef a4 3d 50 cd 66 3d
       -0.14014655 -0.06297801 0.0805345 0.056348145
000150 4a 84 ec 3d d8 ed ff 3c 05 e2 a2 3d 68 09 b6 bc
       0.1154867 0.031241342 0.07953266 -0.022221282
000160 34 21 d6 3d f0 0f 05 bd 10 d1 d3 3d 9e 3b 3f bc
       0.10455552 -0.032485902 0.1034261 -0.011671929
000170 e5 de 28 3d 2b 7d 45 3e 8e c5 48 bc 01 45 8e bd
       0.041228194 0.19286029 -0.012254132 -0.06946755
000180 9f 22 f3 3d 93 ff b4 3d 3f 31 5e 3d ab 4e 81 bd
       0.11871838 0.088378094 0.054246183 -0.06313833
000190 7f 5e 45 3d ec 9a f5 3d 73 6c 8c 3d 1e 09 70 bd
       0.04818582 0.1199244 0.068566225 -0.058602445
0001a0 0e 22 b1 3d 16 37 ae 3d 02 a4 c8 3d 12 c0 24 3e
       0.086490735 0.085066006 0.09796907 0.16088894
0001b0 a6 07 3c bd be 30 c7 bc e0 ef 13 be c5 08 70 bc
       -0.04590573 -0.024315234 -0.14446974 -0.014650528
0001c0 0e de ed 3d 89 ff 8f 3d 00 8b 66 bc 3c 52 61 39
       0.11614619 0.07031161 -0.014071226 0.00021488307
0001d0 26 d2 49 3d 5e 35 c7 3c 82 cf 79 3d a1 51 0a 3e
       0.04927268 0.02431744 0.06098891 0.13507701
0001e0 77 e9 c5 3c c8 59 07 3d 2b 84 f1 b9 58 b3 14 3d
       0.024159176 0.033044606 -0.00046065575 0.036303848
0001f0 71 a0 1a bd 71 f4 0b bc 3f 63 7f bd 50 d2 8d 3d
       -0.037750665 -0.008542166 -0.062350508 0.069248796
000200 9c d7 24 3d b5 2a 5b 3d 81 4c 9b 3c 9a 3c 8a be
       0.040244684 0.053507525 0.018957378 -0.2699936
000210 b0 2b 76 3c 8a 20 54 3d cb 5d 90 3d d8 68 31 3d
       0.015025064 0.051788844 0.070491396 0.043312877
000220 11 df f3 bc 08 2a 95 be 1a af 17 3d 9e b0 78 bd
       -0.029769452 -0.2913363 0.037032224 -0.06071531
000230 aa 5f a5 3c 13 c4 46 bd 37 03 69 3d eb 0c ab bd
       0.020187218 -0.048526835 0.05688783 -0.08352073
000240 df df 52 3c ef ec 0b 3c 09 74 05 bd 2a 22 f7 3c
       0.012870758 0.008540376 -0.032581363 0.030167658
000250 25 3e fe 3c d9 d6 19 bd 2e 96 8e bc f2 05 48 be
       0.031035492 -0.03755841 -0.017405596 -0.19533518
000260 98 2b e5 3d b6 72 71 bc 18 1d c2 3d 26 a2 a2 3d
       0.111899555 -0.014736822 0.094782054 0.079410836
000270 0d db 5b bd e7 12 43 bc 78 fd 69 3d 30 78 21 3e
       -0.0536757 -0.011906362 0.057126492 0.15768504
000280 50 a0 8d bd e9 1d d9 3d 66 68 3c bd 10 3f a1 3c
       -0.06915343 0.10601408 -0.045998 0.01968339
000290 cb ef 9a 3d cc f4 74 3d d0 d4 63 3d c4 ca 47 be
       0.07565268 0.05980377 0.055622876 -0.19510943
0002a0 72 9f d3 3c 62 15 29 3d 97 5b 7e 3c 01 24 96 3d
       0.025832865 0.041280158 0.015524766 0.07331086
0002b0 9e 9d a5 3d 4a 79 8f bb fb fd 98 3d 8b af 0e bc
       0.08086704 -0.0043784725 0.07470318 -0.008708845
0002c0 c6 e0 f7 bb 82 27 fb 3d dc dc db 3c e9 c8 76 3d
       -0.007564637 0.12263395 0.026838712 0.060250197
0002d0 4d 26 0c 3e 37 0f 01 3d dd 8e 54 bd a5 39 08 3e
       0.13686486 0.03150865 -0.051894058 0.1330324
0002e0 82 dd 32 3c 1b 32 36 bc e8 0f ea 3c 37 8f 72 3d
       0.010917069 -0.0111203445 0.028572038 0.05921861
0002f0 b1 6b 81 bd 6a 40 e9 bd 78 2a af bd ed 18 78 bd
       -0.06319369 -0.11389239 -0.08553022 -0.060570646
000300 7f f7 25 3d fc 5a 96 bd b5 15 c2 3d 4c bb 4f 3d
       0.040519234 -0.07341573 0.094767965 0.05071573
000310 2c 5f 0b 3d a3 42 ee 3d 87 b2 0e bd 55 2a 52 be
       0.03402631 0.11633804 -0.034838226 -0.20523961
000320 f4 59 c1 bc 44 a8 39 bb 77 d6 f1 bc 82 da 4b 3c
       -0.023602463 -0.0028329054 -0.02952121 0.012442233
000330 88 22 32 3d a9 73 b2 bd fb 1a 73 3c 89 56 54 bd
       0.043489963 -0.08713467 0.014837976 -0.05184034
000340 ff 70 b4 bd a4 a7 0a 3d 5e 43 0f 3c c9 85 b0 3c
       -0.08810615 0.03385128 0.008744089 0.021548169
000350 c7 55 ab bc e6 a9 a7 3a bb e7 00 3e 6b 92 a5 bd
       -0.020914925 0.0012791723 0.12588398 -0.08084568
000360 40 da 97 bc e6 39 23 bd ce 5d e8 3d c0 95 ad bc
       -0.018536687 -0.039850138 0.11346017 -0.02118957
000370 37 c5 42 bd 04 8c 23 be ac cb 92 bd 28 1d ec 3d
       -0.04755136 -0.1597138 -0.071677536 0.115289986
000380 c6 4f b7 3d 98 75 6e 3d a6 07 75 3d 20 a1 2c bd
       0.089507625 0.058217615 0.059821747 -0.04214585
000390 0f b1 a9 bd e3 00 80 3c 2d 4e 48 bd e9 cf 5d bd
       -0.08285724 0.015625423 -0.04890268 -0.054153357
0003a0 bd 45 c6 3d 08 86 a1 3d 4b 9f 35 be d4 f0 e8 3d
       0.0968127 0.078868926 -0.17736547 0.11374059
0003b0 01 2b 81 bd 62 c9 92 bc 59 4c 02 bc f2 8f 58 bd
       -0.063070305 -0.017918292 -0.007952773 -0.052871652
0003c0 e0 37 05 bd 76 a3 dc 3a c4 2f 59 bc c8 4c e6 3b
       -0.03252399 0.0016833383 -0.013256017 0.007028196
0003d0 45 42 cd 3c 0b 9a 4f bd 34 36 ab 3c b3 48 72 3d
       0.025056014 -0.050684016 0.02089987 0.059151363
0003e0 14 2c fd 3c 90 56 89 bc ba 89 50 3d 61 6c 82 3d
       0.030904807 -0.016764909 0.050912596 0.06368328
0003f0 a8 d6 c7 3d a0 73 a2 3d 6d 99 86 3d fd 51 9e bc
       0.09757739 0.0793221 0.065722324 -0.019326204

fc2.bias f4 [5]
000000 96 42 8f 3b 58 ef 18 bd 3a 41 4c 3a ca 35 b0 bc
       0.0043719513 -0.03733763 0.0007791702 -0.021510024
000010 d5 d7 1c be
       -0.15316708
