saved_weights/Grid_5_5/529/critic.pth (torch, 13235 bytes, 11 tensors)

attentions1.linear.weight f4 [16, 1]
00000000: 55c1 41bc a15c 51bf 9cae 473f 7453 48bf
00000010: 7195 dcbe f6e0 353f abb3 433f f6f1 05bf
00000020: 72c2 29bb b486 a23e 57e8 ca3e 21d1 bfb9
00000030: 36f8 cd3e f057 61bf 0981 5fbf 9443 7b3f
-0.011825879 -0.81781965 0.7800081 -0.7825234 -0.43082765 0.7104639 0.76446027 -0.5232233
-0.0025903252 0.31743395 0.39630386 -0.00036586172 0.40228432 -0.88024807 -0.8730627 0.9814999

attentions1.attn.weight f4 [1, 8]
00000000: 6a82 05bd 6749 16bd 20ce 1b3e 13a1 dfbc
00000010: 0caa 053e dc33 d5bd d02d 9a3e fe1e 9c3d
-0.032595076 -0.036691096 0.15215349 -0.027298486 0.13053149 -0.10410282 0.30113077 0.07623099

attentions2.linear.weight f4 [16, 16]
00000000: f336 b5bd 728b 443c fe13 81be ef62 f1bd
00000010: 67e9 df3d b6af fa3c c7bf 513d c302 b1bd
00000020: 22dc f43c a859 95be 0b45 92be 1fbc dcbd
00000030: e1a0 5bbe 80c3 6f3e 861e 863e 4e85 7cbe
00000040: 1e61 0dbe f172 9b3e 6e34 273e 4cb2 cf3d
00000050: c973 15be 5d96 923c b4a1 493e cf98 2b3e
00000060: 6ccb 363e 8e6f 16bd d8fc 1abe 6b22 34be
00000070: 6e23 edbd 7e5e 093e 96da 4cbe 4bca d4bd
00000080: 6121 103e 5e09 743e a003 20be 9efd 3dbe
00000090: 4eab 43be 8157 8dbd 65f6 97be 6a05 743e
000000a0: a99f aa3d d9c1 b1bc bc02 0b3d 5337 103e
000000b0: 935e 63be 2b0f 4a3d 77cf 643e b269 1f3e
000000c0: 94db 983c dfdd 13be d298 13be 68b6 2cbd
000000d0: 51e5 8cbe c3f8 333c a911 f63d bee5 c6bc
000000e0: b50c 39bd 583f 0a3e 6223 543d 2ba5 1cbd
000000f0: 26be 453d 8588 9fbe d5f4 11be 326d 9d3e
00000100: 4148 5abe 0ca6 913d d7ee 3fbe a1eb d5bd
00000110: 9422 083e 80db e33d a2ef 8a3e 5f2c f13d
00000120: 5474 1abd 5874 1d3d 971f 753e 92a6 48be
00000130: 4e8c 833d d124 1ebd 99a9 06be ee75 81bd
00000140: 0206 24be bd27 893e a146 7dbe cc1c 1d3e
00000150: 4c8c e93c c37b adbd f485 a13d fb36 70bd
00000160: 93b7 c2bd 864f 173e f98a c93c ff1a 19bd
00000170: 5098 9fbe 9750 133e 5ca0 3a3e 538e 2fbe
00000180: 73a6 523e 3612 953e ab7d 2b3d f0da 4c3e
00000190: 1f67 153d c155 aa3c 5ae8 8cbd eebc bb3d
000001a0: ec41 603e 39db 2e3d 3019 a5be bc0d 513e
000001b0: 8161 a7be cc7e 633e ac32 263d 1ead 503d
000001c0: 70b8 3f3e f408 60be 2f9f 863d 3a09 1dbe
000001d0: b588 90be 2d7b 48bd 5987 56bb b5da 89be
000001e0: 73fc 393e a3d1 13be a93f b03d bae1 f83d
000001f0: cbd1 0abe b58d 89bc f61d 3b3e 631f 31be
00000200: c2c1 fcbd 26e4 52be 9afd 813d 843d 64be
00000210: 8bc3 7f3d 350c 8f3e 33db 5c3e 2c2f 6c3d
00000220: b957 22be 64f8 913e e5e0 383d 34f9 03be
00000230: 0bf7 0c3e a00b a5be bada bc3d 6fee aabc
00000240: bf32 443e 06a5 6e3e f0fa 75be 8528 a7bd
00000250: 0eef 1f3e cb3f 96be ca27 e0bd 7c02 8f3e
00000260: d491 91be da2b 37be f4d7 25bc 8560 8abe
00000270: 6e03 2c3e de08 e2bc 4f5f 493e 7d32 923d
00000280: cb98 cfbd 3463 6b3e a16c b4bc 5960 bebd
00000290: 5174 373e a650 803d 6577 c33d 022d 75bd
000002a0: 2210 85bc ce94 33be dc7e 62be 4197 23be
000002b0: 39c4 18be 4064 bb3d 3794 49bd 55c2 99be
000002c0: d207 f63d eeac 10be 0fdf adbd fcd5 71bc
000002d0: fc39 ecbd 3a90 e0bb 8691 563e b582 3c3e
000002e0: 2e81 e8bd cd90 f03c 6a77 61be e5ef 05be
000002f0: 4bb2 5c3e 43af 92bd 9a0c dbbc 75f1 4dbe
00000300: c668 67bd e8f9 b2be e2a4 253e c71e b0be
00000310: 7941 c2bd 29b1 f13b 8cb4 663d 0f84 7bbe
00000320: 62ac 31bd 59f7 a93e 531a 3b3e 74d6 93bd
00000330: bc4a 4b3b 975c c6bd 5aab 14be 3684 b13e
00000340: b11a 79bc 8567 573e 01cc 85be 2c6b 2c3e
00000350: 4add 0b3e 652b 69be 7e7a 85be 786b a5bd
00000360: cb39 843d 8526 1fbe c9d8 3f3e ac86 503e
00000370: 3d9b 153e 8fad b43d fcc9 423d 3774 d0bd
00000380: dedd 013d 0c1e 173d 91a0 acbd 966f b33d
00000390: d0fa 93bd bdda cb3d 80fa e33c 8b51 2c3e
000003a0: 85ac c03d 67c1 2abe ac9a 3c3e 52b0 6b3e
000003b0: dc9a 53bb 5e25 04be 127d b73d 4ecb d93d
000003c0: d728 023d 379c 98bd 26d1 903e 7ca4 a3be
000003d0: 37ec a4be 546a bd3d 327e 853e b595 b63d
000003e0: eb29 9e3d 99a3 c0bb 8513 c43e 530d 373c
000003f0: 26e8 9e3e be9d 9fbe 2d77 e4bd 2e29 c43d
-0.08848371 0.011996137 -0.25210565 -0.11786448 0.1093319 0.030601364 0.051208284 -0.08643105
0.029890124 -0.29169965 -0.285683 -0.10778069 -0.21448089 0.23414421 0.26195163 -0.24660227
-0.13806579 0.3036113 0.16328594 0.10141429 -0.1459495 0.017893964 0.19690591 0.1675751
0.17851037 -0.03672748 -0.15135515 -0.17591254 -0.11579023 0.13414952 -0.20005259 -0.10390147
0.14075233 0.23831698 -0.15626383 -0.18553779 -0.19108316 -0.06901456 -0.29680172 0.2383019
0.08331234 -0.02169888 0.033938155 0.14083605 -0.22204046 0.04933087 0.22344767 0.15567663
0.01865939 -0.14440106 -0.14413765 -0.042166144 -0.27518705 0.010984602 0.12015087 -0.024279471
-0.045178134 0.13500726 0.051791556 -0.038243454 0.048277043 -0.31158844 -0.14253552 0.30747372
-0.21316625 0.07111749 -0.18743454 -0.10445333 0.1329444 0.11125851 0.2713595 0.11776041
-0.037708595 0.038441032 0.23937832 -0.19594792 0.06423245 -0.03860933 -0.13150634 -0.063213214
-0.16017917 0.2678813 -0.24733974 0.15343016 0.028509282 -0.08470871 0.07886878 -0.058646183
-0.0950767 0.1477643 0.0246024 -0.03737926 -0.31170893 0.14386211 0.18225235 -0.17144136
0.20571308 0.29115456 0.041867893 0.20005393 0.036475297 0.020792844 -0.06880255 0.09166895
0.21900147 0.042689536 -0.3224578 0.20415395 -0.32691577 0.22216338 0.04057567 0.050946347
0.18722701 -0.21878415 0.065733306 -0.15335551 -0.282293 -0.048945595 -0.0032734482 -0.26924673
0.18162708 -0.14435439 0.08605892 0.12152429 -0.13556592 -0.016791204 0.18273148 -0.1729713
-0.12341644 -0.20594844 0.06347199 -0.22289091 0.062442344 0.27939 0.21567993 0.057662174
-0.15853776 0.2850982 0.04513635 -0.12888032 0.13766114 -0.32235432 0.09221406 -0.020865647
0.19159983 0.23305139 -0.24021506 -0.08162025 0.15618536 -0.29345545 -0.10945089 0.27931583
-0.2843157 -0.17887822 -0.010122288 -0.27026764 0.16798183 -0.027592119 0.19665264 0.07138536
-0.10136565 0.22987062 -0.022024455 -0.092957206 0.17915465 0.062653825 0.09544257 -0.059857376
-0.016243044 -0.17537233 -0.22118706 -0.15975668 -0.14918603 0.091499805 -0.049213614 -0.30031076
0.1201321 -0.14128467 -0.08489811 -0.0147604905 -0.11534497 -0.0068531306 0.2095395 0.18409236
-0.11352764 0.029365921 -0.22018209 -0.13079794 0.21552388 -0.07162335 -0.026739407 -0.2011164
-0.056496404 -0.34956288 0.16176179 -0.3439848 -0.09485144 0.0073758555 0.056324527 -0.24562095
-0.043377288 0.33196524 0.1827176 -0.07218638 0.0031019887 -0.09685629 -0.1451849 0.3467118
-0.015204118 0.21035583 -0.26132205 0.16837758 0.13658634 -0.2277046 -0.26070017 -0.08077139
0.06456336 -0.15542038 0.1873504 0.20363873 0.1461 0.08822166 0.04755591 -0.10178416
0.03170573 0.03689389 -0.08429063 0.08761518 -0.07225573 0.099538304 0.027829409 0.16827981
0.094079055 -0.1667534 0.18418378 0.2301648 -0.0032288348 -0.1290488 0.08959402 0.106344804
0.03177723 -0.074516706 0.28284568 -0.3196143 -0.32211468 0.09248796 0.26072842 0.08915273
0.07722839 -0.0058788774 0.38296142 0.01117261 0.3103649 -0.31175035 -0.111555435 0.09578167

attentions2.attn.weight f4 [1, 8]
00000000: 6246 613d fe5b db3e 7e11 e1bd e1c6 113e
00000010: e3d6 99be 2336 9e3d dac4 9c3d 4f73 973e
0.054998763 0.42843622 -0.109896645 0.14236023 -0.30046758 0.077251695 0.07654734 0.2958016

attentions3.linear.weight f4 [16, 16]
00000000: a1ce 95be 393f 103e 717b 613a 1eda 5c3e
00000010: e100 6b3c 6c33 093e 9961 4abe b18a 65bb
00000020: c135 d13d 3474 01be 75d1 e4bd 7571 40bd
00000030: 210e 373e a08e cd3c 8665 0c3e a8ad 0d3d
00000040: dab4 5cbe 88b4 35be fd0f bd3d a390 3c3e
00000050: c50f 793e 3366 163e cfa7 d53b ed86 5d3e
00000060: 5487 3dbe a4e4 5abe 05dc edbd 5179 2dbe
00000070: b4be cf3d f1c6 e3bd 09e5 42bd 0413 a63c
00000080: 1d85 1ebe 2403 58be c3a8 453d 639a 54bd
00000090: 3684 27be f46a 78bd 55c3 aabe b581 b6bc
000000a0: ced6 33be a848 6bbe 155e 603e 745b 1d3e
000000b0: 2236 8c3b 593f db3d e993 333e 730c 5c3e
000000c0: c94c 23bd 5d41 c1bb e6ce 1dbe b573 343d
000000d0: 6e92 22be 59e4 5fbe b187 973d 7ff6 b83d
000000e0: fb91 8d3e 1108 59be ff61 84be 52a5 09be
000000f0: 42c6 853e fb79 7ebd 47bb 50be 719b 003d
00000100: 00b1 a5bd 799e 2ebd 9ecb 44bd f682 7b3d
00000110: 8889 4abe 63ae c13d b10c 063b 8d9f 60bd
00000120: fbc7 dcbd 9f91 5d3e 5993 f03c 0dd5 77bc
00000130: 23d4 be3c e4b0 62be aa99 603d 3fba 6a3e
00000140: 66a3 413e e7ff 40bd 2671 22bd 3cd7 83be
00000150: 124c 54be ba5f 913e 7412 853e 9526 59be
00000160: 38b5 c93c 2c8b 1a3e 8ae6 18be 79cf 0e3d
00000170: c56c 28be 8d1b 693e 1b7c 183e c53b 08bf
00000180: 0b63 103e ac2e 46be f451 bbba 5169 38be
00000190: 1c82 603e 8ac0 673e 8eda 953d 145d f63d
000001a0: a26b 45be ccc0 f53c 7950 b83d 9923 853e
000001b0: 5aa1 e1bd 0b4e 373e 60da 8a3e 9f71 d9be
000001c0: 32f8 be3d a9c2 343e 8a90 e03a 7e21 c8bd
000001d0: 0b51 5bbe 2a9a 463e f5d1 d83d c3b5 41be
000001e0: a0b1 22be 55f7 3d3e 1224 663e 12f0 83bd
000001f0: be18 dabe 0903 b0bd 968f 26be 4546 07bf
00000200: 0e73 a2bd 4771 823e 61b3 6bbd 5b5c 2f3d
00000210: b1a6 f0bd b58a 26be b0e3 6fbe c739 2b3d
00000220: 621a 703e 3aa8 b4bd 99f5 68be 664b bf3d
00000230: 03fe 85bd 793f c4bc 62f9 78be 2ff6 743e
00000240: 5ceb 2b3e 0be3 2d3e 916b a53c c0f4 14bd
00000250: e296 1b3e 300a 3cbe 401c 043e 8351 9d3c
00000260: 991a 5fbe 9b57 87bd 7dbd 98bd 420e 6c3e
00000270: 0c7d 3abd 86b8 1d3e f031 783e 921b af3a
00000280: bfba 2abe 2e92 2ebe 8b39 14bc d5c1 96be
00000290: c43e 5ebe 547f 943e bf33 253e 09d3 e0bd
000002a0: 7741 b03d d2db 273d 6169 14bd 70bb 333e
000002b0: 792c 9bbe 2094 6c3e 8e04 f23d 527d 35be
000002c0: 4ad1 97be f1d2 1e3c 545e a13c d8a7 923e
000002d0: d6e3 45be 3605 24be 17ca 5cbe fb03 90bc
000002e0: edaa 773e b6eb d93d abc6 3dbe 8da2 5f3e
000002f0: 0b4d 603e 4a99 12be 0358 5c3e 146f 03bb
00000300: ecb5 87be 0fb5 60be aea0 44be 1057 353e
00000310: a0de 203e fe22 013d 88d6 ad3d 7be0 533e
00000320: dec6 673e 055f 53be 64c4 53be 7336 5f3d
00000330: 202a 903d 83c8 10bd beba 043e 34c7 c23d
00000340: fd7f 36bd 75a7 ab3d 604e 7a3e 0e1f 2a3d
00000350: 692d cc3d c1fb b1bd a825 97bd 3013 3e3e
00000360: 816e 11be 8a22 783d 5926 99bd 1f75 e13d
00000370: bebe 973d 6a4f 483d b4a4 a33d ba7a cabd
00000380: 2907 8abd 08dc 573e bb6b 953e 5feb 28be
00000390: e3c3 98bd 7609 303e 3f56 a13e 9f52 4a3e
000003a0: 4701 91be 6a77 803e aa14 0d3d 42bc 0fbe
000003b0: 9f07 f0be 13f7 723e cc66 f2bc 1522 babe
000003c0: 1a13 183e d650 b2bd 6531 8fbe 8c29 733d
000003d0: 0a53 6bbe a422 4bbe 84cc 94bd 370d 4ebc
000003e0: f13b 833e 2d90 2e3d 281e 553e bc11 603e
000003f0: 9836 b8bd 86e0 4dbe cb09 523d a127 363e
-0.29259208 0.14086618 0.0008601463 0.2156758 0.014343471 0.13398522 -0.19763793 -0.0035025293
0.10215331 -0.12641984 -0.11172763 -0.0469832 0.17876484 0.025092423 0.13710603 0.03458944
-0.21553364 -0.17744648 0.09231565 0.1841455 0.24322422 0.14687423 0.0065202485 0.21633501
-0.18508655 -0.21376282 -0.11614231 -0.1694081 0.101437956 -0.111219294 -0.047581706 0.02027274
-0.15480466 -0.21094948 0.048256647 -0.051905047 -0.16359028 -0.060648873 -0.33352152 -0.022278646
-0.1756241 -0.22976935 0.2191089 0.15366918 0.004278914 0.10705442 0.17536892 0.21489124
-0.03986815 -0.0058976845 -0.15410957 0.04405566 -0.15876171 -0.21864451 0.07398928 0.090313904
0.27650437 -0.21194483 -0.25856015 -0.13441971 0.2612782 -0.06212805 -0.2038394 0.03139824
-0.08090401 -0.0426316 -0.048045747 0.06140419 -0.19779027 0.0945709 0.0020454342 -0.05483966
-0.10780331 0.21637581 0.029367136 -0.015126479 0.023294514 -0.22137791 0.054834045 0.2292261
0.18909988 -0.047119047 -0.039658688 -0.25750148 -0.20732144 0.28393346 0.2599064 -0.21206124
0.024622545 0.15092152 -0.14931694 0.03486583 -0.16447742 0.22764416 0.14891092 -0.532162
0.14100282 -0.19353741 -0.0014291392 -0.18008925 0.21924633 0.22632042 0.073170766 0.12029472
-0.1927934 0.02999916 0.08999724 0.2600372 -0.110171035 0.17900865 0.27119732 -0.424695
0.09324683 0.17652382 0.001713292 -0.09772013 -0.21417634 0.19394746 0.10586921 -0.18916993
-0.15888071 0.18551381 0.22474697 -0.06442274 -0.42597002 -0.08594329 -0.16265711 -0.528416
-0.07932101 0.2547705 -0.057544116 0.042812686 -0.11750544 -0.1626385 -0.234267 0.041803148
0.23447564 -0.08821149 -0.22749938 0.09340553 -0.065425895 -0.023956047 -0.24313882 0.23922037
0.16789001 0.16981141 0.020192893 -0.036366224 0.15194276 -0.18363261 0.12901402 0.019203907
-0.2178749 -0.06608506 -0.07458017 0.23052314 -0.04552941 0.15402421 0.242378 0.0013359657
-0.166728 -0.1704795 -0.009046922 -0.29444757 -0.2170363 0.29003394 0.16133021 -0.10977752
0.086062364 0.04098112 -0.03623331 0.1755197 -0.30307367 0.2310338 0.11817275 -0.17723587
-0.29651862 0.009693847 0.0196983 0.2864368 -0.19325194 -0.16017613 -0.21561466 -0.017580023
0.24186297 0.106406614 -0.18532817 0.21839352 0.2190439 -0.14316288 0.21517949 -0.0020055221
-0.26505983 -0.21944068 -0.1920192 0.17708993 0.15709925 0.03152751 0.08488184 0.20691101
0.22634456 -0.20641716 -0.20680386 0.054495286 0.07039285 -0.035347473 0.12961861 0.09510651
-0.044555653 0.08381549 0.2444396 0.041533522 0.09969599 -0.08690596 -0.07380229 0.18562007
-0.1420231 0.060579814 -0.07478017 0.11008667 0.07409428 0.04890386 0.07990399 -0.098866895
-0.06739647 0.21080029 0.29183754 -0.16496037 -0.074592374 0.17191109 0.31511113 0.1975808
-0.28321287 0.25091106 0.034443535 -0.14036658 -0.46880814 0.23727064 -0.029590033 -0.36354128
0.14851037 -0.087068245 -0.27967373 0.059365794 -0.22980896 -0.19837433 -0.07265571 -0.012576393
0.2563167 0.042617965 0.20812285 0.21881765 -0.08994788 -0.2010518 0.05127887 0.17788555

attentions3.attn.weight f4 [1, 8]
00000000: 7831 d63e e3f7 c0bd 7358 90be 1c3b 0fbe
00000010: 4dc8 713e 6973 dabe d569 f1be 633c 8f3e
0.41834617 -0.09422281 -0.2819248 -0.13987392 0.23611565 -0.42666176 -0.47151056 0.2797576

output_layer.linear.weight f4 [1, 16]
00000000: bd9a 4f3e 2ac7 bf3d 181f e43c c470 493e
00000010: 4807 c6bb 8a6c c9bd 100a 93bd 1113 2cbe
00000020: c3a7 c13d 8025 2abc d3cf 0cbe dad1 ee3d
00000030: 016c 793e 5bf9 883c 4f3a 7abe 6bcc 2b3d
0.20273872 0.093641594 0.027846858 0.19671923 -0.0060433485 -0.09835155 -0.07179654 -0.16804148
0.09455826 -0.010384917 -0.13751154 0.1166112 0.24357606 0.016720464 -0.24436305 0.041942995

output_layer.attn.weight f4 [1, 2]
00000000: bff4 30bf f6fb c63e
-0.6912345 0.38864106

fc1.weight f4 [64, 25]
00000000: 2d50 febc 5c49 853c fa13 a03d a5ae 8dbd
00000010: 1896 11be ab4f 8e3c 7933 27be 0a25 8ebd
00000020: 48be 1e3d 21d4 a53d 1d58 bebd f37d 22be
00000030: 4be3 b13d 0e30 5b3c 6b80 7a3c 27df 0ebe
00000040: b2cd 9f3d 4b38 04be b845 f43d 4170 103e
00000050: 85d3 663d 3c95 51be 7f32 8c3d 78e5 4abe
00000060: 0506 b6bd 86e0 9a3d d6f4 a93d 3d76 e5bd
00000070: 943f 0d3d 9a11 da3d 76dd 9c3d 67c3 cebd
00000080: e3ff 46be a0eb 833b 6296 a93d da1c 973d
00000090: 8de3 a5bd 8094 67bc 4ade b3bd 407f c4bd
000000a0: 30b4 cf3c c0a6 39be 4011 75bb c050 f23c
000000b0: 106d c53c f6f0 ea3d 0af0 33be 58a9 6fbd
000000c0: 1d50 23be 58fb 40be 90c6 abbb f9af 603e
000000d0: 1485 b03c e2a2 403e 5224 593c 05a7 493e
000000e0: 3577 253e 5881 21be 212d c7bd 91ec c83d
000000f0: 23ab 47be bdcc 093e 0b13 3fbe 2140 68bd
00000100: 1b39 253e 7549 4abc d2cf c23d 36b3 5e3e
00000110: 89a9 1bbd d2e2 373e ee95 813d 03f1 b73d
00000120: b884 1f3e f99e 163c e402 4c3e 24dd 96be
00000130: ca05 f6bb 4a00 55be 9769 a4bd 9460 06be
00000140: bf4e 99be 1749 a43d d6e3 023e ab35 443e
00000150: a600 963d a8c1 cd3d cf69 8d3d 0d64 06be
00000160: eb6d 863d b0c5 633e b0d7 763d 144f 223e
00000170: 2f9d e7bd b4ad cabd 312d 5c3c b0d5 1e3d
00000180: 0e82 f53b 0bb9 d8bd a926 283d 63c9 f93d
00000190: b60e 223e 8828 03bb f62d cfbd ade1 593e
000001a0: 0ce9 c9bc 5b1f 8bbd eb3a 4cbe 345e 0dbc
000001b0: 142d 243e 6866 5a3e d7ed 043e 9e4b 03be
000001c0: c7fc 44bd 572e 70bc a34f 66bd ec49 d53d
000001d0: 1422 553e 9aca a3bc 9715 1a3d 8f7a 2abd
000001e0: e8c8 713e 753c 9c3c c4f7 2abd b3c1 983d
000001f0: 5cf0 d13d 308a d83c f6ef 13be d5f5 41be
00000200: 38cd 08bd ee2e 963d c25f f63d 9711 bcbd
00000210: 6369 ffbd 1fab 473e 1b1f 4abe a113 2e3e
00000220: 02b4 12be c0bb e33b 240c 8bbd cccd 34bd
00000230: 2058 153d 9ed5 d43d c0ab c8bc 50f0 8d3c
00000240: 4034 aabb d0a9 b4bd a8dc 3ebe bf99 2b3e
00000250: 30b4 33be c8e2 49bd eab7 3ebe fb1c 99ba
00000260: 4e11 33be 6173 343e 36bf 633e 11e2 81be
00000270: 1489 4cbe ff50 41bb ae29 773e e5e9 5f3e
00000280: f539 7dbe 521b 8ebe 602b 8fbd cfa1 e43c
00000290: 08fc f73d a579 bcbe e133 7dbd 00be 553d
000002a0: c30d 073e 87f9 f63d c908 11be 3d8e 8ebe
000002b0: ae63 cbbb f28e 90bd 6443 673d f15f f7bd
000002c0: b222 ae3c 490c 0abd cb4f 283e f693 00be
000002d0: 413f 95be d6ba 50be 7ce0 babd b176 c2bc
000002e0: f0d5 9dbd 829a 6abe 99a5 2fbe 48bc 02be
000002f0: a2d8 303d 169a b23d 31de db3d 1ab1 50bd
00000300: 326d 26be 6922 0d3e ece5 44bd 6910 aa3d
00000310: d1b0 483e 79cb 91bd 57a9 803e 2aed c73d
00000320: d216 d63d 154b 13be 3da3 0e3e 8084 113d
00000330: deb6 13be 8dbd 19be 128b c93d e00f 37bc
00000340: a08e 41be 503b 673c ac39 30bd 58ff 96bc
00000350: 006e 5eba 04f3 8ebd a8d1 6ebd 5030 663c
00000360: ee22 c73d 4bcc 46be 002b f6ba bfb0 143e
00000370: f7e0 fbbd 36e1 86bd 00c0 d2bc 50be d2bc
00000380: b08a 40be 251f bd3d 8b42 893c 4105 ccbd
00000390: dfa3 c2bd ddec fd3d 1f70 983d 2dd5 f3bd
000003a0: f0c0 ddbd b8b3 573d 39e3 073e c89d e0ba
000003b0: 33c9 1ebe cc18 bdbd bddd 08be 9db7 823d
000003c0: acd0 163e 57b7 2cbd a67d 083d 9ef2 60be
000003d0: 8fe5 42bd 32ff 36be e06b 5dbe 1268 70be
000003e0: 8684 01be 1d09 d2bd 76b3 28be 06a6 5cbe
000003f0: 60ec 74be 59ff 4ebe 71bb b6bd 8faa babd
-0.03104409 0.016270332 0.0781631 -0.069180764 -0.14217412 0.017371973 -0.16328229 -0.069406584
0.038755685 0.08097101 -0.0929415 -0.15868358 0.08685931 0.013378156 0.015289406 -0.13952313
0.07802905 -0.12912099 0.1192736 0.14105321 0.056354064 -0.20467085 0.06845569 -0.19814098
-0.08887867 0.07562356 0.08298652 -0.11204193 0.03448446 0.106478885 0.07659428 -0.10095864
-0.1943355 0.0040258914 0.08280636 0.0737855 -0.081000425 -0.014134526 -0.08782633 -0.095945835
0.025354475 -0.18130016 -0.0037394315 0.02957952 0.024099857 0.11471741 -0.17572036 -0.05851111
-0.1594853 -0.1884588 -0.0052421764 0.21942128 0.021547832 0.18812135 0.013253288 0.19692619
0.16158755 -0.15771997 -0.097254045 0.098107465 -0.19498877 0.13457008 -0.18659608 -0.056701783
0.16135065 -0.012346615 0.09512295 0.21748051 -0.03800348 0.17957619 0.06327425 0.08981516
0.15577972 0.0091931755 0.19922978 -0.29465592 -0.0075080143 -0.20800892 -0.08027952 -0.13122779
-0.2994289 0.08021753 0.12782225 0.19161098 0.073243424 0.100467026 0.06904947 -0.13124104
0.06563934 0.2224338 0.06026429 0.15850478 -0.11309277 -0.098964125 0.013438509 0.038778007
0.0074923104 -0.10582169 0.041052494 0.121966146 0.15825924 -0.0020013172 -0.10116188 0.21277495
-0.024647258 -0.0679309 -0.1994435 -0.008628417 0.16032821 0.21328127 0.12981354 -0.12821814
-0.04809263 -0.014659486 -0.05622829 0.1041449 0.20813781 -0.019994069 0.037618246 -0.041620787
0.23611796 0.019071797 -0.041740194 0.0745882 0.10250923 0.02643308 -0.14447007 -0.18941434
-0.033398837 0.0733317 0.12029983 -0.091830425 -0.12471273 0.19498871 -0.19738428 0.16999675
-0.1432648 0.006949872 -0.06789425 -0.044141576 0.036460996 0.10392307 -0.02449596 0.017326504
-0.005194217 -0.08821452 -0.18638861 0.16757868 -0.17549205 -0.04928854 -0.18624845 -0.001168161
-0.1748707 0.17622139 0.2224091 -0.25367787 -0.19974166 -0.002949774 0.24136993 0.21866567
-0.2472914 -0.2775522 -0.06990695 0.027909188 0.12108618 -0.36811557 -0.061817054 0.05218315
0.13188843 0.12059312 -0.14163508 -0.27842894 -0.006206951 -0.07058515 0.056460753 -0.12078846
0.021256778 -0.033703122 0.16436689 -0.12556443 -0.2914982 -0.20383772 -0.09124848 -0.023738237
-0.07706821 -0.22910503 -0.17153014 -0.12767136 0.043175347 0.08720796 0.10735739 -0.050950147
-0.16252592 0.13782658 -0.048070833 0.08303911 0.195987 -0.071188875 0.25129196 0.09762032
0.104535714 -0.1438411 0.13929458 0.035526752 -0.14425227 -0.15013714 0.09840979 -0.0111732185
-0.18902063 0.014113262 -0.04302375 -0.018432304 -0.0008485019 -0.06979945 -0.058305413 0.014049605
0.09723459 -0.19413869 -0.0018781126 0.14520548 -0.12298768 -0.06585924 -0.025726318 -0.025725514
-0.18802905 0.09234456 0.016755363 -0.099619396 -0.09503912 0.12398694 0.074432604 -0.119058944
-0.108278155 0.052661628 0.13270272 -0.0017136866 -0.15506439 -0.09233245 -0.13365836 0.06382678
0.1472804 -0.042167034 0.033322953 -0.21967551 -0.047582205 -0.17870787 -0.21623182 -0.234772
-0.1264821 -0.102556445 -0.16474709 -0.21547708 -0.23918295 -0.20214595 -0.0892247 -0.09114563

fc1.bias f4 [64]
00000000: 2864 23bd 4636 2bbe 92ff 203e 1a03 55be
00000010: 660a 543c a8af cfbc baed e5bd ee32 103e
00000020: 0d46 cfbd fcb9 4cbe d77c 80bd f275 7d3c
00000030: c542 18be 220e 1d3e 4313 923e 7333 483e
00000040: 85d2 f7bd 5f4a 463e b33c ba3e c2c1 b7bd
00000050: ef0b d7bd 9bba a33d e50a 06bc 0942 143e
00000060: e448 53be 3a7d 163e 6704 763e 6be6 d3bd
00000070: 1c3e ab3d 9367 eabb 545f 213d 7b31 023d
00000080: ead4 b0bd 149c 70bc 5f61 723e 5d6b db3d
00000090: 97b2 fcbd f11b 513d 7225 003e b19e 91bc
000000a0: a80f 283d bb02 383d bd9c 073e 002e 5d3e
000000b0: 456d 08be 6754 9f3d 8414 fdbc 0df6 d53d
000000c0: f253 38be 0048 f13d 2b42 15be 9d68 8fbd
000000d0: 1a07 ee3d 806d bcbb 946b a5bd f4d2 87bd
000000e0: db74 ddbd c278 a03d 64fc 9bbc 46c4 17be
000000f0: 8647 f03d cc10 9dbd c948 85be 1cef cbbd
-0.03989044 -0.16719922 0.15722492 -0.20801964 0.012941932 -0.025352314 -0.11226983 0.14081928
-0.10120783 -0.19992822 -0.06273811 0.015470015 -0.1486922 0.15337422 0.2853032 0.19550876
-0.121007 0.19364308 0.36374435 -0.08972503 -0.10500323 0.079945765 -0.008181308 0.14478315
-0.20633274 0.14696208 0.24025117 -0.10346683 0.08361456 -0.0071534603 0.039397553 0.03178547
-0.0863436 -0.014685649 0.23669957 0.10713837 -0.12338751 0.051052038 0.12514284 -0.017775865
0.041030556 0.04492448 0.13243385 0.21599579 -0.13322933 0.0777977 -0.030893572 0.10447321
-0.18000773 0.11781311 -0.14576022 -0.07002375 0.11622448 -0.005750358 -0.080771595 -0.06632033
-0.10813304 0.07835533 -0.019041248 -0.14820966 0.11732392 -0.076692194 -0.26032093 -0.09957716

fc2.weight f4 [1, 64]
00000000: 3916 053b 8036 1b3d c015 04bd 9bd7 a13c
00000010: ded2 16bd 002a 73bc 4e3e 2f3e 9122 93bd
00000020: 5842 98bd 0bab 80bb 4839 0e3e 9ba9 233d
00000030: 8433 933b 8123 abbd ce55 8cbd 2856 1d3e
00000040: ea40 083e 540a 603c e89e 8e3e a751 d33d
00000050: 1a77 c2bd 4ada 8d3d 1049 853d 598f 4c3d
00000060: c295 39be 01bf 05bc 8222 02bd 2259 6c3e
00000070: bb95 c33d 058e 443d 0f3f 74bd 03c9 123e
00000080: eacf 003e d7c9 8f3d 5837 90be 0290 c33e
00000090: 5032 24bc 1fb5 9d38 2ba9 413e 9d1a f43d
000000a0: d065 dc3d 89f8 6c3e a01b 843e 1ebc dabd
000000b0: b05d 8dbd 111d 993e 5d77 433e 8730 e9bc
000000c0: 151f 873d 0616 0c3d e82d 88bc 1d34 12be
000000d0: 2eea babd ce9c 943d 9177 5c3c 548d 0b3e
000000e0: 2d60 b2bd 2081 38bd cd5c 42bd 98b6 c4bb
000000f0: aa95 183e 7f4d 70bc 105f a8bc 7416 6dbd
0.0020307435 0.037893772 -0.032247305 0.019756129 -0.036822192 -0.014841557 0.17113611 -0.071843274
-0.07434529 -0.00392664 0.13889039 0.03995667 0.004492225 -0.08356381 -0.068523034 0.15364897
0.13306013 0.013674337 0.2785561 0.10318308 -0.09495373 0.06926401 0.06508076 0.049941394
-0.18123534 -0.008163215 -0.03177119 0.23080876 0.09550043 0.047987003 -0.05963045 0.14334492
0.12579313 0.0702092 -0.28167224 0.38195807 -0.010021761 7.52008e-05 0.18912189 0.119191386
0.10761607 0.23141684 0.25802326 -0.10680412 -0.06902635 0.29904988 0.19088502 -0.028465522
0.06597725 0.03420069 -0.016623452 -0.14277692 -0.091266975 0.072564706 0.013456241 0.13628131
-0.0870975 -0.04504502 -0.047451783 -0.006003212 0.14900842 -0.014666914 -0.020553142 -0.05788274
