saved_weights/LunarLander-v2/831/critic.pth (torch, 12859 bytes, 9 tensors)

attentions1.linear.weight f4 [32, 1]
0	0x3f279e9e	0.65476406
1	0x3f761186	0.9612049
2	0x3f4e6fd5	0.8063939
3	0xbd2f67cb	-0.042823594
4	0xbea4a644	-0.321581
5	0xbf132867	-0.57483524
6	0x3f7c228a	0.984902
7	0xbe6bb4af	-0.23018144
8	0x3e0238ed	0.12717028
9	0x3f57ff85	0.84374267
10	0x3f3f80b5	0.74805766
11	0x3eb8fc7e	0.36130136
12	0xbf2c402f	-0.67285436
13	0x3e2dd8bd	0.1697721
14	0x3f5748fe	0.8409575
15	0x3cd966e9	0.02653833
16	0x3ea76b47	0.32699034
17	0x3edc1624	0.42985642
18	0x3ea107d9	0.314513
19	0x3e7012af	0.23444627
20	0xbdf41a36	-0.11919062
21	0x3f65e051	0.89795405
22	0xbe87a59a	-0.2649353
23	0xbf1a1922	-0.601946
24	0xbe6127ff	-0.21987914
25	0x3eb68f64	0.35656273
26	0x3eede723	0.46465406
27	0xbf1d87d2	-0.6153537
28	0x3d52f354	0.051501587
29	0x3f0758e7	0.5287003
30	0xbe9871cb	-0.29774317
31	0xbeec867d	-0.46196356

attentions1.attn.weight f4 [1, 64]
0	0xbd192b86	-0.037395023
1	0xbd4c1a06	-0.049829505
2	0xbd444df5	-0.047925908
3	0x3d159c48	0.036525995
4	0x3d05e307	0.032687213
5	0xbd7eb5a7	-0.062184956
6	0x3d29df48	0.041472703
7	0xbcec8a73	-0.028874611
8	0x3cf4fc93	0.029905593
9	0xbd555c60	-0.05209005
10	0xbd1c043f	-0.038089987
11	0xbd3261e4	-0.043550387
12	0x3d78e76e	0.060767584
13	0xbd50268d	-0.050818015
14	0xbc99bb63	-0.01876611
15	0x3dd2dfd3	0.10296597
16	0xbd9b1393	-0.07572093
17	0xbd3ad06d	-0.045608927
18	0xbdfe37d2	-0.12412991
19	0xbd8d552f	-0.06901013
20	0x3deb5268	0.11490327
21	0xbde5bfd8	-0.11218232
22	0x3d414e0d	0.047193576
23	0x3de5f876	0.11229031
24	0xbd415c60	-0.047207236
25	0xbd136f1d	-0.035994638
26	0xbc40865c	-0.011750784
27	0xbcc348aa	-0.02383836
28	0x3dc0dd9e	0.0941727
29	0xbde6ff2e	-0.112791404
30	0x3b6be66c	0.0035995496
31	0x3dc4ec9a	0.09615441
32	0xba8fb657	-0.0010964376
33	0x3d93bdb8	0.0721392
34	0x3e15cd7e	0.1462917
35	0xbe0dd0ce	-0.13849184
36	0xbd158b2a	-0.03650967
37	0xbe190458	-0.14943063
38	0xbd3dd4ef	-0.046345647
39	0xbd452b56	-0.04813703
40	0xbd060d31	-0.032727424
41	0x3de4ea10	0.111774564
42	0x3de96e9e	0.11398052
43	0x3e101e3b	0.14074032
44	0x3d07bbf6	0.033138238
45	0x3d6a4e2e	0.057203464
46	0xbcbedd34	-0.023298837
47	0x3d36925a	0.044573165
48	0x3e1878f2	0.14889887
49	0x3d082cbe	0.033245794
50	0x3e16bbc0	0.14720058
51	0x3d7be073	0.06149335
52	0x3d96659e	0.07343601
53	0x3d9d5d05	0.07683758
54	0xbd5d066d	-0.053961206
55	0xbe0a2ba3	-0.13493209
56	0xbdc4ac38	-0.096031606
57	0x3e0726ab	0.13198344
58	0x3d1404d4	0.036137417
59	0xbe17345d	-0.14766069
60	0xbd353cc2	-0.044247396
61	0x3cd258be	0.025677081
62	0x3cdbd3e6	0.02683444
63	0x3bff5d12	0.0077930773

attentions2.linear.weight f4 [32, 32]
0	0x3de8afb1	0.113616355
1	0xbb8b834e	-0.004257596
2	0x3ce96d3b	0.028494468
3	0x3d17f3d1	0.037097756
4	0x3dd67617	0.104717426
5	0xbbedc61a	-0.0072562816
6	0xbdecdb55	-0.11565272
7	0x3e1609e8	0.14652216
8	0xbd6abdc5	-0.057309885
9	0xbe253967	-0.16135179
10	0x3d2b3253	0.04179604
11	0xbda72924	-0.08162144
12	0x3dc63d5c	0.09679672
13	0xbe47f329	-0.19526352
14	0xbd92be74	-0.07165232
15	0x3cbd7e2b	0.02313145
16	0xbe1f4c5c	-0.15556473
17	0x3d74f46c	0.05980341
18	0x3dc876ec	0.097883075
19	0x3e14729d	0.14496846
20	0x3d863d95	0.065547146
21	0xbe244e0f	-0.16045402
22	0xbe089e27	-0.1334158
23	0xbc14411a	-0.009048725
24	0xbc407a9e	-0.011747984
25	0xbe039262	-0.1284881
26	0xbdac84a2	-0.08423735
27	0x3e1981d2	0.14990929
28	0xbe3d7d0e	-0.18504736
29	0xbded9e5b	-0.116024695
30	0x3df30616	0.11866395
31	0x3db15ea6	0.08660631
32	0xbdfa2399	-0.12213821
33	0xbdc819b9	-0.09770531
34	0xbcc9d508	-0.024637714
35	0x3d815487	0.063149504
36	0xbdb7e2c6	-0.089788005
37	0xbc6bd6ad	-0.014394444
38	0xbd819090	-0.06326401
39	0x3e1d2136	0.153447
40	0x3ddfa187	0.10919481
41	0xbe20106e	-0.15631267
42	0xbc8c86b4	-0.017154075
43	0xbd437c7b	-0.047726136
44	0x3e313a49	0.1730739
45	0xbe313ba2	-0.17307904
46	0x3cb04755	0.021518389
47	0x3c0df5d4	0.008664567
48	0xbe1e58f2	-0.15463617
49	0xbdc0b16d	-0.09408841
50	0x3d8adc81	0.06780339
51	0x3c9a49ca	0.018834013
52	0x3e2cfc57	0.16893135
53	0xbdcd33a0	-0.10019612
54	0x3d187d78	0.03722903
55	0x3cd8b9e0	0.02645582
56	0x3df034d3	0.117288254
57	0xbd4176b8	-0.04723236
58	0xbd260bb7	-0.040538516
59	0x3e23058e	0.15920088
60	0x3d93c8a3	0.07216003
61	0x3dae3a05	0.0850716
62	0x3d5d0af5	0.053965528
63	0x3a67e3ed	0.0008845914
64	0xbe3d13e2	-0.18464616
65	0xbdb60b13	-0.08888831
66	0xbd88d6a5	-0.06681565
67	0x3ce3c131	0.027802082
68	0xbd17d498	-0.03706798
69	0xbceac3fb	-0.028657904
70	0xbe336e6e	-0.17522594
71	0x3d4b1baa	0.04958693
72	0xbde9ecfd	-0.11422155
73	0x3df32b5b	0.11873504
74	0x3b25866c	0.0025257124
75	0xbcf352b2	-0.029702518
76	0x3cc26366	0.023729037
77	0xbe3caeda	-0.18426076
78	0xbd8f5d9d	-0.07000277
79	0xbcd7b9eb	-0.02633377
80	0x3e017227	0.12641202
81	0xbda0e150	-0.07855475
82	0x3dcf5a8c	0.10124692
83	0x3de06a26	0.10957746
84	0x3ccaf35a	0.024774242
85	0xbe0d0a11	-0.13773371
86	0xbdac9415	-0.08426682
87	0x3da2253a	0.07917257
88	0x3e361398	0.17780912
89	0xbdff68c8	-0.12471157
90	0xbe18076f	-0.14846586
91	0x3cd7ce35	0.026343444
92	0xbd7cfc49	-0.061764035
93	0xbcd984e9	-0.026552634
94	0x3db3a8a6	0.087724015
95	0x3e0efcec	0.1396367
96	0x3d673eca	0.056456365
97	0xbd437dea	-0.047727503
98	0x3e13bb10	0.14426827
99	0xbd7b650a	-0.061375655
100	0xbdfd1d41	-0.12359095
101	0xbe38a05e	-0.18029925
102	0xbcabc8e7	-0.020969821
103	0x3ddabee1	0.106809385
104	0xbdb6d5e1	-0.08927513
105	0x3e0f2c86	0.13981828
106	0x3e4427e2	0.19155839
107	0x3db410fb	0.08792301
108	0xbd0cb4cb	-0.034352105
109	0xbe0e47ed	-0.13894625
110	0xbd955ca0	-0.072930574
111	0xbd18a0f5	-0.037262876
112	0xbb0631b1	-0.0020476396
113	0xbe0530bd	-0.13006873
114	0xbdca9d78	-0.09893316
115	0xbe0831e5	-0.13300283
116	0x3de6daf9	0.112722345
117	0x3ddad8fd	0.106859185
118	0xbe0dcab7	-0.13846861
119	0xbe1fa1b2	-0.15589026
120	0xbe4e217a	-0.20129958
121	0xbcc13a71	-0.023587437
122	0x3bb91265	0.0056479448
123	0x3cf5e538	0.030016527
124	0x3e44fd48	0.19237244
125	0x3d10ff3e	0.035399668
126	0xbe4d08b0	-0.20022845
127	0x3e13d8fb	0.1443824
128	0xbdcea055	-0.10089175
129	0xbe11dee0	-0.14245176
130	0xbdb6a8a9	-0.08918888
131	0xbe03706f	-0.12835859
132	0x3db5d283	0.088780425
133	0xbde0f188	-0.109835684
134	0xbbdc18a8	-0.0067168064
135	0xbe0476b2	-0.12935904
136	0x3c240dff	0.010013103
137	0x3d2c68c7	0.04209211
138	0xbdb8b9cb	-0.09019812
139	0xba72b7d8	-0.0009258962
140	0x3d9ffbde	0.07811712
141	0xbe1fe5b6	-0.15614972
142	0x3daac129	0.083376236
143	0xbe04d650	-0.12972379
144	0xbe128a33	-0.14310531
145	0x3d43025f	0.047609683
146	0xbd45e6a3	-0.048315655
147	0xbe49fa3a	-0.1972436
148	0xbd7667f3	-0.060157727
149	0x3dc9cba6	0.09853296
150	0x3e47cad3	0.19510965
151	0xbcda9c5b	-0.026685884
152	0x3dd08248	0.10181099
153	0x3dcf4c8f	0.10122024
154	0xbd672f12	-0.056441374
155	0x3da5e77a	0.08100791
156	0x3cdd7999	0.027035521
157	0xbcdb26fa	-0.026751984
158	0x3e0f3645	0.13985546
159	0x3db2f011	0.08737195
160	0xbc82c83f	-0.015964625
161	0x3cfd5fec	0.030929528
162	0x3c0cf04e	0.008602215
163	0xbdc87e39	-0.097897
164	0xbd4b1209	-0.049577747
165	0xbe1f67a4	-0.1556688
166	0x3e2f55c5	0.17122562
167	0x3affd853	0.0019519426
168	0xbdc9a3af	-0.09845673
169	0x3e3cba51	0.18430449
170	0xbe0c753b	-0.13716595
171	0x3dd811ec	0.10550293
172	0xbd6a296f	-0.05716842
173	0x3e0f66bc	0.14004034
174	0x3d8064ae	0.06269203
175	0x3e43419d	0.19067998
176	0xbd81a78b	-0.063307844
177	0xbcb95106	-0.022621643
178	0x3d8c0d09	0.06838424
179	0x3e17867b	0.14797394
180	0xbe1a2c5c	-0.15055984
181	0xbd926c88	-0.07149607
182	0xbd3d5ed5	-0.046233017
183	0x3da5e638	0.08100551
184	0x3d75ff10	0.0600577
185	0x3d48396e	0.048882894
186	0x3e13a7ee	0.14419529
187	0xbe012362	-0.12611154
188	0xbd917196	-0.07101743
189	0x3d252113	0.040314745
190	0x3dd10210	0.102054715
191	0xbe1e280d	-0.15444966
192	0xbe444ba5	-0.19169481
193	0xbe3d5f37	-0.18493353
194	0x3e1976c1	0.14986707
195	0x3dc320a3	0.09527709
196	0x3e111fda	0.14172307
197	0x3dd1d075	0.10244838
198	0xbdf473cc	-0.11936149
199	0x3d0ff590	0.035146296
200	0x3d6bc2d9	0.057558868
201	0x3da9766e	0.08274542
202	0xbdd6042e	-0.10450016
203	0xbdc508f9	-0.09620852
204	0xbd1ad81b	-0.03780375
205	0x3e04abbb	0.12956135
206	0x3da290ca	0.079377726
207	0xbe2b9eb2	-0.16759756
208	0x3db47b75	0.0881261
209	0xbe1f422c	-0.15552586
210	0xbd16c089	-0.03680471
211	0x3cb4f0dc	0.022087507
212	0x3da7a5d0	0.08185923
213	0xbdcf85ca	-0.1013294
214	0x3d800636	0.06251185
215	0x3cfe1117	0.031014008
216	0x3e4150fd	0.18878551
217	0xbd139b08	-0.03603652
218	0xbdf20241	-0.11816836
219	0x3dec2457	0.11530369
220	0xbd012ea0	-0.031538606
221	0x3da5de45	0.08099035
222	0x3cb025e1	0.021502437
223	0x3ce7180d	0.02820971
224	0xbd5dd51a	-0.054158308
225	0xbe0913ee	-0.13386509
226	0x3dc8d6ea	0.098066166
227	0x3d8643d2	0.065559044
228	0xbc8d25b8	-0.0172299
229	0xbdd5a845	-0.104324855
230	0x3e13de37	0.14440237
231	0x3df07762	0.117415205
232	0xbe403d37	-0.18773352
233	0xbe0309cf	-0.1279671
234	0x3e147486	0.14497575
235	0xbe278c98	-0.16362226
236	0xbdbf6504	-0.09345439
237	0x3d90d88e	0.070725545
238	0xbcbafec4	-0.02282656
239	0xbe4c6def	-0.19963811
240	0x3cd69b62	0.02619714
241	0x3d8369ae	0.06416641
242	0xbd33e318	-0.043917745
243	0xbd782283	-0.060579788
244	0x3e21f04a	0.15814319
245	0x3d8f870d	0.07008181
246	0x3e0f8fff	0.14019774
247	0x3dfab616	0.122417614
248	0x3e00d947	0.12582885
249	0xbdfa21a8	-0.12213451
250	0x3c5da412	0.013527887
251	0xbded914e	-0.1159998
252	0xbd9c6a21	-0.0763743
253	0xbe43bd13	-0.19115095
254	0x3d0bc26f	0.034120973
255	0x3d1e32f4	0.03862281

attentions2.attn.weight f4 [1, 64]
0	0xbd7b9771	-0.061423723
1	0x3d6ed0f6	0.05830475
2	0x3d8f85ba	0.07007928
3	0xbbf5c208	-0.007499937
4	0xbca2b250	-0.019860417
5	0x3c8fb03c	0.01754009
6	0x3c3c64ba	0.011498624
7	0x3dafdfa0	0.08587575
8	0x3decf1d4	0.115695626
9	0x3dcd753c	0.10032126
10	0xbc3f52dc	-0.01167747
11	0x3c3007a9	0.010744014
12	0x3de98415	0.11402146
13	0x3d5272e3	0.051379096
14	0x3c3ae3a6	0.011406815
15	0x3d85f8c6	0.065415904
16	0x3d36b4d1	0.044606034
17	0xbdf79567	-0.12089043
18	0x3cf928be	0.030414935
19	0x3d2c8da7	0.042127278
20	0x3db138bd	0.086534
21	0x3dde68f1	0.1085986
22	0x3b83cd8e	0.0040223068
23	0xbdb3e242	-0.0878339
24	0xbbc2684e	-0.0059328442
25	0x3d66c088	0.056335956
26	0xbd106ccc	-0.035260007
27	0xbd385941	-0.045006994
28	0x3d23ecef	0.04002088
29	0xbd8a7186	-0.06759934
30	0x3b6711eb	0.0035258483
31	0x3de632dd	0.1124017
32	0xbcdbcbd6	-0.026830595
33	0xbcf650d5	-0.03006784
34	0xbe2138aa	-0.15744272
35	0x3d49a976	0.049233876
36	0xbbaec3f5	-0.0053334185
37	0x3df011f2	0.11722173
38	0x3d402640	0.046911478
39	0x3d7d6c2f	0.06187075
40	0x3e0bb477	0.1364306
41	0x3df20a96	0.11818425
42	0xbd91b8fb	-0.0711536
43	0x3ca92683	0.020648247
44	0xbd650ad0	-0.055918515
45	0xbe0fb86e	-0.14035198
46	0x3e080ac0	0.13285351
47	0x3c657b13	0.014006394
48	0x3ca6e8d3	0.020374691
49	0xbe07e79e	-0.13271949
50	0xbdbd7187	-0.09250169
51	0xbdaa0c5b	-0.08303138
52	0xbd1dcad5	-0.038523514
53	0xbb760a52	-0.0037542772
54	0x3bd8d0ca	0.0066166865
55	0xbd5dc713	-0.05414493
56	0x3d1222d4	0.035677746
57	0xbd793c5e	-0.060848586
58	0x3dafa0d8	0.085756004
59	0xbd224761	-0.039618853
60	0x3e1e8a3b	0.15482418
61	0x3d5e92ef	0.054339346
62	0x3e1b87dc	0.15188545
63	0xbe16e85f	-0.1473708

attentions3.linear.weight f4 [32, 32]
0	0x3e2d6627	0.169335
1	0x3c9619f1	0.018322917
2	0x3d8f4ce8	0.069970906
3	0xbdc69d20	-0.09697938
4	0x3d4f33a0	0.050586343
5	0x3e02ab32	0.12760618
6	0x3e20fb40	0.15720844
7	0x3e0fe800	0.14053345
8	0xbe1f4768	-0.15554583
9	0xbd5a91f4	-0.053361848
10	0x3cd0d70f	0.025493173
11	0x3e2290db	0.1587557
12	0xbdbccb36	-0.09218447
13	0x3e3ccc9a	0.18437424
14	0xbdd0b12d	-0.101900436
15	0x3e3ffe8e	0.18749449
16	0xbb9937cc	-0.004675841
17	0xbe074e4d	-0.13213463
18	0xbd76d466	-0.060261153
19	0x3e39e43c	0.18153471
20	0x3d40fb58	0.0471147
21	0x3dfd542f	0.12369572
22	0x3cd6198d	0.02613523
23	0x3d6ef7c5	0.05834176
24	0x3d9c61c0	0.07635832
25	0x3dde1733	0.10844269
26	0x3e14b1e4	0.14520985
27	0xbe550f63	-0.20806651
28	0xbcb80e92	-0.022467885
29	0x3dc5dd01	0.09661294
30	0xbcc16cc5	-0.023611436
31	0x3de4b3ac	0.11167082
32	0x3d2074de	0.039173953
33	0x3d4354d6	0.047688328
34	0xbe42a423	-0.19007926
35	0x3e0f8ef8	0.14019382
36	0xbce56a00	-0.028004646
37	0xbd8072bb	-0.06271883
38	0xbde56aa1	-0.112019785
39	0xbe05355a	-0.13008633
40	0x3e4c7096	0.19964823
41	0xbd95d1d1	-0.0731541
42	0xbbe3f970	-0.0069572255
43	0xbdb6d3ae	-0.089270934
44	0x3b5234d5	0.0032074947
45	0xbcb5d35a	-0.022195507
46	0xbd242cc7	-0.040081766
47	0x3d42bf07	0.04754546
48	0x3b69236d	0.0035574094
49	0x3b9a4c5f	0.004708811
50	0x3cac4b40	0.021031976
51	0x3d4aea9a	0.04954014
52	0xbc9ea572	-0.019366
53	0x3e372fe8	0.17889369
54	0xbda683e4	-0.08130625
55	0xbe138923	-0.14407782
56	0x3e35d1bb	0.17755787
57	0x3da469ac	0.08027968
58	0xbe38d8fe	-0.18051526
59	0xbdaf59f9	-0.08562083
60	0x3e02b9cb	0.12766187
61	0x3e2b6320	0.16737032
62	0xbe157eab	-0.14599101
63	0xbdc71f46	-0.09722762
64	0x3e05b65d	0.13057847
65	0xba3e85ab	-0.0007267843
66	0x3d88af7b	0.06674095
67	0x3d99721e	0.07492469
68	0xbe3b21d0	-0.18274617
69	0x3e417c70	0.18895125
70	0xbdcbd011	-0.09951795
71	0x3e3ffdd2	0.18749169
72	0xbc00f2cb	-0.007870386
73	0x3e3fc60e	0.18727896
74	0x3df58ebd	0.11990116
75	0xbda85144	-0.08218625
76	0x3e0304c5	0.12794788
77	0xbdb4aef4	-0.08822432
78	0x3d253341	0.040332083
79	0xbe3426a2	-0.17592862
80	0x3e40a06c	0.18811196
81	0xbde76f6c	-0.11300549
82	0xbe428446	-0.18995771
83	0x3d352e21	0.044233445
84	0xbc3eb1a1	-0.01163903
85	0x3d2f50b0	0.04280156
86	0x3da70c73	0.081566714
87	0xbb4aeff2	-0.0030965772
88	0x3d82d98e	0.063891515
89	0x3cca172d	0.024669254
90	0xbddfe6c8	-0.1093269
91	0x3dd5b5a7	0.10435038
92	0x3cd123c2	0.025529746
93	0x3c1ae491	0.009453909
94	0xbd82c17c	-0.063845605
95	0xbd999e85	-0.07500938
96	0xbda5e0b8	-0.08099502
97	0x3d6c1384	0.0576358
98	0xba69d8fd	-0.00089205784
99	0x3d689f42	0.056792505
100	0x3e3c5ee1	0.18395568
101	0x3dfc7bba	0.123282865
102	0x3e41f0d5	0.18939526
103	0xbc9901e0	-0.018677652
104	0xbc214eb5	-0.009845425
105	0x3d616010	0.055023253
106	0x3d713037	0.058883872
107	0xbdf3f5ea	-0.11912139
108	0xbdca34f3	-0.098733805
109	0x3e4f4769	0.20242085
110	0x3d68bbde	0.05681979
111	0xbe08acdd	-0.13347192
112	0x3dcdcab9	0.10048432
113	0xbe19dc3f	-0.15025423
114	0x3e2b1555	0.16707356
115	0x3db84c04	0.08998874
116	0xbda212c6	-0.07913737
117	0xbdb9b9e4	-0.09068659
118	0x3e05d28d	0.130686
119	0x3d800bfa	0.06252284
120	0xbdfbee04	-0.12301257
121	0x3d276be3	0.040874373
122	0x3e4b7feb	0.19873016
123	0x3dd19c4c	0.102348894
124	0xbde9194d	-0.11381779
125	0xbd868579	-0.06568427
126	0xbe1625e9	-0.14662899
127	0x3e3df5cf	0.185508
128	0x3d1aa776	0.03775736
129	0x3d4f899e	0.05066835
130	0x3e0ef759	0.13961543
131	0x3ddc974a	0.107710436
132	0xbe038210	-0.12842584
133	0xbdb899b3	-0.09013691
134	0xbd83e695	-0.064404644
135	0xbc128489	-0.008942732
136	0x3d411d06	0.04714682
137	0x3db6f527	0.08933478
138	0x3de04d1b	0.10952207
139	0x3d8cdf86	0.06878571
140	0x3e210081	0.15722848
141	0x3c80df8d	0.015731597
142	0x3e034032	0.12817457
143	0x3df093d9	0.1174695
144	0x3e1544cc	0.14577025
145	0xbb7250c7	-0.0036974417
146	0xbc8475e3	-0.016169494
147	0x3d3d66e5	0.046240706
148	0xbbeb9e4c	-0.0071905013
149	0x3cc2c242	0.02377427
150	0xbdf4b1d1	-0.11947978
151	0x3babc0e9	0.0052415025
152	0xbd327282	-0.043566234
153	0xbe102acf	-0.1407883
154	0xbdbceafb	-0.092245065
155	0xbde5a8e0	-0.11213851
156	0xbdd348ff	-0.10316657
157	0x3dac87d7	0.08424347
158	0xbde39b5a	-0.11113615
159	0xbe476a31	-0.19474103
160	0xbd4e1000	-0.050308228
161	0xbe064084	-0.13110548
162	0x3e1fea4b	0.1561672
163	0xbd443aa0	-0.04790747
164	0x3e0a1775	0.1348551
165	0xbce15b5e	-0.027509388
166	0x3d131f51	0.035918538
167	0xbe19d8a0	-0.15024042
168	0xbdbf9be5	-0.093559064
169	0x3dfdaf62	0.12386967
170	0xbd9a705b	-0.07540961
171	0xbcf72e51	-0.030173453
172	0x3da79932	0.081835166
173	0x3d968fbc	0.07351634
174	0xbd70b9f8	-0.058771104
175	0xbdf555f2	-0.119792834
176	0x3d1ad181	0.037797455
177	0x3e3fc51c	0.18727535
178	0x3d961af8	0.07329363
179	0xbd837d5c	-0.06420395
180	0x3dc9fbb5	0.098624624
181	0xbe304a40	-0.17215824
182	0x3dd5bd79	0.1043653
183	0x3e40b777	0.18819986
184	0xbe2ea910	-0.1705668
185	0x3e4d0ca1	0.20024349
186	0x3e1dbc4a	0.15403858
187	0xbd4a3101	-0.04936314
188	0x3c358120	0.011078149
189	0xbd1a1d5b	-0.03762565
190	0x3d1ca950	0.038247406
191	0x3db74371	0.0894841
192	0xba1a48e7	-0.0005885497
193	0x3d9db44e	0.07700406
194	0xbdb7922c	-0.08963427
195	0x3d035345	0.032061834
196	0x3dec8baa	0.11550076
197	0xbd8fcbd4	-0.07021299
198	0x3e054bf4	0.13017255
199	0x3df1fc9a	0.11815758
200	0x3c00c891	0.007860319
201	0x3d252630	0.04031962
202	0xbe293b53	-0.16526537
203	0x3ddc9b55	0.10771815
204	0x3d461fed	0.04837029
205	0xbde8a57e	-0.1135969
206	0x3dc82546	0.09772734
207	0xbdeb7d96	-0.11498563
208	0xbe09cad6	-0.13456282
209	0x3e02b7c1	0.12765409
210	0x3d53a0ec	0.05166714
211	0x3bd6ba29	0.0065529537
212	0xbe10124a	-0.14069477
213	0x3da3774d	0.07981739
214	0x3ddecddc	0.10879108
215	0xbd30ca0a	-0.04316143
216	0x3decb605	0.11558155
217	0x3df054dd	0.117349364
218	0xbd8285d7	-0.06373184
219	0xbe27d441	-0.16389562
220	0xbe0b55a5	-0.1360689
221	0x3deb7788	0.11497408
222	0x3e1069d2	0.14102867
223	0xbda4ed6e	-0.080530986
224	0xbdbbce26	-0.09170179
225	0xbe2e391a	-0.1701397
226	0x3da02dab	0.078212105
227	0xbdcb9e7c	-0.09942338
228	0x3e054aef	0.13016866
229	0xbd66b611	-0.056325976
230	0x3d0d52ca	0.034502782
231	0x3cdeabdd	0.02718156
232	0x3dd4d5c3	0.10392334
233	0x3dc155eb	0.09440216
234	0x3d86e54f	0.06586706
235	0x3d384422	0.04498685
236	0xbd9d904d	-0.07693539
237	0x3bbf8c4a	0.005845581
238	0x3c982468	0.018572047
239	0xbcd9c68b	-0.02658393
240	0x3a1b2ebd	0.00059197453
241	0x3d486ce0	0.048931956
242	0xbe5946e8	-0.21218455
243	0xbe13540e	-0.14387533
244	0xbba55ab5	-0.0050462135
245	0xbc4821a9	-0.012215056
246	0xbd39ed92	-0.04539258
247	0xbceee93d	-0.029163951
248	0x3d9be36f	0.07611739
249	0xba062cc7	-0.00051183667
250	0x3b1dae57	0.0024060213
251	0x3e506ee8	0.20354807
252	0x3d951296	0.072789356
253	0xbe0be384	-0.13661009
254	0x3e18a33e	0.14906022
255	0xbe0e2839	-0.13882531

attentions3.attn.weight f4 [1, 64]
0	0xbd89a035	-0.0672001
1	0x3e0efa71	0.13962723
2	0xbd28a79f	-0.04117548
3	0x3d17e088	0.037079364
4	0xbd783236	-0.06059476
5	0x3d9967ab	0.07490476
6	0xbe09488b	-0.13406579
7	0x3e115485	0.14192398
8	0xbbf50959	-0.007477921
9	0xbcade47e	-0.021227118
10	0xbe12ea92	-0.14347294
11	0x3deb92a3	0.11502578
12	0x3d5a7521	0.05333436
13	0x3c2ff865	0.010740374
14	0xbe14a07b	-0.14514343
15	0xbc96cfe2	-0.018409673
16	0xbd043fcf	-0.032287415
17	0xbdc49d73	-0.096003436
18	0xbdb86968	-0.0900448
19	0xbdca4328	-0.0987609
20	0x3cd68966	0.026188564
21	0xbe0e3886	-0.1388875
22	0xbd94e2cc	-0.072698206
23	0x3d90b152	0.07065071
24	0xbd1b81a9	-0.03796545
25	0xbda99d5f	-0.08281969
26	0xbddff133	-0.10934677
27	0xbd0084c7	-0.031376626
28	0xbb3ec047	-0.0029106305
29	0x3e1829b5	0.1485966
30	0xbe136087	-0.14392291
31	0x3dcb6d9d	0.099330164
32	0x3e0592e1	0.13044311
33	0x3d2d504d	0.04231291
34	0xbdaff2a3	-0.08591201
35	0x3dfd9d2f	0.12383496
36	0xbdd73fdb	-0.10510226
37	0x3d8af9f0	0.06785953
38	0x3e1119c9	0.14169993
39	0xbe05d757	-0.13070427
40	0x3da9f001	0.0829773
41	0xbcdf7f39	-0.027282344
42	0xbd850665	-0.0649536
43	0x3982d2e6	0.00024952664
44	0x3d0830d8	0.033249706
45	0xbda10423	-0.07862117
46	0xbd461071	-0.048355523
47	0xbb7b7dee	-0.003837462
48	0x3dd542f8	0.10413164
49	0x3e1aa0fd	0.15100475
50	0x3d95e20f	0.07318508
51	0x3d494d6d	0.049146105
52	0xbe152afc	-0.14567178
53	0xbd91dc30	-0.071220756
54	0x3d31483b	0.043281775
55	0xbd9a858b	-0.075450025
56	0xbdc67efd	-0.0969219
57	0x3df0efd4	0.117644936
58	0x3da3e195	0.08002011
59	0x3dca3097	0.09872549
60	0x3d73a525	0.059483666
61	0x3c363337	0.011120609
62	0xbce40775	-0.027835587
63	0x3e0ab3c7	0.13545142

output_layer.linear.weight f4 [1, 32]
0	0x3de12c97	0.10994833
1	0xbe0eab79	-0.13932599
2	0xbd2f5ebb	-0.04281495
3	0x3d6f4c9f	0.05842268
4	0xbc79d04b	-0.015247415
5	0x3e21b45d	0.1579146
6	0x3e1d072f	0.15334772
7	0xbe17fab3	-0.14841728
8	0x3e22ff83	0.15917782
9	0x3e1ccced	0.15312548
10	0x3d1f4205	0.03888132
11	0xbc416daf	-0.011805936
12	0x3e3e1962	0.1856437
13	0xbdeb7459	-0.11496801
14	0x3e4bdf30	0.19909358
15	0x3e1fbe81	0.15600015
16	0x3d96e187	0.07367235
17	0x3e3da14c	0.18518561
18	0x3d2d6063	0.04232825
19	0x3d04787c	0.032341465
20	0xbd49ca0c	-0.049264953
21	0x3dc78e65	0.097439565
22	0x3dd6ac19	0.10482044
23	0x3e4bff16	0.19921526
24	0xbd2a75e4	-0.041616336
25	0x3c8d1cc1	0.017225625
26	0x3e014e3c	0.126275
27	0x3e2561f5	0.16150649
28	0xbd023cab	-0.03179614
29	0xbd883159	-0.06650037
30	0x3da85fa0	0.08221364
31	0x3d8dad1a	0.06917782

output_layer.attn.weight f4 [1, 2]
0	0x3f00a28f	0.50248045
1	0x3ef2ba50	0.4740777

fc1.weight f4 [1, 9]
0	0x3e909f23	0.28246412
1	0xbe5efc22	-0.21775869
2	0xbe8ad12d	-0.27112713
3	0xbe8f8e1f	-0.28038117
4	0x3e20a3af	0.1568744
5	0x3e3c1755	0.18368275
6	0x3d649614	0.05580719
7	0xbea0058d	-0.31254235
8	0x3defa541	0.117014416
