saved_weights/LunarLander-v2/390/critic.pth (torch, 12859 bytes, 9 tensors)

attentions1.linear.weight f4 [32, 1]
0.93203944 -0.4476828 0.21127461 -0.7118276 -0.35924393 -0.19058049 -0.19424328 0.5309017
-0.07610166 -0.9471254 0.25838524 -0.8545524 -0.7053094 0.46160516 -0.27936003 -0.7293579
0.9602044 0.74879867 -0.057047844 0.044822518 -0.47686878 -0.2785489 -0.26564455 0.65677476
0.9760636 0.6128478 -0.4996179 -0.24518499 -0.85703844 0.77712643 -0.86826897 0.09404179
00000000: 239a 6e3f ae36 e5be 5f58 583e 553a 36bf
00000010: d2ee b7be 8827 43be b6e7 46be 2ce9 073f
00000020: 30db 9bbd cf76 72bf 124b 843e f2c3 5abf
00000030: 288f 34bf 8357 ec3e 4708 8fbe 33b7 3abf
00000040: f5cf 753f 45b1 3f3f 00ab 69bd d197 373d
00000050: 2528 f4be f69d 8ebe 9002 88be 6422 283f
00000060: 4edf 793f 98e3 1c3f ebcd ffbe c611 7bbe
00000070: df66 5bbf c2f1 463f e046 5ebf fb98 c03d

attentions1.attn.weight f4 [1, 64]
0.08264735 0.11780301 0.11791288 0.081763856 0.029206196 0.07738196 0.008737229 -0.008599288
0.008820211 0.034476485 0.08505504 -0.07277959 0.10839423 -0.102270596 0.104417 -0.022599747
0.10750637 0.020071555 -0.12415974 0.052607678 -0.08210923 -0.016701628 -0.10972907 -0.063367136
-0.11023 0.11361858 -0.05797243 -0.019281164 -0.0968662 0.096207246 -0.030414846 0.020443905
0.14044406 -0.06545834 -0.034000244 -0.028831271 0.082249135 -0.10932688 0.010181576 -0.085406594
-0.09560018 -0.07549986 0.033357307 -0.08719871 -0.13541172 -0.0032263603 -0.048189938 0.013909311
0.10341916 -0.09784234 0.050369736 0.08052173 0.08459406 0.049817085 0.077607535 0.13025995
0.11612033 0.049617596 -0.029210733 -0.023969527 0.017831381 0.08029336 -0.054948147 -0.09739909
00000000: 0443 a93d b442 f13d 4f7c f13d cf73 a73d
00000010: d541 ef3c 6f7a 9e3d 9826 0f3c 07e4 0cbc
00000020: a582 103c 3737 0d3d 5631 ae3d 770d 95bd
00000030: cbfd dd3d 3f73 d1bd 95d8 d53d 1b23 b9bc
00000040: 4d2c dc3d 1a6d a43c 7647 febd 267b 573d
00000050: e228 a8bd dad1 88bc a2b9 e0bd a1c6 81bd
00000060: 44c0 e1bd dcb0 e83d 8074 6dbd 88f3 9dbc
00000070: c961 c6bd 4e08 c53d 8e28 f9bc fa79 a73c
00000080: 91d0 0f3e 060f 86bd d743 0bbd 8f2f ecbc
00000090: 3c72 a83d c5e6 dfbd a0d0 263c a7e9 aebd
000000a0: 07ca c3bd ac9f 9abd aca1 083d 3d95 b2bd
000000b0: 5fa9 0abe 5871 53bb d062 45bd e1e3 633c
000000c0: 6dcd d33d 9161 c8bd 7f50 4e3d 94e8 a43d
000000d0: a73f ad3d 000d 4c3d b3f0 9e3d dd62 053e
000000e0: 7fd0 ed3d d23b 4b3d 594b efbc be5b c4bc
000000f0: 1e13 923c d870 a43d 4f11 61bd 2d79 c7bd

attentions2.linear.weight f4 [32, 32]
-0.07170736 0.15327966 -0.074790336 0.12675047 -0.013268334 0.039631587 -0.046045735 -0.14552464
0.04694054 -0.06974097 0.03817348 -0.15170549 -0.030990137 0.1711203 0.09970325 0.11309126
0.17025973 0.0097151045 0.068475604 0.03578574 -0.10046171 0.16727275 0.023036098 0.09180851
0.11895923 0.057860572 -0.036065243 0.1184778 0.0793973 0.16263005 0.05063764 0.10165223
0.19408982 -0.0989742 0.15405686 0.00712244 0.06803838 -0.005335101 0.053348497 0.1612109
-0.011309181 -0.1838967 -0.09794792 -0.0966297 -0.17478053 0.19659676 -0.06390287 -0.17427951
0.08374536 0.055231612 -0.12528968 -0.12011205 0.060115058 -0.12018026 -0.083357714 0.06639207
0.07920684 0.17414238 -0.08698209 0.11151442 0.092438236 -0.037322655 -0.07559118 0.070135176
-0.0037836526 -0.03578548 0.088764966 0.10917831 -0.12063826 0.093353696 -0.060904432 -0.18531387
-0.11128801 0.17487068 -0.15507461 0.098460585 -0.06109614 0.069194406 -0.16321076 -0.06801065
-0.039096642 0.00402641 0.058617923 0.08005071 -0.07767836 -0.14762726 -0.09468378 -0.0125427935
0.053221527 0.06321638 -0.06478046 0.023658074 -0.09597147 0.16523847 0.12951986 0.076826125
-0.13788436 -0.13012868 0.050962146 0.04648361 0.091897085 -0.14135675 0.09673402 -0.0684051
0.02674141 -0.17629224 0.12973802 0.056335103 -0.19850774 0.18151519 0.06949348 -0.12924434
-0.019887859 0.10254607 -0.15663002 0.1683742 0.09665241 0.10341899 -0.09698873 0.09122176
-0.12164114 0.18566407 0.028201392 0.1421384 -0.0024792152 0.04032569 -0.08549425 0.018274019
0.019478599 -0.17264554 0.07160054 0.07198981 -0.07321336 -0.08593341 0.09656304 -0.15026934
0.1386551 -0.08606197 0.19610283 0.055719048 -0.18376185 -0.056699425 0.05996369 -0.067364864
-0.10454776 -0.14532493 -0.032733392 0.117464565 -0.16655393 0.0011630759 0.040312286 0.20031476
0.10548897 0.160966 0.09385757 0.049944386 -0.08077787 0.055048805 -0.1333178 0.04952067
-0.018996103 0.15300089 -0.18925601 -0.032528184 -0.064123444 0.0147267245 -0.14757034 -0.101229794
-0.14794736 -0.051710557 0.095913604 0.12809932 -0.113655545 -0.18871906 0.1349089 0.11083483
-0.13360472 0.07718693 0.12054634 -0.107631356 0.12105599 0.029979216 0.09374981 -0.1474066
0.073722824 0.0058676726 -0.1561671 0.013735338 -0.095276214 -0.14686932 0.09340283 0.08364785
0.08566496 0.14533852 0.1818653 -0.13016397 -0.086202316 0.007968219 0.124628596 -0.15367793
0.06831986 0.11702357 -0.028888097 0.15658008 0.018570447 -0.028110767 -0.0981815 -0.12347965
0.03675621 0.07142677 0.048387706 -0.052733693 -0.14718741 -0.018179618 0.0010671559 0.004640678
-0.0054729646 0.07008349 -0.046961427 0.11688469 0.11929153 -0.054604936 -0.18246135 -0.090189576
0.17357089 0.047940567 -0.1504465 0.12811838 -0.07722396 -0.09004065 -0.13516457 0.07710692
-0.15100531 0.08256084 -0.044752218 -0.048110504 0.064323895 0.056484178 0.0063984953 0.036525436
-0.06927264 -0.12155519 -0.13086976 -0.07464991 -0.17347547 -0.03416182 0.12488874 0.15631165
0.1513524 0.06024699 -0.091227815 -0.13342138 0.07776699 0.09611599 -0.07387927 -0.09054687
00000000: 4fdb 92bd 58f5 1c3e ad2b 99bd e0ca 013e
00000010: 6d63 59bc bb54 223d 749a 3cbd 6904 15be
00000020: b944 403d 5bd4 8ebd cc5b 1c3d af58 1bbe
00000030: 07df fdbc 293a 2f3e 3831 cc3d 649c e73d
00000040: 9158 2e3e 1a2c 1f3c f03c 8c3d 1194 123d
00000050: debe cdbd 8c49 2b3e 33b6 bc3c 1a06 bc3d
00000060: e6a0 f33d 35ff 6c3d 26b9 13bd 7da4 f23d
00000070: 0d9b a23d 7e88 263e 6a69 4f3d 0b2f d03d
00000080: 7bbf 463e fcb2 cabd 15c1 1d3e 5b63 e93b
00000090: b557 8b3d 12d2 aebb f483 5a3d 7814 253e
000000a0: 254a 39bc 6b4f 3cbe eb98 c8bd cbe5 c5bd
000000b0: abf9 32be a950 493e 82df 82bd 5476 32be
000000c0: b082 ab3d 8b3a 623d f04b 00be 4efd f5bd
000000d0: 353b 763d 1121 f6bd 73b7 aabd 91f8 873d
000000e0: 3237 a23d 6152 323e aa23 b2bd ac61 e43d
000000f0: 4250 bd3d a4df 18bd 8ccf 9abd 08a3 8f3d
00000100: 28f7 77bb cc93 12bd 68ca b53d e198 df3d
00000110: 3111 f7bd 3930 bf3d ed76 79bd ebc2 3dbe
00000120: f8ea e3bd 4d11 333e e1cb 1ebe b4a5 c93d
00000130: f23f 7abd ccb5 8d3d b920 27be 2b49 8bbd
00000140: cd23 20bd faef 833b 5919 703d a0f1 a33d
00000150: d515 9fbd 9a2b 17be 92e9 c1bd 4a80 4dbc
00000160: d1fe 593d 9777 813d 9eab 84bd 94ce c13c
00000170: b18c c4bd 4634 293e dba0 043e 0457 9d3d
00000180: 8f31 0dbe 7440 05be afbd 503d 9965 3e3d
00000190: 8a34 bc3d d3bf 10be 7c1c c63d f917 8cbd
000001a0: cd10 db3c f485 34be 0bda 043e a3bf 663d
000001b0: 9d45 4bbe 1edf 393e 9952 8e3d a158 04be
000001c0: ddeb a2bc ad03 d23d 9f63 20be 496a 2c3e
000001d0: b3f1 c53d 56cd d33d 07a2 c6bd 79d2 ba3d
000001e0: fd1e f9bd b91e 3e3e 9b06 e73c bb8c 113e
000001f0: 547a 22bb 8d2c 253d 9c17 afbd 65b3 953c
00000200: 9591 9f3c fec9 30be 4ea3 923d 656f 933d
00000210: e3f0 95bd dbfd afbd d8c2 c53d 35e0 19be
00000220: 9afb 0d3e 4241 b0bd 2ecf 483e a839 643d
00000230: 112c 3cbe a83d 68bd 7c9c 753d 97f6 89bd
00000240: 231d d6bd 0fd0 14be 7313 06bd 4391 f03d
00000250: 1d8d 2abe 5a72 983a 7f1e 253d 501f 4d3e
00000260: 9a0a d83d 45d4 243e 6638 c03d 7c92 4c3d
00000270: de6e a5bd db7a 613d 7684 08be 30d6 4a3d
00000280: b79d 9bbc 44ac 1c3e 54cc 41be 463c 05bd
00000290: 2753 83bd 5c48 713c ae1c 17be 9151 cfbd
000002a0: 837f 17be 73ce 53bd 5a6e c43d 782c 033e
000002b0: 3dc4 e8bd 923f 41be 8f25 0a3e 5ffd e23d
000002c0: adcf 08be 2e14 9e3d 00e1 f63d d46d dcbd
000002d0: 34ec f73d f996 f53c e6ff bf3d c1f1 16be
000002e0: fefb 963d 9b45 c03b 45ea 1fbe 2f0a 613c
000002f0: 2d20 c3bd e964 16be fc49 bf3d 904f ab3d
00000300: 1c71 af3d 9fd3 143e e63a 3a3e b449 05be
00000310: d78a b0bd 228d 023c 473d ff3d bf5d 1dbe
00000320: 48eb 8b3d 0eaa ef3d bba6 ecbc 8756 203e
00000330: 0d21 983c 8d48 e6bc 6213 c9bd e6e2 fcbd
00000340: ae8d 163d 3348 923d 3032 463d 49ff 57bd
00000350: 4cb8 16be 6ced 94bc cfdf 8b3a d410 983b
00000360: 8e56 b3bb ef87 8f3d a05a 40bd 3e61 ef3d
00000370: 1e4f f43d 6da9 5fbd 26d7 3abe 50b5 b8bd
00000380: 91bc 313e 545d 443d a60e 1abe 7731 033e
00000390: 9827 9ebd 3b67 b8bd 9568 0abe 3cea 9d3d
000003a0: 23a1 1abe a815 a93d 1a4e 37bd 850f 45bd
000003b0: 3fbc 833d f45b 673d 78aa d13b b29b 153d
000003c0: d0de 8dbd edf1 f8bd b902 06be 0de2 98bd
000003d0: 8ea3 31be 44ed 0bbd abc5 ff3d 2910 203e
000003e0: 20fc 1a3e 8cc5 763d a6d5 babd 9d9f 08be
000003f0: 4d44 9f3d 76d8 c43d 044e 97bd a370 b9bd

attentions2.attn.weight f4 [1, 64]
0.07982411 -0.020413613 -0.09708942 -0.03459625 0.040246118 0.040374555 -0.048380405 -0.029349923
-0.07878081 -0.06954312 -0.12708098 0.11989234 0.056834973 0.06467578 -0.005849437 0.08562491
0.13330771 -0.0077513685 0.093065254 -0.024248844 -0.09501034 -0.08107438 -0.057263225 0.098014265
0.019230284 -0.00036531352 -0.08438934 -0.025973333 -0.053920317 0.10017605 -0.059001755 -0.012537527
0.03637386 0.13932663 0.054765727 0.11563097 0.07681007 0.022852052 -0.09899628 0.083776474
-0.10096289 -0.10575872 -0.055875573 0.041196123 -0.046946242 -0.06896447 0.120248355 0.073782325
0.05364883 -0.12613267 0.06054807 0.027292958 0.056909565 -0.10794132 0.029017856 -0.05212611
0.003671571 -0.088437915 0.041587144 -0.01962196 -0.072267875 -0.022690218 0.021464199 0.09284269
00000000: d37a a33d 733a a7bc d1d6 c6bd ccb4 0dbd
00000010: 1dd9 243d ca5f 253d 882a 46bd 406f f0bc
00000020: d557 a1bd a06c 8ebd 8421 02be 1d8a f53d
00000030: cacb 683d bc74 843d a2ac bfbb 1d5c af3d
00000040: d181 083e 31ff fdbb ff98 be3d 83a5 c6bc
00000050: c894 c2bd 530a a6bd d88c 6abd b4bb c83d
00000060: d488 9d3c 8d87 bfb9 51d4 acbd 07c6 d4bc
00000070: 8ddb 5cbd 1a29 cd3d d3ab 71bd 336a 4dbc
00000080: c2fc 143d a4ab 0e3e 0752 603d eecf ec3d
00000090: 994e 9d3d 3a34 bb3c 90be cabd 0093 ab3d
000000a0: a2c5 cebd 0798 d8bd c9dd 64bd 44bd 283d
000000b0: b44a 40bd 3e3d 8dbd c544 f63d 301b 973d
000000c0: e0be 5b3d ec28 01be 4101 783d 7b95 df3c
000000d0: 011a 693d 5710 ddbd dbb6 ed3c 3082 55bd
000000e0: bd9e 703b f01e b5bd 4857 2a3d 3cbe a0bc
000000f0: 2e01 94bd d6e0 b9bc b0d5 af3c 4f24 be3d

attentions3.linear.weight f4 [32, 32]
-0.032505386 0.07703979 0.18150002 -0.15160966 0.029855536 -0.03542151 -0.12301455 0.02396468
0.13037725 0.045621447 0.07976977 -0.0038542794 -0.131239 0.050373614 0.099012986 -0.10332368
0.019053273 -0.10075641 -0.14278445 0.10826802 0.02521834 -0.094691314 -0.11729557 -0.19393359
-0.023672216 0.09310746 -0.039179597 0.08614814 0.09544763 -0.069492936 0.15242416 -0.05829325
-0.17508267 -0.010372375 0.13651899 0.090290785 -0.1628092 -0.14553963 -0.118611716 0.117484
0.11619127 -0.08227146 0.15449077 0.10922709 -0.00051828555 0.061519377 0.14528099 0.17356613
-0.097573295 0.13369453 0.035958894 0.18158607 -0.0065627685 -0.010432774 0.13487932 -0.12681326
0.039585058 -0.11037176 -0.028308973 -0.08477783 0.09702526 0.17021233 0.027035005 -0.15369363
-0.092044 -0.10544569 -0.14062916 0.11502512 -0.09408737 0.011758485 -0.048874415 0.0613005
-0.100618325 -0.018194223 -0.06712099 0.19536005 -0.032451034 0.03943547 -0.09958404 -0.08328145
0.18070593 0.03158093 -0.17566527 -0.00585546 0.04952236 0.008468428 -0.0813828 0.037964012
-0.028090091 0.19479457 -0.106168985 0.18800496 -0.0930571 0.1485364 -0.11826638 0.19403644
0.01200255 0.012943139 0.1788435 0.12259572 -0.12247318 -0.02014121 -0.116389565 0.16855973
0.02453287 -0.09798269 0.019437272 0.17356832 0.13733004 -0.14281836 0.1919241 0.07795071
0.12659933 -0.11193035 0.061183985 0.034083243 0.100655265 -0.11731273 -0.038368806 0.08499647
0.11589737 0.08533792 -0.07325693 -0.11891705 0.058421765 0.10618486 0.12425466 -0.099481136
-0.044459436 -0.1253534 -0.011102619 0.011183549 -0.028227203 -0.06282805 0.065991625 -0.15042052
-0.015895678 0.12660669 -0.036674034 0.08998646 0.04953955 -0.1525912 0.11672242 0.060560297
-0.13567166 -0.16307458 0.031981405 -0.18738161 -0.08267501 0.15714583 -0.1708112 -0.16909675
-0.019951731 -0.002176258 -0.010351105 -0.01839284 -0.064136274 -0.13822189 0.08203996 -0.00045683567
0.14837393 -0.049868073 -0.17180544 0.02550409 -0.1258717 0.1573888 -0.017941609 0.054429475
-0.1497432 0.12685022 0.041801177 -0.12320853 0.1405191 0.18217486 -0.14291099 0.11556141
0.03522829 -0.052477967 0.074706525 0.15929914 -0.093036376 0.0696315 -0.016728831 0.060343638
0.10518374 -0.19646914 -0.0684798 0.13792323 0.078751676 0.16982582 0.109512635 -0.00056636066
-0.16580439 -0.116199926 -0.008316396 0.061326947 -0.04522841 -0.019688457 0.12514769 -0.1507039
0.10977411 -0.16352093 -0.08809225 0.0077137053 0.13196573 0.1088671 -0.091157034 0.061307184
-0.08420267 0.053747263 0.19826858 0.16799743 0.013599591 -0.007253282 0.118819885 0.19444701
-0.19162372 -0.1903888 0.09006367 -0.120590605 -0.009883682 0.033572644 -0.094252765 0.005312047
-0.116335146 -0.10481356 -0.06774458 -0.072872914 -0.015252841 0.17978731 0.07043606 -0.1400621
0.13739605 0.042479858 0.058083992 -0.042147804 0.09840436 0.0050953883 -0.1346396 0.19219267
0.032631233 0.11712129 0.17867553 0.059865765 -0.040528193 -0.02237629 0.023067228 -0.11838693
0.042154588 -0.06837625 -0.117793605 0.042006 0.16054733 -0.10065221 -0.022156129 -0.026995635
00000000: 5e24 05bd 0ac7 9d3d 24db 393e 903f 1bbe
00000010: 9993 f43c 2516 11bd 0def fbbd 9451 c43c
00000020: 9d81 053e 8edd 3a3d 555e a33d 1498 7cbb
00000030: 8463 06be 9054 4e3d 52c7 ca3d 5e9b d3bd
00000040: 9c15 9c3c 6059 cebd 1636 12be a0bb dd3d
00000050: b196 ce3c 85ed c1bd a938 f0bd 8796 46be
00000060: 3cec c1bc 20af be3d c97a 20bd 706e b03d
00000070: 0c7a c33d 5052 8ebd 1415 1c3e e7c4 6ebd
00000080: df48 33be e5f0 29bc a2cb 0b3e 60ea b83d
00000090: 74b7 26be 5708 15be b3ea f2bd 749b f03d
000000a0: b0f5 ed3d f07d a8bd d432 1e3e 74b2 df3d
000000b0: 8edd 07ba befb 7b3d 8ac4 143e 52bb 313e
000000c0: 82d4 c7bd 38e7 083e a249 133d b3f1 393e
000000d0: 7e0c d7bb 3aee 2abc ce1d 0a3e 56db 01be
000000e0: f123 223d 970a e2bd 38e8 e7bc 00a0 adbd
000000f0: 2eb5 c63d 244c 2e3e 8478 dd3c dd61 1dbe
00000100: 9181 bcbd e9f3 d7bd 1701 10be 4a92 eb3d
00000110: e1b0 c0bd a9a6 403c 8a30 48bd 3c16 7b3d
00000120: fb10 cebd 0d0c 95bc bb76 89bd 770c 483e
00000130: 60eb 04bd 1687 213d b8f2 cbbd 778f aabd
00000140: fa0a 393e 015b 013d 99e1 33be 29df bfbb
00000150: f5d7 4a3d 29bf 0a3c 07ac a6bd 2780 1b3d
00000160: 311d e6bc 3a78 473e 206f d9bd 5f84 403e
00000170: b994 bebd ed19 183e a535 f2bd 7db1 463e
00000180: 58a6 443c 760f 543c c022 373e 7713 fb3d
00000190: 38d3 fabd 2eff a4bc a75d eebd ec9a 2c3e
000001a0: 28f9 c83c 26ab c8bd ea3a 9f3c e5bb 313e
000001b0: 3fa0 0c3e fa3e 12be c087 443e 9fa4 9f3d
000001c0: 41a3 013e bd3b e5bd 0f9c 7a3d df9a 0b3d
000001d0: 5924 ce3d a841 f0bd 9c28 1dbd a112 ae3d
000001e0: 9a5b ed3d a6c5 ae3d bb07 96bd c88a f3bd
000001f0: a94b 6f3d 7377 d93d 3a79 fe3d c4bc cbbd
00000200: 191b 36bd a45c 00be c2e7 35bc 343b 373c
00000210: bc3c e7bc feab 80bd 9e26 873d d607 1abe
00000220: a737 82bc 2fa5 013e 8337 16bd d24a b83d
00000230: fce9 4a3d de40 1cbe 2a0c ef3d 130e 783d
00000240: 83ed 0abe 06fd 26be effe 023d f7e0 3fbe
00000250: 8451 a9bd d6ea 203e 22e9 2ebe b327 2dbe
00000260: d071 a3bc 8d9f 0ebb ae97 29bc 95ac 96bc
00000270: e159 83bd 0a8a 0dbe 9104 a83d 7283 efb9
00000280: 56ef 173e 7742 4cbd c4ed 2fbe f4ed d03c
00000290: 83e4 00be 882a 213e 48fa 92bc 71f1 5e3d
000002a0: 4856 19be 06e5 013e b637 2b3d c154 fcbd
000002b0: 3de4 0f3e 0c8c 3a3e 4257 12be 76ab ec3d
000002c0: 8a4b 103d 23f3 56bd bcff 983d 501f 233e
000002d0: db89 bebd f69a 8e3d e70a 89bc e42a 773d
000002e0: 936a d73d 352f 49be 233f 8cbd bf3b 0d3e
000002f0: 8f48 a13d d2e6 2d3e 2948 e03d d277 14ba
00000300: a0c8 29be 3afa edbd 7e41 08bc f731 7b3d
00000310: 6d41 39bd b049 a1bc b726 003e 2052 1abe
00000320: 40d1 e03d 0872 27be b669 b4bd 40c3 fc3b
00000330: 0622 073e b7f5 de3d 8ab0 babd 3e1d 7b3d
00000340: 7372 acbd 1726 5c3d eb06 4b3e 8507 2c3e
00000350: d2d0 5e3c f0ac edbb d757 f33d 1e1d 473e
00000360: 0239 44be 48f5 42be 4d73 b83d 35f8 f6bd
00000370: 2bef 21bc 7883 093d 9807 c1bd ae10 ae3b
00000380: 1f41 eebd 7ea8 d6bd acbd 8abd 653e 95bd
00000390: 0de7 79bc 2a1a 383e c840 903d 706c 0fbe
000003a0: 8db1 0c3e 5cff 2d3d 7be9 6d3d 2da3 2cbd
000003b0: 3a88 c93d 37f7 a63b f7de 09be 28ce 443e
000003c0: 54a8 053d 49dd ef3d b8f6 363e ce35 753d
000003d0: e400 26bd 7b4e b7bc 7cf7 bc3c d974 f2bd
000003e0: 4aaa 2c3d d908 8cbd c63d f1bd 7c0e 2c3d
000003f0: 8566 243e bf22 cebd c580 b5bc f325 ddbc

attentions3.attn.weight f4 [1, 64]
-0.037783183 -0.034350738 0.073384784 -0.0024022644 0.004702812 -0.016246228 -0.008622656 -0.060119167
-0.031319823 -0.06082068 0.09638225 -0.016018137 -0.02966644 0.01411467 0.055838175 0.06583633
0.03374901 0.07325078 -0.12374726 0.03910956 0.07734601 -0.04996613 -0.045332965 0.035944883
-0.020092295 -0.10281142 -0.10606906 -0.050764818 -0.019388726 -0.028823499 -0.020820227 0.09790922
-0.022957794 -0.05872414 0.007058322 0.032928888 -0.07280501 -0.019571204 -0.13907366 -0.064983696
0.04062751 0.046767604 -0.09147853 0.08278056 0.14725566 0.054574564 -0.08875971 -0.069821045
-0.00042365736 0.04126053 -0.040656507 -0.053688485 -0.08095302 -0.08122943 -0.034180544 -0.05489369
-0.06072593 0.007885101 0.062392518 0.045880992 -0.0014301712 -0.06026948 -0.06256352 0.08904897
00000000: 8ac2 1abd 5cb3 0cbd c34a 963d 4f6f 1dbb
00000010: 0c1a 9a3b cf16 85bc 0a46 0dbc 843f 76bd
00000020: 3749 00bd 1b1f 79bd 0f64 c53d 7838 83bc
00000030: 0907 f3bc 3841 673c 92b6 643d 33d5 863d
00000040: 673c 0a3d 8104 963d 346f fdbd 5931 203d
00000050: 9667 9e3d 49a9 4cbd 0faf 39bd f13a 133d
00000060: 9998 a4bc cb8e d2bd bc3a d9bd c5ee 4fbd
00000070: 1bd5 9ebc 421f ecbc 2e8f aabc a184 c83d
00000080: fc11 bcbc b988 70bd 7f49 e73b 71e0 063d
00000090: cb1a 95bd ca53 a0bc 5369 0ebe 2c16 85bd
000000a0: 0869 263d 638f 3f3d 1859 bbbd db88 a93d
000000b0: 30ca 163e 9489 5f3d a7c7 b5bd 56fe 8ebd
000000c0: 541e deb9 cd00 293d 7087 26bd 75e8 5bbd
000000d0: b2ca a5bd 9e5b a6bd e600 0cbd 35d8 60bd
000000e0: c1bb 78bd 8330 013c 4c8f 7f3d b5ed 3b3d
000000f0: 9574 bbba 21dd 76bd 4e21 80bd 4e5f b63d

output_layer.linear.weight f4 [1, 32]
-0.03724983 0.08293411 -0.1207591 -0.0796629 -0.045242377 0.026528733 0.13025808 0.15900703
0.030069651 0.0963959 0.07445717 -0.04992152 -0.1935024 -0.15045449 -0.042637985 -0.13833673
-0.031424843 0.14845763 -0.12695308 0.009483274 0.118705586 0.054380666 -0.07184632 -0.13235024
-0.12814514 -0.073035575 -0.0893935 -0.1715477 0.029096039 -0.01012912 0.1384829 -0.13182925
00000000: 4793 18bd 5cd9 a93d 8c50 f7bd 4d26 a3bd
00000010: 1250 39bd c952 d93c 6062 053e bdd2 223e
00000020: a154 f63c 376b c53d 007d 983d 827a 4cbd
00000030: 7e25 46be be10 1abe 2ba5 2ebd 25a8 0dbe
00000040: 56b7 00bd 4705 183e fdff 01be bc5f 1b3c
00000050: ea1b f33d 43be 5e3d 2a24 93bd d286 07be
00000060: 7b38 03be ad93 95bd f013 b7bd 33aa 2fbe
00000070: d15a ee3c 9cf4 25bc 76ce 0d3e 3ffe 06be

output_layer.attn.weight f4 [1, 2]
0.17575759 -0.082522795
00000000: ccf9 333e b601 a9bd

fc1.weight f4 [1, 9]
-0.3207503 0.10923718 -0.31646612 -0.154696 -0.023247594 0.04034425 -0.18029344 0.15449171
0.27043742
00000000: 6239 a4be beb7 df3d d907 a2be a168 1ebe
00000010: bd71 bebc 0340 253d d89e 38be 1333 1e3e
00000020: c676 8a3e
