saved_weights/LunarLander-v2/1180/actor.pth (torch, 32677 bytes, 12 tensors)

attentions1.linear.weight f4 [16, 1]
000000 c7 bc c8 be a7 d3 87 bf 7b 52 42 be 0c 42 e9 3e
       -0.39206526 -1.0611466 -0.18976776 0.45558202
000010 82 2a 3a 3f 06 6b 83 3f 54 c4 99 bf 13 b5 95 bf
       0.7272111 1.0267036 -1.201304 -1.1695884
000020 42 fb 3e be 28 db 48 3d 83 5d d2 3e f4 e5 88 3f
       -0.18650535 0.04903713 0.4108697 1.0695176
000030 e5 a3 17 bf f9 f8 99 3f 4b 19 7c bf 08 26 d7 bd
       -0.5923446 1.2029105 -0.98476094 -0.10505301

attentions1.attn.weight f4 [1, 8]
000000 92 98 51 be 2a 9c 76 3e 44 bb a2 bd 0d ba 3f 3e
       -0.20468357 0.2408301 -0.07945874 0.18723316
000010 c9 79 08 bf 7d f1 19 bf de 0c 21 3f 06 16 f2 3e
       -0.5331083 -0.60134107 0.6291026 0.47282428

attentions2.linear.weight f4 [16, 16]
000000 e2 cf c2 3d ef c1 af bc f4 32 d3 bd 15 71 e4 bc
       0.09512307 -0.02145478 -0.10312453 -0.027885953
000010 55 48 7f be 2a e5 cd bd 84 5f 03 be f8 02 2e 3d
       -0.24929936 -0.10053475 -0.12829405 0.0424833
000020 d3 33 8c 3c e0 ff d4 bc 6e c0 be 3c 25 96 74 be
       0.017114555 -0.026000917 0.023285117 -0.238854
000030 83 dc c4 3d 54 32 90 bc f3 33 97 bd a3 b6 fa 3c
       0.09612372 -0.017602123 -0.073829554 0.030604666
000040 fb b4 23 3e ea 38 2b 3e ef 2b 6c be ef 5e 21 be
       0.15987007 0.1672093 -0.23063634 -0.1575887
000050 45 16 ad 3e 9a 4f 75 3e 38 07 64 3d f8 dc c7 be
       0.33806053 0.23956147 0.055670947 -0.39035773
000060 2d 9c 32 bd e3 6b 38 be 63 d0 93 bd 0a 6f 30 be
       -0.043605972 -0.18009906 -0.07217481 -0.17229858
000070 a8 ce 0b be 40 7e da 3c 58 c9 e3 bd b7 2a 9e be
       -0.13653052 0.026671529 -0.11122388 -0.30891964
000080 23 77 e8 3d d5 f0 80 be c2 a8 06 3e e4 72 36 bd
       0.113508485 -0.2518374 0.13150313 -0.044543162
000090 a4 5d 6b bc 55 23 af be 7e 01 66 3e 45 a3 e1 3d
       -0.014365587 -0.34206644 0.22461507 0.11017469
0000a0 df 5b 62 bd a5 21 db 3d ca a5 ac 3d d9 99 6b 3e
       -0.055263396 0.106997766 0.08430059 0.23007907
0000b0 ce 31 cd bd 5e f4 9b be ad 43 b0 3d fb 4b 26 be
       -0.10019265 -0.30459875 0.08606658 -0.16239922
0000c0 e4 0d 8a 3b 90 13 48 3d 31 bf a5 bc b8 e3 a2 3e
       0.0042130817 0.04884678 -0.020232769 0.3181436
0000d0 99 84 8c be 7f fd 8c bd 25 e9 95 3e f2 c1 91 3e
       -0.27444914 -0.06884288 0.29279438 0.2846828
0000e0 00 a7 8a be f7 8c 4e 3d c4 a4 8f bd ef 97 14 3e
       -0.27080536 0.050427403 -0.070138484 0.14511083
0000f0 58 6e b4 3d 56 d5 30 bc e0 b0 ea bd 5d b7 34 3e
       0.08810109 -0.010793051 -0.114595175 0.17648073
000100 10 b0 cf 3c 9a dc 62 3d 69 6b 82 3e 8b 33 b6 be
       0.025352508 0.055386163 0.25472572 -0.355862
000110 68 f6 ee 3d b7 f6 c2 3d 5f 87 cc 3d 95 fd 9f 3c
       0.11668092 0.09519713 0.099867575 0.019530097
000120 21 e1 39 3c d5 48 61 3b 2d 0d 3f be bf fa 34 3d
       0.011345179 0.0034375687 -0.1865737 0.044184443
000130 95 ed 52 bc 47 0c a2 bd e9 f0 80 be c4 c0 96 3d
       -0.012874027 -0.07912498 -0.251838 0.07360986
000140 83 30 d2 bd be 42 60 3e a4 74 b4 3d 8f 76 37 be
       -0.10263159 0.2190046 0.0881131 -0.1791632
000150 90 7e 00 be 01 a3 a7 be c5 9c 9b bc 62 9c 77 3e
       -0.1254828 -0.3274155 -0.018995652 0.24180749
000160 3f 9f 9d bd 7d bf 45 bd 02 8b c7 3d 70 46 19 be
       -0.076963894 -0.04827832 0.097433105 -0.14968276
000170 35 d0 c0 3e df 9f d0 be 2c dc 29 3e 4b 6d 20 3f
       0.3765885 -0.40746972 0.16587895 0.6266677
000180 04 d8 9c be 2d 64 e7 bd 2b ea 92 be 00 59 ca 3d
       -0.30633557 -0.11298404 -0.2869428 0.09880257
000190 32 e3 c8 bb 35 6e 99 bd dd cb 80 3e 59 a1 37 3e
       -0.0061305994 -0.074917234 0.25155535 0.17932643
0001a0 48 1f 0d 3e 58 f5 98 bd fe 8b 88 3c ea 31 7b bd
       0.13781464 -0.074686706 0.016668316 -0.0613269
0001b0 be 9d 49 3e aa f9 01 be 39 9e 0c bd 1b 7b 5f 3e
       0.1968908 -0.12692896 -0.03433058 0.21824305
0001c0 3d 2b 50 be 08 87 6d bd 86 50 67 be f5 bf 8f 3e
       -0.20328994 -0.057990104 -0.22589311 0.2807614
0001d0 30 25 ae be c0 c9 f3 bd 4f 40 6a 3e 0b 32 89 3e
       -0.34012747 -0.11903715 0.22876094 0.26795992
0001e0 20 9b cb 3d 69 fb 81 3d a0 d4 af bc 4e 03 82 3e
       0.09941697 0.06346781 -0.021463692 0.25393146
0001f0 01 65 1b 3e f9 77 70 be 1b 16 2e 3e 15 29 a8 3d
       0.15175249 -0.23483266 0.1700062 0.08210961
000200 2c b2 17 3e ba 3a 04 3e 31 d6 66 bd a4 6c 41 3e
       0.14814061 0.12913027 -0.056356613 0.188891
000210 cd e4 b6 be 51 9f 9d 3d 7a 5b d6 3d d6 0e a9 3e
       -0.35721436 0.07696403 0.104666665 0.3301913
000220 9d 09 06 be ad 09 6c be 52 82 55 bc a1 ab dc 3d
       -0.13089605 -0.23050566 -0.013031559 0.10774923
000230 da 1b 98 bd fa c6 3e be 01 cf 93 3e d5 07 4a bd
       -0.07427187 -0.18630591 0.2886887 -0.049323875
000240 55 11 66 3e da 1b 17 3c 12 b4 27 3e 28 e9 99 3d
       0.22467549 0.009222949 0.16377285 0.07515174
000250 61 79 b8 3d 51 a8 ac 3e 79 6b 03 3d 3f 15 92 be
       0.09007526 0.33722165 0.032084916 -0.28531834
000260 de 72 be 3d 61 8f 4a be aa 81 ff bd 63 99 84 be
       0.09299253 -0.19781257 -0.12475903 -0.25898275
000270 af c2 72 bd b5 01 b7 3e 79 75 a9 bc 61 c6 82 bc
       -0.059267696 0.3574349 -0.020685898 -0.015963735
000280 f0 b4 42 be 9b f0 88 be 09 22 9b be 6c 42 86 3e
       -0.19014335 -0.26746067 -0.30299404 0.2622255
000290 2b d2 ac be 1f 86 8c bd 35 01 a5 bd d4 50 40 3e
       -0.33754095 -0.06861519 -0.08056871 0.18780833
0002a0 74 8d 38 bd c8 e4 dd 3d 1c 4c 61 3d 71 a0 4e be
       -0.045056775 0.10834652 0.055004224 -0.20178391
0002b0 c4 1d 61 3e d1 d0 57 be a0 f2 5a 3c a2 e6 e1 3d
       0.21984011 -0.21075751 0.01336351 0.11030318
0002c0 5e 3c f2 3d 43 a2 45 be bf 0e 35 3e 74 60 ea bd
       0.118279204 -0.19300179 0.17681406 -0.11444178
0002d0 f0 6b 3b 3e fd b9 04 be ac 75 12 be 3f 23 bd bd
       0.18302894 -0.12961574 -0.14302701 -0.09235238
0002e0 21 7f 74 3d 86 8a 6a be 28 64 fd 3d 42 2a 92 be
       0.059691552 -0.22904405 0.12372619 -0.28547865
0002f0 2c 28 6b be 22 28 3a 3e 2d ab 31 be 35 94 44 bd
       -0.22964543 0.18179372 -0.17350455 -0.047992904
000300 0b a8 bc 3d 16 01 a1 3e fe d6 e4 3d 71 89 84 be
       0.09211739 0.3144614 0.11173819 -0.2588611
000310 5b 69 00 bb e3 d2 f2 3d d7 6a 6a 3e 16 19 6d bd
       -0.0019594047 0.1185663 0.22892319 -0.057885252
000320 fe e6 08 3e 4a 2f 5b bd 28 ad 04 3e 9d 29 94 be
       0.13369367 -0.053511895 0.12956679 -0.28937998
000330 9a 25 09 3e f1 7b 0f 3e 18 63 e7 bd 4f 5c bc 3d
       0.1339325 0.14012124 -0.112981975 0.09197294
000340 ad e8 5f be 1a bb 86 be 57 22 86 bd 31 0a d0 3d
       -0.21866103 -0.26314622 -0.065495186 0.10158194
000350 ef 66 9e be 26 6b 18 bd 0f 16 4a be 34 72 30 3e
       -0.30937907 -0.03721156 -0.19734977 0.17231065
000360 90 55 6a bd fa d8 03 3e af 24 e2 3d 75 6e 1b be
       -0.057210505 0.12875739 0.11042153 -0.15178855
000370 73 b7 5a 3e bd 6e 16 3c 0b 9f 57 3e d7 8b 08 bd
       0.21359043 0.0091816755 0.21056764 -0.033336487
000380 5a a4 2a 3e bd da 2d 3e 91 58 75 3e 81 8f b0 bc
       0.16664258 0.16977973 0.23959567 -0.021552803
000390 b0 55 0b 3e 1c 8b 4f 3e f7 6d 55 be 13 d0 b4 bd
       0.13606906 0.2026791 -0.2084273 -0.088287495
0003a0 b3 08 53 be 54 1e 26 3e 0d a3 23 be 29 64 af bd
       -0.20608787 0.16222507 -0.15980168 -0.08564026
0003b0 1e b3 98 be 4a a2 b7 3c 4e 78 2a be 72 48 19 be
       -0.29824156 0.022416253 -0.16647455 -0.14969042
0003c0 55 f2 e4 bd 8f ce 89 3e 9a 9f 8c 3d 9c e1 82 be
       -0.11179034 0.26915404 0.06866379 -0.2556275
0003d0 2e 90 63 3d 52 42 48 be 55 f7 fe bc 88 78 46 3e
       0.055557422 -0.19556549 -0.031123796 0.19381917
0003e0 60 96 8e bd da e1 91 3b a1 1f f4 3d 07 d1 53 be
       -0.069622755 0.0044519724 0.11920095 -0.20685206
0003f0 fb 0d b3 3d 63 a1 50 bd 60 76 14 be 05 99 fc bd
       0.08742901 -0.05093516 -0.14498281 -0.12333874

attentions2.attn.weight f4 [1, 8]
000000 c7 5f ad be b8 59 56 3c 7b 35 2f 3e 71 31 99 3e
       -0.33862135 0.013082914 0.17110245 0.29920533
000010 99 ed 16 bf f3 7e f1 be 63 e4 33 bf 13 1d 9e bd
       -0.58956295 -0.47167167 -0.70270365 -0.07720389

attentions3.linear.weight f4 [16, 16]
000000 68 7b a1 3d 69 5f 45 be 4a 71 7f 3e bc 02 61 3e
       0.07884866 -0.19274677 0.2494556 0.219737
000010 47 91 87 be f6 f4 4d 3d 34 16 b2 3e 08 b6 66 3f
       -0.26478025 0.05028244 0.34782565 0.9012151
000020 94 45 d6 3c 7b 36 30 bf aa 63 b6 3e 44 d0 b1 be
       0.026156224 -0.6883313 0.35622913 -0.34729207
000030 d1 71 28 3e a9 1c 98 3e f2 e3 e9 be 29 9a 74 bd
       0.16449668 0.29709366 -0.4568172 -0.05971733
000040 cc fa 01 3e 37 35 24 3e 39 fb 01 be 97 9d 25 be
       0.12693328 0.16035925 -0.1269349 -0.16173397
000050 aa db c5 bd 90 90 49 3b 11 1d 3c be d7 54 41 3e
       -0.09661038 0.0030756332 -0.18370463 0.1888002
000060 a1 45 45 bc 86 1f de bd b6 16 01 3e 9e 73 70 be
       -0.012040527 -0.10845856 0.1260632 -0.23481604
000070 ef 33 4d be c0 e8 08 be 85 6d bc 3d 1c b5 a5 bd
       -0.20039342 -0.13370037 0.09200577 -0.080911845
000080 dd 36 a1 be 99 14 c1 be 0f b9 58 3e ea 1b ed 3e
       -0.3148717 -0.37711027 0.21164344 0.4631036
000090 10 e3 f0 bd aa b1 2e be fb b4 82 3d 4d 91 36 3f
       -0.11762059 -0.17059961 0.063821755 0.7131546
0000a0 53 1d 16 3e ce f5 03 bf 36 56 96 3e 04 4a a3 be
       0.14659624 -0.51546943 0.2936265 -0.31892407
0000b0 04 fc 9d be 7f 7c 61 3e 02 78 7a be 51 8c 4e be
       -0.30856335 0.22020148 -0.24459842 -0.20170714
0000c0 fd 09 f0 bd ab 44 cb 3e 30 42 86 be 81 d5 90 be
       -0.11720655 0.39700827 -0.26222372 -0.2828789
0000d0 b1 04 91 3e fe 12 95 bd 29 c3 7d be c0 ef 76 bf
       0.28323892 -0.07279013 -0.24781479 -0.9645958
0000e0 5d 96 b9 be cb fe 30 3f 0d d9 4b be b8 b8 00 3e
       -0.3624753 0.69138783 -0.19907017 0.12570465
0000f0 e3 4a 92 3b d9 17 a2 3d dc 1b e2 3e 12 c0 4f be
       0.0044644936 0.07914705 0.4416188 -0.20288113
000100 59 4a 6e 3d 88 48 b2 3c 05 e7 ae 3d 82 75 13 3e
       0.058176372 0.021763101 0.08540157 0.14400294
000110 c4 62 f5 bd f6 dc 3e 3c d6 ee 98 bd 1b b8 1f 3e
       -0.11981729 0.011649361 -0.07467429 0.15597574
000120 aa 0a 6d be 68 3b 88 bd 92 f0 aa bc 0c d5 b0 be
       -0.231486 -0.06651956 -0.020866666 -0.34537542
000130 b5 6f 19 3e 66 4f dd bd be 56 bb bd e1 ef 3e be
       0.14984019 -0.1080616 -0.09147404 -0.18646194
000140 1c 44 3c 3e aa 00 2a be e2 47 22 3e 95 b1 68 3e
       0.18385357 -0.16601816 0.15847734 0.22723992
000150 8b a2 8f be a4 41 de 3d 2f 6c e8 3d 15 81 94 3e
       -0.28053698 0.10852364 0.113487594 0.29004732
000160 5a d2 fc bd fc 85 e0 be 77 36 88 bd ee 2f b6 bd
       -0.12344809 -0.43852222 -0.06651013 -0.088958606
000170 85 e8 1e be 4d 41 e5 bc fb cb 54 bc 13 f6 c2 3c
       -0.15518387 -0.02798524 -0.012988086 0.023798978
000180 49 35 74 3c be 7c 10 3c 28 1f 34 bd 1a 0a a2 be
       0.014905282 0.008818803 -0.043975025 -0.31648332
000190 3a ce 68 3e 95 60 52 3e 71 4d 90 be 3c 05 b2 be
       0.22734919 0.20544656 -0.28184083 -0.3476962
0001a0 6b 8d 16 3e 8a 6e ad 3e 1d 27 c8 bc 97 74 a5 3d
       0.14702384 0.33873397 -0.024432713 0.080788784
0001b0 80 92 a0 3e ac 86 02 be d3 d4 4d bd 31 2c 8e 3c
       0.3136177 -0.12746686 -0.050251793 0.017355056
0001c0 52 4d 8f bd 76 5d 27 3e 49 85 60 bb 1d 50 de 3c
       -0.069971696 0.16344246 -0.0034259132 0.02713781
0001d0 17 d9 1a 3e 39 85 25 be 6c bc e3 bd 3d d0 4c be
       0.15121876 -0.16164102 -0.11119923 -0.20001312
0001e0 0c 99 e9 3d 15 f0 4d 3e 67 b6 5b 3d 40 86 d7 bd
       0.114061445 0.20111115 0.05364075 -0.10523653
0001f0 f5 80 95 bd 0a 0e 81 3d 1a be 14 3e 70 d3 6d be
       -0.07299987 0.06301506 0.14525643 -0.23225188
000200 6b 68 ae bd 22 83 2b 3e 6e 3d 8e 3e 05 dd 91 3e
       -0.0851601 0.16749242 0.27781242 0.28488937
000210 20 0c 65 be 2c 67 81 be d5 1d 8d 3d b2 5f f4 3e
       -0.22367907 -0.25274026 0.06890456 0.4772926
000220 bd 83 90 3d ae 4f d2 be d7 00 b8 3d 59 49 bc be
       0.07056377 -0.41076416 0.08984535 -0.3677471
000230 07 91 37 3e e2 af 9d 3d cc ff 20 be f3 4f 3b 3e
       0.17926417 0.076995626 -0.15722579 0.18292217
000240 fd 88 f9 bd 3e 5b 3c 3d e4 fc fa 3e 87 f0 14 3e
       -0.121843316 0.045985453 0.49021065 0.14544879
000250 47 70 2e be 97 3e dc 3d 96 48 61 3e ea 23 10 3f
       -0.17035018 0.107541256 0.22000346 0.563048
000260 cb 60 b4 3e e4 dc c7 be 0f 1c de 3c 98 7b 12 be
       0.35230097 -0.39035714 0.027112989 -0.1430496
000270 60 34 7e be 7d 21 17 be 6d df 80 be b6 89 1a be
       -0.24824667 -0.14758869 -0.2517046 -0.15091595
000280 d3 1d 83 3e c2 13 24 3e da 2d a3 be 78 24 cb 3d
       0.25608692 0.16023162 -0.3187092 0.09919065
000290 ef 1d f2 3b ad 44 33 3e ac 58 7c be ce 17 db be
       0.0073888223 0.17506666 -0.246432 -0.427916
0002a0 7f b4 08 3e 68 62 c6 3e 43 52 94 be 20 b6 41 3c
       0.13350104 0.38746953 -0.2896901 0.011823207
0002b0 84 f5 14 be ba c0 33 3d 19 ce 9b 3d 32 93 c5 3d
       -0.14546782 0.04388497 0.076076694 0.09647216
0002c0 6f d9 0f be 9d 92 73 3d a3 47 9d 3e a4 a4 a4 3d
       -0.14047788 0.059465993 0.30718717 0.08039215
0002d0 83 ba 18 be 12 07 d3 bd 3e fa 85 bc 98 a3 a9 3e
       -0.14914899 -0.10304083 -0.016354676 0.33132625
0002e0 4f 96 ff bd 18 f6 de bc d6 a2 6e bd 1f 6d 97 3d
       -0.12479841 -0.027216956 -0.05826076 0.0739386
0002f0 f7 8e 26 be 86 66 f1 3d 66 4f bd ba 08 bf b0 3d
       -0.16265474 0.11787133 -0.0014443218 0.08630186
000300 0c f9 4a bd 87 6b 96 be 56 ff b4 3e 7d 1d 05 3f
       -0.049553916 -0.29378912 0.35351056 0.5199812
000310 cc 3d fb bd 35 e5 ff 3d 6d 01 42 3e bd 4f 2e 3f
       -0.12267646 0.1249489 0.18945856 0.6809042
000320 c7 0e 48 3e 2d ca 29 bf fb ac 50 3e e8 05 bb be
       0.19536887 -0.6632412 0.20378487 -0.36527944
000330 fd 62 b1 3d 9a 03 0b be 22 ab 22 bd 1a 41 c2 bd
       0.08661459 -0.13575593 -0.039713986 -0.094850734
000340 08 3e 43 be 72 d5 a5 3d 3a e9 80 be 43 b3 77 bd
       -0.19066632 0.08097352 -0.25177938 -0.06047369
000350 8b 3f 8c 3d d9 ff 3b 3e 94 72 6b 3b f4 8e 35 be
       0.06848057 0.18359317 0.0035926448 -0.17730314
000360 51 d3 82 bd 55 30 ec 3e 04 e6 b8 bd 85 61 3f 3d
       -0.06387962 0.46130624 -0.09028247 0.04672386
000370 9e 7d 18 3e 20 fb 64 be 7e b5 d8 3e 00 ec b1 35
       0.14891669 -0.22361422 0.42325968 1.3256213e-06
000380 e5 d7 9a 3d 56 13 59 bd a1 96 f5 bd d7 18 1f be
       0.0756071 -0.052996956 -0.11991621 -0.1553682
000390 77 72 84 3e e3 01 fd bd 3d 6a 0b be 0e 8d ce be
       0.2586858 -0.123538755 -0.13614745 -0.4034199
0003a0 47 8e b1 bc 7b 75 6d 3d 9e de 64 be 8f 99 87 3e
       -0.021674288 0.057973366 -0.22350547 0.26484343
0003b0 38 c3 81 3e 8d d9 24 3e b2 b8 97 3d 1b 82 81 3e
       0.25344253 0.16098614 0.07408275 0.25294575
0003c0 d0 da 5c be 2b 05 85 be 22 5a cf 3d d3 2d ce 3e
       -0.21567845 -0.25980505 0.10124613 0.40269336
0003d0 dc e2 69 be 36 68 62 3e 95 6c 2d 3d 8f ed 1e 3f
       -0.22840446 0.22110066 0.04233988 0.62081236
0003e0 9b ec b7 bd 08 e0 b4 be 76 0f dc bb 8d c4 41 be
       -0.08980676 -0.35327172 -0.0067157103 -0.18922634
0003f0 58 0f a3 bd 1e 89 ef 3d 78 6d 37 be 32 01 f1 bd
       -0.07961911 0.11696075 -0.17912853 -0.11767806

attentions3.attn.weight f4 [1, 8]
000000 89 7d 4d bd 2b 52 91 3e ba fc 94 3d f3 43 8b 3e
       -0.050168548 0.28383002 0.07274766 0.2720028
000010 a6 d7 2d bf 95 c8 49 3e b2 ec 7d bd 3e eb 16 3f
       -0.6790718 0.19705422 -0.06199331 0.589527

output_layer.linear.weight f4 [5, 16]
000000 76 a8 0c 3f d6 e5 6d bd d4 cb fa 3e 08 f6 2a bf
       0.5494455 -0.058080517 0.48983634 -0.66781664
000010 b0 a7 13 3e 85 56 16 3e 3b b3 56 be 75 1b 19 bc
       0.14419436 0.14681442 -0.20966808 -0.009344925
000020 30 9e 95 3e 20 c6 ce 3e 25 9d 66 be 8c a1 37 3e
       0.2922225 0.40385532 -0.22520883 0.17932719
000030 4f 46 06 3f cc a8 ca be 2d 89 46 bc b3 2c 8a 3e
       0.5245103 -0.39581907 -0.012117666 0.26987228
000040 5a e0 1d bf 95 d0 84 bd ee ba cd be ae 49 1f 3f
       -0.6167046 -0.06485096 -0.4018168 0.622218
000050 0f f2 d2 bd a8 c4 9a be d0 65 7a 3d 00 5c be 3d
       -0.10300075 -0.30228162 0.061132252 0.09294891
000060 08 93 d5 be 49 50 ee be e8 a9 09 3f 61 c2 4b bd
       -0.41713738 -0.46545628 0.5377488 -0.04974592
000070 e9 ad ad be 1e 88 3d 3e 56 4e 1f 3e f1 01 04 bf
       -0.33921745 0.18508956 0.15557227 -0.5156546
000080 fd e6 b0 3c a0 40 7f be 35 5f 04 bd d5 ba 3f bd
       0.021594519 -0.24926996 -0.03231736 -0.046809036
000090 8f a0 81 bd a5 10 d7 bd 41 17 16 3e f5 e6 03 bd
       -0.06329452 -0.105012216 0.14657308 -0.03220268
0000a0 19 f9 48 3e c9 ee 3a be 69 34 eb 3c d1 63 19 be
       0.19626273 -0.18255152 0.028711515 -0.14979483
0000b0 a5 a0 9a 3c b9 b1 f9 3d cc f2 bf 3d f8 42 a9 be
       0.01887543 0.12192101 0.09372482 -0.33058906
0000c0 78 26 9e be 5f 54 ae bc aa 28 f8 bd 17 72 c6 3e
       -0.30888724 -0.021280466 -0.12117131 0.3875892
0000d0 aa 1d 7f 3e bc 8a 76 be 9c 6d 83 3e ab b2 1c 3e
       0.2491366 -0.2407636 0.25669563 0.15302531
0000e0 42 e6 a6 3d da 6f 0e be d8 22 f6 3d 06 d4 d3 bc
       0.08149387 -0.13909855 0.12018365 -0.025857937
0000f0 aa 46 9c be e4 78 97 3e 78 6f 90 3e 20 1a de bd
       -0.30522662 0.2958442 0.28210044 -0.10844827
000100 5c 4a 58 3d e7 80 d0 3d 1d ef 8c 3e 30 a2 70 bd
       0.05280529 0.10180836 0.2752618 -0.058748424
000110 43 69 35 3e 65 2b 4c 3e d9 13 54 be 7b 80 5f 3e
       0.17715935 0.19938429 -0.20710696 0.21826355
000120 8f 98 04 be 82 b3 c4 3d 02 d2 8a be 7d 21 41 bd
       -0.12948821 0.09604551 -0.27113348 -0.047151078
000130 d7 e2 eb bd f4 69 47 be 84 02 8b be 6d 15 a6 3d
       -0.11517876 -0.19474012 -0.27150357 0.081095554

output_layer.attn.weight f4 [1, 10]
000000 33 e9 86 3e 40 02 05 bf 84 e8 aa 3e 61 a4 3e be
       0.26349792 -0.5195656 0.3338052 -0.18617393
000010 aa 12 05 3e 9e 59 8b be a7 0c f7 3e 96 0a b4 3e
       0.12995401 -0.2721681 0.4825184 0.35164326
000020 86 9a ea 3e 83 62 96 be
       0.45821017 -0.29372033

fc1.weight f4 [128, 45]
000000 78 53 6e be 04 f0 f4 3c 37 54 56 3d ac ef 06 3e
       -0.23274028 0.029899605 0.052326407 0.13177365
000010 bd 35 21 3e ca f5 80 be af bf 0a 3e b2 9f 13 3b
       0.15743156 -0.25187522 0.13549684 0.0022525606
000020 6a 06 f0 bd 2e a7 c7 3d c1 46 83 be 9e de 61 3e
       -0.117199734 0.09748684 -0.25639918 0.22057578
000030 cf 6f 52 bd 8a fb 1b 3e bb 30 b7 3d 09 81 3f bd
       -0.05137616 0.15232673 0.089448415 -0.046753917
000040 b6 33 9f 3d c1 e9 51 be 6a 35 4f 3d fe ab c2 3d
       0.07773535 -0.20499326 0.05058805 0.09505461
000050 6c 75 cb 3d ea c9 ca 3d 2b 3e a7 bd ce dc b0 bd
       0.09934506 0.09901793 -0.081661545 -0.08635865
000060 5a 2a 66 3e 7b fc 9d bd 6d 84 92 bb 95 1b a1 bc
       0.22477093 -0.077141725 -0.004471353 -0.019666472
000070 a9 f4 ad 3d 57 32 1c 3e 40 21 9b 3e af 1a 00 be
       0.08493931 0.15253578 0.30298805 -0.12510179
000080 c1 87 bd bd a7 0d fb bc b5 86 05 3d 9d 21 b2 3e
       -0.09254409 -0.030646158 0.03259917 0.3479127
000090 8c 96 96 be c9 1b 05 be 61 a5 7a be df ad 35 bd
       -0.29411733 -0.1299888 -0.2447715 -0.04435527
0000a0 7d 1d b3 3d 6f d0 ea bd 56 3a e9 3d db b7 2f be
       0.08745859 -0.11465537 0.1138808 -0.17159979
0000b0 8d e7 87 bd b0 d4 23 be 3d e1 8f 3d 62 94 54 3d
       -0.06635962 -0.15999103 0.07025383 0.05189932
0000c0 58 fe cb bd 61 3a 9a bd 42 49 20 3b bb c6 c0 bd
       -0.099606216 -0.07530666 0.0024457728 -0.09412905
0000d0 a8 50 bf bd 50 e9 39 3d f8 77 11 be 5e 9e 2a be
       -0.09341556 0.04538852 -0.1420592 -0.16661975
0000e0 89 af e5 3d 46 4f 8b 3d b1 58 fe 3d 9f 97 a7 3d
       0.11215121 0.068022296 0.1241926 0.08183216
0000f0 23 0e df bc 4d d4 83 3d 54 b5 0e 3e 2e a0 15 be
       -0.02722842 0.064369775 0.13936359 -0.14611885
000100 e9 22 d9 bd 4e 5f 6a 3d 46 d2 59 bd 69 b9 30 3e
       -0.10602362 0.057219796 -0.053179048 0.17258228
000110 af f6 24 3e 34 89 0a be 7d a0 91 bd ae e3 0f bd
       0.16109727 -0.13528901 -0.07110689 -0.03512924
000120 91 e3 41 bd d2 01 61 3c fb b2 a3 3d 9d 07 c6 3d
       -0.047336165 0.013733344 0.07993122 0.09669421
000130 2a e7 2a 3d 5a 87 b7 bd e9 14 b0 bd b7 61 d6 bc
       0.04172436 -0.08961363 -0.08597738 -0.026169641
000140 53 1c bd 3d 8e 1f 55 3d 7b 66 a0 3c e1 b7 a4 3d
       0.09233918 0.052032046 0.019580116 0.080428846
000150 9f 6d 00 be 0e 56 82 3d 20 20 79 3b c7 60 97 3d
       -0.12541817 0.0636407 0.0038013533 0.07391506
000160 c1 b7 a1 3d 50 54 a4 3d 35 f2 33 be ec 85 f9 3c
       0.078963764 0.08023894 -0.17572863 0.030459367
000170 04 da 58 3d 96 e2 21 3e dc ac 21 bd 7d 40 9d bd
       0.05294229 0.15809092 -0.039471492 -0.07678316
000180 0c 7c 2e 3d 6c a9 aa 3d de f2 97 bc 1d b1 31 be
       0.04259877 0.08333096 -0.018548425 -0.1735272
000190 4f 05 05 3e 50 2a 26 bd d1 ba a4 3d d1 b2 05 bd
       0.12990306 -0.040567696 0.08043445 -0.032641236
0001a0 32 f3 8e bd b7 b4 31 3d 57 99 a5 bd 34 45 58 bd
       -0.069799796 0.043385234 -0.08085888 -0.052800372
0001b0 8e 4a 14 bc 8d 05 04 bd b7 be ac 3d 4d 62 27 3d
       -0.009050978 -0.032231856 0.084348135 0.04086523
0001c0 71 73 26 3e 07 bb 0d bd f0 b2 d2 bd 02 3b 07 be
       0.16254975 -0.03460219 -0.10288036 -0.13206103
0001d0 0b 19 85 bd ba 19 c7 3d 22 88 02 3e 25 94 17 be
       -0.06498917 0.09721704 0.12747243 -0.14802606
0001e0 81 40 2f 3d d4 7d 0b bd 5e 4c db bd 4d 8b 19 3d
       0.042786125 -0.034055546 -0.10707925 0.037486363
0001f0 03 a5 82 3d f6 1e 00 be 34 37 3e 3c 22 76 f6 bc
       0.0637913 -0.1251181 0.011609841 -0.030085627
000200 da 98 82 bd 76 1c 98 bd 87 09 66 bc 9d 80 e5 3d
       -0.0637681 -0.074273035 -0.014040357 0.11206172
000210 47 a9 5b 3e 80 ce 73 3d b5 58 f7 bd af 46 e7 bd
       0.21451293 0.059523106 -0.120774664 -0.11292779
000220 77 69 21 be a8 84 54 3d 5a 0c 9a bd 28 0b 11 be
       -0.15762888 0.051884323 -0.07521887 -0.14164412
000230 f9 58 05 bb ff ec 69 3c ab 5b 1a 3e 35 fe ee 3d
       -0.0020347221 0.014277696 0.15074031 0.1166958
000240 7c 98 cc bd 93 b7 c0 3d 13 1a a5 bd ab 07 19 3c
       -0.099900216 0.09410014 -0.08061614 0.009340207
000250 15 5c 44 3e ff 25 a7 bd 42 3e c4 bd 40 e6 84 3d
       0.19175752 -0.08161544 -0.09582187 0.06489229
000260 d7 1c 19 3e 04 9f 6c 3c 06 94 0d be f2 2e a4 3d
       0.14952408 0.014442209 -0.13825998 0.080167666
000270 bc ec 48 bc e7 f4 0b 3e 78 d9 02 3e c2 c0 a7 3d
       -0.012263473 0.13667642 0.1277827 0.081910625
000280 db f3 11 3e c0 07 94 bd 6e b4 bb bd 6b 37 44 bd
       0.1425318 -0.07228041 -0.091652736 -0.047904413
000290 fa 59 84 bc 66 e2 ec 3d 95 81 2f 3d 50 1a 41 bd
       -0.016156185 0.115666196 0.04284819 -0.047144234
0002a0 9d fb 2b 3d 34 72 87 3d 6a ca b7 3c b8 f3 19 bc
       0.041988004 0.066135794 0.022435386 -0.009396486
0002b0 3c 44 fa bc da cc b0 3d f9 5b 20 be 77 40 17 bd
       -0.030550115 0.08632822 -0.15660085 -0.036926713
0002c0 2c a1 8e 3d 39 bd 16 3e f1 1b 5a bc 1b ec 17 be
       0.06964335 0.1472062 -0.013312326 -0.14836161
0002d0 02 65 f2 3e bc a1 c5 be 0b ee bb bd 49 6c fb bd
       0.47342688 -0.38599956 -0.091762625 -0.12276513
0002e0 fc cc df 3d cd 4e a2 3e a2 82 1d be 2b 3e 08 be
       0.109277695 0.31700745 -0.15381864 -0.13304965
0002f0 a6 16 f5 bd 61 f4 6d 3d f6 11 27 be 85 ce 71 3e
       -0.119672105 0.058094386 -0.16315445 0.23613937
000300 84 eb ef 3d f1 67 32 bd 2d f1 ce 3c 12 73 12 3f
       0.11714843 -0.043556157 0.025261486 0.57206833
000310 d6 dd e9 be 0f 0f fb bd 1d c7 b4 be 15 b4 e8 3d
       -0.4567706 -0.122587316 -0.3530816 0.11362473
000320 38 9d f9 3d 86 4c bd bd 72 f8 f0 bc a9 cb d9 3c
       0.1218819 -0.09243111 -0.029415343 0.02658637
000330 07 e2 87 3d 1d 50 fd bd 52 61 96 3e 07 cc b9 bd
       0.06634908 -0.12368796 0.29371125 -0.09072118
000340 99 91 30 3e 9e 26 3e 3c 93 d2 c0 3e 2c 47 bd bd
       0.17243041 0.011605887 0.37660655 -0.092420906
000350 11 7f 1d be f7 af 82 bc 20 48 4e 3b 26 04 38 be
       -0.15380503 -0.015953047 0.0031476095 -0.17970333
000360 57 72 4d 3d 62 fd 57 bd b2 37 22 be 3c 34 57 3b
       0.05015787 -0.05273188 -0.15841559 0.003283753
000370 4b e2 ab be 7b df cc 3e 91 f3 76 3d 4f c0 56 3e
       -0.33571085 0.40014252 0.060290877 0.20971797
000380 1c bf 57 bd 5b 50 f7 be 5f 54 90 3e 29 60 a7 3d
       -0.05267249 -0.48303494 0.2818937 0.08172638
000390 09 2e 97 3e b4 fc cf 3d 2e ba a3 be ec e5 29 3d
       0.2952731 0.10155621 -0.3197798 0.041479036
0003a0 71 37 b7 3d 4d fb f1 3d 86 a5 d0 3c f8 c1 05 bd
       0.089461215 0.1181551 0.025469553 -0.032655686
0003b0 0f de e5 3d 81 ca 45 be bb 54 17 be 48 b2 2e 3e
       0.11223995 -0.1931553 -0.14778416 0.17060196
0003c0 8b 7d d8 bd c9 b4 4b 3e 1e ce 1b be c9 10 30 bd
       -0.105708204 0.19893183 -0.15215346 -0.042984758
0003d0 c0 14 1e 3d 91 67 a8 3d 7b 68 a4 3d 7e 9e 69 be
       0.038594007 0.08222879 0.080277406 -0.22814366
0003e0 23 e5 20 be 09 53 38 3d b5 a0 eb 3e 3e 58 48 be
       -0.15712409 0.045001063 0.46021047 -0.19564912
0003f0 d3 06 fa bd b5 ea 30 be 7a de 8e 3d 24 8b 07 3e
       -0.12208333 -0.17277034 0.06976028 0.13236672

fc1.bias f4 [128]
000000 f5 2e eb 3d 66 c5 a3 bd bd d2 3e bd bb 53 2f be
       0.11483566 -0.07996635 -0.046587694 -0.17121784
000010 e4 96 13 3e 1b 79 61 bd 97 8c 5e bd e6 40 31 3e
       0.14413029 -0.055047136 -0.054333296 0.17309913
000020 33 a2 62 3d 5e f4 3f bd c1 1c e8 3d 94 6d 4e 3e
       0.055330466 -0.046863906 0.11333609 0.20158988
000030 98 75 97 bd 73 d6 96 3d 3f fb ba bd f5 a8 4e 3e
       -0.07395476 0.07365122 -0.09129953 0.2018164
000040 17 7a ae bd 63 29 0b 3e 6f 9b 1c be 3b e9 75 3c
       -0.085193805 0.13590007 -0.15293668 0.01500922
000050 12 23 bf bd 57 15 f5 3d 8c c6 71 3e a4 40 03 3d
       -0.09332861 0.11966961 0.23610896 0.032044068
000060 bc 00 e5 bc cb 08 47 bd 7c 75 1e bd a0 cb 25 be
       -0.027954452 -0.04859237 -0.03868626 -0.16190958
000070 ed 33 20 3d 27 e5 b9 bd b1 e4 0e 3d 61 e3 b5 bd
       0.03911202 -0.090769105 0.034886066 -0.0888126
000080 b5 d4 11 3e 6c 53 d8 bd b6 37 3a 3e e7 5e 1d be
       0.14241298 -0.105627865 0.18185315 -0.15368234
000090 32 a3 39 3e 78 d7 74 3e 98 80 1c be 99 36 29 3e
       0.1812866 0.2391032 -0.1528343 0.16524734
0000a0 51 d8 49 3d 79 18 4b 3e 2d 76 2a 3e 20 9b 9c 3c
       0.04927856 0.19833554 0.16646643 0.019116938
0000b0 e9 9b 46 3e 36 2e e3 bd d4 9b 4e 3c ac f0 98 3d
       0.19395413 -0.110927984 0.0126103945 0.074677795
0000c0 2b 8d 13 3e b9 7e 45 3e d4 7b 29 be f1 ee e8 3d
       0.1440932 0.19286622 -0.16551143 0.113736995
0000d0 fe bc 36 3d a3 80 db bb a0 72 b8 bc b2 e0 6b 3e
       0.04461383 -0.0066986843 -0.022515595 0.23034933
0000e0 be 1f 71 bd 9e a8 3b bd 52 3f 70 3d 67 a1 04 be
       -0.058868162 -0.045815103 0.058654137 -0.12952195
0000f0 90 c1 44 3e 84 a1 00 bd 37 43 22 bd f0 88 2e 3e
       0.19214463 -0.031404033 -0.039614882 0.17044425
000100 cb bf 0c 3e a3 7e 27 bd 4a e3 16 be dd 9b 42 be
       0.13745038 -0.040892255 -0.14735141 -0.1900477
000110 16 c6 0c be 15 99 11 be 8f b4 00 3e 7f 12 7c 3e
       -0.13747439 -0.14218552 0.12568878 0.2461643
000120 68 66 11 bd 65 0a 39 be 51 8e 37 be 38 40 27 bd
       -0.035498053 -0.18070371 -0.17925383 -0.04083273
000130 af c4 ed bd cd 9b 16 be cc 5b 06 be a5 36 58 3d
       -0.1160978 -0.14707871 -0.13120955 0.052786488
000140 d7 7a 85 bc 2f fa 5a bd fd f4 a0 bd ad c8 0a be
       -0.016293926 -0.05346125 -0.07859228 -0.13553114
000150 2a 67 d2 3d e8 6b 1f be a4 d5 4a 3d 0b 4a 4e bd
       0.10273583 -0.15568507 0.04952015 -0.05036358
000160 1a 52 03 be 02 3f 18 bd 8b e6 fc 3d 16 6e 6d 3e
       -0.12824288 -0.037169464 0.1234866 0.23186526
000170 d2 b0 4a be 48 bf f2 bd 7e 80 52 3e 59 08 55 3b
       -0.19794014 -0.1185289 0.20556828 0.0032506196
000180 52 34 d1 bd 45 dd 9c bc c9 f3 27 3e 27 0b 1e be
       -0.102150574 -0.019148478 0.1640159 -0.15433942
000190 cc 48 aa bd 42 c3 50 3e d3 8c a9 bd 3c 13 8c bb
       -0.08314666 0.20386985 -0.08278813 -0.004274754
0001a0 75 c1 7c bd 57 d2 4f 3e f5 13 07 be 22 96 0a 3e
       -0.061707933 0.20295082 -0.13191207 0.13533834
0001b0 d9 9c dc 3d e9 47 9f bd de cb 56 bd 5d db 08 3e
       0.10772104 -0.07777388 -0.052440517 0.1336493
0001c0 06 5e 29 3e c3 61 05 3e 5b 6d f1 bd c5 1f 19 be
       0.16539773 0.13025574 -0.11788436 -0.14953525
0001d0 78 20 01 3e 30 e7 86 3d 4b 93 2f be 8f 26 ad bd
       0.12610042 0.06587064 -0.17146032 -0.0845462
0001e0 6e 9e c4 3d 15 05 7f bd ef 1e 94 3c 56 bc 01 be
       0.096005306 -0.062260706 0.018081157 -0.126695
0001f0 42 ce 46 be 40 aa 1c 3e ea 9b 5d 3c c8 b2 b1 3d
       -0.19414619 0.1529932 0.013525942 0.08676678

fc2.weight f4 [5, 128]
000000 19 c0 ae bc c2 23 a5 3d 72 2f cb bb 46 c9 9f bd
       -0.021331834 0.08063461 -0.0062007243 -0.07802062
000010 c6 04 ba be 62 a7 a2 3d f0 0c 7d 3d 0c 7e 0b bd
       -0.36331767 0.07942082 0.061779916 -0.034055755
000020 38 77 8f 3d e6 25 99 3c 3b b3 71 3d cf 1f 2a be
       0.07005161 0.01869483 0.059008818 -0.16613697
000030 94 60 d8 3c e9 66 09 3e 5a c2 0e bd a2 12 3d bc
       0.02641324 0.13418163 -0.034853317 -0.011540087
000040 d3 a2 21 bc 14 0f 19 bc ca 49 13 bd 1e 93 d4 3d
       -0.0098654805 -0.009341974 -0.035959043 0.10379623
000050 9c 7a 32 bd 43 d4 ad bd d1 a5 9a 3c fe 25 2b bd
       -0.04357396 -0.08487751 0.018877896 -0.04178428
000060 f5 44 44 be a0 95 44 3d 61 97 a6 bd ef 07 18 3d
       -0.1916693 0.047994256 -0.08134342 0.03711694
000070 73 43 b0 3d 4a 25 83 3e 09 27 a1 3c f2 a0 ab 3d
       0.08606615 0.25614387 0.019671934 0.08380307
000080 93 a5 c9 3d 8e 3c 46 bb 09 ce 7c 3d 8c 82 6a bd
       0.09846034 -0.0030248496 0.061719928 -0.057253405
000090 d0 6a 16 bd 58 60 b0 bd 1c 81 91 bd 57 45 56 be
       -0.036722958 -0.08612126 -0.07104704 -0.20924889
0000a0 0d 57 13 3e cb c3 df bd 32 da 3c 3d 0b 14 fc 3d
       0.14388676 -0.109260164 0.046106525 0.123085104
0000b0 9e ad 07 bd a4 5a b2 bd 94 6d 71 bd 4e 77 1b 3e
       -0.03312456 -0.087086946 -0.058942392 0.1518223
0000c0 53 18 1b 3b d6 e2 25 be cb 0f ea 3c ca 84 28 3d
       0.0023665621 -0.16199812 0.028571984 0.041142263
0000d0 a5 3b f5 3b 06 51 bd 3d 88 76 21 be 02 a2 52 3d
       0.007483917 0.092439696 -0.15767872 0.051424034
0000e0 10 4f c3 bd 02 e5 6a 3c 8e ae 54 3e 78 04 f9 bd
       -0.09536564 0.014336826 0.20769712 -0.121590555
0000f0 06 59 ce bc 02 68 61 3e 5f dd 19 bd c1 9d dd 3d
       -0.025188934 0.22012332 -0.03756463 0.10821105
000100 6e 6e 8c 3c 59 1a e5 3c c0 55 fd 3a 53 73 f2 ba
       0.0171425 0.027966665 0.0019327924 -0.0018497504
000110 8e 57 4b 3c b3 be 54 3c a1 c4 1a bc 22 90 49 3a
       0.012411011 0.012984919 -0.009446294 0.0007689019
000120 c4 e2 2f 3d cd c2 47 bd 80 6d 3f 3b 79 a8 82 3c
       0.04294087 -0.04876976 0.0029209554 0.015949475
000130 bc 05 f1 3d 27 34 88 bc 3b 92 49 3d 75 c9 1b bd
       0.11768672 -0.01662643 0.049211722 -0.03803392
000140 92 c5 e2 3b 1a 2c 04 3e 66 ce 8d bd 47 c5 0c be
       0.006920525 0.12907448 -0.06924133 -0.1374713
000150 ab d6 4c be f8 92 a3 3b fc fe 29 3e ae e6 ce 3c
       -0.20003764 0.0049918853 0.16601175 0.025256481
000160 e1 f8 13 bd 7a 03 5e bd 8a 39 73 bc a1 d7 09 be
       -0.03612602 -0.054202534 -0.014845261 -0.13461162
000170 63 ba ad be 25 c1 7c 3d aa 4a b0 3b 69 52 70 bd
       -0.33931264 0.061707634 0.0053799944 -0.058672342
000180 1e 01 0d 3e 16 49 45 be 41 aa 9e 3c 83 38 4d bd
       0.13769957 -0.19266161 0.019368293 -0.050102722
000190 dd 32 a6 3a f0 12 32 bd cf 7a d0 bb b9 86 10 bd
       0.0012679953 -0.04347509 -0.006362296 -0.03528473
0001a0 a8 8f 17 bd b2 cc e2 3d dc e0 5e 3c 57 9e bb 3d
       -0.037002236 0.11074199 0.013603415 0.0916106
0001b0 da 90 65 be 20 31 27 bb be e0 4c be d3 c4 0a bc
       -0.22418538 -0.0025511459 -0.20007607 -0.008469778
0001c0 19 58 ee bc 3b eb 04 3e 26 af 42 bd 72 eb ee bb
       -0.029094743 0.12980358 -0.047530316 -0.007291251
0001d0 d5 ca 0d 3e e6 0b a3 3a a9 07 88 be d7 a2 b2 3d
       0.13846906 0.0012439459 -0.26568344 0.087224655
0001e0 22 af b6 3a 53 c8 21 be 9a 4b 0f 3e 28 60 15 3c
       0.0013937692 -0.15799074 0.13993683 0.009117164
0001f0 8e c9 54 3d 92 54 23 bd 92 9b db bc 22 2a 04 be
       0.05195003 -0.039875574 -0.02680758 -0.12906697
000200 e3 ae 37 3e d3 a7 39 3d 5c c2 20 3c cf 7d 35 bc
       0.17937808 0.045326065 0.009811964 -0.011077358
000210 7d 1c 63 bd 76 ff e6 3d 27 98 f8 3d 68 24 5b 3c
       -0.05544709 0.11279194 0.12138396 0.013375379
000220 8a 73 0b 3e 32 a6 3e 3d 48 bb 43 3e bc 4a 7b 3d
       0.13618293 0.046545215 0.19114411 0.06135057
000230 e2 99 9e bb 85 26 c2 3c 80 03 9d bd ee d9 14 bd
       -0.0048401216 0.023700008 -0.07666683 -0.036340646
000240 41 bf 37 bd 14 73 e5 3d b3 45 ee bc 6b a4 b4 bc
       -0.04486013 0.1120359 -0.02908597 -0.022051057
000250 24 b3 1a 3d db 10 23 3e ab 76 e9 3b 3d 08 0a 3e
       0.037768498 0.15924399 0.007124742 0.13479705
000260 30 cd dc 3d 59 e5 57 bd 2f 7f 8d 3c ba 53 63 3c
       0.10781324 -0.052708957 0.01727256 0.013874942
000270 e9 df d7 3c 30 ea 89 be a6 99 68 3d 56 d0 5b 3d
       0.026351886 -0.26936483 0.056787156 0.05366548
000280 08 61 cd bd 31 32 14 bd eb 4d 79 3d 57 ab 06 3e
       -0.10028273 -0.03618068 0.060865324 0.13151298
000290 6f d2 94 bd 7c 13 7a 3d 57 af 60 3d 89 be 8b 3d
       -0.072666995 0.061053738 0.054854717 0.06823451
0002a0 14 dc 32 3c ec 74 bf 3d 72 fe 2e 3d 17 3d b6 3d
       0.0109167285 0.09348473 0.042723127 0.08898371
0002b0 27 02 d1 bc de e7 62 3d 92 44 4f 3e 88 77 90 be
       -0.025513722 0.055396907 0.20241001 -0.28216195
0002c0 06 97 b7 3d d9 a6 31 bc 24 0e 2f bc 53 a2 11 3e
       0.08964352 -0.010843002 -0.010684524 0.14222078
0002d0 a5 83 0a 3e d5 e7 bd bb 88 dc f3 bd 63 bd a8 3d
       0.13526781 -0.005795459 -0.119072974 0.08239248
0002e0 e5 59 0c 3d 02 4f 4a 3d da 9f ad bd a4 48 0a be
       0.034265418 0.049391754 -0.08477755 -0.13504273
0002f0 93 c4 2c 3e 5d a7 08 3c 1e e7 7a be 42 81 13 3e
       0.16871862 0.008340684 -0.24502227 0.14404777
000300 dd 4d 8d bd 04 70 22 3e 44 80 5b 3d 4e 0c 9e 3c
       -0.06899617 0.15863043 0.05358912 0.019292977
000310 45 d0 eb 3b d5 a3 4f 3d 2c 45 b1 bd 57 52 0e 3e
       0.0071964585 0.05069335 -0.086557716 0.13898598
000320 48 87 01 3e f5 8d fe bd 00 9b 72 bd d2 96 8a 3c
       0.12649262 -0.1242942 -0.05922985 0.01691762
000330 6c 74 50 3d 0c 44 31 3d 93 af ce bc 7d ff 38 3e
       0.05089228 0.043277785 -0.025230205 0.18066211
000340 57 dd 37 3c 9f 4f 8c be 64 4d 64 be ec f9 cc bc
       0.011222205 -0.27404496 -0.22295147 -0.025021516
000350 cc 7f d4 3a d9 29 f6 3c 33 3e a7 3d 8d 92 97 bc
       0.0016212403 0.030049251 0.081661604 -0.018502498
000360 3f a6 82 37 d7 d0 9d 3d 36 1a a6 bd 56 66 9f 3d
       1.5574622e-05 0.07705849 -0.08110468 0.07783191
000370 7b f9 98 bd 59 81 89 3d 65 2c 80 3d bb 74 10 be
       -0.074694596 0.06714124 0.062584676 -0.14107029
000380 1c 15 59 3d 55 8b 2a be bb 54 82 3c 3d 5c 5c 3d
       0.052998647 -0.16654713 0.015909543 0.053798903
000390 12 28 50 bd f0 e0 3b bb aa 5d 06 be 56 3d 78 bd
       -0.050819464 -0.0028668009 -0.13121668 -0.06060537
0003a0 7c 65 27 bd c1 6d 14 3d 66 d0 16 3d ef 6e 6e 3e
       -0.040868267 0.036237482 0.036819838 0.23284505
0003b0 c8 d1 e8 3d 30 82 9e bc dd 6a f6 3d 8b 7d 88 3c
       0.113681376 -0.019349188 0.12032101 0.016661426
0003c0 7d 09 4f 3d d2 eb 63 bd f6 21 18 3d 41 2c 75 3d
       0.050546158 -0.055644818 0.037141763 0.059856657
0003d0 6c 3c 3c be 8a 0f 3b bd 59 64 30 be d5 f9 ad 3d
       -0.18382424 -0.045669116 -0.1722578 0.08494917
0003e0 10 77 10 3e d8 3f b4 bd 5a 87 21 3e f3 99 17 bd
       0.14107919 -0.0880124 0.15774289 -0.03701205
0003f0 a1 44 94 bc 61 64 af 3c 24 4b e2 bb 2b 5a 61 be
       -0.018099131 0.02141017 -0.00690593 -0.22007053

fc2.bias f4 [5]
000000 be c1 e9 3d 8c 09 73 3d 36 e1 42 bd 29 aa 46 3d
       0.114139065 0.059335276 -0.04757806 0.04850212
000010 bc 0a b1 bd
       -0.086446255
