saved_weights/LunarLander-v2/2215/actor.pth (torch, 14255 bytes, 10 tensors)

attentions1.linear.weight f4 [32, 1]
00000000: 1017 433f 2eb1 dbbe 2f0a 853e be70 2d3e
00000010: f1ff 683e 495f 1e3d 9483 833f 6faa 043e
00000020: e1ca 31bf 3506 3a3f 646e 3cbf bfd6 123f
00000030: 9006 3c3f 58e0 5f3f c593 d6be f87a febe
00000040: a98c 42bf 08f7 5cbf bc71 e7be 7d82 283f
00000050: 12b4 523c a59d 283f f8be a0be 719f 043f
00000060: 4346 0abe a790 92be 9dd2 0d3f a491 79bd
00000070: 59cd 7fbf 90fd 013e f1fd 60bf b01f 6dbf
0.76207066 -0.42908615 0.25984332 0.16937539 0.22753884 0.03866509 1.027453 0.1295564
-0.69450194 0.7266572 -0.7360594 0.57358927 0.73447514 0.87451696 -0.41909614 -0.49703193
-0.7599588 -0.8631444 -0.4520396 0.6582411 0.012860315 0.65865546 -0.31395698 0.5180579
-0.13503365 -0.28625986 0.55399495 -0.06092991 -0.9992271 0.12694383 -0.87887484 -0.92626476

attentions1.attn.weight f4 [1, 64]
00000000: 45af babb 7635 a13c 44f1 793d 7c62 ff3d
00000010: ea26 dc3d 8ad0 b9bd 300b 64bc e3d3 74bd
00000020: 5370 1f3c 7cd3 f33d 3359 febd cc35 233d
00000030: 34ed 0abd 9ebd a93d 981d dfbd 510d a43d
00000040: 3b0b 98bd 2956 633d b6e1 9dbd 5ebd 59bd
00000050: 5b27 4c3b 9e1b 273c 226d 4c3d c171 a3bd
00000060: 8333 a53d ad27 06bd 90dd e2bd aea0 32bd
00000070: 9d0e a03c 6443 95bd d2e7 92bd 5f78 6d3d
00000080: f191 393d 01b9 283d cb7d 123e 0a39 943d
00000090: 8155 c63d 9835 8cbc 05b4 193e d277 233e
000000a0: 799b bdbd 0270 e23d 7ea2 1cbe 653b d13d
000000b0: 0c9e 8cbd d46f 4c3d 6f83 22be 4f79 efbd
000000c0: baca 633d 9d7a 16bc e547 0abe 206d 6e3d
000000d0: cc3c 803d e7ab 173e 6880 41bd e806 313e
000000e0: d6ed 0bbd 44ea fdbd db79 bf3c 5af3 8b3d
000000f0: 4247 c6bd 64d9 1a3d 019a 083d 06d7 d0bd
-0.0056971633 0.019678812 0.061021104 0.12469956 0.1074961 -0.09072979 -0.013918683 -0.059772383
0.00973137 0.11905572 -0.12419357 0.039846227 -0.03391762 0.0828812 -0.108943164 0.080103524
-0.07424017 0.05550209 -0.077090666 -0.05315911 0.0031151387 0.010199456 0.049908765 -0.07980681
0.08066466 -0.03275268 -0.11077416 -0.043610267 0.019538218 -0.07288244 -0.071731225 0.057976123
0.045305196 0.04119206 0.14305799 0.07237442 0.09684277 -0.0171154 0.15010078 0.15963677
-0.0925817 0.1105652 -0.15296361 0.10216407 -0.068660825 0.049911335 -0.1587045 -0.1169306
0.055613257 -0.009184507 -0.13503988 0.05820954 0.06261596 0.1481167 -0.0472416 0.17287791
-0.034162365 -0.12398198 0.023373535 0.06833525 -0.0968156 0.037804976 0.033349995 -0.101972625

attentions2.linear.weight f4 [32, 32]
00000000: a08b ba3d 0203 603e 4dc9 46be 96e8 f8bd
00000010: be90 16be 6a1b c03d e81e e2bd 25ad 643d
00000020: e172 5c3e 8db4 50be 25d6 fa3b f655 0dbe
00000030: 429e cdbd f383 833d 3e8c bbbd 356c e0bd
00000040: 65bd 64bd ee25 233e 5202 d3bd f9d6 5ebe
00000050: c35e c3bd bc5a 42be 8ca9 2e3e 7258 34bc
00000060: 7ca9 463d 79a5 fe3c 516d 28bd ba64 b13d
00000070: 9631 db3c 64bf 21be fc34 0bbd d5e0 3c3e
00000080: 6a55 ca3d 4563 a33c c81f 9fbc aaa8 21be
00000090: 5194 37be 0b52 00be dbb8 a1bc 8876 bbbc
000000a0: b488 c23d b572 9cbd d575 4f3e 55fb 03bc
000000b0: 5e56 c9bd 740a 563d 38dc 843d cd12 043e
000000c0: 6efa 3ebd 95f2 cbbd 0217 023e 70eb c0bd
000000d0: 42d1 3cbd 20e6 46bd 5719 1d3d 2781 80bd
000000e0: 39ae 1c3e aed9 10be b969 a5bd 9b35 29bd
000000f0: 8819 b73d 8f11 d33d d3a0 bebd 4285 f03d
00000100: 6e49 8d3d b963 2a3e a195 cdbd 1125 4bbe
00000110: d479 92bd 3c11 7f3d da8c 873d ac8e 1fbd
00000120: ed71 5a3e f400 12be c09e cb3d 9747 e1bc
00000130: 1e7a 94bc f812 da3d db98 41bd cbb9 073e
00000140: 8842 463e 5fce 493d 9636 20bd d71e 04be
00000150: 50e2 ba3d 1855 19be e7af 053d defb 21bd
00000160: 5df6 e03c 61d0 d2bd 3feb ee3d 9ab7 6e3d
00000170: c385 473d 2ca1 de3d 3673 27bd d727 513d
00000180: bd0b ccbd 68ea 29be 0765 653d 8191 803c
00000190: 51fd 19bc 0f02 d5bd 6832 293e 230d 183d
000001a0: a452 24bd 49c6 5f3d d6ee 8abb 7235 573e
000001b0: f5b1 b13d d2a8 babc 70ab e2bd 53f7 06be
000001c0: bd3a d8bd 0542 d1bc 04c8 9e3d 9ee0 213d
000001d0: 55f2 963d a63c 5f3e 8da6 46be 6b24 273e
000001e0: 3b04 acbd 4275 27be c754 823c b68a 1bbe
000001f0: 9490 373c b480 293e b7b2 8ebd c579 a3bd
00000200: f705 12bd 00be b6bb 990f 773c 3e55 e63d
00000210: 89f3 01be 6623 f13d 74c1 ebbd a691 05be
00000220: 1d49 5e3e 225f b0bd 3578 723d 4a41 563b
00000230: c406 48be 99fc 063e 577d e03d 406f 5b3e
00000240: cd75 b1bd fcaf b6bc b3e2 6dbd 81a7 b7bd
00000250: 6f69 88bd ac03 d63c 78dc 463d d88f 02be
00000260: 9b79 903d 30e4 95bc 4e9c 12be 5954 d63c
00000270: c5f0 453e d827 623a ad04 233e 986c e73d
00000280: 196d 5cbe cad7 073e bba9 46be 5a30 44be
00000290: 6b4c 4fbc 9bb8 86bd a5a3 8bbd 79ba ee3d
000002a0: 40e1 1b3e c0b0 883d e008 45bb 39d6 5fbd
000002b0: 5c8e 8cbc edb0 963c 43be a4bd 9bd7 2dbd
000002c0: aabb 7a3d 9a17 5c3d 0c6f 243e 6bc2 0d3d
000002d0: f2c3 ff3d 836b 62bc 0eed ec3d 69a1 be3d
000002e0: 1bed e7bd 927b c13d bb8e 81bd 965f b4bd
000002f0: 896c 08be 70a9 5abe 43a9 c23d 7bfa c8bd
00000300: d520 debc 3024 b33d 2fce da3d ebd6 2e3e
00000310: c6ee 553e a6ac 05bc 9fa3 9b3d 8031 75bc
00000320: 2dce f2bb bb52 2f3c 16c8 b53d 449c d7bb
00000330: b630 063d cadf 7dbc 56c4 f93c c884 3dbd
00000340: e006 d8bd d522 3cbe f883 ec3d 3409 f93d
00000350: 660d 363d 5885 c43d a74a 1bbe a7f0 2c3e
00000360: 4ece 94bd 0310 37be 96b9 033e 20af edbc
00000370: 5e4e 18bd d8a0 f33d eefe 8fbd 6ad3 dbbd
00000380: e8d4 97bd ae9f 273e a98c 0a3d f946 8d3d
00000390: 5edd 853d 1840 0a3e 8c81 25be f027 d63d
000003a0: 9582 1c3d 5b69 73bd 3b9b debc 0dca 063e
000003b0: 6113 40be 93e5 b13d cd4f 36bd 33c8 00bc
000003c0: 4675 98bd 0acb 51bd 2ac6 df3d 0030 c93d
000003d0: 4324 20be fcb1 8f3d a34a 673c a26f 15be
000003e0: 27a8 2d3d c341 283e 3f78 1dbe 2868 fe3d
000003f0: c020 503e 09da 66bc 9ca1 b83d bbc4 323e
0.091086626 0.21876147 -0.19412728 -0.12153737 -0.14703652 0.09380229 -0.11041051 0.055829186
0.21528198 -0.20381375 0.0076549225 -0.13802323 -0.10039951 0.06421652 -0.091576084 -0.10958139
-0.055844683 0.15932438 -0.10303177 -0.21761693 -0.09539559 -0.18979925 0.17056865 -0.011007415
0.048501477 0.031084763 -0.041119877 0.0866179 0.026757043 -0.15795666 -0.033986077 0.18445142
0.09879573 0.019944796 -0.019424334 -0.15786996 -0.17927672 -0.12531297 -0.019741466 -0.022883669
0.0949873 -0.07639066 0.20259793 -0.008055528 -0.09830926 0.052256063 0.06487316 0.12897797
-0.046625547 -0.09958378 0.1270409 -0.09419906 -0.046098 -0.048559308 0.038354244 -0.06274634
0.15300836 -0.14145538 -0.080768056 -0.041310888 0.089404166 0.103060834 -0.093080185 0.11744167
0.06898771 0.16639604 -0.10038305 -0.19838358 -0.07152143 0.062272295 0.06618662 -0.038954422
0.21332522 -0.14258176 0.099423885 -0.027499957 -0.018124636 0.10648149 -0.047264915 0.13254468
0.19361317 0.049269076 -0.039114557 -0.1290239 0.09125197 -0.14973867 0.032638457 -0.03954684
0.027461225 -0.10293651 0.116659634 0.058280565 0.04871155 0.10870585 -0.040881358 0.051063385
-0.099631764 -0.16593325 0.05600455 0.015694382 -0.009398774 -0.10400783 0.16523135 0.037121903
-0.040117875 0.05463246 -0.0042398972 0.21016482 0.08676521 -0.022785578 -0.11067855 -0.13180284
-0.105580784 -0.025544176 0.07752994 0.039520852 0.0737044 0.2180048 -0.19399472 0.16322486
-0.083992444 -0.16353324 0.015909566 -0.15189633 0.011203904 0.16553003 -0.06967681 -0.0798221
-0.03565022 -0.005576849 0.015079402 0.112467274 -0.12690558 0.1177433 -0.11511508 -0.13043842
0.21707578 -0.08611895 0.05919667 0.0032692724 -0.19533831 0.13182296 0.10961407 0.21429157
-0.08665047 -0.022300713 -0.058077525 -0.08967496 -0.06660735 0.026124798 0.0485501 -0.12750185
0.070544444 -0.018297285 -0.14317438 0.026163267 0.19330128 0.0008627153 0.15919752 0.113000095
-0.21525992 0.1326591 -0.19400685 -0.1915907 -0.012652497 -0.065781794 -0.06818322 0.116566606
0.15222645 0.066743374 -0.0030065104 -0.054647658 -0.017157726 0.018394912 -0.08044102 -0.042441946
0.061214127 0.053733446 0.16057986 0.03460924 0.124885455 -0.013819578 0.11568652 0.0930813
-0.11324521 0.09447397 -0.06326052 -0.08807294 -0.13322653 -0.21353698 0.0950494 -0.098134
-0.027115265 0.087471366 0.10683858 0.17074172 0.20891866 -0.008158838 0.075995676 -0.014965415
-0.007409832 0.010700877 0.08876054 -0.0065799076 0.032761298 -0.01549525 0.030489128 -0.04626921
-0.10548186 -0.18372662 0.115486085 0.121599585 0.04444637 0.09595746 -0.15165196 0.16888677
-0.07265912 -0.17877202 0.12863764 -0.02901417 -0.03718411 0.11895913 -0.07031046 -0.107336834
-0.074136555 0.16369507 0.03382555 0.068983026 0.06536363 0.13501012 -0.161627 0.10456836
0.03821047 -0.059426647 -0.027173629 0.13163014 -0.18757392 0.08686366 -0.044509698 -0.007860231
-0.07444243 -0.051219024 0.10926469 0.098236084 -0.15638833 0.0701637 0.014116916 -0.14593366
0.04239669 0.16431336 -0.15377901 0.1242221 0.20324993 -0.01409007 0.090151995 0.17457859

attentions2.attn.weight f4 [1, 64]
00000000: f36c 71bd 0a13 98bd 6b79 803d aab2 883d
00000010: 274a 493a 65d6 c7bd 4866 213d e7f2 343d
00000020: 23cf 683d a245 b6bd 8ec9 81bb e716 603d
00000030: 6c32 63bd c5d8 c13d 0feb 96bd 2aa8 dbbd
00000040: a5a2 cdbd 01fd ef3d 9ebf 84bc 0505 4fbb
00000050: 3790 be3c 61a8 873d 02f4 79bd 0147 873c
00000060: 40ee c8bd 29fb 853d 1f99 c33d d1b2 d03d
00000070: bf72 033e 8437 a8bd e31b acbd d554 e9bc
00000080: 08bd 03be cc9b 93bd 1301 293d b05b e73c
00000090: 739c 1dbe c264 833d 7057 e63d 50da c1bc
000000a0: d0a6 fb3c 7e74 69bc 041c 753c c74c bfbb
000000b0: 4753 88bc 582e a2bc ba26 85bd a685 8abd
000000c0: 8241 6cbd 976c 95bb 398e d9bd d9cf bd3d
000000d0: f093 953c fcda d1bc 91cc 96bc 6a39 2cbd
000000e0: 9505 2c3d afbb a0bd 60c0 74bd 331f 08bd
000000f0: f469 d63d f13c 24be c857 1dbe 2955 21be
-0.058941793 -0.074255064 0.06273159 0.066747025 0.0007678591 -0.097576894 0.039404184 0.044176962
0.056838166 -0.089 -0.003960795 0.05470934 -0.055468008 0.09465174 -0.073690526 -0.10725434
-0.100407876 0.117181785 -0.016204651 -0.0031588685 0.023262126 0.066239126 -0.06102372 0.01651335
-0.098110676 0.065420456 0.0955069 0.101903565 0.12836741 -0.08213714 -0.084037565 -0.028482834
-0.12865078 -0.0720745 0.04126079 0.028241962 -0.15391712 0.064157024 0.11247146 -0.02366367
0.03071919 -0.014248965 0.014960293 -0.00583801 -0.016641272 -0.019797489 -0.06501527 -0.06763773
-0.05767966 -0.004560064 -0.1062283 0.092681594 0.018259019 -0.025617115 -0.018408092 -0.04204694
0.04199751 -0.07848298 -0.059753776 -0.03323288 0.10469428 -0.16038872 -0.15365517 -0.15755142

attentions3.linear.weight f4 [32, 32]
00000000: 9ff6 85bc b435 853d d23d 493d 8564 163e
00000010: 239b 3fbd 596f 103e 2843 9dbc bfc8 fdbd
00000020: 128c 6b3b 23f3 09bd 1644 3b3e 4d0e e53d
00000030: 25b0 21be 8a50 06be 0378 01be 1c00 383d
00000040: a7dc 3d3e da4e db3c 1801 47be dd95 1dbc
00000050: b176 2a3e 7fda ae3d 4fc8 403c ddae af3c
00000060: 6716 cf3c 0bdf fe3c 7f0d 1cbe 2441 dcbd
00000070: 7265 38be 02b1 6bbc 0fc2 16be a361 0fbb
00000080: 735e 353d acdf c03d 34ae 4c3e bd94 03be
00000090: e633 4d3e 0e6a 0bbe def4 47be ebb6 103e
000000a0: c462 853d 5694 093e 8a33 c13d e338 92bd
000000b0: fcf2 ac3d 843c dfbd 2761 c03d 8f54 66bd
000000c0: 105d 15bd c931 053e 5a24 f23d 1bbb aa3c
000000d0: 872d f23d 1498 fc3d f33e 073d 0832 043e
000000e0: a49a 173e f098 b23d 016d cfbd e661 823d
000000f0: b275 f33d 97d0 ea3d e779 c1bd 9129 56bc
00000100: 7338 82bd ca56 0f3e 7f35 243e 70ba e0bd
00000110: 1055 87bd e2fe 533d fa85 e2bd 471b e1bd
00000120: 8e91 9cbd 0021 033e eec5 d0bd 3cf7 1bbe
00000130: 2dfa f83c 0ebb 9d3d 311a 783d 23ea 94bd
00000140: 6bc4 2dbe 6428 023e 34e5 153d adff dbbd
00000150: 871b 0dbe f6b2 eebd 3aad d93d f447 0bbe
00000160: de43 bebd eb90 593d 12b6 37bd 4bba b83b
00000170: 1529 4f3d 1ab1 613d be0d 30be 8836 033e
00000180: c4af 16be b667 823d b0d0 a9bb 2131 01be
00000190: 8795 44be ff40 f13d 517d 9d3c 49d5 24bd
000001a0: d36b 38bd 3f1a 88bd cdff 6bbd fb0c b13d
000001b0: 1908 3c3e 45d2 c6bd a8cf 1cbe 17cc ea3b
000001c0: a326 09be 8682 11bc 20b8 af3d f4cb 69bd
000001d0: cd87 1fbd 896b 013e 81df f83d 7db8 143d
000001e0: f5aa 20be 0fb0 adbd 8fad 24be 3a69 2cbc
000001f0: 0705 d13d 973d 04be e426 edbd 023a da3d
00000200: 195c 0fbe 4bdd 0f3e 6d36 e73d c73b 0abe
00000210: ea20 bd3b bd71 323e ef53 253e 5791 2b3e
00000220: 7d98 44bc 7773 1dbe c75c dd3b afc4 e9bd
00000230: 5085 37be 079e 3c3d 2385 25be ad99 223d
00000240: 996f 213e e98e 5b3d 532a 23be f1ed fd3d
00000250: de4b 17be 9e85 843d f6b0 8abd 3cd9 fc3d
00000260: 92fd 1f3d e5d9 123e 04e8 6b3d 04bd 1e3e
00000270: 2160 ff3c ace3 c9bd a15a e13d 3ddb 7ebc
00000280: 51f8 b9bd 8414 1a3d ddc7 923c c67a 1a3d
00000290: 16ea 4fbd afbf 333e 0595 e1bd ba4f 493e
000002a0: c465 04be 69b8 213e fa9e b8bc 023e 773d
000002b0: 675c 4cbd ccbc 6abd cf80 db3d d6ea 12bc
000002c0: a705 e4bd 26db 06bd e8e6 333e 24f1 44be
000002d0: 2083 063e 34c7 913d 3733 22be 2ad6 f4bd
000002e0: d0c5 a43d 825a d83d df86 82bc 2cf5 f6bd
000002f0: 73ff 2a3d 8b63 babc c958 173e 3c89 ffbd
00000300: 9483 0bbe ac54 1abe 498f 58be cca8 f53d
00000310: 7fda 0ebe 6012 06be d26b 2b3e 4961 e33c
00000320: 6825 fabd 860b e33d cb5a 0ebd 7974 603e
00000330: bb26 aebd 7852 903d 3d89 5abe fe18 f4bd
00000340: d00d b23d 1615 5ebe 1102 2f3b f050 dd3d
00000350: 4054 22bc b006 163e 7d2c 4d3e 4e3e 2dbe
00000360: de7f 00bd 47d7 fb3d d955 06bd d161 adbc
00000370: 6c11 d7bd ff0f 2ebd b510 4cbe c281 2dbe
00000380: 5b8c ffbd 6914 0a3e 2c40 283d 1402 c1bd
00000390: 351c 13be 717e 34be 0db7 de3c 4edf d1bd
000003a0: 29df 6f3d 6da7 0c3e 0b60 50bd ed3c 24bc
000003b0: ac37 27bd d6ed 113e 22da 933d 432f 973d
000003c0: 582a 023e 76cd 4cbd 2c77 43bd 59f7 1a3e
000003d0: 3ecc 85bd e214 fabd 8971 60bd f1a7 063e
000003e0: 45f9 58bd 9304 babd dbde 743d 4bad e73d
000003f0: 226e 113e 31c6 08be c396 a7bd e3b5 d6bb
-0.01635295 0.06504384 0.049131222 0.14686783 -0.04677881 0.14104976 -0.019197062 -0.12391805
0.0035941643 -0.03367914 0.18287691 0.11184368 -0.1578985 -0.1311666 -0.12643437 0.04492198
0.18541203 0.026770998 -0.19434011 -0.00961825 0.1664684 0.085377686 0.011766507 0.021445686
0.025279237 0.031112215 -0.15239523 -0.10754612 -0.18007448 -0.014385464 -0.14722465 -0.0021878264
0.044279527 0.09417662 0.19988328 -0.12849708 0.20039329 -0.13614675 -0.19527003 0.14132278
0.06512979 0.13435492 0.094336584 -0.071397565 0.08444783 -0.10900214 0.0939353 -0.056232985
-0.036465704 0.13007273 0.1182334 0.020841172 0.1182509 0.12333694 0.033019017 0.1290971
0.14805084 0.08720577 -0.10128213 0.06366329 0.11887683 0.114655666 -0.09447079 -0.013071434
-0.06358423 0.13997951 0.16036032 -0.1097306 -0.06608021 0.051756747 -0.1106071 -0.10991531
-0.0764495 0.12805557 -0.10194002 -0.15231031 0.03039273 0.077016935 0.060571853 -0.072712205
-0.16969459 0.1271072 0.03659554 -0.10742126 -0.13780032 -0.11655228 0.106287435 -0.13601667
-0.092902884 0.05311672 -0.04485137 0.005637442 0.05057629 0.055100538 -0.17192742 0.12813771
-0.14715487 0.063674375 -0.005182348 -0.12616397 -0.19197665 0.11779975 0.019224795 -0.040242467
-0.045024704 -0.06645631 -0.057616998 0.08645054 0.18362464 -0.097080745 -0.1531359 0.0071654427
-0.13393645 -0.008881217 0.08580041 -0.05707927 -0.03894787 0.12638678 0.12152005 0.036308754
-0.15690215 -0.08480846 -0.16081832 -0.010523135 0.10206037 -0.1291412 -0.115796834 0.10655595
-0.13999976 0.1404926 0.11289678 -0.13499366 0.005771746 0.174262 0.161453 0.16754662
-0.011999247 -0.15376078 0.0067554447 -0.114144675 -0.17921948 0.046049144 -0.16164069 0.039697338
0.15765227 0.053603087 -0.15934114 0.12398899 -0.14775035 0.06470798 -0.06772034 0.12346122
0.039060183 0.14340933 0.057594314 0.15501791 0.031173768 -0.09857878 0.11003614 -0.0155552
-0.09080566 0.03761722 0.017917568 0.037714742 -0.05076035 0.1755359 -0.11014751 0.1965932
-0.12929446 0.15793003 -0.022536743 0.06036187 -0.04989281 -0.057308957 0.10717928 -0.008967122
-0.111338906 -0.03292384 0.17568552 -0.19232613 0.13135958 0.07118073 -0.1583985 -0.11954911
0.08045542 0.10564138 -0.015933452 -0.120584816 0.04174752 -0.022752544 0.14779963 -0.12477347
-0.13624412 -0.15071362 -0.21148409 0.11995086 -0.13950537 -0.13092947 0.16740349 0.02775635
-0.12214166 0.11086182 -0.034754556 0.21919431 -0.08503481 0.0704698 -0.21341415 -0.119188294
0.08694041 -0.21687731 0.0026704113 0.10806453 -0.009907782 0.14650989 0.20036502 -0.16918299
-0.031371944 0.1229692 -0.032796714 -0.021164807 -0.1050137 -0.042495724 -0.19928248 -0.1694403
-0.124779426 0.13484348 0.041076824 -0.094242245 -0.14366229 -0.17626359 0.027186895 -0.1024767
0.05856243 0.13735743 -0.050872844 -0.010024291 -0.040824577 0.14250883 0.0721934 0.07382061
0.12711465 -0.05000063 -0.047721073 0.15133418 -0.06533097 -0.12211014 -0.054795776 0.13150002
-0.052972097 -0.09082904 0.059782844 0.1131235 0.14202169 -0.13356854 -0.081830524 -0.0065524443

attentions3.attn.weight f4 [1, 64]
00000000: b105 d53c 3672 303d 94cf 03be 24fa 573d
00000010: 7bce 5bbd 8691 f73d a65a 1cbd fed1 a9bd
00000020: 2c7c 97bd 944a 5cbd 6ec1 65bd ec2e debd
00000030: 55e8 ea3d 77cf 683d a398 73bd 1627 57bd
00000040: 025d 64bd 31bf 06bd e166 9b3d 34ed 60bd
00000050: c79c 0a3d eec0 03bc f3aa e73d 12dd 843d
00000060: 96cf 75bd dcc1 f83c 4685 0cbd 5344 9dbd
00000070: 91db e63d 27c5 d6bd 8bca 733d 7107 d93d
00000080: 7326 f63d 71c3 d03b 3225 7fbd 36f6 353b
00000090: 3b38 69bb f419 cebd 1099 cc3d 8ee0 d0bc
000000a0: 30e1 a63d 885c 03bd 1a40 a3bd f5b0 543d
000000b0: 1bb2 e3bc d35d 48bd d70b 85bc 0dad bc3d
000000c0: 9639 20bd 261c a13d b590 053e 60f3 a63b
000000d0: b1f6 c5bc 5820 2f3d 729d 06bc 67d9 d23d
000000e0: 975b a63d 547b 283e 9cae 06bc 1a9b dfba
000000f0: a379 c6bd e495 a73d c1c9 19bd 0606 00be
0.02600369 0.04307767 -0.12872154 0.052728787 -0.053663712 0.12088303 -0.038172387 -0.08292006
-0.07396731 -0.05378206 -0.056092672 -0.108487934 0.11470095 0.05683848 -0.059471738 -0.05252751
-0.05575276 -0.032897178 0.07587982 -0.054913715 0.03384092 -0.0080416035 0.11311903 0.06487478
-0.060012423 0.030365877 -0.034306787 -0.076790474 0.11272348 -0.104868226 0.059519332 0.105971225
0.12019052 0.0063709547 -0.06229133 0.0027765161 -0.0035586494 -0.10063544 0.09990132 -0.025497701
0.0814842 -0.032070667 -0.07971211 0.051926572 -0.027794888 -0.048917603 -0.016240997 0.09212694
-0.03911742 0.07866697 0.13043483 0.0050949305 -0.024165483 0.042755455 -0.008216249 0.102953725
0.08122938 0.16453296 -0.008220341 -0.0017059774 -0.09691169 0.08182886 -0.037545923 -0.12502298

output_layer.linear.weight f4 [5, 32]
00000000: 9e7d dfbc 4dea 19bc 525c 69bd d353 353e
00000010: 3ee3 f23d 70cf 183c cb95 453e 6363 bf3d
00000020: ca3d 90bd 5ecf 5abe 9860 08bd 6b12 5e3e
00000030: fc4a 633d 41ef 433e 0f2d 4a3e cb23 d4ba
00000040: 3663 413b 78db 04be 1b2e 31bd 5050 b0bd
00000050: 7d19 55be c52a d13d 0d94 963d 7940 573e
00000060: 2d98 6a3d 9fab 073e fb4f 523e e554 453e
00000070: 829e 163e b960 acbc 1a6f 453e f75e abbd
00000080: 0937 46be 3d51 333e 6922 d2bd dbae 993d
00000090: 7e82 a13d a3d6 16bd 3185 24be 92bb acbb
000000a0: afc1 1dbe a0e9 243c 14de 303d 84a8 0f3d
000000b0: 5d5b a03d 66b9 99bc 586c 17be a09b 433e
000000c0: b1f3 4cbe cb6d a33d 0cd1 03be 46b6 cbbd
000000d0: 451e 663c 89de bbbd 9cb5 57bc ec69 94bc
000000e0: b121 f53d 2e8d 08bc a05e 38bd 8fd1 27be
000000f0: 199e ce3a cc9c 2e3e f67b 6dbd b7ec 4c3e
00000100: f5dc ea3d fa7a b23d 49f8 50bc 6b5e 8d3d
00000110: 88d0 e1bd 02e4 ecbc 0bbc 38be 460b e6bd
00000120: 72e5 debd 73ef 10bd e1bb 7dbd 78ba debd
00000130: 6702 12be 9297 99bd 73dc 473d 0f57 073e
00000140: ad8e af3c 357e 273d f738 993c dc3e dfbd
00000150: 20a9 bc3d 9379 fb3d 2a05 f83d bfb8 8c3d
00000160: c80e 773d 6374 3bbe 1da8 8a3d cb26 c6bd
00000170: ad26 07be adb8 a9bd 41d3 57be 360a 4abd
00000180: f026 bdbd 675a 3c3e 621d 2f3e 3e96 56bd
00000190: c2fa 523d 86e7 993d 7b91 38be 84da 09be
000001a0: b41f 69bd 2534 4d3e a1db 2b3c 1bd4 87bd
000001b0: 98a6 993d 9e7e 403d 42bf b4bc 5492 013e
000001c0: 5b66 553d 9c13 d2bd 4575 34be 5177 ecbd
000001d0: a7b9 483e 7b16 903d ac7f acbd e704 01bd
000001e0: 4d30 12bc 44b9 f2bd 7d61 24be 9861 5e3c
000001f0: 402b 853d 5329 ac3d ffdf cabd b248 85bd
00000200: a018 c23d 6b3b d23d 4461 08be 2e53 41be
00000210: 14f7 183e f309 a33d 0928 1ebe b662 0f3e
00000220: 5552 07bd 5a3b 303e 728b 243e 9a04 08be
00000230: c361 363d ed48 b33d 25cb 9e3d cc37 143e
00000240: 1d55 ff3d ddfc f43d a2d1 0cbe fd89 a6bd
00000250: ca20 7c3d 1a5f 9b3c e6eb 733d 5c0c 713d
00000260: 5dfb ccbc e3d2 25bc a783 a1bd 444a 233d
00000270: 066b 923d 2e91 9b3d 3dce a5bd db26 853d
-0.027281579 -0.009394241 -0.05697281 0.17707758 0.11859749 0.009326801 0.19295423 0.093451284
-0.07043035 -0.21368167 -0.033295244 0.21686713 0.055491433 0.19134237 0.19743751 -0.0016184984
0.0029508597 -0.12974346 -0.04325686 -0.086090684 -0.20810504 0.10213236 0.07352457 0.21020688
0.057274032 0.13249062 0.20538323 0.19270666 0.14708903 -0.021042215 0.19280663 -0.083677225
-0.19356932 0.17511459 -0.102604695 0.07504054 0.078862175 -0.036825787 -0.16066433 -0.0052713836
-0.15405916 0.010065466 0.04318054 0.03507282 0.07829926 -0.018765163 -0.14787424 0.19102335
-0.20014836 0.07979926 -0.12872714 -0.09946875 0.014045303 -0.091733046 -0.013165858 -0.018116914
0.11969317 -0.008334441 -0.045012116 -0.16388534 0.001576367 0.17052001 -0.057979546 0.20012175
0.114679255 0.08714862 -0.012754508 0.069027744 -0.11026102 -0.028917316 -0.18040483 -0.11232619
-0.10883607 -0.035384607 -0.061946753 -0.1087541 -0.14258729 -0.07499613 0.04879422 0.13216804
0.021430338 0.040891845 0.01870392 -0.10900661 0.092119455 0.12279048 0.1211036 0.06871175
0.06031683 -0.18306117 0.06770346 -0.09675368 -0.13198347 -0.08287177 -0.2107668 -0.049326144
-0.09235942 0.18393861 0.17101052 -0.052389376 0.051508673 0.07514863 -0.18024246 -0.13462263
-0.056915 0.20039423 0.010489375 -0.06632253 0.07502478 0.04699575 -0.022063855 0.12653476
0.052099567 -0.102576464 -0.1762286 -0.11546195 0.19602071 0.07035538 -0.08422789 -0.031498816
-0.008922649 -0.11851743 -0.16052814 0.013573073 0.0650239 0.084063195 -0.09906005 -0.06508006
0.09477353 0.10265239 -0.13318354 -0.18879387 0.14938003 0.07960882 -0.1544496 0.14002499
-0.033037502 0.17210141 0.16068819 -0.13283005 0.044526827 0.08754144 0.077535905 0.1447441
0.12467406 0.11962292 -0.13751844 -0.08131788 0.061554708 0.018966246 0.059551142 0.058849677
-0.025022203 -0.01012108 -0.07886439 0.039865747 0.07149319 0.0759605 -0.080959775 0.06501552

output_layer.attn.weight f4 [1, 10]
00000000: f664 92bd 4c15 603e 08e4 5fbe 3c2d 94be
00000010: 1315 853d 463d 2b3e 3e4b 8abe 8aeb a0bd
00000020: cbce 863e 4bdd 83bc
-0.07148163 0.21883124 -0.21864331 -0.2894076 0.0649816 0.16722593 -0.2701053 -0.078574255
0.26329646 -0.016096732

fc1.weight f4 [5, 45]
00000000: b986 a3bd d60d 7cbc fadd 9bbd a197 063d
00000010: ede3 e0bd e5ae 75bd c2be 15be 7fc9 a7bd
00000020: 7bf0 14be 8f1f eebc 80ce 42bd 0961 fd3c
00000030: 29a5 f5bd 2fc5 ccbb 22af 983d 5770 a63d
00000040: 64d7 bdbd 041e 383b 3643 a93d 3748 ffbd
00000050: b47f bdbd ae62 c93d 13d9 953b 4bf4 d2bd
00000060: cbf0 5d3d dc2b 393e bbc9 113d 476e 5c3c
00000070: 95ee 23be 6236 2cbe 8109 ea3d 0aa8 d73d
00000080: b65e 0b3d 871f cdbd 4814 2dbe 44e6 d2bc
00000090: 2638 a53d 1eae 9d3c 6a42 ae3d f221 e13c
000000a0: adfb 3b3e 4f66 763d 9abd 83bd f94d 03bd
000000b0: bd34 9fbd fca2 74bd dbc2 23be fd98 d9bd
000000c0: 35d5 b13c 8697 87bd 4543 733d 07d5 27be
000000d0: c636 f4bd 2a2c b33d ddb1 4c3d c561 2ebd
000000e0: da76 fbbd 383e c13d 8fdb 963d 9f48 5d3d
000000f0: ece7 233e b6bf 913d 076c a6bd c529 88bd
00000100: c380 09be e09b 2e3e b6db 4abc 3d0c 87bd
00000110: 1b55 4bbd b3fb 90bd d317 dcba fec3 e13d
00000120: 3772 103e 693b 8a3d 6572 0abe dd25 a23b
00000130: c353 30be 7869 073e 9dbd cfbd 8e8c 1ebe
00000140: 0b8e eabd ce45 0cbe a741 8e3d fe77 c13d
00000150: 7bcf c4bd 8ac7 8bbd e7b4 09be cef1 b4bd
00000160: 2eab 0b3d 2d31 c3bd 1d5a 233d e8b0 f73d
00000170: 5f7b e23d 119f 86bd 451a 3bbd 950a fb3d
00000180: a8ef 48bd c94d cc3d 1f3b 8a3d 2dfb 1d3d
00000190: aaa7 7b3d baab 64ba 3b44 38bc 9588 12be
000001a0: a168 dd3d b226 923d 32a4 2dbe d416 d6bd
000001b0: aaf5 c53d 0f5c eebd 981d 5e3b 51eb 04be
000001c0: 5c1a 713d b018 e3bd 51a0 f03c db55 9a3d
000001d0: 2d98 ff3d 9ff4 863d aaaa e4bd cddf 83bd
000001e0: 6f7e 88bb 189a e2bd 18a8 01bd 01e7 47bc
000001f0: 7765 b43d babb bbbd 660a 87bb 08e8 f2bd
00000200: 87fa 04be 97ff 10be 7411 913d fb02 12be
00000210: c831 f83d 18c7 ddbc 7e4d 2e3d 201e 683d
00000220: 1e99 4bbd be7e 8ebc c57f 38be 8672 9c3c
00000230: 5796 033c bbdd 85bd 07af bbbc 149a 753d
00000240: 08f6 383c 8c50 1a3e ae99 e53d 0983 28be
00000250: 574b da3d 6f56 16be a872 34ba 5452 1cbd
00000260: 8fc8 debd dacc 55bd c170 7bbb 0db9 3f3d
00000270: 6c55 7b3d 1859 dbbd c925 dfbd 1671 e2bc
00000280: 210f a73d 204d febd 2e52 473c 0020 153d
00000290: 3e26 dd3d dc38 8c3c 41b4 f9bd eedc 36bd
000002a0: 59da f43d 76ed 4c3d 6a62 d73b c962 f8bd
000002b0: 7508 04bb e280 d8bd daa5 e73d 0dec cabd
000002c0: d7fc 1dbb 2edf df3b 6524 9cbd 14f8 a13c
000002d0: ba88 dfbd f215 e63c bdbb 203d 7f19 963d
000002e0: 6739 91bd a662 843c 870d 36bb 891e 903d
000002f0: 54e5 283e d847 673d ae09 8c3d 7da2 87bd
00000300: ac25 a63d 7183 f23d 8d28 c53c eaad a4bd
00000310: 7286 2b3e 2074 8b3d a549 463e 7403 60bd
00000320: e73f 3e3d 6d5f 83bd a668 f6bc 6c26 bdbd
00000330: 7c94 c03d 7432 ffbd cd54 cc3d e84f 08be
00000340: 30a1 2e3e 245d 343e d3dc d1bd 4ccd 243e
00000350: 0878 f93d eb25 ad3c d558 e93c 50f1 06be
00000360: 4d7f 273e f1bc 91bc f8e2 7a3d a309 183b
00000370: f358 bbbc 631d 263e df7c 083d 1c5d 8e3d
00000380: a65c 7fbd
-0.07984681 -0.015384158 -0.07610698 0.03285945 -0.109809734 -0.059981246 -0.1462355 -0.08192729
-0.14544861 -0.029067783 -0.047560215 0.030930059 -0.119943924 -0.006249092 0.07455279 0.08126896
-0.09269598 0.0028094063 0.082647726 -0.12464946 -0.09252873 0.09833275 0.0045729964 -0.103005014
0.054184716 0.18083137 0.035592776 0.013454027 -0.1600898 -0.1681762 0.11427594 0.10530098
0.03402587 -0.10015779 -0.16902268 -0.025744565 0.0806735 0.019248065 0.08508761 0.027482007
0.18357725 0.060156163 -0.06432648 -0.032056782 -0.07773731 -0.059725747 -0.159923 -0.10624883
0.02170811 -0.06620698 0.059390325 -0.16389857 -0.1192451 0.08748658 0.04997431 -0.04257371
-0.122785285 0.094356954 0.07366096 0.054024335 0.1600644 0.07116644 -0.08126073 -0.06648592
-0.13428025 0.17051649 -0.012381485 -0.06594131 -0.04964171 -0.07079258 -0.0016791768 0.11023711
0.1410607 0.06749613 -0.135202 0.0049483613 -0.17219453 0.13223827 -0.10143588 -0.15483305
-0.11452874 -0.13698503 0.06946116 0.09446715 -0.09609886 -0.068251684 -0.13447915 -0.08835183
0.034098797 -0.09530864 0.03988086 0.12094289 0.110586874 -0.06573308 -0.04567935 0.12257878
-0.04905668 0.09975774 0.06749558 0.038569618 0.061439194 -0.0008723099 -0.011246736 -0.14309914
0.10810972 0.07136287 -0.16957167 -0.10453573 0.09665997 -0.116386525 0.003389215 -0.12980391
0.05886303 -0.11088693 0.02937332 0.07535907 0.12480197 0.065896265 -0.11165364 -0.06439171
-0.0041654627 -0.11064547 -0.031654447 -0.012201072 0.088084154 -0.091666654 -0.0041211126 -0.11860663
-0.12986194 -0.1416 0.07083407 -0.1425895 0.1211887 -0.027072474 0.04255437 0.056669354
-0.04970657 -0.01739442 -0.1801749 0.019097578 0.008031449 -0.06536432 -0.022910608 0.059961393
0.011289127 0.15069789 0.11210953 -0.16456236 0.10658901 -0.1468141 -0.000688354 -0.03816445
-0.10878097 -0.052197315 -0.0038366767 0.046807338 0.06136076 -0.10710353 -0.10895879 -0.027641814
0.081571825 -0.12417054 0.012165589 0.03640747 0.1079831 0.017116956 -0.12192584 -0.04464429
0.11955709 0.050031148 0.006573011 -0.12128217 -0.0020146642 -0.105714574 0.113109306 -0.09908304
-0.0024107003 0.006832025 -0.07624129 0.019771613 -0.109147504 0.028086636 0.03924154 0.07329082
-0.07091027 0.01616032 -0.002777906 0.07037074 0.16493732 0.056465 0.06837784 -0.06622789
0.08112654 0.11841477 0.024067188 -0.08040984 0.16750506 0.068092585 0.1936403 -0.054690793
0.04644766 -0.064146854 -0.030079197 -0.09235844 0.09403321 -0.12460795 0.09977112 -0.13311732
0.17053676 0.17613655 -0.10247197 0.1609394 0.12181097 0.021136245 0.028484741 -0.13177991
0.16357155 -0.01779029 0.06125161 0.0023199103 -0.022869563 0.16222148 0.03332221 0.06951353
-0.062344216

fc1.bias f4 [5]
00000000: bf7a 073e fdd1 12bd b39f b5bd 93b3 073e
00000010: a85a 77bd
0.13230418 -0.03584479 -0.08868351 0.13252096 -0.06038919
