saved_weights/Grid_10_1-/231/actor.pth (torch, 265637 bytes, 12 tensors)

attentions1.linear.weight f4 [16, 1]
0.86912346 0.98483235 0.6437796 -0.064835645 0.9803366 0.016364321 -0.1911641 0.061038353
-0.61711407 0.0030863346 -0.035390396 0.57607436 0.30786252 0.818469 -0.88904655 0.49216846
00000000: e07e 5e3f f91d 7c3f bdce 243f 8dc8 84bd
00000010: 57f7 7a3f 780e 863c 86c0 43be 5a03 7a3d
00000020: 30fb 1dbf 1a44 4a3b 85f5 10bd 9c79 133f
00000030: 28a0 9d3e 2f87 513f 8e98 63bf 81fd fb3e

attentions1.attn.weight f4 [1, 8]
0.19622272 0.060964912 -0.12645721 -0.021260764 0.3956863 0.2111476 0.2784688 -0.08259911
00000000: 9cee 483e 58b6 793d 007e 01be 0e2b aebc
00000010: 6597 ca3e 1437 583e 7693 8e3e b929 a9bd

attentions2.linear.weight f4 [16, 16]
-0.18920776 0.3095365 0.10126656 -0.26600155 0.2576002 -0.14931394 -0.0986473 0.15751114
-0.07293338 -0.122217886 -0.013233873 -0.0959309 0.06663467 0.042541716 -0.14727725 -0.019210108
-0.010646484 -0.08680754 0.22881721 0.12533124 0.15511988 -0.029215032 0.24518797 -0.09179513
0.23402984 0.0015348431 0.06586472 0.13870151 -0.11111176 0.07136939 0.2120568 0.1883284
0.02868805 -0.016530527 0.11574935 -0.015406691 -0.11844627 0.20023777 -0.018780563 0.18911809
-0.11391814 0.10036739 0.030126214 0.02675839 0.001287456 -0.023944106 -0.085276805 0.08027591
-0.122152865 -0.05162642 -0.16018566 -0.22813109 0.084662646 -0.19576456 -0.026557475 0.033131737
-0.20605424 -0.22837715 -0.06643532 -0.086940154 0.10713027 -0.2329965 -0.078888856 -0.13301852
0.10336031 0.20129375 -0.004018574 -0.13807675 0.052792247 -0.2001098 0.017874142 -0.12240537
-0.10889936 -0.16206145 -0.17042506 0.14461999 -0.07839371 -0.1455523 -0.1799586 -0.04005928
0.10244439 0.27833825 0.028837087 0.11331983 -0.24419245 0.04971265 0.0133878235 -0.20989437
0.2325878 -0.1909285 0.13454655 -0.21820728 -0.20732073 -0.16188902 0.115330696 0.16275577
0.20491646 0.29306662 0.29378727 -0.0038156346 -0.172913 -0.16221014 -0.27695858 0.2825168
-0.20035155 0.16675101 0.14103927 -0.05971503 -0.0030854892 -0.007373432 -0.09608086 -0.16244294
-0.17810671 0.2843321 0.11261911 -0.25164732 0.17603004 0.23300546 -0.24787563 0.1264616
0.0006578999 -0.097908914 -0.15299428 0.21925622 -0.20365384 -0.041019045 0.1383349 0.05025066
0.24245623 0.16018018 -0.17970523 -0.034810506 0.19336453 0.008955191 -0.19656138 -0.21884848
-0.052818406 0.22532187 -0.19118576 0.11542155 0.18714696 -0.20994975 -0.033669602 -0.18499684
-0.19496734 -0.07966595 -0.14168346 0.061428513 0.032418486 -0.03426053 -0.21469586 0.13914226
0.18310693 0.1504174 -0.1649433 -0.10638186 0.2669658 -0.0058266497 -0.08939228 0.2785163
-0.22323194 0.21589501 -0.12311642 -0.21875297 -0.064893275 0.23987544 0.1490357 0.24261837
0.13746849 0.041729517 0.08193473 -0.030182203 -0.16284382 0.22012614 0.079123214 0.17232865
-0.08365227 -0.29717296 0.11311518 -0.1775335 -0.04135375 0.08037729 -0.109041475 -0.20309643
-0.00916076 0.14825664 -0.24058574 -0.26251215 0.042847093 0.18936165 0.14583246 0.18686926
-0.28260416 0.096237294 0.020875279 0.020172153 0.018168172 -0.2519433 0.24473526 -0.24452528
-0.17480674 -0.033955663 0.11422748 0.020810112 0.05966098 -0.01073603 0.026352162 -0.05569759
-0.1943106 0.029782932 -0.018341793 -0.16135332 -0.09931304 0.078454226 -0.07593948 0.066023126
0.19978751 0.22146535 0.19687094 0.014197515 -0.1419325 -0.07351449 0.0705644 -0.20056506
-0.11223926 -0.27675322 0.18955766 0.077047296 -0.11021765 -0.12115712 0.0043102284 0.0821299
-0.022309534 0.15107076 -0.21710476 -0.17303246 -0.24926172 -0.24031252 -0.19983938 -0.09692991
0.25636932 0.049992196 -0.04371846 -0.002663408 -0.054883886 0.018952787 -0.25287417 -0.080865405
0.18836528 0.078892685 0.12962368 -0.2571832 0.1631628 -0.045432057 0.0694669 0.1275009
00000000: aebf 41be 917b 9e3e d864 cf3d 5b31 88be
00000010: 2ce4 833e c1e5 18be 9807 cabd 9a4a 213e
00000020: 195e 95bd 5f4d fabd e3d2 58bc 6b77 c4bd
00000030: c277 883d 3940 2e3d d9cf 16be 845e 9dbc
00000040: 976e 2ebc 27c8 b1bd 0f4f 6a3e d556 003e
00000050: bfd7 1e3e 5d54 efbc 8e12 7b3e 16ff bbbd
00000060: 85a5 6f3e ca2c c93a 15e4 863d c507 0e3e
00000070: 908e e3bd 1d2a 923d 6b25 593e 29d9 403e
00000080: 3403 eb3c 076b 87bc ff0d ed3d 586c 7cbc
00000090: f593 f2bd 210b 4d3e b2d9 99bc 2ca8 413e
000000a0: ea4d e9bd 6b8d cd3d 40cb f63c 6934 db3c
000000b0: dbbf a83a 6e26 c4bc 9ba5 aebd b267 a43d
000000c0: 482b fabd 3a76 53bd b607 24be 329b 69be
000000d0: 9c63 ad3d 8176 48be 108f d9bc 25b5 073d
000000e0: e2ff 52be b3db 69be 3e0f 88bd ae0d b2bd
000000f0: 1d67 db3d a296 6ebe 7b90 a1bd 0236 08be
00000100: 92ae d33d f31f 4e3e 3eae 83bb fe63 0dbe
00000110: af3c 583d 95e9 4cbe cb6c 923c abaf fabd
00000120: a106 dfbd 70f3 25be e883 2ebe 4317 143e
00000130: e28c a0bd aa0b 15be 1147 38be 3315 24bd
00000140: 5dce d13d 5a82 8e3e c13b ec3c 3a14 e83d
00000150: 960d 7abe 7e9f 4b3d 9a58 5b3c 8dee 56be
00000160: 7f2b 6e3e c382 43be 92c6 093e bb71 5fbe
00000170: e34b 54be 3cc6 25be 8032 ec3d 73a9 263e
00000180: 9fd5 513e d40c 963e 496b 963e ba0f 7abb
00000190: 1b10 31be 6a1a 26be 84cd 8dbe 0ba6 903e
000001a0: f528 4dbe c7c0 2a3e 996c 103e bf97 74bd
000001b0: eb35 4abb d59c f1bb 0bc6 c4bd 7157 26be
000001c0: 9b61 36be fa93 913e d9a4 e63d ebd7 80be
000001d0: 3841 343e fc98 6e3e 1cd3 7dbe 267f 013e
000001e0: ea76 2c3a 7884 c8bd 88aa 1cbe b484 603e
000001f0: a28a 50be 9603 28bd aaa7 0d3e a3d3 4d3d
00000200: 7246 783e 4606 243e a604 38be 7695 0ebd
00000210: 5a01 463e cbb8 123c 6347 49be d119 60be
00000220: 1d58 58bd c7ba 663e 33c6 43be 2262 ec3d
00000230: 74a3 3f3e 11fd 56be 23e9 09bd d06f 3dbe
00000240: 85a5 47be e727 a3bd 7815 11be 779c 7b3d
00000250: 3fc9 043d c554 0cbd 3bd9 5bbe 4f7b 0e3e
00000260: 6280 3b3e 0507 1a3e e5e6 28be bcde d9bd
00000270: beaf 883e 7bed bebb 4d13 b7bd b099 8e3e
00000280: ea96 64be 9513 5d3e 7624 fcbd c700 60be
00000290: c4e6 84bd e8a1 753e d19c 183e f370 783e
000002a0: 8ac4 0c3e 92ec 2a3d 65cd a73d ab40 f7bc
000002b0: 88c0 26be bf68 613e 5a0b a23d ec76 303e
000002c0: e251 abbd 0e27 98be eea8 e73d 58cb 35be
000002d0: 8d62 29bd d99c a43d 2351 dfbd 83f8 4fbe
000002e0: 0317 16bc 97d0 173e 1c5c 76be fe67 86be
000002f0: 6f80 2f3d 05e8 413e 1b55 153e a85a 3f3e
00000300: 7eb1 90be 0f18 c53d a202 ab3c 1240 a53c
00000310: 6bd5 943c b6fe 80be e19b 7a3e d664 7abe
00000320: 8a00 33be 1815 0bbd 19f0 e93d f879 aa3c
00000330: 125f 743d 2ce6 2fbc 7de0 d73c 2823 64bd
00000340: 5cf9 46be 56fb f33c 8741 96bc ce39 25be
00000350: a364 cbbd 9cac a03d 2886 9bbd 2237 873d
00000360: 1995 4c3e d0c7 623e 8998 493e b29c 683c
00000370: c156 11be c48e 96bd 1184 903d ed60 4dbe
00000380: b2dd e5bd 99b2 8dbe 671b 423e f9ca 9d3d
00000390: cbb9 e1bd 3921 f8bd d13c 8d3b b933 a83d
000003a0: 7cc2 b6bc 4bb2 1a3e b650 5ebe 6c2f 31be
000003b0: 773e 7fbe 7c14 76be b2a2 4cbe 3083 c6bd
000003c0: d742 833e 9ec4 4c3d 2112 33bd 928c 2ebb
000003d0: edcd 60bd e042 9b3c b978 81be c39c a5bd
000003e0: d4e2 403e 7d92 a13d 12bc 043e 84ad 83be
000003f0: 2614 273e f716 3abd a944 8e3d 998f 023e

attentions2.attn.weight f4 [1, 8]
-0.11306924 0.06257612 -0.17636707 0.40146482 0.2828054 -0.3527264 0.4180708 0.14556998
00000000: d890 e7bd e927 803d 9299 34be cc8c cd3e
00000010: dfcb 903e 8e98 b4be 600d d63e 4c10 153e

attentions3.linear.weight f4 [16, 16]
-0.19304769 0.07531822 -0.07600607 0.11791288 -0.0066646324 -0.19088033 -0.28229985 -0.041224886
-0.29063436 0.055108313 0.18029106 0.054250296 -0.10086292 0.1224901 0.13073546 -0.0379871
0.04377783 -0.21392752 0.1344092 -0.24966832 0.06026961 -0.14411348 0.23844326 0.07706589
-0.0823122 0.1713032 -0.013178927 -0.037543565 -0.16314852 0.03375915 -0.15994768 0.11723249
0.16050674 -0.19235162 0.19765237 -0.1583175 -0.23459359 -0.0672804 0.12873958 -0.017397095
-0.17081392 0.033692278 0.13456571 -0.18727691 0.11775235 -0.048021756 0.065469235 -0.11633172
-0.1870163 -0.06473608 -0.046285298 -0.15623882 0.20052138 0.004673253 0.17567895 -0.11650206
-0.0026251907 0.21871586 0.15752701 0.19975507 -0.13984965 -0.019633545 -0.13225974 -0.20082651
-0.2860895 0.055530626 0.13554403 -0.11585967 -0.18852651 -0.15109783 -0.29399434 0.021047333
-0.24125306 0.07433856 0.25037712 0.14566903 -0.06395643 0.25153884 0.24605548 -0.16419122
0.0077809417 0.26030976 -0.12148151 -0.25509685 0.078916624 0.024494309 -0.1507526 -0.030384405
0.14630574 -0.14008474 0.16216911 -0.16769902 -0.06369878 -0.09017881 0.2136848 -0.17114358
0.06397151 -0.16782844 -0.20206887 -0.14386575 -0.05858968 0.13425893 0.1146634 0.05309442
-0.0066811084 -0.0010906132 -0.07065142 -0.13280135 -0.15033494 0.13492543 0.22361459 -0.15061122
-0.014793907 -0.033307925 0.14553371 0.1862363 -0.15107252 0.021672715 -0.27499107 -0.16236234
-0.25728405 -0.11425829 0.107632674 0.13526255 0.09375264 -0.03447524 0.124061465 -0.13316129
0.096938245 0.034646414 0.15706913 0.03699584 -0.19619739 -0.08456128 0.17927177 -0.26567236
-0.010087205 0.20572853 0.069761395 0.14596096 0.17951855 0.083089 0.048870116 -0.22735888
0.11869529 0.042091973 0.1657629 0.20979953 0.21817878 -0.12720788 -0.1722962 -0.12511285
0.07454406 -0.17695458 0.25907135 -0.22247547 0.19469272 -0.1967973 0.044595063 0.13263318
-0.21255524 -0.21826637 0.021664444 -0.066758014 -0.06886789 -0.32869905 -0.33240741 -0.18214099
-0.12212583 -0.052298874 -0.15130655 0.238659 0.2620285 0.1593737 0.26225743 -0.2859732
0.17510827 0.10478014 -0.23717052 0.047751587 -0.051112525 0.17577775 0.13881795 -0.15312563
0.10520489 -0.1699012 0.2021231 0.17768425 0.0798047 0.218776 0.15172842 -0.0685017
0.19449186 0.22242211 -0.04986826 0.17030403 0.047594506 0.12994938 -0.051711973 0.05174725
-0.1609365 -0.2627288 0.13103533 0.12052424 0.043724764 0.056303017 -0.15702349 0.036145344
-0.20823622 -0.16359438 -0.041470647 0.25717863 0.037813425 -0.1853467 -0.02267492 -0.1598344
0.10239671 0.059724223 0.00610221 -0.10189541 0.16445392 0.12784444 -0.002834129 -0.0027050646
-0.14822842 0.22745152 0.17146039 0.14892909 0.25992265 -0.15597051 -0.071272396 -0.08579098
0.24755374 -0.23162483 0.09872876 0.14957765 -0.22527508 -0.113145135 -0.13225515 0.119044565
-0.12124359 0.1705414 0.07743247 0.23369849 -0.28124204 -0.22701558 -0.21177454 0.098325826
-0.060783137 0.24579158 0.053292602 0.19254422 -0.07758882 -0.0410267 0.23514715 0.15922788
00000000: 4bae 45be 7040 9a3d 12a9 9bbd 4f7c f13d
00000010: fd62 dabb 2276 43be 9b89 90be 6ddb 28bd
00000020: 07ce 94be 41b9 613d 389e 383e 8f35 5e3d
00000030: 3891 cebd 17dc fa3d 84df 053e 5d98 1bbd
00000040: 6250 333d d10f 5bbe 91a2 093e 0da9 7fbe
00000050: 44dd 763d 7c92 13be 782a 743e b9d4 9d3d
00000060: 4c93 a8bd 1b6a 2f3e 6dec 57bc 48c7 19bd
00000070: 6810 27be 0947 0a3d 53c9 23be 9617 f03d
00000080: e15b 243e d3f7 44be 6265 4a3e fc1d 22be
00000090: 4d39 70be 4eca 89bd 4fd4 033e 5a84 8ebc
000000a0: d8e9 2ebe ea00 0a3d 98cb 093e 85c5 3fbe
000000b0: 2528 f13d 76b2 44bd bc14 863d 533f eebd
000000c0: 3381 3fbe 5a94 84bd a795 3dbd 12fd 1fbe
000000d0: 7a55 4d3e 1622 993b 2fe5 333e a298 eebd
000000e0: 640b 2cbb 0df7 5f3e c34e 213e 988c 4c3e
000000f0: bf34 0fbe 87d6 a0bc 196f 07be 77a5 4dbe
00000100: 537a 92be 1574 633d 0ecc 0a3e d647 edbd
00000110: 180d 41be 64b9 1abe 6d86 96be 756b ac3c
00000120: 0b0b 77be d13e 983d 6e31 803e 432a 153e
00000130: 97fb 82bd b3c9 803e f8f5 7b3e be21 28be
00000140: 45f7 fe3b 5247 853e 4ccb f8bd 0e9c 82be
00000150: 0a9f a13d 4aa8 c83c e45e 1abe b7e8 f8bc
00000160: 2cd1 153e 6072 0fbe a90f 263e 4bb9 2bbe
00000170: 8274 82bd abaf b8bd 30d0 5a3e 4340 2fbe
00000180: 7f03 833d 38db 2bbe 24eb 4ebe 8b51 13be
00000190: bbfb 6fbd 2c7b 093e a5d4 ea3d 8979 593d
000001a0: 33ed dabb e8f2 8eba b1b1 90bd 14fd 07be
000001b0: 67f1 19be e429 0a3e 39fb 643e d439 1abe
000001c0: 2562 72bc e46d 08bd ca06 153e bbb4 3e3e
000001d0: c1b2 1abe fa8a b13c a1cb 8cbe 5042 26be
000001e0: bcba 83be 4000 eabd 856e dc3d 4482 0a3e
000001f0: 6201 c03d e935 0dbd f013 fe3d 6f5b 08be
00000200: 8f87 c63d 66e9 0d3d bbd6 203e f388 173d
00000210: f8e7 48be 772e adbd 0593 373e 3506 88be
00000220: ce44 25bc 80aa 523e 10df 8e3d ca76 153e
00000230: b6d3 373e 912a aa3d 082c 483d c4d0 68be
00000240: 8416 f33d a268 2c3d c0bd 293e b0d5 563e
00000250: 426a 5f3e c842 02be 6a6e 30be 951d 00be
00000260: 8eaa 983d 9533 35be 00a5 843e 9cd0 63be
00000270: 875d 473e 3b85 49be 50a9 363d fed0 073e
00000280: 15a8 59be 3881 5fbe a279 b13c 6db8 88bd
00000290: 9c0a 8dbd 3e4b a8be 4e31 aabe 2b83 3abe
000002a0: 1b1d fabd 5837 56bd 1bf0 1abe 0663 743e
000002b0: 9928 863e dc32 233e 9b46 863e 146b 92be
000002c0: 954f 333e f896 d63d d4dc 72be 2b97 433d
000002d0: 5e5b 51bd 15ff 333e 4b26 0e3e f7cc 1cbe
000002e0: a975 d73d 95fa 2dbe 5cf9 4e3e dcf2 353e
000002f0: a670 a33d d106 603e b25e 1b3e 9f4a 8cbd
00000300: e028 473e 9fc2 633e a942 4cbd 2e64 2e3e
00000310: 75f2 423d 7311 053e efcf 53bd edf4 533d
00000320: 8acc 24be 6484 86be 202e 063e 6ad5 f63d
00000330: bd18 333d fe9d 663d c4ca 20be 240d 143d
00000340: e03b 55be 4985 27be 20dd 29bd ebac 833e
00000350: 40e2 1a3d 86cb 3dbe c1c0 b9bc a1ab 23be
00000360: 5eb5 d13d 63a1 743d 0cf5 c73b 8aae d0bd
00000370: 9c66 283e a7e9 023e cbbc 39bb 7447 31bb
00000380: 31c9 17be 0de9 683e 5093 2f3e de80 183e
00000390: 9514 853e bcb6 1fbe 43f7 91bd 2eb3 afbd
000003a0: ba7e 7d3e 0f2f 6dbe 4e32 ca3d e22a 193e
000003b0: 83ae 66be a3b8 e7bd e56d 07be a3cd f33d
000003c0: 8f4e f8bd 68a2 2e3e ea94 9e3d a84e 6f3e
000003d0: f5fe 8fbe c676 68be 6ddb 58be 0d5f c93d
000003e0: bdf7 78bd cab0 7b3e 5849 5a3d 502a 453e
000003f0: e3e6 9ebd 9d0b 28bd 6aca 703e a20c 233e

attentions3.attn.weight f4 [1, 8]
-0.084347524 0.30819815 -0.19966064 -0.2015901 -0.23415592 0.41333297 -0.18652306 -0.34237337
00000000: 65be acbd 26cc 9d3e d773 4cbe a36d 4ebe
00000010: 92c6 6fbe 61a0 d33e e7ff 3ebe 904b afbe

output_layer.linear.weight f4 [5, 16]
0.25486785 -0.21389084 0.08342987 -0.050201546 0.27396193 -0.19099158 -0.010774326 -0.13143462
-0.16256976 0.08637796 0.19209006 0.1221818 0.044415552 0.20822068 -0.08129062 0.2533562
-0.06562878 0.06821939 0.091395 0.1771759 -0.19950128 -0.072194844 -0.07847821 -0.26581877
-0.009325771 0.07914878 0.040695764 -0.02468134 -0.01851114 -0.24949402 0.1291205 0.007840229
0.05654481 0.11002696 0.015517772 0.05651496 -0.072324656 -0.0666449 -0.12445276 -0.26534542
0.15510868 0.044509266 0.08760809 0.18289605 0.08444337 -0.235316 0.18560918 0.0889562
0.09408292 0.13199182 0.26472306 0.18694879 0.103597924 0.26366502 -0.09769912 0.11165097
0.1874412 -0.0042942706 0.19133686 -0.031045923 0.09940886 0.26276204 -0.19891049 -0.012668844
0.093924046 -0.09142021 -0.18159059 -0.014873143 -0.041339457 -0.14561048 -0.11233132 0.1068195
0.22760904 0.0897897 0.29068592 -0.1011024 -0.20214225 -0.13314074 -0.005435262 0.20103782
00000000: 0a7e 823e 3306 5bbe 48dd aa3d 23a0 4dbd
00000010: bd44 8c3e 4c93 43be cc86 30bc cc96 06be
00000020: b078 26be eee6 b03d 42b3 443e 743a fa3d
00000030: 15ed 353d cd37 553e b27b a6bd e7b7 813e
00000040: 6268 86bd 9cb6 8b3d 4d2d bb3d 996d 353e
00000050: 104a 4cbe e4da 93bd 2fb9 a0bd 6619 88be
00000060: 1ecb 18bc c118 a23d 9ab0 263d 8630 cabc
00000070: ada4 97bc 5c7b 7fbe 2a38 043e 4e74 003c
00000080: 889b 673d d155 e13d 413e 7e3c 3b7c 673d
00000090: f31e 94bd 1f7d 88bd 17e1 febd 5bdb 87be
000000a0: cfd4 1e3e 594f 363d df6b b33d 1a49 3b3e
000000b0: a5f0 ac3d adf6 70be 5510 3e3e ab2e b63d
000000c0: 8cae c03d dd28 073e c889 873e 816f 3f3e
000000d0: 262b d43d 1aff 863e 7a16 c8bd 44a9 e43d
000000e0: 96f0 3f3e f4b6 8cbb cfed 433e 0554 febc
000000f0: df96 cb3d bf88 863e 31af 4bbe fc90 4fbc
00000100: 405b c03d 853a bbbd e2f2 39be 7cae 73bc
00000110: 9053 29bd ea1a 15be f70d e6bd 2fc4 da3d
00000120: 5812 693e aae3 b73d c9d4 943e c60e cfbd
00000130: 61fe 4ebe 0c56 08be 481a b2bb dcdc 4d3e

output_layer.attn.weight f4 [1, 10]
0.12042051 -0.07185344 0.28588602 -0.26668295 -0.2836715 -0.22824293 -0.19296281 0.09838815
-0.31669366 -0.25281698
00000000: 079f f63d e527 93bd a75f 923e ab8a 88be
00000010: 643d 91be 84b8 69be 0b98 45be ba7f c93d
00000020: ac25 a2be 3a71 81be

fc1.weight f4 [128, 500]
0.0006183128 -0.036200523 -0.02797141 0.027613489 -0.004506975 0.062196016 -0.0011170569 0.029846173
0.02516186 0.025929475 0.05982955 -0.038365822 0.02869352 0.044770926 -0.011209341 0.057638835
0.0033410403 0.003545784 0.050006047 0.03603207 -0.019661536 -0.023872908 -0.03783784 -0.0017134696
-0.044174757 0.041735213 0.030360285 -0.017938918 -0.0005544573 0.033720534 0.0020289395 -0.041660976
-0.019198706 0.041611955 -0.0034995524 0.026093623 0.0021216876 -0.021501152 0.04013186 0.027483933
0.028827101 0.017599352 0.007439045 0.045661405 -0.014220375 0.011373084 0.003444125 -0.0056988792
0.0062856087 0.029291414 -0.005815048 -0.03732491 0.03115143 -0.012850998 0.047711145 0.0408511
-0.006518904 0.051049575 0.058000877 0.0075354837 0.028818607 -0.06185332 -0.017667124 0.0385899
-0.0008901189 0.043932628 0.008426886 0.058765437 0.01122527 -0.012313767 0.05466607 -0.05772587
0.036121316 0.027824404 0.012290372 0.02417829 0.01879941 -0.0155415 0.031954005 0.035818063
0.040574394 -0.04630218 0.020120379 0.045128383 0.01700064 -0.0023904445 -0.011786818 -0.022344926
0.06597817 -0.0039134026 0.015106778 0.010507939 -0.018938188 0.057150166 -0.01214783 -0.020912739
-0.027025063 0.034311015 0.010231268 -0.003102456 0.008027622 -0.009608266 0.002372344 -0.019929653
0.038696002 0.026250433 -0.035428423 -0.008850005 0.0029811386 0.0004120298 0.052633073 -0.047912635
-0.004268539 0.02827592 -0.022693498 0.007836308 -0.035888143 -0.015723322 0.05896303 -0.004458786
0.03584346 -0.022337602 -0.009291414 -0.016163835 0.061907772 0.010021994 0.008372227 0.058772985
0.0043307813 0.06154585 0.059564352 0.022686357 0.05486263 0.022808783 0.048465237 -0.011048522
-0.035668783 0.055018608 0.015373458 -0.0201605 0.053675607 -0.052194465 -0.022439819 0.05499168
0.03906738 0.031905692 -0.047505762 0.0013308149 0.056605496 0.027884986 0.03134672 -0.006588913
0.011654128 -0.0104298545 0.047444522 -0.019166803 0.004297862 0.0020964295 -0.0051852227 0.0053204107
-0.011801313 -0.035811212 0.014652673 0.009488216 0.009718113 0.01147791 0.023692075 -0.009571427
0.022894112 0.007339295 0.06541985 -0.05501372 0.03983237 0.051782984 0.052133173 0.019707931
-0.017075345 0.049659234 0.0111513855 0.04283169 0.008256277 0.005164535 0.011262683 0.061182357
-0.017944574 0.057907637 0.022669435 0.044704735 -0.0017877201 -0.0041583995 0.04503572 -0.056873932
-0.013386021 0.017486537 -0.010066824 0.047418673 -0.018083483 0.014567778 0.0024070563 0.04227525
-0.004328696 0.0011884446 -0.031504508 0.026918702 0.048591316 0.018580753 -0.033494227 0.041362736
-0.020161198 0.004662693 0.021862468 -0.04662087 -0.01879105 -0.01879912 -0.014111729 0.04142276
0.020764055 -0.0042374604 0.041630168 0.016923713 0.039516322 -0.03595343 -0.010857997 0.04223667
-0.010773653 -0.0045471345 -0.0057704733 -0.0041764705 0.0615582 -0.017921925 0.025401078 0.00803816
-0.001788225 -0.018455755 0.054052167 0.0577788 -0.032665104 -0.000734987 -0.008505764 0.021765316
0.05307392 -0.049603768 0.0025550574 0.014667457 0.046468426 0.0065234723 -0.0043340647 0.045301184
-0.020449247 0.03178625 0.008145478 -0.05042389 0.048488297 -0.008606285 0.0040700664 0.00096005615
00000000: 4516 223a 0047 14bd 4c24 e5bc af35 e23c
00000010: 3faf 93bb 40c1 7e3d 366a 92ba f67f f43c
00000020: 3f20 ce3c 0d6a d43c d50f 753d 7b25 1dbd
00000030: ac0e eb3c b861 373d 62a7 37bc b316 6c3d
00000040: 5bf5 5a3b 6260 683b 24d3 4c3d 5d96 133d
00000050: 3b11 a1bc 1e91 c3bc dafb 1abd 8096 e0ba
00000060: 97f0 34bd 8bf2 2a3d 22b6 f83c a3f4 92bc
00000070: 0059 11ba 8b1e 0a3d f5f7 043b b3a4 2abd
00000080: 9b46 9dbc 4c71 2a3d bf58 65bb 4bc2 d53c
00000090: 030c 0b3b 2f23 b0bc 4e61 243d fc25 e13c
000000a0: d026 ec3c 842c 903c 3bc3 f33b 7407 3b3d
000000b0: 93fc 68bc 2c56 3a3c d4b6 613b aabd babb
000000c0: 82f7 cd3b 8cf4 ef3c 288c bebb 01e2 18bd
000000d0: 4931 ff3c fe8c 52bc c36c 433d 7c53 273d
000000e0: 889c d5bb 5c19 513d 5492 6d3d 38ec f63b
000000f0: 0015 ec3c e859 7dbd a5ba 90bc 7110 1e3d
00000100: de56 69ba b3f2 333d ec10 0a3c 07b4 703d
00000110: 32ea 373c afbf 49bc 87e9 5f3d f671 6cbd
00000120: f2f3 133d 01f0 e33c 8e5d 493c 8d11 c63c
00000130: 3801 9a3c c7a1 7ebc 34e2 023d f6b5 123d
00000140: 5631 263d 5ba7 3dbd 7ed3 a43c 8ad8 383d
00000150: ed44 8b3c 01a9 1cbb 7f1d 41bc b50c b7bc
00000160: 901f 873d 003c 80bb 6b82 773c 7e29 2c3c
00000170: 4224 9bbc 4b16 6a3d b107 47bc 3151 abbc
00000180: aa63 ddbc b589 0c3d 0ca1 273c 9352 4bbb
00000190: 4986 033c fd6b 1dbc 5479 1b3b 8343 a3bc
000001a0: b37f 1e3d 260b d73c 651d 11bd 9dff 10bc
000001b0: 355f 433b b405 d839 c795 573d 0a40 44bd
000001c0: 1adf 8bbb e7a2 e73c b7e7 b9bc dc63 003c
000001d0: 72ff 12bd 32ce 80bc 3883 713d 021b 92bb
000001e0: 98d0 123d 59fd b6bc 043b 18bc 056a 84bc
000001f0: 0193 7d3d 4a33 243c aa2b 093c f1bb 703d
00000200: 3ae9 8d3b 8017 7c3d c0f9 733d bdd8 b93c
00000210: a3b7 603d 7cd9 ba3c 7c83 463d dc04 35bc
00000220: 6e19 12bd 315b 613d f5e0 7b3c a227 a5bc
00000230: f4da 5b3d ddc9 55bd b6d3 b7bc f53e 613d
00000240: 1e05 203d 8baf 023d 6795 42bd bd6e ae3a
00000250: 2adb 673d 0e6f e43c 6b65 003d cfe7 d7bb
00000260: f5f0 3e3c fbe1 2abc 3055 423d b303 9dbc
00000270: 14d5 8c3b 4064 093b cde8 a9bb d756 ae3b
00000280: 4b5a 41bc c7ae 12bd c411 703c 7674 1b3c
00000290: b838 1f3c d80d 3c3c e215 c23c 79d1 1cbc
000002a0: 6f8c bb3c 787e f03b d8fa 853d 1156 61bd
000002b0: 4427 233d 651a 543d 9889 553d 8772 a13c
000002c0: 98e1 8bbc 7b67 4b3d 4db4 363c 4870 2f3d
000002d0: 5645 073c 423b a93b 1e87 383c 5a9a 7a3d
000002e0: 8000 93bc 8f30 6d3d 40b5 b93c 501c 373d
000002f0: ef51 eaba 2f43 88bb 6077 383d a4f4 68bd
00000300: 0b51 5bbc ed3f 8f3c 52ef 24bc 153a 423d
00000310: d023 94bc b1ad 6e3c b4bf 1d3b d028 2d3d
00000320: bcd7 8dbb 95c5 9b3a df0a 01bd 9c84 dc3c
00000330: b007 473d aa36 983c 3e31 09bd f96b 293d
00000340: 1929 a5bc 81c9 983b eb18 b33c 86f5 3ebd
00000350: b0ef 99bc 9d00 9abc e234 67bc e9aa 293d
00000360: 6119 aa3c 65da 8abb 6584 2a3d 99a3 8a3c
00000370: dedb 213d e743 13bd bee5 31bc 5c00 2d3d
00000380: fa83 30bc 2100 95bb 3d16 bdbb c6da 88bb
00000390: 7324 7c3d 00d1 92bc ec15 d03c 7db2 033c
000003a0: e062 eaba 8630 97bc ce65 5d3d 77a9 6c3d
000003b0: d8cb 05bd 25ac 40ba c35b 0bbc 2d4d b23c
000003c0: 0a64 593d 522d 4bbd c072 273b c64f 703c
000003d0: ad55 3e3d dac2 d53b c504 8ebb bc8d 393d
000003e0: 2e85 a7bc 4d32 023d 9c74 053c 4889 4ebd
000003f0: aa9b 463d 6001 0dbc 315e 853b 47ac 7b3a

fc1.bias f4 [128]
-0.04696947 -0.033675805 0.10609227 -0.036659066 -0.039562315 -0.035691086 0.035574418 0.04401498
0.06507638 0.041471496 0.04729946 -0.05541833 -0.05175293 -0.038248055 -0.041189846 -0.043662455
-0.06960722 -0.057397973 0.0104459245 -0.067612916 -0.06310015 -0.05287507 -0.086877145 -0.04320007
0.016910912 0.09616561 0.0022920887 0.055373944 0.113552265 -0.025492048 -0.078264154 -0.063472666
0.05824441 0.03783842 -0.053157747 -0.031338766 0.16560115 -0.037252266 0.004667031 -0.038332228
0.025883568 -0.023079347 -0.040833417 -0.053671245 -0.058407027 -0.008907978 0.04089462 -0.049002297
0.036666878 -0.0030952413 0.011063271 0.04412859 0.0626325 0.019188924 0.047188237 0.04542946
0.002112698 0.011060192 -0.050170578 -0.03332802 -0.027996412 0.02338357 0.056352932 -0.05334959
-0.050873753 0.058072057 -0.041877672 -0.0041230554 -0.057126142 -0.07295026 -0.038621366 0.1251592
-0.064373 -0.028663889 -0.0068511516 0.037691806 -0.010188914 0.069594294 0.12377111 -0.021503922
-0.03817325 -0.040924545 -0.03124748 0.010880544 0.038344756 0.10544197 -0.039241735 -0.033140797
-0.05213839 -0.0050499816 0.04494653 0.019108685 -0.08931807 0.04737766 -0.09594839 -0.022067105
-0.05586439 -0.03154763 0.09015512 -0.09671159 0.035962097 0.08913146 -0.079280764 0.07545802
-0.043457676 0.058649525 -0.044396367 -0.04078095 -0.055595536 0.09674196 -0.030838912 -0.06832247
-0.014656486 0.0018396134 -0.027493505 0.026210561 0.059884008 -0.042483307 0.06478966 -0.06871136
0.053777657 0.07799388 -0.08870537 0.02171198 -0.013328982 -0.0621763 -0.018129356 -0.0036916262
00000000: 0f63 40bd a4ef 09bd e746 d93d d127 16bd
00000010: 180c 22bd d130 12bd 7bb6 113d 0d49 343d
00000020: c446 853d 04de 293d 14bd 413d 55fe 62bd
00000030: e1fa 53bd fea9 1cbd afb6 28bd 67d7 32bd
00000040: 3b8e 8ebd 231a 6bbd 6225 2b3c a478 8abd
00000050: a73a 81bd 8893 58bd a5ec b1bd 8ef2 30bd
00000060: c188 8a3c 7af2 c43d de36 163b cacf 623d
00000070: 178e e83d b3d4 d0bc f548 a0bd f5fd 81bd
00000080: b191 6e3d 76fc 1a3d f0bb 59bd 145d 00bd
00000090: 5993 293e d595 18bd e5ed 983b 4102 1dbd
000000a0: c709 d43c e610 bdbc f140 27bd 61d6 5bbd
000000b0: 353c 6fbd c5f2 11bc 1e81 273d a2b6 48bd
000000c0: 0230 163d 88d9 4abb b942 353c 2ec0 343d
000000d0: 7845 803d 1732 9d3c 7448 413d 3e14 3a3d
000000e0: 3175 0a3b cf35 353c aa7f 4dbd f682 08bd
000000f0: bb58 e5bc e78e bf3c 55d2 663d 1a85 5abd
00000100: ff60 50bd f7dc 6d3d ec87 2bbd b21a 87bb
00000110: 1afd 69bd f266 95bd 7031 1ebd bc29 003e
00000120: fed5 83bd 88d0 eabc a07f e0bb b962 1a3d
00000130: 67ef 26bc 7487 8e3d b57b fd3d fe28 b0bc
00000140: 8e5b 1cbd 7fa0 27bd b7fa ffbc 4f44 323c
00000150: 640f 1d3d f6f1 d73d f1bb 20bd a5be 07bd
00000160: 108f 55bd 517a a5bb da19 383d d189 9c3c
00000170: 64ec b6bd 140f 423d 9780 c4bd 13c6 b4bc
00000180: 0fd2 64bd 1638 01bd 3fa3 b83d ba10 c6bd
00000190: fe4c 133d 8e8a b63d f45d a2bd bc89 9a3d
000001a0: ad00 32bd 7c3a 703d f7d8 35bd ed09 27bd
000001b0: 25b8 63bd a620 c63d e3a1 fcbc a7ec 8bbd
000001c0: c221 70bc 2f1f f13a 0f3a e1bc 88b7 d63c
000001d0: ef48 753d fa02 2ebd 71b0 843d 8bb8 8cbd
000001e0: f645 5c3d 41bb 9f3d 29ab b5bd 53dd b13c
000001f0: cd61 5abc 93ac 7ebd 0484 94bc 36ef 71bb

fc2.weight f4 [5, 128]
0.04668393 0.0029703653 0.09247624 0.020615501 0.00015220199 0.02772732 -0.040059004 0.094327666
0.046962894 -0.019607753 0.10775976 0.018721903 -0.021567853 0.12912035 0.07365777 0.032340948
0.013305394 0.033722185 0.05747765 -0.033288512 -0.07436292 -0.031634983 -0.17861821 -0.09655759
-0.018970534 0.10012306 -0.11717994 0.090142 0.049571805 0.004345964 -0.013945208 -0.03359051
-0.047260076 0.029419648 -0.00012332237 0.065077 0.099819586 -0.054320436 0.08563731 -0.23324358
-0.10409926 -0.041245174 -0.10110043 -0.04556371 -0.11415415 0.11088205 0.009424003 -0.104567125
0.07352663 0.24906656 -0.014123546 0.08326772 0.100242876 0.07143169 0.023819787 -0.04439007
0.06188275 -0.2694223 0.011042361 0.06610393 -0.058062688 -0.071163096 0.055980958 -0.00846347
-0.021627162 -0.14891954 -0.05949041 0.07387656 0.045914184 -0.07392642 -0.0066411756 0.046527244
-0.11421909 0.036772817 -0.10040769 -0.0052802013 -0.03315113 0.07191607 0.11907089 -0.053066157
-0.019323416 -0.026569424 -0.042450946 0.22426495 -0.0051514492 0.11823641 -0.067785636 -0.013358205
0.066551864 0.071252726 -0.1327597 0.06163082 -0.10865148 0.035844643 -0.032750923 0.0305906
0.05118522 -0.039183356 0.0892644 -0.035742316 0.11311173 0.06961086 -0.06394596 0.04939829
-0.051856227 0.021965547 0.006616421 -0.018263493 -0.051805433 0.08787957 0.03357091 -0.017349502
0.07274718 0.030897781 0.041355167 0.045282118 -0.20786464 -0.04192772 -0.18044356 -0.118882805
0.07692591 -0.1359632 0.043646503 0.04696033 0.059752777 -0.0589219 -0.015919821 -0.06532663
-0.019016718 -0.09529404 0.074452296 0.07099092 -0.004601952 -0.098010674 -0.08881801 -0.0024471243
-0.002968165 0.03810567 0.08990823 -0.00047062684 -0.054449905 -0.12637743 0.019507892 0.027374698
0.044970047 -0.08196508 -0.024849806 0.055877265 0.016515885 -0.05848427 0.20446396 -0.032873232
0.05308017 0.10582998 0.124716945 -0.20130797 0.036260553 0.034104783 0.017424606 -0.060189847
0.003531358 -0.06121463 -0.06728573 -0.012157021 0.093875006 -0.050913204 0.034766823 0.17041785
0.15560597 0.085969724 -0.0068439334 -0.0074985633 0.11345394 -0.029277854 -0.19364859 0.11233151
-0.09312258 -0.09652334 -0.03642255 0.04600325 0.059295002 -0.045607068 0.16657917 0.036942665
-0.06980527 0.1626809 -0.07629778 0.003942623 0.038985975 0.13017985 0.09300861 -0.07247304
-0.08707446 0.03265074 -0.09340716 -0.068261534 -0.054989338 -0.051738404 -0.10551071 0.10783567
0.032303255 0.022372793 0.12957433 -0.06593546 -0.016329596 0.013416068 0.09093362 -0.06903723
0.077462025 0.058627773 -0.021626653 -0.12706739 0.08134896 -0.2537414 -0.049917366 -0.0056222756
0.026143134 -0.1742545 0.015884489 -0.13114768 -0.0511712 0.05930685 -0.06098579 -0.15063281
0.0132587245 -0.026269618 0.11186927 0.111824654 -0.123682 0.01698384 0.09857179 -0.020742694
0.046178468 -0.054663647 0.08785731 -0.056793436 -0.02075867 -0.022788478 -0.061015464 0.044747718
-0.0697307 -0.09650402 -0.023704302 -0.0439414 0.028151311 -0.044394523 0.16112003 -0.047986027
0.01956031 0.21271159 -0.14278527 -0.06265932 0.07898958 0.1104632 -0.03729766 0.042013336
00000000: a637 3f3d 76aa 423b 2f64 bd3d d7e1 a83c
00000010: 6998 1f39 6824 e33c e914 24bd dd2e c13d
00000020: 2a5c 403d 70a0 a0bc 26b1 dc3d ad5e 993c
00000030: 11af b0bc 2038 043e e3d9 963d f177 043d
00000040: defe 593c 4620 0a3d af6d 6b3d 8959 08bd
00000050: 964b 98bd af93 01bd b1e7 36be fcbf c5bd
00000060: 1868 9bbc 520d cd3d 09fc efbd 5e9c b83d
00000070: ce0b 4b3d 9768 8e3b 717a 64bc 3496 09bd
00000080: c893 41bd 7901 f13c 1950 01b9 1747 853d
00000090: 366e cc3d 1b7f 5ebd 9d62 af3d 68d7 6ebe
000000a0: fe31 d5bd b3f0 28bd be0d cfbd 03a1 3abd
000000b0: a7c9 e9bd 2116 e33d 2267 1a3c 4a27 d6bd
000000c0: 2195 963d 4e0b 7f3e 7266 67bc 4488 aa3d
000000d0: 234c cd3d c74a 923d b721 c33c 5dd2 35bd
000000e0: c478 7d3d b8f1 89be 05eb 343c 7f61 873d
000000f0: 24d3 6dbd f5bd 91bd 4a4c 653d 5eaa 0abc
00000100: 722b b1bc 5d7e 18be 37ac 73bd 984c 973d
00000110: 8310 3c3d bc66 97bd 389e d9bb 5a93 3e3d
00000120: b3eb e9bd 189f 163d 8ca2 cdbd 8a05 adbb
00000130: 7bc9 07bd bc48 933d 70db f33d e65b 59bd
00000140: 244c 9ebc 1fa8 d9bc 0be1 2dbd b6a5 653e
00000150: 7dcd a8bb ee25 f23d 32d3 8abd 5fdc 5abc
00000160: 584c 883d f3ec 913d 29f2 07be 9970 7c3d
00000170: ab84 debd d5d1 123d d525 06bd 2399 fa3c
00000180: 98a7 513d ba7e 20bd 41d0 b63d 8966 12bd
00000190: 1fa7 e73d 2390 8e3d 19f6 82bd dd55 4a3d
000001a0: 3267 54bd 17f1 b33c 90ce d83b 529d 95bc
000001b0: ef31 54bd 34fa b33d a781 093d 8b20 8ebc
000001c0: 79fc 943d 581d fd3c 0964 293d be79 393d
000001d0: 78da 54be 67bc 2bbd 32c6 38be d478 f3bd
000001e0: 558b 9d3d f039 0bbe adc6 323d 7a59 403d
000001f0: 54bf 743d 1758 71bd 496a 82bc f8c9 85bd
00000200: f3c8 9bbc 8629 c3bd 727a 983d b063 913d
00000210: f9cb 96bb d2b9 c8bd 38e6 b5bd ef5f 20bb
00000220: 8c85 42bb b114 1c3d ce21 b83d 77be f6b9
00000230: dd06 5fbd 1669 01be 04cf 9f3c e740 e03c
00000240: 8332 383d 4fdd a7bd d291 cbbc 8fdf 643d
00000250: 524c 873c 348d 6fbd 005f 513e 15a6 06bd
00000260: 986a 593d 63bd d83d 996b ff3d ad23 4ebe
00000270: f285 143d 75b1 0b3d 0cbe 8e3c a189 76bd
00000280: 5b6e 673b 31bc 7abd 1acd 89bd 3e2e 47bc
00000290: 8a41 c03d 5d8a 50bd a867 0e3d 0482 2e3e
000002a0: 2c57 1f3e e510 b03d 1343 e0bb 82b6 f5bb
000002b0: 8a5a e83d 1cd8 efbc d14b 46be 100e e63d
000002c0: 0db7 bebd 07ae c5bd d02f 15bd e76d 3c3d
000002d0: 51df 723d 7ace 3abd bb93 2a3e 3151 173d
000002e0: 11f6 8ebd d295 263e 0342 9cbd 1e31 813b
000002f0: c2af 1f3d de4d 053e 4c7b be3d bf6c 94bd
00000300: 1854 b2bd c8bc 053d 414c bfbd b4cc 8bbd
00000310: 803c 61bd a6eb 53bd 0016 d8bd f3d8 dc3d
00000320: 6b50 043d 2647 b73c 22af 043e 2c09 87bd
00000330: a5c5 85bc 11cf 5b3c 683b ba3d 6463 8dbd
00000340: 69a4 9e3d ad23 703d 612a b1bc f41d 02be
00000350: 499a a63d 65ea 81be 2776 4cbd 113b b8bb
00000360: 202a d63c c66f 32be 3020 823c 944b 06be
00000370: e498 51bd bdeb 723d 3ccc 79bd 7d3f 1abe
00000380: 1f3b 593c 6233 d7bc b71b e53d 5304 e53d
00000390: fd4c fdbd b221 8b3c 02e0 c93d 95ec a9bc
000003a0: a225 3d3d fde6 5fbd 89ee b33d 3ca0 68bd
000003b0: 160e aabc e7ae babc 5aeb 79bd 6249 373d
000003c0: f8ce 8ebd e6a3 c5bd 862f c2bc e6fb 33bd
000003d0: 949d e63c 08d7 35bd a6fc 243e ff8c 44bd
000003e0: f13c a03c 11d1 593e 4d36 12be 8853 80bd
000003f0: 4ac5 a13d 883a e23d 6ec5 18bd 2d16 2c3d

fc2.bias f4 [5]
-0.021705633 -0.028804518 -0.04374863 0.07135804 -0.23305799
00000000: 03d0 b1bc 74f7 ebbc c331 33bd 2a24 923d
00000010: c1a6 6ebe
