saved_weights/LunarLander-v2/1732/actor.pth (torch, 14255 bytes, 10 tensors)

attentions1.linear.weight f4 [32, 1]
0.76062196 -0.42743328 0.2577504 0.16702834 0.22563003 0.038521357 1.025705 0.12730093
-0.69276977 0.7245485 -0.7344207 0.5714682 0.7323706 0.873143 -0.41732633 -0.4952406
-0.75977015 -0.8617892 -0.4504298 0.6559205 0.010628241 0.65656745 -0.31189615 0.5165939
-0.13283323 -0.28442365 0.5513564 -0.058272827 -0.99758106 0.12537336 -0.8792727 -0.9246151
00000000: 1fb8 423f 89d8 dabe dcf7 833e 7a09 2b3e
00000010: 8f0b 673e 92c8 1d3d 4d4a 833f 2d5b 023e
00000020: 5c59 31bf 037c 393f ff02 3cbf bd4b 123f
00000030: a47c 3b3f 4d86 5f3f ccab d5be 2d90 fdbe
00000040: 4c80 42bf 389e 5cbf bc9e e6be 68ea 273f
00000050: 1322 2e3c ce14 283f dab0 9fbe 7f3f 043f
00000060: 6f05 08be fa9f 91be b125 0d3f 7daf 6ebd
00000070: 7961 7fbf e061 003e 0418 61bf 93b3 6cbf

attentions1.attn.weight f4 [1, 64]
-0.005679766 0.019655548 0.061030697 0.124706015 0.10750797 -0.0907288 -0.013885929 -0.059765577
0.009683201 0.119092494 -0.124225534 0.039869685 -0.033881336 0.082954176 -0.10896274 0.080081716
-0.07427115 0.055458482 -0.077108964 -0.053139754 0.0031156288 0.01022131 0.04988787 -0.079795994
0.08065934 -0.03275794 -0.11075672 -0.043613717 0.019475618 -0.072877936 -0.07176478 0.05790762
0.043505993 0.04300914 0.14121787 0.07048942 0.094995305 -0.018842231 0.1483043 0.1577333
-0.09077806 0.10876145 -0.15116177 0.10035394 -0.07046521 0.048115693 -0.15688933 -0.11511981
0.057398472 -0.0073835254 -0.13322659 0.056400448 0.05942424 0.14631025 -0.045408465 0.1710717
-0.03226509 -0.122150615 0.021561783 0.070392266 -0.09501776 0.035958797 0.035127506 -0.100174345
00000000: 551d babb ac04 a13c 53fb 793d de65 ff3d
00000010: 232d dc3d 05d0 b9bd cf81 63bc c0cc 74bd
00000020: 4aa6 1e3c c4e6 f33d f569 febd 654e 233d
00000030: 28c7 0abd e1e3 a93d db27 dfbd e201 a43d
00000040: 791b 98bd 6f28 633d 4eeb 9dbd 12a9 59bd
00000050: 942f 4c3b 4877 273c 3957 4c3d 156c a3bd
00000060: b930 a53d 312d 06bd 6bd4 e2bd 4ca4 32bd
00000070: 558b 9f3c 0741 95bd 6af9 92bd 8a30 6d3d
00000080: 5733 323d 5a2a 303d 6b9b 103e c25c 903d
00000090: e68c c23d 065b 9abc 15dd 173e d784 213e
000000a0: d9e9 b9bd 53be de3d 27ca 1abe 5e86 cd3d
000000b0: 1050 90bd f614 453d 99a7 20be efc3 ebbd
000000c0: a91a 6b3d 80f1 f1bb 8d6c 08be 2804 673d
000000d0: d566 733d 5bd2 153e 3afe 39bd 6b2d 2f3e
000000e0: 6628 04bd 1a2a fabd 56a2 b03c d229 903d
000000f0: ac98 c2bd 8849 133d dce1 0f3d 3528 cdbd

attentions2.linear.weight f4 [32, 32]
0.092756644 0.21716657 -0.19241449 -0.11977857 -0.14531517 0.09538094 -0.10874312 0.05760895
0.21374744 -0.20213872 0.0061291284 -0.13634178 -0.09872424 0.06588237 -0.09317097 -0.11115755
-0.05735493 0.15782055 -0.10461862 -0.21593635 -0.092359155 -0.18812145 0.16893609 -0.00932985
0.046765976 0.029448412 -0.03943695 0.084713235 0.025276316 -0.15624596 -0.035472885 0.18295914
0.100733705 0.018159268 -0.01744061 -0.15583792 -0.17728463 -0.123469144 -0.017806271 -0.020828843
0.0933071 -0.074447505 0.2009331 -0.006105445 -0.09636588 0.054189704 0.063085526 0.12722272
-0.048270628 -0.101206355 0.12526727 -0.09225014 -0.0427275 -0.046613228 0.036510058 -0.060800206
0.1510257 -0.14330868 -0.0788165 -0.043487035 0.08782506 0.105045296 -0.09468378 0.11584011
0.07075108 0.16485755 -0.09856814 -0.19651517 -0.06969526 0.063916855 0.06794725 -0.037058108
0.21193303 -0.14081211 0.0980531 -0.025722632 -0.016355248 0.108239435 -0.04880654 0.13104805
0.19226657 0.047957636 -0.040636837 -0.12724748 0.094533995 -0.14796585 0.031020833 -0.037774034
0.02566487 -0.104567 0.11843848 0.056271687 0.047460634 0.11051094 -0.042170882 0.04978109
-0.10147246 -0.16420029 0.054125577 0.013773122 -0.0112842815 -0.10578166 0.16339324 0.035183776
-0.038461268 0.052787486 -0.0025943134 0.20831399 0.08491953 -0.024623007 -0.10894411 -0.13009225
-0.1039504 -0.023928355 0.07925422 0.03767101 0.07053685 0.21615745 -0.19221763 0.16137774
-0.082107015 -0.16174957 0.014057162 -0.14983876 0.012788599 0.16364342 -0.06807656 -0.078221455
-0.033950087 -0.0072276364 0.016826408 0.11426206 -0.12514767 0.119340226 -0.11341756 -0.12861739
0.21547318 -0.08441317 0.057600938 0.004981935 -0.19363292 0.13351819 0.10796414 0.21265644
-0.08822959 -0.023880351 -0.059720915 -0.08796293 -0.06356366 0.027833613 0.04686612 -0.12579313
0.06876138 -0.019982904 -0.14146039 0.024216037 0.19173837 0.0026017139 0.15763691 0.111429185
-0.21410584 0.13164803 -0.19281721 -0.19036816 -0.011454733 -0.06473393 -0.067030795 0.11781283
0.1513086 0.067901686 -0.0039107753 -0.053484395 -0.016000215 0.01954482 -0.08145398 -0.04342634
0.060326986 0.05286665 0.15957938 0.035772093 0.12685311 -0.012658836 0.11462409 0.0942422
-0.11442369 0.09340387 -0.062096592 -0.08938074 -0.13405617 -0.21236333 0.09419814 -0.098982856
-0.029591594 0.08977338 0.10431603 0.1681675 0.20638935 -0.010574961 0.07352269 -0.017558815
-0.005225356 0.0082197 0.09092798 -0.009068283 0.030278943 -0.017967973 0.03279429 -0.044000577
-0.10333386 -0.18160701 0.11777572 0.119112745 0.040290225 0.09347342 -0.14928561 0.16640268
-0.07014427 -0.17639379 0.12614708 -0.026273936 -0.035114266 0.11641844 -0.068209514 -0.10524117
-0.072617024 0.16219762 0.035378315 0.07057205 0.06692233 0.1364619 -0.16010948 0.106172726
0.036739387 -0.05790323 -0.028641075 0.13315858 -0.18605015 0.08838027 -0.046006404 -0.009348537
-0.07589929 -0.052678745 0.10777157 0.09976378 -0.1537647 0.07168926 0.012599356 -0.14440838
0.04081452 0.16279498 -0.15224917 0.12250705 0.20179878 -0.012533888 0.088704966 0.17312351
00000000: 32f7 bd3d ea60 5e3e 4e08 45be 784e f5bd
00000010: 80cd 14be 1557 c33d b7b4 debd 5df7 6b3d
00000020: 9ce0 5a3e 74fd 4ebe dbd6 c83b 2e9d 0bbe
00000030: ef2f cabd 56ed 863d 6cd0 bebd 92a6 e3bd
00000040: 01ed 6abd b69b 213e 4942 d6bd 6b1e 5dbe
00000050: cc26 bdbd e9a2 40be 95fd 2c3e 3adc 18bc
00000060: ae8d 3f3d cc3d f13c a488 21bd 227e ad3d
00000070: 4710 cf3c f1fe 1fbe 044c 11bd a459 3b3e
00000080: 794d ce3d bfc2 943c 9cdf 8ebc fa93 1fbe
00000090: 1a8a 35be 64dd fcbd 75de 91bc 40a1 aabc
000000a0: cb17 bf3d ef77 98bd 68c1 4d3e 2f10 c8bb
000000b0: 795b c5bd 06f6 5d3d fc32 813d ac46 023e
000000c0: 6cb7 45bd 4745 cfbd 1046 003e a4ed bcbd
000000d0: 0803 2fbd 83ed 3ebd 928b 153d a309 79bd
000000e0: 7ba6 1a3e 83bf 12be 8c6a a1bd 761f 32bd
000000f0: a0dd b33d fd21 d73d 92e9 c1bd 943d ed3d
00000100: f1e5 903d 6bd0 283e 18de c9bd 463b 49be
00000110: 63bc 8ebd d7e6 823d ee27 8b3d 3eca 17bd
00000120: f904 593e 0d31 10be 10d0 c83d 45b8 d2bc
00000130: 71fb 85bc a3ac dd3d 5ee9 47bd 7631 063e
00000140: 87e1 443e 3a6f 443d d072 26bd 2a4d 02be
00000150: 0a9b c13d 5c84 17be 671f fe3c f2b8 1abd
00000160: 223f d23c 3927 d6bd e08f f23d 247d 663d
00000170: 1566 423d 8f53 e23d 60bb 2cbd 42e7 4b3d
00000180: cbd0 cfbd 1f24 28be c8b2 5d3d a9a8 613c
00000190: b5e1 38bc 0ea4 d8bd 8f50 273e dd1c 103d
000001a0: 9089 1dbd b137 583d 5b05 2abb 4350 553e
000001b0: 4aea ad3d 30b6 c9bc 171e dfbd e736 05be
000001c0: f3e3 d4bd 6605 c4bc 0950 a23d eb4c 1a3d
000001d0: a075 903d 6158 5d3e b3d4 44be 3540 253e
000001e0: b927 a8bd aea1 25be 0350 663c 556f 19be
000001f0: 4687 513c 2492 273e b96b 8bbd 9232 a0bd
00000200: 3f0f 0bbd cfd5 ecbb 89d7 893c 3a02 ea3d
00000210: b626 00be a668 f43d 7747 e8bd 47b4 03be
00000220: 00a5 5c3e d0e0 acbd f6ee 6b3d 803f a33b
00000230: b547 46be feb8 083e 4e1c dd3d 9cc2 593e
00000240: b7b1 b4bd baa0 c3bc eb9d 74bd e925 b4bd
00000250: aa2d 82bd 5103 e43c b0f6 3f3d eacf 00be
00000260: c4d2 8c3d 30b3 a3bc feda 10be b660 c63c
00000270: 1057 443e 8481 2a3b 926b 213e fc34 e43d
00000280: 903e 5bbe bece 063e e071 45be dfef 42be
00000290: a2ac 3bbc 3993 84bd 7147 89bd da47 f13d
000002a0: a4f0 1a3e 0a10 8b3d f625 80bb 7412 5bbd
000002b0: e212 83bc 751c a03c 58d1 a6bd d1df 31bd
000002c0: 6e19 773d b38a 583d c768 233e c285 123d
000002d0: c8e5 013e 0267 4fbc 09c0 ea3d 0e02 c13d
000002e0: f856 eabd 874a bf3d ff58 7ebd 400d b7bd
000002f0: 0546 09be c675 59be f4ea c03d 86b7 cabd
00000300: 126a f2bc 1bdb b73d a5a3 d53d 1a34 2c3e
00000310: bb57 533e 9a42 2dbc 1093 963d 81d7 8fbc
00000320: 7739 abbb ecab 063c 7338 ba3d 2393 14bc
00000330: 8c0b f83c 9231 93bc 4e53 063d f339 34bd
00000340: b4a0 d3bd 30f7 39be 6634 f13d 62f1 f33d
00000350: 5d07 253d fe6e bf3d 54de 18be 7765 2a3e
00000360: cda7 8fbd 93a0 34be b32c 013e 703c d7bc
00000370: fad3 0fbd cb6c ee3d 6eb1 8bbd af88 d7bd
00000380: 3cb8 94bd 2217 263e dae8 103d 1488 903d
00000390: 930e 893d abbc 0b3e bdf3 23be 1671 d93d
000003a0: 0a7c 163d f02b 6dbd b0a0 eabc b95a 083e
000003b0: ee83 3ebe b700 b53d 3671 3cbd 9b2a 19bc
000003c0: 1671 9bbd abc5 57bd 57b7 dc3d f450 cc3d
000003d0: 7e74 1dbe d2d1 923d 876d 4e3c cadf 13be
000003e0: 202d 273d bab3 263e 35e7 1bbe fae4 fa3d
000003f0: 57a4 4e3e f05a 4dbc f3aa b53d 4a47 313e

attentions2.attn.weight f4 [1, 64]
-0.058941793 -0.07425505 0.06273164 0.066747025 0.00076789875 -0.097576395 0.039404187 0.044176985
0.05683869 -0.089 -0.003960848 0.05470934 -0.055468008 0.09465174 -0.073690526 -0.10725432
-0.100407876 0.11718214 -0.016204646 -0.0031589803 0.023262123 0.066239126 -0.061023753 0.01651336
-0.098110676 0.065420456 0.0955069 0.101903565 0.12836741 -0.08213714 -0.08403684 -0.028482785
-0.12618014 -0.069377206 0.043966923 0.025752205 -0.15142448 0.066885 0.10983447 -0.02103234
0.033414632 -0.011742781 0.012407357 -0.008315736 -0.01908959 -0.017095018 -0.06235088 -0.065027
-0.06028582 -0.0017986343 -0.10378674 0.08986883 0.01586021 -0.02870382 -0.021390704 -0.039558794
0.044525374 -0.0759032 -0.05732856 -0.030683178 0.10776062 -0.15788731 -0.15097044 -0.15499558
00000000: f36c 71bd 0813 98bd 7279 803d aab2 883d
00000010: d04c 493a 22d6 c7bd 4966 213d edf2 343d
00000020: b0cf 683d a245 b6bd 00ca 81bb e716 603d
00000030: 6c32 63bd c5d8 c13d 0feb 96bd 27a8 dbbd
00000040: a5a2 cdbd 31fd ef3d 9bbf 84bc e506 4fbb
00000050: 3590 be3c 61a8 873d 0bf4 79bd 0747 873c
00000060: 40ee c8bd 29fb 853d 1f99 c33d d1b2 d03d
00000070: bf72 033e 8437 a8bd 821b acbd bb54 e9bc
00000080: 5e35 01be a315 8ebd a916 343d 4af6 d23c
00000090: 050f 1bbe 01fb 883d e5f0 e03d 044c acbc
000000a0: c8dd 083d cb64 40bc 3a48 4b3c ba3e 08bc
000000b0: c661 9cbc da0a 8cbc a363 7fbd e02c 85bd
000000c0: 44ee 76bd 27c0 ebba 248e d4bd 260d b83d
000000d0: 45ed 813c 4624 ebbc 8f3b afbc 6708 22bd
000000e0: 3d60 363d 2373 9bbd 5ad1 6abd 4a5b fbbc
000000f0: 9ab1 dc3d 36ad 21be ff97 1abe 29b7 1ebe

attentions3.linear.weight f4 [32, 32]
-0.01661941 0.06451842 0.04876431 0.14777175 -0.04701131 0.14032757 -0.018274335 -0.12431476
0.0029104226 -0.034097333 0.18368538 0.1125584 -0.15725611 -0.13167186 -0.12672916 0.044399586
0.18621175 0.02637145 -0.19461803 -0.00863873 0.16726471 0.0869081 0.012548181 0.021165919
0.024794493 0.030770585 -0.15268263 -0.10814724 -0.1803361 -0.014864073 -0.14797664 -0.0026977335
0.043316897 0.09295542 0.19869888 -0.12740923 0.19943938 -0.13743056 -0.19403584 0.14021982
0.0638844 0.13335365 0.09545079 -0.07035698 0.08524913 -0.110099815 0.092838414 -0.057365358
-0.035298344 0.12885232 0.1172936 0.022246212 0.1192216 0.12502812 0.034470107 0.12816021
0.14700153 0.08619222 -0.10219965 0.06259663 0.11752264 0.11364542 -0.09575096 -0.014161631
-0.064215355 0.13936566 0.15968876 -0.1093049 -0.06672355 0.051204484 -0.110138185 -0.110544406
-0.07701249 0.12746947 -0.10147354 -0.1518239 0.03085735 0.07642507 0.059903357 -0.07330474
-0.16921584 0.12644286 0.035976917 -0.1069345 -0.13738276 -0.11615121 0.10690686 -0.13663648
-0.0934822 0.05249809 -0.045458164 0.0050913664 0.049839366 0.054533824 -0.1724689 0.12755635
-0.14472468 0.06658387 -0.0024904811 -0.12946148 -0.1895879 0.12097829 0.015814636 -0.037551347
-0.041914374 -0.06380997 -0.060796574 0.08342552 0.18076642 -0.09423964 -0.15056704 0.010026394
-0.13714516 -0.0061184545 0.08822872 -0.060661115 -0.04202988 0.12197087 0.11813533 0.038748223
-0.15414561 -0.082243495 -0.15839317 -0.0076054055 0.10476732 -0.12640497 -0.112586185 0.10937182
-0.14041688 0.14001112 0.112452544 -0.13445362 0.005359082 0.1737466 0.16200748 0.16709153
-0.012503484 -0.15420632 0.0072828 -0.11364531 -0.17876856 0.045578454 -0.1620803 0.039221432
0.15818612 0.053140644 -0.15975772 0.12457066 -0.14723215 0.06537 -0.06719943 0.12304183
0.038602237 0.14297079 0.05717949 0.15453963 0.030707853 -0.099039815 0.10951392 -0.01602502
-0.09276959 0.035305586 0.015746731 0.040235717 -0.052700263 0.17304794 -0.107522845 0.19443741
-0.13173397 0.15582378 -0.020079551 0.062701456 -0.04767507 -0.059573773 0.1050994 -0.011227711
-0.108854175 -0.03514863 0.17372821 -0.18955958 0.1337199 0.07455247 -0.15573543 -0.12151833
0.078276604 0.10357097 -0.0178851 -0.122872144 0.039533433 -0.02491248 0.14529374 -0.12699704
-0.13464549 -0.14879853 -0.20965138 0.118027 -0.13791992 -0.12888347 0.1653389 0.029529843
-0.12014745 0.11255452 -0.036666647 0.21738517 -0.08671267 0.07232965 -0.21167642 -0.11735525
0.084973715 -0.21499614 0.0042521306 0.1058107 -0.011680519 0.1437213 0.1981002 -0.16758953
-0.02962363 0.12466609 -0.031227004 -0.01935012 -0.103007756 -0.04077983 -0.19724642 -0.16765197
-0.12447307 0.13510041 0.041397255 -0.094290696 -0.14334632 -0.17607151 0.027106509 -0.10219536
0.058764074 0.13760921 -0.050965883 -0.010141103 -0.04093635 0.14275357 0.07251359 0.074057005
0.12700865 -0.049692284 -0.04742604 0.15124105 -0.06538335 -0.12209549 -0.055022247 0.131791
-0.052736327 -0.090545975 0.060069505 0.11331742 0.14240588 -0.13334379 -0.08165345 -0.0063189412
00000000: 6e25 88bc 3c22 843d 16bd 473d 7a51 173e
00000010: ee8e 40bd 08b2 0f3e 0fb4 95bc bd98 febd
00000020: cabc 3e3b a5a9 0bbd 0518 3c3e 0585 e63d
00000030: bf07 21be fdd4 06be 4ac5 01be 57dc 353d
00000040: 4bae 3e3e f008 d83c f349 47be 7689 0dbc
00000050: 7147 2b3e e0fc b13d e396 4d3c 2664 ad3c
00000060: d21d cb3c 9812 fc3c d658 1cbe 4d7c ddbd
00000070: 07aa 38be 7188 73bc 3087 17be 75cc 30bb
00000080: 0f6d 313d 695f be3d b877 4b3e 9177 02be
00000090: d639 4c3e 99ba 0cbe 55b1 46be c995 0f3e
000000a0: d3d5 823d dc8d 083e b47b c33d 5217 90bd
000000b0: 1997 ae3d 037c e1bd 1122 be3d f0f7 6abd
000000c0: ff94 10bd ddf1 033e a137 f03d b03d b63c
000000d0: 742a f43d 5f07 003e 8730 0d3d 6e3c 033e
000000e0: 9287 163e 8c85 b03d 0d4e d1bd a932 803d
000000f0: b6af f03d eebe e83d 1419 c4bd 3006 68bc
00000100: 5783 83bd dfb5 0e3e 7385 233e 3fdb dfbd
00000110: 5ba6 88bd cbbb 513d 2190 e1bd 1b65 e2bd
00000120: b9b8 9dbd 5b87 023e 5cd1 cfbd b977 1bbe
00000130: 8ec8 fc3c bf84 9c3d 395d 753d cc20 96bd
00000140: eb46 2dbe 3d7a 013e 885c 133d 7a00 dbbd
00000150: 11ae 0cbe b0e0 edbd fcf1 da3d 6fea 0bbe
00000160: 9873 bfbd 3d08 573d 5732 3abd 7ad5 a63b
00000170: 5d24 4c3d dc5e 5f3d b09b 30be 229e 023e
00000180: b532 14be 205d 883d 5737 23bb 8d91 04be
00000190: 5523 42be 77c3 f73d b28d 813c 71cf 19bd
000001a0: 68ae 2bbd cdae 82bd d405 79bd 00db aa3d
000001b0: d51a 393e b600 c1bd 3f2e 1abe bf45 243c
000001c0: c86f 0cbe 517d c8bb 42b1 b43d ca77 78bd
000001d0: 8627 2cbd ddcb f93d f0f0 f13d 75b6 1e3d
000001e0: 59d8 1dbe 476f a8bd d231 22be c436 f9bb
000001f0: 4090 d63d 4e70 01be 9693 e6bd 55fe df3d
00000200: 71c9 0fbe 135f 0f3e 854d e63d 36ae 09be
00000210: 3d9b af3b a1ea 313e 4ae5 253e 0b1a 2b3e
00000220: 6adb 4cbc 43e8 1dbe 8ea4 ee3b dfbe e8bd
00000230: 1b0f 37be 79b0 3a3d 61f8 25be a7a6 203d
00000240: 8bfb 213e 01aa 593d 8797 23be e71e ff3d
00000250: 06c4 16be b5e0 853d db9f 89bd 5bfd fb3d
00000260: 611d 1e3d ef66 123e 0a35 6a3d a33f 1e3e
00000270: 098f fb3c 63d5 cabd d648 e03d e746 83bc
00000280: fcfd bdbd 979c 103d 4aff 803c 35ce 243d
00000290: 3bdc 57bd 7b33 313e f034 dcbd 9a1a 473e
000002a0: 45e5 06be 4590 1f3e df7d a4bc 9f69 803d
000002b0: ef46 43bd a103 74bd 5b3e d73d 6ff4 37bc
000002c0: f0ee debd 03f8 0fbd cfe5 313e e81b 42be
000002d0: dfed 083e f7ae 983d 1c79 1fbe 9ade f8bd
000002e0: 7c4f a03d 041d d43d c683 92bc 64a4 fbbd
000002f0: cfed 213d 4215 ccbc e2c7 143e 830b 02be
00000300: 82e0 09be a45e 18be daae 56be 24b8 f13d
00000310: e13a 0dbe 07fa 03be 9a4e 293e 92e8 f13c
00000320: de0f f6bd fc82 e63d c42f 16bd 389a 5e3e
00000330: 6a96 b1bd 9121 943d b4c1 58be f357 f0bd
00000340: b306 ae3d f327 5cbe 7555 8b3b 48b3 d83d
00000350: a65f 3fbc ad2b 133e c7da 4a3e 979c 2bbe
00000360: 41ad f2bc ef50 ff3d c6cf ffbc 2584 9ebc
00000370: bbf5 d2bd c008 27bd f7fa 49be f5ac 2bbe
00000380: bdeb febd c357 0a3e 2b90 293d 7b1b c1bd
00000390: 61c9 12be 174c 34be 780e de3c cd4b d1bd
000003a0: 99b2 703d 6ee9 0c3e 9ac1 50bd de26 26bc
000003b0: e0ac 27bd fe2d 123e 0182 943d 33ab 973d
000003c0: 8e0e 023e 238a 4bbd cf41 42bd efde 1a3e
000003d0: b5e7 85bd 330d fabd 025f 61bd 38f4 063e
000003e0: 0c02 58bd 2b70 b9bd 710b 763d f712 e83d
000003f0: d9d2 113e 468b 08be ed39 a7bd 1f0f cfbb

attentions3.attn.weight f4 [1, 64]
0.02600369 0.04307767 -0.12872154 0.052728787 -0.053663712 0.12088303 -0.038172387 -0.08292006
-0.07396731 -0.05378206 -0.056092672 -0.108487934 0.11470095 0.05683848 -0.059471738 -0.05252751
-0.05575276 -0.032897178 0.07587982 -0.054913715 0.03384092 -0.0080416035 0.11311903 0.06487478
-0.060012423 0.030365877 -0.03430679 -0.076790474 0.11272348 -0.104868226 0.059519332 0.105971225
0.117873624 0.00881378 -0.059884448 -7.722431e-05 -0.0013357874 -0.09773519 0.09743444 -0.02440614
0.07912534 -0.029568665 -0.0771939 0.049344838 -0.025449952 -0.05177467 -0.019273818 0.09463419
-0.041244864 0.081033 0.12798803 0.0026293881 -0.021738335 0.04056553 -0.006185315 0.10025391
0.08217742 0.16210833 -0.01091367 -0.0040982417 -0.10019583 0.08422468 -0.040110853 -0.12263252
00000000: b105 d53c 3672 303d 94cf 03be 24fa 573d
00000010: 7bce 5bbd 8691 f73d a65a 1cbd fed1 a9bd
00000020: 2c7c 97bd 944a 5cbd 6ec1 65bd ec2e debd
00000030: 55e8 ea3d 77cf 683d a398 73bd 1627 57bd
00000040: 025d 64bd 31bf 06bd e166 9b3d 34ed 60bd
00000050: c79c 0a3d eec0 03bc f3aa e73d 12dd 843d
00000060: 96cf 75bd dcc1 f83c 4785 0cbd 5344 9dbd
00000070: 91db e63d 27c5 d6bd 8bca 733d 7107 d93d
00000080: ba67 f13d ac67 103c 6549 75bd 7cf3 a1b8
00000090: 9615 afba 6329 c8bd b58b c73d 63ef c7bc
000000a0: 770c a23d fc39 f2bc d617 9ebd d01d 4a3d
000000b0: 6b7c d0bc ad11 54bd 20e4 9dbc 92cf c13d
000000c0: 60f0 28bd a1f4 a53d 4b0f 033e d051 2c3b
000000d0: 9814 b2bc 0b28 263d 2fae cabb ec51 cd3d
000000e0: a34c a83d baff 253e 40cf 32bc 8b4a 86bb
000000f0: 7933 cdbd fd7d ac3d 474b 24bd c226 fbbd

output_layer.linear.weight f4 [5, 32]
-0.029496321 -0.0074268463 -0.054778323 0.17440277 0.12071612 0.012173222 0.19047941 0.094472446
-0.07258733 -0.2115435 -0.030818423 0.21421771 0.05757999 0.1884198 0.19475478 0.00059075817
0.00095839665 -0.12759647 -0.045577638 -0.0886121 -0.20612529 0.10044326 0.075560175 0.2075413
0.05733634 0.13013048 0.2026898 0.1903806 0.14529292 -0.01914799 0.1901729 -0.0817067
-0.1936477 0.17490971 -0.10265323 0.0751669 0.07891296 -0.036890574 -0.16073373 -0.0050215074
-0.1540155 0.009888359 0.043203164 0.0349941 0.07828068 -0.018853014 -0.14766243 0.19090173
-0.2003007 0.07975663 -0.12873432 -0.09954978 0.013862082 -0.09166766 -0.013018724 -0.018136282
0.11907081 -0.008364802 -0.04500879 -0.16395006 0.0018393549 0.17031881 -0.058042396 0.20002782
0.11556203 0.08645874 -0.013583661 0.06990661 -0.11106848 -0.029908117 -0.17946649 -0.11282746
-0.10804429 -0.03615428 -0.062874615 -0.107763976 -0.14339225 -0.07384923 0.049770445 0.13136885
0.022290986 0.0401057 0.019578544 -0.10805522 0.09140954 0.1234335 0.120350964 0.06972972
0.060442008 -0.18217954 0.06869934 -0.095857516 -0.13160585 -0.08354963 -0.209781 -0.050041005
-0.09131316 0.18271622 0.16985269 -0.050883103 0.050404936 0.073664635 -0.17905931 -0.13507791
-0.05578293 0.19910078 0.009206106 -0.065069355 0.07390347 0.04825064 -0.020557908 0.1252852
0.052971892 -0.10374553 -0.17505042 -0.11426646 0.19481388 0.071326524 -0.08513906 -0.030201886
-0.009484521 -0.11736543 -0.15917756 0.014684123 0.065784976 0.0828656 -0.0978026 -0.06620313
0.096721604 0.10129094 -0.13495296 -0.18711482 0.14770414 0.077676214 -0.1524233 0.13903728
-0.031338934 0.17061274 0.15880449 -0.13071485 0.04285141 0.09005242 0.079342686 0.14313263
0.12665987 0.117981054 -0.1356717 -0.07927306 0.06013936 0.02034398 0.057706863 0.06096203
-0.024162553 -0.008187506 -0.0768448 0.041845053 0.07329524 0.0746388 -0.07886473 0.06351614
00000000: 45a2 f1bc e75c f3bb 3c5f 60bd a496 323e
00000010: 033a f73d 3272 473c 090d 433e c57a c13d
00000020: aba8 94bd dc9e 58be eb76 fcbc e35b 5b3e
00000030: ffd8 6b3d 1ff1 403e cc6d 473e 1cdd 1a3a
00000040: e93c 7b3a a6a8 02be 9eaf 3abd 437a b5bd
00000050: 8212 53be 32b5 cd3d 4bbf 9a3d b585 543e
00000060: 83d9 6a3d ed40 053e ea8d 4f3e 22f3 423e
00000070: abc7 143e 3fdc 9cbc afbc 423e d855 a7bd
00000080: 954b 46be 881b 333e db3b d2bd 1bf1 993d
00000090: 1e9d a13d 921a 17bd 6297 24be 758b a4bb
000000a0: 3db6 1dbe c902 223c cdf5 303d f955 0f3d
000000b0: 9f51 a03d a371 9abc d234 17be be7b 433e
000000c0: a01b 4dbe 7257 a33d eed2 03be c1e0 cbbd
000000d0: c91d 633c 41bc bbbd 7c4c 55bc 8a92 94bc
000000e0: 66db f33d 860c 09bc 235b 38bd 86e2 27be
000000f0: 8216 f13a 0e68 2e3e ddbd 6dbd 18d4 4c3e
00000100: c9ab ec3d 4811 b13d 018e 5ebc 322b 8f3d
00000110: df77 e3bd de01 f5bc 10c6 37be 1512 e7bd
00000120: 5346 ddbd 8316 14bd 68c4 80bd 5cb3 dcbd
00000130: 6bd5 12be 443e 97bd 18dc 4b3d 8e85 063e
00000140: 969b b63c e045 243d 2f63 a03c 0e4c ddbd
00000150: ed34 bb3d b4ca fc3d 917a f63d 75ce 8e3d
00000160: 0a92 773d 468d 3abe 3db2 8c3d f250 c4bd
00000170: afc3 06be 121c abbd d5d0 56be ccf7 4cbd
00000180: 6502 bbbd f619 3b3e dded 2d3e cd6a 50bd
00000190: 6875 4e3d 7cdd 963d 535b 37be dd51 0abe
000001a0: a47c 64bd 13e1 4b3e 35d5 163c 1543 85bd
000001b0: b45a 973d 77a2 453d 0f69 a8bc c34a 003e
000001c0: 0ef9 583d 8978 d4bd 6b40 33be 8904 eabd
000001d0: 4a7d 473e a413 923d 635d aebd f269 f7bc
000001e0: f764 1bbc 495d f0bd 71ff 22be ad95 703c
000001f0: 46ba 863d 71b5 a93d bb4c c8bd 8295 87bd
00000200: fa15 c63d a071 cf3d 1c31 0abe 079b 3fbe
00000210: c13f 173e b514 9f3d db14 1cbe ca5f 0e3e
00000220: 415d 00bd 1bb5 2e3e a59d 223e 1dda 05be
00000230: f684 2f3d 676d b83d 6b7e a23d 5c91 123e
00000240: 20b3 013e 0da0 f13d 86ed 0abe ea59 a2bd
00000250: b154 763d 6ba8 a63c 085e 6c3d 52b3 793d
00000260: 8cf0 c5bc e424 06bc ce60 9dbd b865 2b3d
00000270: d11b 963d 3adc 983d d583 a1bd c014 823d

output_layer.attn.weight f4 [1, 10]
-0.071481586 0.21883124 -0.21864332 -0.2894076 0.06498159 0.16625609 -0.26927885 -0.0775697
0.2641547 -0.015284729
00000000: f064 92bd 4c15 603e 09e4 5fbe 3c2d 94be
00000010: 1115 853d 093f 2a3e ebde 89be dddc 9ebd
00000020: 493f 873e cd6c 7abc

fc1.weight f4 [5, 45]
-0.07861733 -0.016408565 -0.077584945 0.031797275 -0.110857375 -0.060633723 -0.1456248 -0.08137937
-0.14482057 -0.02846658 -0.050338 0.03339637 -0.11712816 -0.0036996352 0.07703319 0.08248208
-0.09370857 0.0013418177 0.081603065 -0.1256803 -0.09346179 0.099185556 0.00540647 -0.10212019
0.0550394 0.17766233 0.038399912 0.016666947 -0.15718043 -0.16533674 0.11520014 0.10453645
0.032867484 -0.10094269 -0.16980103 -0.02671657 0.0815546 0.020120827 0.08600719 0.028372932
0.18057384 0.06280691 -0.06129655 -0.029302303 -0.07504463 -0.057202548 -0.16214174 -0.10893563
0.01942773 -0.06852374 0.061432004 -0.16569331 -0.12142119 0.08564217 0.048085146 -0.041071273
-0.12410811 0.09276548 0.0723012 0.052606147 0.16068776 0.07060382 -0.08190647 -0.06705866
-0.1349346 0.17067489 -0.012536524 -0.06608055 -0.04979654 -0.07104055 -0.0020676414 0.110564016
0.14150846 0.06783247 -0.13496995 0.0036576681 -0.1710863 0.13364783 -0.10028211 -0.15380445
-0.11661942 -0.13516945 0.071721606 0.09634444 -0.09436242 -0.07041124 -0.13260572 -0.08600415
0.036031928 -0.09351918 0.03682488 0.123663045 0.11389991 -0.06293303 -0.0428502 0.12187086
-0.04840232 0.10054525 0.06816558 0.03932074 0.06307751 -0.0022753992 -0.012994788 -0.1445502
0.10679347 0.06830043 -0.16684619 -0.101226136 0.09946765 -0.11355075 0.0029113228 -0.12935404
0.059393357 -0.110425286 0.029919265 0.0773337 0.1231006 0.06378317 -0.11341181 -0.066013746
-0.00663567 -0.1084474 -0.028983992 -0.009936124 0.090386845 -0.09184885 -0.0039359145 -0.11839496
-0.129674 -0.14132836 0.07283347 -0.14431491 0.11904868 -0.028855987 0.040900588 0.054834988
-0.04814808 -0.015438356 -0.17853332 0.020720184 0.006160378 -0.06377323 -0.0209213 0.061641872
0.01294822 0.14904512 0.113508746 -0.16280742 0.10807081 -0.14535065 -0.00058277464 -0.038298704
-0.10891101 -0.05230992 -0.0039139166 0.046773143 0.061351318 -0.107095934 -0.10893935 -0.027590685
0.08194986 -0.12454102 0.0117455665 0.036051326 0.1076652 0.01873945 -0.12337221 -0.04642363
0.11808136 0.048634384 0.008632427 -0.12310774 -0.0042552627 -0.10758329 0.11132911 -0.09715186
-0.004124798 0.0047374414 -0.077997 0.018096337 -0.107408516 0.026773198 0.037615035 0.07174222
-0.072464764 0.017915105 -0.0041158847 0.06873811 0.1633697 0.0548873 0.07025917 -0.06766614
0.07937929 0.11673481 0.022373138 -0.07865152 0.1661866 0.066469945 0.19207536 -0.05627225
0.048322264 -0.06556372 -0.031820342 -0.09402559 0.09234879 -0.12284267 0.09842874 -0.13473924
0.16896196 0.17453678 -0.100560874 0.15952125 0.120060824 0.019441487 0.02676271 -0.12997141
0.1622199 -0.01943862 0.05964499 0.00068002753 -0.021050362 0.16085547 0.031654052 0.06789967
-0.06399169
00000000: 1f02 a1bd 416b 86bc dbe4 9ebd dc3d 023d
00000010: 3109 e3bd 115b 78bd ab1e 15be 3aaa a6bd
00000020: d84b 14be bf32 e9bc 382f 4ebd a2ca 083d
00000030: e4e0 efbd 9475 72bb 94c3 9d3d 5dec a83d
00000040: 47ea bfbd eedf af3a 821f a73d 56b2 00be
00000050: e568 bfbd cc21 cb3d c228 b13b 6424 d1bd
00000060: fe70 613d 1ded 353e 3a49 1d3d 1f89 883c
00000070: e8f3 20be 094e 29be 0dee eb3d 3517 d63d
00000080: 0ea0 063d 0bbb cebd 52e0 2dbe b5dc dabc
00000090: 1906 a73d 6fd4 a43c 8a24 b03d 5a6e e83c
000000a0: 59e8 383e e9a0 803d 1712 7bbd 620b f0bc
000000b0: 00b1 99bd 384d 6abd 7c08 26be a519 dfbd
000000c0: e726 9f3c 2d56 8cbd 20a0 7b3d 82ab 29be
000000d0: acab f8bd 2965 af3d eef4 443d 5a3a 28bd
000000e0: 652c febd d4fb bd3d a712 943d 8b79 573d
000000f0: 558b 243e bc98 903d 94be a7bd 0d56 89bd
00000100: 4c2c 0abe 66c5 2e3e fe65 4dbc 3d55 87bd
00000110: 75f7 4bbd b57d 91bd 4481 07bb 636f e23d
00000120: 98e7 103e c0eb 8a3d 9035 0abe 7db5 6f3b
00000130: 3f31 2fbe fada 083e b560 cdbd ea7e 1dbe
00000140: 2ad6 eebd dc69 0abe c7e2 923d 3c50 c53d
00000150: 1641 c1bd c533 90bd cbc9 07be f222 b0bd
00000160: 3796 133d fc86 bfbd afd5 163d 0d43 fd3d
00000170: 5b44 e93d 08e3 80bd b183 2fbd 6e97 f93d
00000180: 8341 46bd abea cd3d 659a 8b3d c90e 213d
00000190: c82e 813d dd1e 15bb 17e8 54bc f804 14be
000001a0: 89b6 da3d 19e1 8b3d bad9 2abe a64f cfbd
000001b0: b2b5 cb3d 4c8d e8bd e4cb 3e3b 6375 04be
000001c0: 7346 733d a726 e2bd 3f19 f53c 2261 9e3d
000001d0: 2b1c fc3d c0a0 823d 7344 e8bd 3732 87bd
000001e0: 0970 d9bb ac19 debd d66f edbc 20cb 22bc
000001f0: bd1c b93d 401b bcbd d8f8 80bb 0f79 f2bd
00000200: 43c9 04be 62b8 10be b729 953d 4ac7 13be
00000210: cbcf f33d 6463 ecbc 6087 273d a79a 603d
00000220: ec36 45bd 29f1 7cbc 70d1 36be 60bd a93c
00000230: ffdc c93b 8a9b 82bd 2563 abbc 307c 7c3d
00000240: c524 543c 499f 183e 4677 e83d fdb6 26be
00000250: 3b54 dd3d cdd6 14be 58c5 18ba 1adf 1cbd
00000260: bc0c dfbd ed42 56bd 5040 80bb 3295 3f3d
00000270: 854b 7b3d 1d55 dbbd 981b dfbd dc05 e2bc
00000280: 54d5 a73d 5d0f ffbd 7a70 403c 8eaa 133d
00000290: 937f dc3d 7a83 993c 92aa fcbd b426 3ebd
000002a0: a4d4 f13d d934 473d 066f 0d3c e91f fcbd
000002b0: bb6f 8bbb a154 dcbd 8400 e43d 8ef7 c6bd
000002c0: 5029 87bb 8a3c 9b3b e4bc 9fbd c53e 943c
000002d0: fff8 dbbd 7753 db3c 3912 1a3d 96ed 923d
000002e0: 6868 94bd b3c2 923c 8bde 86bb 91c6 8c3d
000002f0: 634a 273e 81d1 603d 0ae4 8f3d 8c94 8abd
00000300: 9c91 a23d a912 ef3d df47 b73c 0c14 a1bd
00000310: d22c 2a3e 6521 883d 67af 443e bb7d 66bd
00000320: 91ed 453d 4646 86bd 0c56 02bd 7d90 c0bd
00000330: 5d21 bd3d f094 fbbd 0295 c93d 15f9 09be
00000340: 5d04 2d3e c5b9 323e dcf2 cdbd 8a59 233e
00000350: 73e2 f53d c143 9f3c 793d db3c 3a17 05be
00000360: f91c 263e be3d 9fbc 4e4e 743d e043 323a
00000370: cf71 acbc 4cb7 243e aea7 013d fb0e 8b3d
00000380: 130e 83bd

fc1.bias f4 [5]
0.13170218 -0.035729542 -0.089050844 0.13254508 -0.059775475
00000000: f0dc 063e 2459 12bd 4a60 b6bd e6b9 073e
00000010: 21d7 74bd
