saved_weights/Grid_10_1-/109/critic.pth (torch, 32435 bytes, 11 tensors)

attentions1.linear.weight f4 [16, 1]
000000 0c 4d 8b bf 07 0a 14 bd 58 44 20 be 81 f0 73 bf
       -1.0882888 -0.036142375 -0.15651071 -0.95288855
000010 a2 c2 88 bf e8 b7 61 3f 2e 7b 78 bf 7c 39 ad be
       -1.0684397 0.88171244 -0.9706296 -0.3383292
000020 8e 96 5c 3e c9 75 f2 bd d6 84 89 be 05 f5 80 bf
       0.21541807 -0.11838872 -0.26859158 -1.0074774
000030 f3 8c e2 be 53 d8 d6 3e 34 13 1d bf 06 b7 70 bf
       -0.4424816 0.41961917 -0.61357427 -0.9402927

attentions1.attn.weight f4 [1, 8]
000000 d5 20 b7 be 5b 3a a9 bc d8 ae 95 bd 83 5a 37 3e
       -0.35767236 -0.020657709 -0.073087394 0.17905621
000010 c2 7c 33 3e 9c 77 19 be 3f 33 ee 3d 63 3a 51 3e
       0.1752806 -0.14987034 0.11630868 0.20432429

attentions2.linear.weight f4 [16, 16]
000000 46 cf 9c 3e f7 9b f3 bd 69 0d 39 3e 99 15 a2 3d
       0.30626887 -0.11894982 0.18071522 0.07914276
000010 36 bf 2f 3e 6b 9b 4e bd e6 1f 2f 3d 8d f3 5b 3e
       0.17162785 -0.050441187 0.04275503 0.21479626
000020 23 b2 80 be 88 12 d4 bd 45 0d 34 3e 27 a7 34 3e
       -0.25135908 -0.10355097 0.17583187 0.17641889
000030 63 d7 75 3d cd 19 5e be bb 74 82 3d 60 c9 9c 3e
       0.060019862 -0.2168953 0.06369921 0.30622387
000040 ab f7 a0 be 75 94 f2 bd 67 2a ef ba 22 b2 43 be
       -0.31438956 -0.11844722 -0.001824689 -0.19110921
000050 bb e3 07 3e c2 01 bc 3d 01 f7 99 be 73 63 f7 3d
       0.13270466 0.09180023 -0.30071262 0.12079515
000060 f0 a6 b0 bc a9 39 18 3d ed a5 8d be e2 f3 9e be
       -0.021563977 0.037164364 -0.27665654 -0.31045443
000070 aa 81 8f be e4 e6 0a bc fa 54 ca 3d e2 65 48 3d
       -0.28028613 -0.0084779 0.09879489 0.048925288
000080 da e2 ab be 2d 8e 79 3c 19 4a 43 3c b2 f9 79 be
       -0.33571512 0.015231651 0.011919522 -0.24411657
000090 01 e2 3e be d0 c4 4e 3e 1e ed 87 bc 4b 74 db bb
       -0.18640901 0.20192266 -0.016592558 -0.006697213
0000a0 0d 22 2c be c2 ff 0f be e7 c9 cb 3c 22 05 48 ba
       -0.16809864 -0.14062408 0.024876548 -0.00076301594
0000b0 75 68 78 be 74 ac 89 3b 9b af 0b bd 89 11 f9 bc
       -0.24258597 0.004201466 -0.034103017 -0.03040387
0000c0 55 f5 2e be 77 ff 3f bd b8 66 85 be 23 87 43 be
       -0.17085774 -0.04687449 -0.2605493 -0.1909452
0000d0 6d b1 00 be 0e 7f 19 be d3 ab d0 3d 5e 2e 48 be
       -0.12567683 -0.14989874 0.10189023 -0.19548938
0000e0 e8 de 8c 3e c8 7d c9 3d 4a 25 33 be dc 6c 9d be
       0.27513814 0.09838444 -0.17494693 -0.30747116
0000f0 cb a1 18 3e 32 1f 9c 3e 82 f0 e6 3d 9e 3a 5e be
       0.14905469 0.3049255 0.11276342 -0.21702048
000100 93 7b 12 3e f5 a9 44 3e a5 1c 3b bd ef e5 24 3e
       0.14304952 0.19205458 -0.045681614 0.16103338
000110 61 29 7b 3e ee b2 c2 bd 56 76 66 bd 2d 0c 73 3c
       0.24527504 -0.095067844 -0.056265198 0.014834446
000120 9c 04 6a 3d 88 09 98 bd 9c 6e f1 3d bd d2 69 3e
       0.057133302 -0.07423693 0.11788675 0.22834297
000130 48 c7 14 3e 88 3b 26 be 97 e0 94 3e ef 49 50 3e
       0.14529145 -0.16233647 0.29077598 0.20340703
000140 f8 40 0b be a7 75 58 3e 7e 0f 0e be ff a9 22 be
       -0.13599002 0.21138631 -0.13873097 -0.15885161
000150 35 52 a0 bd 87 e1 78 3e bc 28 8f be ba a1 9d bd
       -0.0782818 0.24304782 -0.27960765 -0.076968625
000160 af dd 7b 3d 5f 33 11 be 5f 66 b7 bc 00 c1 96 bd
       0.06149071 -0.14179753 -0.022387682 -0.073610306
000170 a7 57 9f bc 54 55 83 3e cd 79 a9 be 7b 39 8f bd
       -0.019450976 0.25651038 -0.3310074 -0.069933854
000180 fe c1 ad 3c 05 72 d0 3d 30 66 90 3e 0f e2 05 be
       0.021210667 0.101779975 0.28202963 -0.13074516
000190 84 64 7b 3e e0 2f 1a 3e a8 cf c6 bd 21 ec 83 3e
       0.24550062 0.15057325 -0.09707576 0.2576609
0001a0 ae 30 70 be 2d 03 9d bd ff b5 11 3e ea dd 56 3e
       -0.2345607 -0.07666621 0.14229582 0.20983091
0001b0 3e d3 89 3e ad 51 16 bd b6 65 0e bd 79 01 9f 3e
       0.26918977 -0.036698986 -0.034764968 0.3105581
0001c0 52 71 74 3d 73 18 11 be 1d 72 b2 be b7 4f ae 3c
       0.059678383 -0.14169483 -0.34852687 0.021278245
0001d0 c2 c4 46 be 4e 87 b5 3d 77 ce 3f be 6e c0 81 bd
       -0.19410995 0.08863698 -0.18731104 -0.06335531
0001e0 32 8d e1 bd 33 c8 39 be 5a 80 76 bd 06 2c 86 be
       -0.11013259 -0.18142776 -0.060181 -0.26205462
0001f0 3b 2e c7 bd 47 4d a2 3e 87 ef 5b be f2 10 e2 bd
       -0.09725615 0.31699583 -0.21478091 -0.11038388
000200 8f e7 28 be ec 3c f1 bd e2 30 ac be e4 c0 62 be
       -0.16494583 -0.11779198 -0.33631045 -0.22143894
000210 8f 9e 01 be 21 40 98 3e 3b 2e 3c be 97 8c 8d 3d
       -0.12658142 0.29736426 -0.1837701 0.06911581
000220 93 66 ca 3d ce 32 cc 3d e5 7f 14 3e 48 12 a2 3c
       0.09882846 0.09970628 0.14501913 0.019784108
000230 11 03 98 be 6b 40 22 3e 0f 3f 33 be 70 98 4a ba
       -0.2968984 0.15844886 -0.17504524 -0.00077284034
000240 fb e8 20 3e 03 01 0b 3e a7 e6 b1 bd c8 66 85 bd
       0.15713875 0.13574605 -0.086865716 -0.065137446
000250 a2 fe 1d be eb 0a 0c 3d c7 88 9b be 88 32 18 3e
       -0.15429166 0.0341901 -0.3037779 0.14863026
000260 7b f0 01 3e 40 de 2c be 2a ce 36 be 1d 33 61 bd
       0.12689392 -0.16881657 -0.17852083 -0.054980386
000270 29 74 8e be 0f e4 82 3d cd c3 9d be 76 e1 83 be
       -0.27822998 0.06391155 -0.30813447 -0.2575795
000280 84 6a e1 bd f3 ac 52 be 95 e1 18 be 25 f2 9f be
       -0.11006644 -0.20573787 -0.14929803 -0.3123943
000290 c5 8c 90 be f1 02 3a be 5a 20 d6 bd 52 b5 20 3e
       -0.282324 -0.18165185 -0.10455389 0.15694168
0002a0 f0 a2 f4 bc f0 9c f9 3d d0 29 ba bd c3 3c a6 3d
       -0.02986285 0.121881366 -0.09090006 0.08117058
0002b0 99 65 04 bc b8 2c fe 3d 95 4d 03 bd 7a 5c d7 3c
       -0.008080863 0.12410873 -0.03205641 0.026289213
0002c0 a5 84 d0 bd f4 de fb 3d c5 67 53 3e 9c d0 b5 bd
       -0.1018155 0.12298384 0.20645054 -0.0887768
0002d0 f5 c1 b4 3d d3 a4 fa 3d d6 c2 50 bd b6 bf cd bd
       0.08826057 0.12238469 -0.05096706 -0.100463316
0002e0 a5 64 85 bc 08 50 7f bd 5b fe ee 3c c2 98 66 3e
       -0.016283343 -0.062332183 0.02917402 0.2251921
0002f0 27 28 2b bd 81 de b1 bd 41 12 5c bd d3 8f 8c bd
       -0.04178634 -0.086850174 -0.053728346 -0.0686337
000300 54 ea 48 3e af d8 4a 3e 3f c5 9f 3e a8 7e 22 3e
       0.19620639 0.1980922 0.31205174 0.15868628
000310 32 a6 b2 3d cf 25 0b be 6d 4e 01 3e 78 d0 34 be
       0.087231055 -0.13588642 0.12627573 -0.1765765
000320 ef 82 d1 bd 95 a3 43 be 5e 2c 39 be e5 af ee 3d
       -0.10230052 -0.1910537 -0.18083331 0.11654643
000330 2e dd 49 3e 8a 02 09 3d 57 13 b2 3b c7 88 38 be
       0.1971328 0.033449687 0.0054344344 -0.18020926
000340 7d 06 85 3d 34 1e 0f be 94 0a ad be b3 06 8f be
       0.06495378 -0.13976365 -0.33797133 -0.279348
000350 b6 f6 92 be b6 b4 29 3e 9f b9 ab bd 57 77 b6 3d
       -0.2870385 0.16572842 -0.08385014 0.08909481
000360 6d ba 1c 3d fa 9f 16 be dc f2 10 be 96 75 a6 bd
       0.038263727 -0.14709464 -0.14155143 -0.081278965
000370 17 90 d1 bd e2 1d 66 3e 78 55 e1 bd af 94 d2 bd
       -0.10232561 0.22472337 -0.1100263 -0.102822654
000380 03 2c 8e 3e 1f 65 02 be 1d c7 3d bc 27 58 08 3e
       0.27767953 -0.12733887 -0.011583117 0.13314877
000390 71 e0 33 3e f5 1d 51 be da 93 86 bd 11 49 99 bd
       0.17566086 -0.20421584 -0.06571169 -0.074846394
0003a0 d7 53 0f 3e 6c 6e ed 3d 65 08 4d 3e 76 ac 4c 3e
       0.13996826 0.11593327 0.20022734 0.19987664
0003b0 de 93 21 3e 81 71 2b be f4 a5 0e be b3 d0 78 3d
       0.15779063 -0.16742517 -0.13930494 0.060745906
0003c0 8c ed e0 3d 73 30 e5 3d b0 cf c0 3d 53 6a ac bd
       0.109828085 0.111908816 0.09414613 -0.08418717
0003d0 45 77 1b 3e 26 19 1a be c4 26 20 3e 01 33 25 be
       0.15182216 -0.15048656 0.15639788 -0.16132738
0003e0 3d bb f2 bd 08 9a 65 be ef 61 78 be 6b ff 9e 3d
       -0.11852119 -0.2242204 -0.24256109 0.07763561
0003f0 95 54 65 be c3 ff 3a 3e b0 29 c5 bd 41 b1 1d bd
       -0.22395547 0.18261628 -0.09627092 -0.03849912

attentions2.attn.weight f4 [1, 8]
000000 c7 ac 1d bd d4 95 8a 3c a1 2a 7e 3e 57 76 13 3e
       -0.03849485 0.016917147 0.24820949 0.14400612
000010 79 7f 4a be 36 e7 bc bd 2e ac 2d be f6 a0 80 bd
       -0.1977519 -0.092237875 -0.16960213 -0.06280701

attentions3.linear.weight f4 [16, 16]
000000 86 ac 29 3e 5a cf b1 bd ea 86 ff 3c 0d c6 55 3e
       0.16569719 -0.08682127 0.031192262 0.20876332
000010 93 8a 39 3c 7e 4d 03 3e 7a ee 1d bd cd 09 54 bd
       0.011324543 0.1282253 -0.038557507 -0.05176716
000020 f3 a1 93 be 6a ae 31 bd 6a dd 0b 3e 82 73 25 bd
       -0.28834495 -0.043379225 0.13658682 -0.04039336
000030 3f 7b b7 bd 54 30 2e be 17 2d 81 3e eb e1 c1 bd
       -0.08959054 -0.17010623 0.25229713 -0.094669186
000040 97 d6 aa 3d 0f 9f 08 bd a7 d4 b9 3d 58 ef 02 3e
       0.08341711 -0.033354815 0.09073763 0.12786615
000050 7b 5d 6e bd b4 77 a5 be 76 28 f1 3b 9d ff 90 be
       -0.05819462 -0.3231789 0.0073595596 -0.28320017
000060 d3 d6 f8 bd 67 6b 84 be 57 14 53 be 61 10 09 be
       -0.121503495 -0.2586319 -0.20613228 -0.13385154
000070 3f 3c 8a 3e 41 af ae bd 15 54 91 bd 24 07 31 3e
       0.2699909 -0.08529521 -0.070961155 0.1728788
000080 b1 5a 81 be 4f d4 e6 3d 07 3b 52 be 14 cf dc bd
       -0.25264505 0.112709634 -0.2053033 -0.107816845
000090 1d 01 64 be 98 3a 6a bc fb e8 6f 3e 12 3f a4 3b
       -0.2226605 -0.014296196 0.23428719 0.0050124014
0000a0 2a 31 15 be 30 6c 72 3d 26 73 ff 3c 2f 9d 11 be
       -0.14569536 0.059185207 0.031182837 -0.14220117
0000b0 61 5d 27 3d 4a 4c e7 3d ee 09 45 bd a2 0b 35 bd
       0.040860537 0.11293848 -0.048105173 -0.044200547
0000c0 b6 05 ac 3e f5 f5 9e 3d 58 21 b1 bd 8e e0 33 bd
       0.33598107 0.07761756 -0.08648938 -0.043915324
0000d0 4a d3 3d 3e 17 04 6e be d6 1c d7 3d 67 db 4d bd
       0.18537632 -0.23243748 0.10503547 -0.050258067
0000e0 52 ba b4 3d d3 a8 7e be ed 89 2c 3d c2 a1 18 be
       0.088246 -0.24869089 0.042123724 -0.14905456
0000f0 94 3e 1d 3c 90 c3 d5 bb 06 2d 57 3e 0d 41 15 3e
       0.009597439 -0.006523557 0.21013269 0.14575596
000100 43 de 57 bd 50 06 48 be 74 33 27 be 2d 7a d4 bd
       -0.0527022 -0.19533658 -0.16328222 -0.10374866
000110 3d 6e 4d 3e 6a b2 a7 3c 47 e2 d9 ba 2b 0e 8d be
       0.20061584 0.020470817 -0.0016623222 -0.27549872
000120 19 93 5b bd a4 04 5f be 86 e9 39 be 38 00 a8 3c
       -0.05360708 -0.21779114 -0.18155488 0.020507917
000130 da c8 b9 3d 3c 3a 5b bc 5e 30 9d 3d ab 17 21 3e
       0.090715125 -0.013380583 0.07675241 0.15731685
000140 f7 8e 00 bd 67 ae 0b 3e 77 b5 99 3e 43 e8 b8 3d
       -0.031386342 0.13640748 0.3002126 0.090286754
000150 d7 9a 01 3e 53 5f d3 bd 09 a5 76 bd 53 d3 c2 bd
       0.12656723 -0.10320916 -0.060215984 -0.09512963
000160 80 b9 82 3d 6f 78 50 3e 4a 65 a9 bd 92 8f 80 bd
       0.063830376 0.20358442 -0.082712725 -0.06277384
000170 d1 98 b6 3d d8 a2 95 bc 3d 5c f1 bd fa 7d 1e be
       0.08915866 -0.018266127 -0.11785171 -0.15477744
000180 6d b7 6b 3e e2 f6 a2 bd 78 19 a9 be 94 f5 87 be
       0.2301919 -0.079572454 -0.33027244 -0.2655455
000190 20 3e 14 be 09 bb 17 be b9 a8 24 3e 07 6b 3b bc
       -0.14476824 -0.14817442 0.16079988 -0.0114390915
0001a0 7b dc 8a 3d a6 80 1d 3e ff ac 12 3e a3 e7 ee bd
       0.067803346 0.15381107 0.14323805 -0.11665275
0001b0 06 dc 75 3e b8 31 a7 be 06 4f 0f 3a b4 e1 0c be
       0.24009714 -0.3265512 0.00054667925 -0.13757974
0001c0 8b d4 6d 3e 9d 39 9a be 28 f2 e8 bd 5d b7 6c be
       0.2322561 -0.3012208 -0.11374313 -0.23116823
0001d0 6e 6d 7e 3e 17 89 b2 be 7f de 43 3e b0 b2 b1 be
       0.24846432 -0.34870216 0.19127844 -0.3470664
0001e0 84 0e 98 be 3b 6c ff 3d ec 61 40 be 96 26 1a be
       -0.29698575 0.12471815 -0.18787354 -0.15053782
0001f0 70 15 4c 3e 78 64 f8 3a 02 ca 24 3e c7 76 12 be
       0.19930053 0.001895084 0.16092685 -0.14303122
000200 dd 25 b6 be db 20 8c bd 91 97 31 3e 49 d8 d3 3d
       -0.35575762 -0.06842204 0.17342974 0.103439875
000210 7f ed 60 be 00 5e aa 3e 22 31 a2 bd e4 37 90 3e
       -0.21965598 0.3327484 -0.079195276 0.2816764
000220 ff 25 0a 3e 7f bc 9e 3e 8e a3 bb 3d 52 3d a8 bc
       0.13491057 0.31003186 0.09162055 -0.020537052
000230 ad d9 09 be 30 4b 36 3a 12 36 a3 be 63 d1 f4 bc
       -0.13461943 0.0006953953 -0.3187719 -0.029885
000240 a5 6f 23 3e 97 2b 91 be 8d cd f4 bd ee 6f 54 be
       0.15960558 -0.2835357 -0.11953268 -0.20745823
000250 19 e8 c9 3d 67 bf a3 be ac 4b 89 3e 56 25 a6 bd
       0.09858722 -0.31981966 0.26815546 -0.0811259
000260 28 1a 5d be 8b 10 34 be 53 70 bb bd 4b 34 c5 3d
       -0.21592009 -0.17584436 -0.091522835 0.09629115
000270 e6 84 1c be 5a d7 a1 be 43 62 c2 bd 7d 35 f5 3d
       -0.15285072 -0.31609613 -0.09491398 0.11973093
000280 59 67 5e be b5 1c 85 3d 14 e0 5c 3d 76 97 08 be
       -0.21719112 0.06499616 0.053924635 -0.13339028
000290 ee fa 2d 3d 85 7e 3f bd 99 5e 2c 3e 1f 12 23 bd
       0.042475633 -0.046751518 0.16832961 -0.039812203
0002a0 0a 22 44 be 39 b9 36 3e c8 1c 62 3e d5 4a 9b be
       -0.1915361 0.17844094 0.22081292 -0.3033053
0002b0 4a 44 c4 bd af 9d 76 3d 43 35 0c 3e 3a 22 3b be
       -0.095833376 0.060208973 0.13692193 -0.18274775
0002c0 c6 7e 8c 3e 83 91 98 be 6a a5 7b 3d 15 27 6c bd
       0.2744047 -0.29798517 0.061437048 -0.05765446
0002d0 18 0d a1 3e 01 d2 ea 3d 4e 74 83 3b 0d c1 6e be
       0.31455302 0.11465836 0.0040116673 -0.2331583
0002e0 75 7f 97 be fc 60 de 3d a4 93 69 be 2a f0 96 3d
       -0.2958943 0.10858342 -0.22810227 0.073700264
0002f0 01 41 59 bd 6b bb 36 be 60 4a 19 3e 75 89 18 3e
       -0.05304051 -0.17844932 0.14969778 0.14896186
000300 89 3e e3 bd 7a 20 70 3e 7e 75 cf bd 09 c3 47 3e
       -0.11095912 0.23449889 -0.10129832 0.19507994
000310 ea b4 22 be 3f 01 99 3e 2f 44 0b be fe ff 46 3d
       -0.15889326 0.29883763 -0.13600229 0.048583977
000320 60 0a 10 3e 0d 5f 28 3d 80 54 57 3e 92 11 12 3d
       0.14066458 0.041106272 0.21028328 0.035661288
000330 fe 5d 62 3d 00 0b a8 3c 88 82 52 be 06 f1 65 3e
       0.05526542 0.020513058 -0.20557606 0.22455224
000340 3e f9 90 3d 78 75 1a bd b5 1d 70 be 06 20 83 3d
       0.07078789 -0.037709683 -0.23448832 0.06402592
000350 a0 c6 5a 3e 05 06 dd 3d 2d ab 72 bd f8 91 57 be
       0.21364832 0.10792164 -0.059245277 -0.21051776
000360 87 95 0f 3e c5 07 11 3e d9 07 63 3d 2f eb 34 be
       0.14021884 0.1416312 0.055427406 -0.1766784
000370 78 94 83 3e 26 d8 48 be 95 71 42 3e 1b 76 a3 3d
       0.2569921 -0.19613704 0.1898864 0.07981511
000380 93 dd 0f 3d e5 6b 42 3e 81 11 54 3e 50 14 76 3e
       0.03512342 0.18986471 0.20709802 0.24031186
000390 6f f0 38 3d 0a 6c 7c 3e 27 1d 34 bd 40 80 f4 bd
       0.04515117 0.24650589 -0.043973114 -0.11938524
0003a0 3e 15 1d 3e 5d 17 89 3e 94 64 81 be c2 42 c2 bd
       0.15340135 0.26775637 -0.25272048 -0.09485389
0003b0 b9 7f 30 be 4b de aa 3d 42 73 7c bd ec 48 67 3e
       -0.17236222 0.0834318 -0.061633356 0.22586411
0003c0 b3 a2 aa 3d d6 d3 29 3e 02 a3 bc bd 02 d9 81 3d
       0.08331814 0.16584715 -0.09210779 0.06340219
0003d0 d2 58 a3 bd a0 a1 0f 3e 83 9c 08 be 9b 04 04 be
       -0.079759255 0.14026499 -0.13340954 -0.12892382
0003e0 e6 7b f3 3d f4 fb 82 bb 52 d7 1b 3e f8 9c 8b 3d
       0.11888866 -0.0039973203 0.15218857 0.06817049
0003f0 0f 48 a7 3b 40 1d 81 3e 13 ac d3 3d ae a1 32 3e
       0.0051050256 0.25217628 0.10335555 0.17444488

attentions3.attn.weight f4 [1, 8]
000000 e0 7f 29 be 22 7f 9f 3c 10 3f a9 bd 26 ff 98 bd
       -0.16552687 0.019469801 -0.08263981 -0.07470541
000010 20 04 95 bd 7d 70 52 bd c3 c7 3f bd 71 c2 df bc
       -0.072761774 -0.05137681 -0.046821367 -0.027314397

output_layer.linear.weight f4 [1, 16]
000000 90 ef 97 3d 15 3a f1 3d a2 5b ae bc 4e 17 dc 3d
       0.0741874 0.117786564 -0.021283928 0.107466325
000010 9e bd d9 3d 97 54 d0 bd 7a a6 48 3e 57 43 63 3e
       0.1063187 -0.10172384 0.19594756 0.22193657
000020 0b 7c 99 be 5e 5d 9d 3e 8f e9 49 bb 53 4a 44 3e
       -0.2997745 0.30735296 -0.0030809378 0.19168977
000030 8f 49 c4 bd 01 df a2 3d 96 8e ca bd e2 0c 1b bd
       -0.09584343 0.07952691 -0.09890477 -0.037854083

output_layer.attn.weight f4 [1, 2]
000000 ea 4e c0 be 02 99 c9 be
       -0.37560207 -0.39374548

fc1.weight f4 [64, 100]
000000 e0 c7 c7 3d 8f 95 c7 3d 1c 46 61 3d 0c 11 93 3d
       0.0975492 0.09745323 0.054998502 0.07180986
000010 1c 0c e6 bb d9 1b 9e bd 4a ad af 3d 97 0e dc 3d
       -0.0070204865 -0.07720155 0.08577974 0.1074497
000020 cc 6d cd 3d 59 a1 0e 3e 2a 17 15 3e d8 43 01 3e
       0.10030708 0.13928737 0.14559618 0.12623537
000030 b8 e7 f2 3d 93 0d 53 bd 23 49 64 3c b3 5a e6 3c
       0.11860603 -0.051526617 0.013933453 0.02811942
000040 97 3a b1 bd 53 ee 90 3d 83 64 eb 3c a9 98 82 3c
       -0.08653753 0.07076707 0.028734451 0.015941935
000050 78 3b 13 3d 9b f8 11 3e fb f2 9b 3c 00 83 1f 3d
       0.035945386 0.14254992 0.01903676 0.03894329
000060 47 2f 26 bc 1a da 1b 3c 67 55 e8 3b 5a 47 c8 bb
       -0.010143108 0.009512449 0.007090259 -0.0061120214
000070 22 ba 17 3b b9 98 33 3d 52 f1 99 bb e8 9e 06 3e
       0.0023151715 0.04384682 -0.004697957 0.13146555
000080 74 0d af bd ff 78 9d 3d 5b fc 16 bd 75 a5 b4 bd
       -0.08547488 0.07689094 -0.03686176 -0.08820621
000090 d8 49 2b b9 fe b0 d8 3d df c9 72 3b f2 68 99 3d
       -0.0001633534 0.105806336 0.0037046594 0.0749072
0000a0 70 af d6 3d 47 3f a7 3d 7c 78 51 bc 5c 59 3a bd
       0.10482681 0.08166366 -0.012785073 -0.045495376
0000b0 2d 2e ec bc 06 87 93 3c e0 29 58 bd 7f 31 4c bd
       -0.028830612 0.01800872 -0.05277431 -0.04985189
0000c0 f9 e6 77 bc 0f 5c f3 3d 5c e5 d5 3d 79 cf ce 3d
       -0.015130752 0.11882793 0.104441375 0.10098166
0000d0 1f 0e cf bd 21 24 1e be 45 16 5a bd 8d 68 25 3d
       -0.10110115 -0.1544347 -0.053243894 0.04038291
0000e0 b5 65 b5 bc ef 14 2a 3d 1d 00 8f bd f1 d9 1e bd
       -0.022143224 0.04152387 -0.069824435 -0.038782064
0000f0 94 ab 15 bd aa d0 3e bd 6a 95 be bd 8c 4a 08 3d
       -0.036540583 -0.046585716 -0.09305842 0.03327422
000100 59 e9 0c be 2d e3 19 bd 53 3a 16 be 7e 68 6c bd
       -0.1376089 -0.037570167 -0.14670686 -0.05771684
000110 67 f6 e1 3b a7 a3 6f bd 44 a7 b8 3d 93 65 1e bd
       0.0068958285 -0.05850568 0.090162784 -0.038671087
000120 0b 31 a6 3d a2 bc b3 bd da 8c 04 be d7 4c fd bc
       0.08114823 -0.08776213 -0.12944356 -0.03092043
000130 99 40 3b bd 56 88 a5 bd 6d ad cc bd ce 0a 60 3d
       -0.045715902 -0.08082645 -0.09994016 0.054697804
000140 3f 43 01 3e f0 df 6f bd a1 e2 5a bd a0 94 0d 3e
       0.12623309 -0.058563173 -0.053438786 0.13826227
000150 01 d9 cd 3c 8f 08 83 3c 53 5c 72 bd 21 f7 17 bd
       0.02512789 0.015995292 -0.05917008 -0.037100915
000160 61 7c c8 3d ba 8c 1d 3e 5b a4 2a 3d 1d 02 94 3c
       0.097893484 0.15385714 0.041660648 0.018067414
000170 06 f1 c5 3d fd b8 75 3d 3c 08 c7 3d d0 81 cc bd
       0.09665112 0.05999087 0.097183675 -0.09985697
000180 29 fe 27 3c 50 f0 ad 3d b3 d2 14 3e a0 99 e1 3c
       0.010253468 0.084931016 0.145335 0.027539074
000190 cf 15 28 be b7 6e 08 bd a0 cc 33 bd 7e b8 8c bd
       -0.1641457 -0.03330871 -0.043896317 -0.068711266
0001a0 9e 97 84 bd 6b ed 3d bd 9a 97 ce bc 5b 17 59 3d
       -0.06474231 -0.046368998 -0.025218774 0.05300079
0001b0 f4 34 4f 3e d2 79 44 3e cb 8d 94 bd fb 47 99 bd
       0.20235044 0.19187096 -0.07253607 -0.07484432
0001c0 04 0e ec bc 24 59 a3 bc 72 0f b5 ba 02 a3 02 3e
       -0.028815277 -0.019939966 -0.0013813807 0.12757495
0001d0 b7 93 06 3e 2a 9d 01 3e f2 f3 09 3e 7a da d9 3d
       0.13142286 0.1265761 0.13471964 0.10637374
0001e0 ef 47 b2 bb 0d 35 51 3a 99 99 aa 3c ca 89 45 bc
       -0.005440704 0.00079806225 0.020825194 -0.012056777
0001f0 53 c4 47 3d a0 ca 00 3e 7d 55 62 3e b7 99 32 3e
       0.048771214 0.12577295 0.22102924 0.1744145
000200 d4 03 3c 3e 2f b3 15 3e c0 ae bd bb 6e 2a 1c 3d
       0.18360835 0.14619134 -0.005788654 0.0381264
000210 e2 f3 1c 3d ad 5e 80 bd db 76 a6 3d ac 46 f1 3d
       0.038318522 -0.06268058 0.08128139 0.11781058
000220 4a 1a cf 3d c1 e2 65 3e 8a 15 f7 3d 7d c9 a2 3d
       0.10112436 0.22449781 0.12064655 0.07948587
000230 f2 f8 9b 3d e5 e3 90 3d 82 e3 37 3e d7 cf d2 3d
       0.07615842 0.070747174 0.17957881 0.102935486
000240 f2 71 84 3b dc dd d8 3d c8 18 ce 3d 58 c3 0a 3e
       0.0040419037 0.10589191 0.100633204 0.1355108
000250 25 d4 65 3d 4a b3 d6 bb 33 f1 0e 3d 2d 6b 4c 3d
       0.05611052 -0.0065521346 0.034897994 0.0499069
000260 07 46 b4 3d a9 7c de 3d fa 62 38 3d 4e f0 93 3d
       0.08802419 0.10863621 0.045016266 0.07223569
000270 b0 b2 f2 3c 4e e8 36 3d d7 6b 74 3d 84 e2 f0 3d
       0.02962622 0.044655137 0.059673157 0.117619544
000280 3b c1 36 3d bb 7b bf 3b 9d 83 34 3e b1 46 44 3e
       0.044617873 0.0058436072 0.17628331 0.19167592
000290 7f c0 f3 3d f2 01 c7 3d 74 5f c9 3d 33 e2 09 3e
       0.1190195 0.09717168 0.09832659 0.13465194
0002a0 68 47 c9 3d 24 22 62 3d 12 9c dd 3d 77 65 a6 3d
       0.09828073 0.05520834 0.10820784 0.08124822
0002b0 1d 87 4c 3d c1 73 a8 3d 1e 0b ea 3d 65 df 71 3d
       0.04993354 0.08225203 0.11427902 0.059050936
0002c0 d6 c2 27 bd 1e f6 da bc 5f 62 a3 bd 5e e2 51 bd
       -0.040957294 -0.026728686 -0.07977747 -0.05124127
0002d0 ac a2 e4 3b 84 e5 1f 3e a9 13 3b 3e 9f 47 a1 bc
       0.0069774 0.15614897 0.18269219 -0.019687472
0002e0 0e 46 03 bd 75 ab c1 bd 02 0a 23 3d 0a b9 9e bd
       -0.03204923 -0.09456531 0.039804466 -0.07750137
0002f0 b9 56 0e be 8d f7 1a bd 69 e7 85 3b 25 e9 81 3d
       -0.1390027 -0.03783374 0.004086424 0.06343297
000300 1c c4 e5 bb 79 8e 08 3e b6 82 71 bb e2 b5 5a bd
       -0.0070119034 0.13335599 -0.0036851591 -0.053396113
000310 94 08 9e bc 7e 2d 2a be fc 61 fa bd ee e2 ef bd
       -0.0192912 -0.16618916 -0.1222572 -0.11713205
000320 79 71 a2 bd d6 9d ff bc b5 df d1 3c f2 90 10 bd
       -0.079317994 -0.031203192 0.025619367 -0.03529448
000330 37 33 29 bd dd 71 b3 bb 35 b2 ef 3c 0c ca a2 bb
       -0.041308608 -0.00547622 0.02925978 -0.0049679335
000340 8b 43 50 bd c3 39 32 be 85 ae 25 be 49 74 01 be
       -0.050845664 -0.17404847 -0.16179855 -0.12642016
000350 b5 7e ba 3d 28 bd 3d 3d 5b 5c 07 3e 02 59 7c 3c
       0.09106199 0.04632297 0.13218825 0.0154020805
000360 25 0e e3 bd 51 f7 c4 bd b7 b8 97 3c 0f ca 0b be
       -0.11086682 -0.09617484 0.018520696 -0.13651298
000370 2b db fd bd 28 16 e7 bd 47 4f 85 3c d5 49 22 3e
       -0.123953186 -0.11283523 0.016273154 0.15848477
000380 bc 03 b5 bc 54 72 a7 3a 07 e6 ec bd b0 a1 96 3d
       -0.022096507 0.0012775161 -0.11567312 0.07355058
000390 1e f8 2d bd a0 2f bf bc 22 62 a0 bc a9 f1 ba 3d
       -0.04247295 -0.023338139 -0.019578043 0.09128124
0003a0 f7 41 65 3d 8e 24 ba 3d ec 77 9e 3d 24 f2 d2 bb
       0.055971112 0.090890035 0.07737717 -0.006437557
0003b0 96 43 43 3d 2d 94 9a 3d c0 bf 0b 3d 7a 13 01 3e
       0.047671877 0.075477935 0.034118414 0.12605086
0003c0 50 61 49 bd eb 7a 8c bd b4 1a ae 3b f9 b2 6a 3d
       -0.04916507 -0.06859382 0.005313242 0.057299588
0003d0 7b 0f 2b bc 7c a0 3f bc 65 e8 14 3d 9f cd 9f bc
       -0.010440703 -0.011695977 0.03635444 -0.019507227
0003e0 23 ca b2 3d b9 b3 ef 3d 80 aa af 3d 55 1e 36 3d
       0.08729961 0.11704201 0.08577442 0.04446252
0003f0 de 98 b9 bd 60 46 0e 3e 2f c5 12 3c db ce 70 3d
       -0.0906236 0.13894033 0.008958145 0.058791023

fc1.bias f4 [64]
000000 cb 89 6b 3d 31 6f 63 bd d8 c9 c2 bc 03 ae 5e 3d
       0.057504456 -0.055525962 -0.023777887 0.05436517
000010 fd 99 fc 3d e5 ca 28 bd c0 df 65 3d 2d c4 e4 bd
       0.123340584 -0.04120912 0.056121588 -0.1117023
000020 37 53 3f 3d 75 e9 14 3d 50 8d 61 3d ac 58 a5 bc
       0.04671022 0.036355454 0.055066407 -0.020183884
000030 dc 45 bb 3b 1d 4f cd bd 0d 5e dc b9 fa 6b 06 be
       0.005715115 -0.10024855 -0.00042031743 -0.13127127
000040 3a c1 73 bd 62 e9 2f bc bc 43 a8 bd 3d 0a 99 bb
       -0.059510447 -0.010736795 -0.08216044 -0.00467041
000050 5d f6 fb 3d 2d 04 34 bd 37 18 86 bc c3 0a bf 3c
       0.123028494 -0.043949295 -0.016368968 0.023320561
000060 6d 83 03 be ac 76 1a bd 62 54 35 3d 83 0e 89 3d
       -0.12843104 -0.03771083 0.044269927 0.06692221
000070 84 e0 7e bd c1 2c 10 bd 71 0b 22 bd a4 4e 5a ba
       -0.062225834 -0.03519893 -0.039561693 -0.00083277584
000080 6d 59 b1 3c 8b c6 44 bd 12 08 3e bd 35 ee ad 3d
       0.021649087 -0.048040908 -0.046394415 0.084927
000090 0c 7b fe bc 89 57 11 bd e9 48 1f 3c aa 51 f7 3c
       -0.031064533 -0.03548387 0.009721973 0.030190308
0000a0 a3 41 92 bc 00 bf bc bd d8 f6 43 3c 72 c8 b3 bd
       -0.017853564 -0.09216118 0.011960708 -0.08778466
0000b0 68 61 d5 3d cc a0 88 bd e3 ef 71 3d 0c b0 89 bd
       0.104189694 -0.066712946 0.059066664 -0.067230314
0000c0 2a 0c 7c bd ce a6 31 bd e3 33 0f be 62 95 8d 3d
       -0.061535038 -0.043371968 -0.13984637 0.06913258
0000d0 38 cf c5 bd 32 42 5d 3c 93 2a c3 3d 6c b3 fa bd
       -0.096586645 0.013504552 0.09529605 -0.12241253
0000e0 e3 45 a0 bd 1a cf 22 bd 01 9b 8c 3c 58 74 2c 3d
       -0.0782583 -0.03974829 0.017163755 0.04210314
0000f0 bf 06 34 3e d6 7e e4 3d 7a e9 ab 3c 9e 5b d4 3d
       0.17580698 0.111570045 0.020985354 0.10369037

fc2.weight f4 [1, 64]
000000 1a 58 b9 3b 3c c8 ab 3d f5 7a 37 bc 58 64 08 3e
       0.0056562545 0.08387801 -0.011198749 0.13319528
000010 f6 8b f8 bd e5 df 77 bd 1a 7b f4 3d c8 a9 a7 bc
       -0.121360704 -0.060516257 0.11937542 -0.0204667
000020 cd fd 9d 3d 7b e7 60 3e 01 6e 05 3c 36 c3 05 3e
       0.07714424 0.21963303 0.008143903 0.13062748
000030 4d 46 c2 3d 89 c0 8a 3d e3 24 ea 3d a9 50 4f 3d
       0.09486065 0.067750044 0.11432817 0.050614033
000040 ba e1 12 3e ce 73 28 3e 31 18 a2 3d a1 e3 a2 3e
       0.1434392 0.16450426 0.079147704 0.31814292
000050 30 8b 75 be 90 d4 92 3b c3 33 4d 3e c7 f1 12 3e
       -0.23978877 0.004480906 0.20039277 0.14350043
000060 25 b8 45 bd 36 84 f9 3d 0d 4b 91 3e 1a bc 2f 3e
       -0.048271317 0.1218342 0.28377572 0.17161599
000070 a7 f5 d8 3d c0 ab 70 3e de 68 99 3e c2 82 02 3e
       0.105937295 0.23503017 0.2996282 0.12745193
000080 81 02 14 3e cc fa fe 3d 50 67 10 3c 0c 45 85 bd
       0.1445408 0.124501795 0.008813694 -0.0650731
000090 8b 09 57 3e af 6f 7a 3e bc 26 bc 3d 6e e3 ba 3d
       0.20999734 0.24456666 0.091870755 0.0912541
0000a0 9e 61 9b bc 3c 5f bc bb 3f f8 a8 3d d7 52 1c bd
       -0.018967446 -0.0057486575 0.08250474 -0.03816494
0000b0 0a 50 a8 3e 09 3d 02 3c fc c7 74 3e 20 ea 6d 3e
       0.32873565 0.007949122 0.23904413 0.23233843
0000c0 59 fa 0e 3d 30 64 fe 3d 50 0c 63 3d 9c 23 d3 bd
       0.03490672 0.12421453 0.055431664 -0.10309526
0000d0 3c e3 d0 bc 9a a2 88 3d a6 ec 71 be b4 6e 94 bd
       -0.025498979 0.06671639 -0.2362543 -0.072476774
0000e0 d7 f0 97 bd 6f 03 b2 bd 31 86 c7 3c 37 64 9f bd
       -0.074189834 -0.08692061 0.02435598 -0.07782786
0000f0 1c 98 c7 bd 42 7e 64 bd 04 20 5d 3e b5 9e 35 3e
       -0.097458094 -0.05578447 0.21594244 0.17736323
