saved_weights/LunarLander-v2/2549/actor.pth (torch, 14255 bytes, 10 tensors)

attentions1.linear.weight f4 [32, 1]
-0.2744993 0.13912302 0.84934956 -0.097106874 -0.5348041 1.0155667 0.26328892 -0.3762881
0.71712106 0.9939747 -0.463064 0.71934986 0.3588824 0.75588286 0.8101477 1.0249356
-0.85278773 -0.8811908 0.6410035 -0.9161312 0.5444821 0.26408166 0.32499635 0.6172339
-0.75871456 -0.99844897 -0.43142322 0.77911353 0.8336526 0.32120588 0.25216419 0.257695
00000000: 2c8b 8cbe 4476 0e3e f96e 593f f8df c6bd
00000010: ece8 08bf 17fe 813f cecd 863e d5a8 c0be
00000020: 3f95 373f 2075 7e3f b916 edbe 5027 383f
00000030: 6fbf b73e 8a81 413f d765 4f3f 1731 833f
00000040: 4c50 5abf b895 61bf ce18 243f 9387 6abf
00000050: 2e63 0b3f b635 873e ec65 a63e 0a03 1e3f
00000060: 1e3b 42bf 5a9a 7fbf 81e3 dcbe fc73 473f
00000070: 426a 553f 1975 a43e aa1b 813e 99f0 833e

attentions1.attn.weight f4 [1, 64]
0.071035825 -0.06988812 0.06640934 -0.01942327 -0.04117002 0.10658798 -0.02458425 0.095602036
0.06899718 0.0243866 -0.08709104 -0.08716106 -0.109016515 -0.10725668 -0.1193787 -0.054314423
0.013990804 0.022514103 -0.0463618 -0.078105874 -0.105309024 -0.069213666 -0.096059985 0.06597713
-0.07173181 0.08990073 -0.08489479 -0.09537825 0.00282011 0.08690425 -0.051909156 0.10735594
0.001953053 0.102329224 -0.046564594 -0.18455255 0.013065868 0.12976274 0.13570315 0.00078939967
0.0106566325 0.07874144 -0.11591571 0.13236976 0.020265555 -0.035760455 -0.00078018766 0.024104087
0.0053186794 -0.08981951 0.06301029 -0.026639588 0.03457144 0.049054448 0.038338102 0.062188957
-0.028927129 -0.07367146 -0.03459698 0.16622673 -0.00433319 0.004792271 0.00568027 -0.063379355
00000000: 3b7b 913d 8121 8fbd 9f01 883d 8d1d 9fbc
00000010: e5a1 28bd cd4a da3d e964 c9bc 00cb c33d
00000020: 654e 8d3d 68c6 c73c ca5c b2bd 7f81 b2bd
00000030: 0d44 dfbd 64a9 dbbd d27c f4bd cd78 5ebd
00000040: af39 653c 7f6f b83c dfe5 3dbd f9f5 9fbd
00000050: 42ac d7bd e5bf 8dbd 19bb c4bd 041f 873d
00000060: 21e8 92bd e01d b83d 52dd adbd ac55 c3bd
00000070: 98d1 383b dbfa b13d b29e 54bd 6edd db3d
00000080: 96fd ff3a fc91 d13d 84ba 3ebd 58fb 3cbe
00000090: 3912 563c 86e0 043e c4f5 0a3e b7ef 4e3a
000000a0: 2899 2e3c 3143 a13d 3765 edbd f08b 073e
000000b0: f303 a63c 8e79 12bd 8285 4cba ef75 c53c
000000c0: 5148 ae3b 4bf3 b7bd 8a0b 813d 443b dabc
000000d0: c89a 0d3d 51ed 483d 6a08 1d3d d9b9 7e3d
000000e0: 96f8 ecbc 10e1 96bd 90b5 0dbd 5737 2a3e
000000f0: 6ffd 8dbb 7c08 9d3b 8f21 ba3b 09cd 81bd

attentions2.linear.weight f4 [32, 32]
0.06537484 0.15685199 0.08432774 -0.011151144 0.04059542 0.18946244 0.016519181 -0.18016075
0.051434416 0.08389074 -0.101300165 0.033988964 -0.08160416 0.09707246 -0.09280342 0.14554384
-0.16373606 -0.19406825 -0.00041278664 -0.08588741 0.080500156 -0.040777754 0.032038704 -0.08321759
-0.111476794 0.07371203 -0.0378398 0.10473683 0.12763733 -0.02352428 0.1913922 0.13590796
0.06115179 -0.15014702 -0.20771232 0.1518443 -0.07593893 -0.06868566 0.047194965 -0.059555296
-0.15262416 -0.031196306 0.15975837 -0.009896727 -0.06759536 0.0401249 -0.13766836 -0.19490534
0.21117075 0.20196551 -0.21639244 0.12282892 -0.04288305 0.108043365 -0.14739831 -0.08896244
0.10629637 0.2209083 -0.099076346 0.06315755 -0.010172267 -0.16515845 -0.087859854 -0.040538453
0.031163592 0.007859463 0.08026367 -0.15975071 -0.17848197 -0.047941927 -0.03722652 0.04337017
0.11600052 0.17375414 -0.11217296 -0.07006196 0.0030725005 0.0013053293 0.15832023 0.063627265
-0.0611374 -0.050036848 0.13922578 -0.069146454 -0.07492166 0.05731388 -0.12351151 0.13305731
-0.16631143 -0.18386157 0.1254485 0.07676696 -0.06739108 0.14741638 0.107237704 0.04046967
0.10796665 0.011506748 -0.06945618 -0.06857073 0.15129963 0.12606151 -0.09899134 0.11742095
-0.03907971 -0.10386815 0.03271753 -0.15964793 -0.004270285 0.08805809 -0.044896908 0.058563914
0.07766419 -0.060520913 -0.09586028 0.14865427 0.00047379537 0.16353191 -0.10447452 -0.16749041
-0.13509169 0.14111157 -0.13834208 -0.037198078 0.08614411 -0.040574268 -0.049497575 -0.13453142
0.13646065 -0.06732331 0.12468857 -0.120502375 0.16536519 0.015889278 0.02491074 -0.08554689
-0.08726583 -0.06511872 -0.02790258 -0.13587947 0.11709025 -0.095000036 -0.13344036 -0.043236844
0.09852945 0.048117194 -0.10196346 0.19288039 0.042582594 -0.07896395 0.03241969 -0.16764522
-0.08093819 -0.03759323 -0.06275639 -0.036279164 -0.00025497537 0.04112262 -0.18054435 0.11770579
0.084193096 -0.028204333 0.11431399 0.13138156 -0.07355796 0.0791568 0.04152925 -0.03717808
-0.11644065 -0.11964032 -0.114252746 0.11825685 0.13976896 0.111920476 -0.15405206 -0.17648941
-0.053527273 0.08798614 0.120467305 -0.119406395 -0.08607549 -0.09124148 -0.09541715 -0.05545392
0.15432492 0.11644029 -0.03728079 -0.07002651 0.057386786 0.007857205 -0.15934914 0.12825431
-0.03004002 0.08966617 -0.15921585 0.13495329 0.1509318 -0.016398223 -0.20403424 -0.008167408
0.13265498 -0.062435705 -0.061244264 -0.17133106 -0.14303431 -0.13650489 0.09153148 0.078422345
0.023278248 0.16292521 -0.20852698 0.19566225 -0.03832028 -0.1472598 -0.0151961045 0.111929625
0.035013206 -0.015299285 -0.021518668 -0.15756676 0.023285551 0.02193704 0.052500732 -0.19411524
0.076721065 -0.14153926 -0.08752729 -0.0058073024 -0.052260168 -0.022771126 -0.046134595 0.088029146
0.1482814 0.03405339 0.013507039 -0.1165855 -0.04488506 0.046646897 -0.14124754 -0.05094501
0.15416415 0.09349555 -0.077082366 0.18195046 -0.08422965 0.0879853 -0.075823605 -0.1275271
-0.08253053 -0.07633836 -0.07575254 -0.058517043 -0.03832802 -0.14230905 -0.11639544 -0.18847041
00000000: 3ee3 853d cf9d 203e 06b4 ac3d 4ab3 36bc
00000010: 6247 263d 7102 423e 3c53 873c 0f7c 38be
00000020: e5ac 523d e9ce ab3d 7676 cfbd 0338 0b3d
00000030: 1520 a7bd edcd c63d b80f bebd 7209 153e
00000040: 6daa 27be d4b9 46be 496b d8b9 bde5 afbd
00000050: 44dd a43d 9306 27bd 043b 033d fc6d aabd
00000060: f24d e4bd 55f6 963d e8fd 1abd 4380 d63d
00000070: 5cb3 023e feb5 c0bc 51fc 433e 752b 0b3e
00000080: 4d7a 7a3d 24c0 19be 8ab2 54be 127d 1b3e
00000090: df85 9bbd 11ab 8cbd 824f 413d 41f0 73bd
000000a0: 8249 1cbe 658f ffbc b397 233e e225 22bc
000000b0: 706f 8abd 025a 243d eff8 0cbe 4495 47be
000000c0: 253d 583e 0cd0 4e3e fb95 5dbe bb8d fb3d
000000d0: 23a6 2fbd d745 dd3d 95ef 16be f131 b6bd
000000e0: e9b1 d93d c935 623e 8ae8 cabd bf58 813d
000000f0: 95a9 26bc 4c1f 29be deef b3bd a60b 26bd
00000100: ca4a ff3c fac4 003c 4761 a43d b195 23be
00000110: fac3 36be c15e 44bd d67a 18bd eba4 313d
00000120: ae91 ed3d 9bec 313e f0ba e5bd a57c 8fbd
00000130: 015c 493b 9517 ab3a b31e 223e 034f 823d
00000140: 366b 7abd 70f3 4cbd 3491 0e3e a89c 8dbd
00000150: 8770 99bd f6c1 6a3d 9af3 fcbd 2d40 083e
00000160: 8b4d 2abe 3546 3cbe 9275 003e ff37 9d3d
00000170: 5604 8abd 52f4 163e 719f db3d 86c3 253d
00000180: 9e1d dd3d cd86 3c3c 0b3f 8ebd d06e 8cbd
00000190: 4aee 1a3e 4516 013e f9bb cabd 657a f03d
000001a0: 0c12 20bd d3b8 d4bd d102 063d bf7a 23be
000001b0: bfed 8bbb cd57 b43d d2e5 37bd b7e0 6f3d
000001c0: 670e 9f3d c7e4 77bd 6552 c4bd d338 183e
000001d0: bd67 f839 e974 273e bdf6 d5bd 9b82 2bbe
000001e0: 7a55 0abe 8d7f 103e 8ca9 0dbe 035d 18bd
000001f0: 536c b03d 3431 26bd f8bd 4abd 9bc2 09be
00000200: 57bc 0b3e cee0 89bd b95c ff3d f3c9 f6bd
00000210: 7e55 293e 3b2a 823c 9c11 cc3c 3533 afbd
00000220: 6db8 b2bd f75c 85bd f493 e4bc fd23 0bbe
00000230: 03cd ef3d 618f c2bd 97a4 08be 1e19 31bd
00000240: cfc9 c93d 8916 453d 38d2 d0bd 7082 453e
00000250: 166b 2e3d dab7 a1bd 82ca 043d 30ab 2bbe
00000260: ecc2 a5bd 5cfb 19bd 6c86 80bd 7699 14bd
00000270: 37ae 85b9 3170 283d 9ee0 38be bc0f f13d
00000280: 6e6d ac3d c60c e7bc 741d ea3d e388 063e
00000290: 8ea5 96bd f61c a23d 931a 2a3d 0b48 18bd
000002a0: 6f78 eebd fc05 f5bd 58fd e9bd a630 f23d
000002b0: 981f 0f3e 9036 e53d d3bf 1dbe a4b9 34be
000002c0: 6a3f 5bbd 1432 b43d 90b7 f63d 578b f4bd
000002d0: 5948 b0bd d0dc babd 116a c3bd a623 63bd
000002e0: 5a07 1e3e 3f78 ee3d beb3 18bd 0f6a 8fbd
000002f0: 680e 6b3d 82bb 003c 6c2c 23be 1955 033e
00000300: 7d16 f6bc e6a2 b73d 7b09 23be 3231 0a3e
00000310: de8d 1a3e 9155 86bc 5aee 50be 98d0 05bc
00000320: b5d6 073e 95bc 7fbd 44db 7abd 6971 2fbe
00000330: 9677 12be f0c7 0bbe db74 bb3d e59b a03d
00000340: 06b2 be3c ded5 263e 1988 55be af5b 483e
00000350: baf5 1cbd 46cb 16be 15f9 78bc 5c3b e53d
00000360: 026a 0f3d daa9 7abc eb47 b0bc 2e59 21be
00000370: 57c1 be3c 4fb5 b33c 020b 573d 25c6 46be
00000380: ef1f 9d3d abef 10be 8241 b3bd 2f4b bebb
00000390: c20e 56bd 838a babc a1f7 3cbd a048 b43d
000003a0: 14d7 173e 917b 0b3d a14c 5d3c 61c4 eebd
000003b0: 66d9 37bd d110 3f3d 32a3 10be b7ab 50bd
000003c0: 35dd 1d3e 987a bf3d 5cdd 9dbd 3951 3a3e
000003d0: 9880 acbd a331 b43d 6849 9bbd 7796 02be
000003e0: c405 a9bd 4957 9cbd 2624 9bbd 91af 6fbd
000003f0: d8fd 1cbd 77b9 11be bc60 eebd 63fe 40be

attentions2.attn.weight f4 [1, 64]
0.04725728 0.06902101 0.11893249 0.091487296 0.11347003 -0.0621688 0.05645739 0.08519441
0.011914564 -0.0073601296 0.10405495 -0.029962208 -0.01719985 -0.012191572 -0.06415864 0.0020573128
0.08408065 -0.016887013 0.07204222 -0.1078272 -0.04527298 -0.007388532 -0.043970104 0.04714474
0.0446682 0.008212481 -0.02971515 -0.11572021 -0.016795756 -0.046333794 -0.112769805 -0.103584856
0.14441814 -0.1532862 0.0826405 0.01036756 0.008239057 0.08399465 -0.051530294 -0.065731235
0.12019732 0.07905095 0.040455185 0.06642642 -0.034604467 -0.030850125 -0.058503527 0.026938181
0.14894451 0.03905418 0.020729566 -0.06199278 -0.13135923 -0.1300673 -0.08818504 -0.10813658
0.083230086 0.13786648 0.027477972 -0.07162933 -0.011689396 0.012820196 -0.01773095 -0.013608811
00000000: da90 413d e35a 8d3d e192 f33d b15d bb3d
00000010: fa62 e83d b6a4 7ebd dd3f 673d 687a ae3d
00000020: 4e35 433c 3e2d f1bb c31a d53d 4e73 f5bc
00000030: b3e6 8cbc 29bf 47bc 9b65 83bd fbd3 063b
00000040: 7a32 ac3d a256 8abc df8a 933d 82d4 dcbd
00000050: 2970 39bd 801b f2bb ff19 34bd d81a 413d
00000060: 01f6 363d a48d 063c 306d f3bc b8fe ecbd
00000070: 4197 89bc 81c8 3dbd dbf3 e6bd 4c24 d4bd
00000080: 59e2 133e 0ff7 1cbe 6c3f a93d b3dc 293c
00000090: 1cfd 063c 6305 ac3d 6e11 53bd 199e 86bd
000000a0: 032a f63d 77e5 a13d 56b4 253d 930a 883d
000000b0: 6abd 0dbd 67b9 fcbc 65a1 6fbd 76ad dc3c
000000c0: e984 183e 47f7 1f3d 0dd1 a93c 24ec 7dbd
000000d0: 0983 06be 5d30 05be 5c9a b4bd b676 ddbd
000000e0: 8974 aa3d df2c 0d3e 7c19 e13c 66b2 92bd
000000f0: e184 3fbc cd0b 523c 7f40 91bc 7ef7 5ebc

attentions3.linear.weight f4 [32, 32]
0.16044761 -0.069098234 0.13265264 -0.09887264 0.11904022 -0.16173995 -0.14666972 0.06704245
0.035708908 -0.0019278319 0.01723161 0.12648344 -0.020366224 -0.06637083 -0.044607107 -0.0069461577
0.21763599 0.19655246 -0.15887956 -0.027155645 -0.15429743 -0.108944945 -0.13501176 -0.1733057
0.053941954 0.0076779975 0.0760853 0.12340718 -0.047741763 0.13412142 0.044262633 -0.20999184
0.06483834 0.19010258 0.010191063 0.06883043 -0.11689346 0.02331536 0.11643036 -0.012548018
0.05573284 -0.15886925 0.033165604 -0.15205993 -0.13655208 0.010471579 -0.08880328 0.05095413
-0.092962384 -0.17209339 -0.06880088 -0.013711506 -0.078811295 -0.044151366 -0.014295442 0.024265163
0.09188744 -0.039683666 -0.0025684726 -0.14432102 0.0013618784 0.015385957 0.16917655 0.062334865
0.06297595 0.072587706 0.19526565 -0.1136415 -0.007143937 -0.14768064 -0.18115327 0.062952645
-0.013781249 -0.07527046 0.123588 0.06189061 -0.07587996 -0.12840375 0.12595664 -0.055410095
0.0016537224 0.13094649 0.14916049 0.18964006 -0.05819044 -0.1730323 0.015403503 0.13774885
0.0013916994 0.16308738 -0.053324025 -0.07020779 0.12615463 -0.08260294 -0.06267538 0.028903184
-0.19817522 -0.04399714 -0.15286541 0.05345855 0.1437043 0.048590485 0.08626732 0.0024297377
-0.06102474 -0.14227991 0.13566214 -0.15761843 -0.09353533 0.15543519 -0.040613882 0.145651
-0.0728964 -0.0107171 -0.12626292 -0.07407829 0.18694957 0.060204927 -0.019646754 -0.106556505
-0.15466498 -0.14007355 -0.072386146 0.024483452 -0.13621546 -0.19756846 0.09109397 -0.094198376
0.08252363 -0.06465341 0.0011437025 0.042961597 0.14805505 0.010175105 0.19342642 0.066157274
0.071295656 -0.08323564 -0.010960008 -0.04749598 -0.04459746 0.063497126 -0.0009340294 0.19108953
-0.21517362 0.018280905 0.16631462 -0.16740195 -0.029549291 0.18227698 0.06479246 0.08550903
0.113362506 0.080205955 0.076264 -0.06646472 -0.035926104 -0.13999338 0.026610702 0.1379827
0.122198604 0.060779426 0.08572593 -0.08236021 0.12821126 0.105181895 -0.18909344 -0.18798612
-0.10137699 0.009991723 -0.097027354 0.08482791 -0.030023102 0.04820895 -0.15529308 -0.21114634
0.04240824 0.036369145 0.14735645 0.06549588 0.017524729 0.065558456 0.10537931 -0.005677575
0.12780473 -0.12574165 0.15940702 -0.048741035 0.16310124 0.061074957 -0.21091394 0.020226208
-0.14372519 0.16863237 -0.09018432 -0.119420744 -0.13743865 0.14021963 -0.080944285 0.112777926
-0.15276544 -0.08414688 -0.15830933 0.10950453 0.12719385 0.13560662 0.06838479 -0.022683678
-0.10857719 0.08727217 -0.103713185 0.10712272 0.13631438 0.16842733 -0.04066977 0.15299392
0.008178648 0.11401196 0.12405141 0.14148314 0.019955812 -0.19532523 0.0945764 0.06330538
0.09144679 -0.09571319 -0.03877265 -0.0113005275 -0.12624492 -0.030293241 -0.1997465 0.14899878
0.09133505 -0.08889628 0.0961734 -0.056320325 0.029164119 -0.022440894 -0.17642938 -0.10489727
0.0027284753 0.081972584 -0.039888367 0.06334534 -0.1870637 0.09140441 -0.1998274 -0.11858705
-0.09044895 0.049435508 -0.13459048 0.12266866 0.022291904 -0.05795453 -0.19131647 0.06502062
00000000: 614c 243e 6083 8dbd 18d6 073e bd7d cabd
00000010: 5ccb f33d 289f 25be 9630 16be 8d4d 893d
00000020: 8143 123d 4eaf fcba 4e29 8d3c e084 013e
00000030: 11d7 a6bc 6eed 87bd f1b5 36bd 989c e3bb
00000040: f8db 5e3e 0c45 493e 53b1 22be 8475 debc
00000050: 2500 1ebe 871e dfbd 8640 0abe 0d77 31be
00000060: 3df2 5c3d b697 fb3b 9cd2 9b3d e7bc fc3d
00000070: de8c 43bd 2057 093e bc4c 353d 1a08 57be
00000080: f7c9 843d 40aa 423e 6bf8 263c f8f6 8c3d
00000090: d765 efbd dbff be3c 0a73 ee3d 3496 4dbc
000000a0: 1e48 643d 9fae 22be a8d8 073d 99b5 1bbe
000000b0: 4fd4 0bbe fc90 2b3c 7ede b5bd 47b5 503d
000000c0: 1063 bebd 4039 30be 7ae7 8cbd 39a6 60bc
000000d0: d167 a1bd 10d8 34bd 6e37 6abc bcc7 c63c
000000e0: 7b2f bc3d 578b 22bd d253 28bb e4c8 13be
000000f0: 0e81 b23a 6215 7c3c 9e3c 2d3e d852 7f3d
00000100: 89f9 803d dda8 943d b8f3 473e e0bc e8bd
00000110: b017 eabb 9839 17be 3e80 39be 51ed 803d
00000120: bfca 61bc 6627 9abd b51b fd3d 0281 7d3d
00000130: f466 9bbd 467c 03be c7fa 003e b2f5 62bd
00000140: b7c1 d83a d616 063e 87bd 183e 0131 423e
00000150: 1959 6ebd 612f 31be f95e 7c3c 090e 0d3e
00000160: af69 b63a 6100 273e 4b6a 5abd 1ac9 8fbd
00000170: ae2e 013e bb2b a9bd f35b 80bd 5fc6 ec3c
00000180: 72ee 4abe 5836 34bd c088 1cbe 5af7 5a3d
00000190: 3827 133e d106 473d ecac b03d 3c3c 1f3b
000001a0: 14f5 79bd d3b1 11be 04eb 0a3e ba66 21be
000001b0: 738f bfbd 672a 1f3e be5a 26bd 8925 153e
000001c0: b54a 95bd c796 2fbc 114b 01be 5cb6 97bd
000001d0: b56f 3f3e 7199 763d 3bf2 a0bc 4c3a dabd
000001e0: 7f60 1ebe 716f 0fbe 303f 94bd 8591 c83c
000001f0: 117c 0bbe 634f 4abe 7a8f ba3d 14eb c0bd
00000200: 2602 a93d 0269 84bd 4ae8 953a 80f8 2f3d
00000210: be9b 173e 7cb5 263c 9311 463e 777d 873d
00000220: 7503 923d 7277 aabd 9b91 33bc 258b 42bd
00000230: d4ab 36bd c80a 823d a7d9 74ba f9ac 433e
00000240: 7956 5cbe d6c1 953c 614e 2a3e 6b6b 2bbe
00000250: 5b11 f2bc d1a6 3a3e e9b1 843d 5c1f af3d
00000260: 9a2a e83d 0543 a43d 4d30 9c3d a81e 88bd
00000270: 4027 13bd 6d5a 0fbe b0fe d93c 564b 0d3e
00000280: 4343 fa3d d9f3 783d 1491 af3d 78ac a8bd
00000290: d049 033e 9b69 d73d b6a1 41be 6f7f 40be
000002a0: bd9e cfbd 53b4 233c 47b6 c6bd 41ba ad3d
000002b0: 02f3 f5bc bf76 453d 2605 1fbe bf36 58be
000002c0: 43b4 2d3d d0f7 143d 9ce4 163e b422 863d
000002d0: 0590 8f3c 8343 863d 1cd1 d73d f30a babb
000002e0: 3edf 023e 6bc2 00be 983b 233e aea4 47bd
000002f0: 0304 273e bc29 7a3d d3f9 57be 6fb1 a53c
00000300: b22c 13be f7ad 2c3e 8fb2 b8bd dd92 f4bd
00000310: b8bc 0cbe bc95 0f3e 1ec6 a5bd 1df8 e63d
00000320: 8b6e 1cbe 3355 acbd d71b 22be e943 e03d
00000330: 1b3f 023e 76dc 0a3e 530d 8c3d 1fd3 b9bc
00000340: b85d debd c0bb b23d 9467 d4bd 2863 db3d
00000350: ff95 0b3e 3778 2c3e 5895 26bd 70aa 1c3e
00000360: bcff 053c 1a7f e93d aa0e fe3d f5e0 103e
00000370: 5f7a a33c 5603 48be 46b1 c13d 40a6 813d
00000380: 7448 bb3d 4705 c4bd 12d0 1ebd d925 39bc
00000390: 5946 01be 8829 f8bc 598a 4cbe 2393 183e
000003a0: df0d bb3d 410f b6bd 8ff6 c43d 24b0 66bd
000003b0: 97e9 ee3c f7d5 b7bc e7a9 34be 61d4 d6bd
000003c0: 38d0 323b 3ee1 a73d fc61 23bd 34bb 813d
000003d0: a08d 3fbe 3c32 bb3d 8e9f 4cbe c4dd f2bd
000003e0: 4d3d b9bd e37c 4a3d 16d2 09be b539 fb3d
000003f0: 839d b63c bb61 6dbd 77e8 43be 8829 853d

attentions3.attn.weight f4 [1, 64]
0.12058103 -0.05006385 0.10421323 0.11489517 -0.039060667 0.032391816 -0.096567534 0.10672827
-0.024636537 0.08518618 0.0971775 -0.12126665 -0.004122572 -0.10656911 -0.08336166 -0.11918192
0.0942777 -0.036743835 0.087551005 0.04670339 0.061688725 0.025199179 -0.09732973 -0.021365093
-0.10451311 0.07389886 -0.03331591 -0.006069833 0.02182796 -0.03015062 -0.12875344 0.043230113
-0.07260929 -0.03331165 0.12803945 -0.12111068 -0.012802252 -0.0010554635 0.09522539 0.028936872
0.14550744 -0.009980123 -0.06459187 0.011396765 -0.027645288 0.0126319695 0.051975347 0.077509984
0.0724355 -0.084858075 -0.061543856 0.053006623 -0.12553628 0.107665256 -0.0015005791 -0.03177603
-0.08419838 0.097733 -0.034343574 -0.07477147 -0.05009297 0.08125627 -0.10026261 -0.019615237
00000000: 30f3 f63d c00f 4dbd bf6d d53d 294e eb3d
00000010: 14fe 1fbd 48ad 043d 33c5 c5bd 5a94 da3d
00000020: 90d2 c9bc 1876 ae3d ff04 c73d a65a f8bd
00000030: a416 87bb e840 dabd 85b9 aabd a715 f4bd
00000040: ab14 c13d b480 16bd f14d b33d 0e4c 3f3d
00000050: 51ad 7c3d 826e ce3c cf54 c7bd d905 afbc
00000060: f80a d6bd 4958 973d 4376 08bd 73e5 c6bb
00000070: 8dd0 b23c 6ffe f6bc f1d7 03be 0f12 313d
00000080: 2eb4 94bd cc71 08bd c61c 033e e008 f8bd
00000090: 89c0 51bc 7a57 8aba 8705 c33d 050d ed3c
000000a0: e7ff 143e ab83 23bc be48 84bd 7fb9 3a3c
000000b0: 5f78 e2bc 52f6 4e3c 1ae4 543d 8ebd 9e3d
000000c0: 1059 943d 12ca adbd 6915 7cbd 791d 593d
000000d0: 958c 00be 9a7f dc3d 14af c4ba 9527 02bd
000000e0: 3370 acbd 3d28 c83d d9ab 0cbd c921 99bd
000000f0: 492e 4dbd b069 a63d 7c56 cdbd 22b0 a0bc

output_layer.linear.weight f4 [5, 32]
0.07131367 0.002799098 0.06691533 -0.038547933 -0.11548539 0.20088199 -0.15420571 -0.008633746
0.108175345 0.02378074 -0.09082305 -0.032114923 -0.008072556 -0.13535257 0.08938406 0.18388054
-0.030611617 -0.16982591 0.18651937 -0.19139956 -0.19311365 0.15473077 0.040844645 -0.15664029
-0.07260245 -0.110347226 0.15152825 -0.01910555 0.08854911 -0.15594098 -0.19699323 -0.035337087
-0.11230447 0.00010031506 -0.005088598 0.01857912 0.12897168 -0.008708538 0.072294064 -0.095666476
-0.1548525 -0.1633043 0.048240934 -0.13322559 -0.03773198 0.060688533 -0.033434145 -0.08950881
-0.005407087 0.17598565 0.10435515 0.124733865 0.02440085 -0.20817572 -0.12000121 -0.11980173
0.08329062 -0.1711996 -0.10445883 -0.008640956 0.22587727 -0.0015025223 0.046259366 0.1019275
-0.1293675 0.12868607 -0.18646029 0.18599074 -0.018220652 -0.18431398 -0.025339892 0.10102943
0.031760246 0.0045027197 -0.09261448 0.107875325 0.1056581 -0.21372867 -0.022307277 -0.013678601
0.11965169 -0.1600543 -0.06530859 0.037671853 0.085292645 -0.054986574 0.14619058 0.09208285
-0.068645716 -0.20771082 -0.036503274 0.019160058 0.1931124 -0.117672145 0.15877755 0.07491874
-0.08510973 -0.06820416 0.0714397 0.10145819 0.06507106 0.065178595 -0.1678526 0.14356385
0.098818146 0.14466836 0.08698416 -0.15963155 0.1605045 -0.14844851 0.15690745 0.014184996
0.16951722 -0.070821606 0.15859547 0.03173542 0.10680143 0.10572594 0.093792595 -0.106223755
-0.054541424 0.060083378 0.046022944 0.07340036 -0.047834516 0.0914722 0.15786979 -0.16240662
-0.020779701 0.0038249663 0.1283898 -0.1637447 -0.08010133 -0.017633444 -0.1611705 0.20097366
-0.053533122 0.12601183 -0.008451258 0.15898515 -0.12876686 -0.0059731463 0.13213357 0.027478237
-0.21095067 -0.024613433 0.115643814 -0.16268271 -0.21828495 -0.106289364 0.013629085 0.16391183
-0.07915778 0.13149118 0.13868855 0.14894116 0.051292844 -0.21638311 -0.11583027 -0.1802188
00000000: e70c 923d 1271 373b e80a 893d 70e4 1dbd
00000010: 9b83 ecbd 02b4 4d3e 1ae8 1dbe 8e74 0dbc
00000020: 098b dd3d d4cf c23c 6f01 babd f08a 03bd
00000030: c142 04bc dd99 0abe fd0e b73d 2e4b 3c3e
00000040: 37c5 fabc d8e6 2dbe effe 3e3e 3ffe 43be
00000050: 96bf 45be be71 1e3e b74c 273d 5066 20be
00000060: 98b0 94bd bafd e1bd 392a 1b3e 3e83 9cbc
00000070: 3c59 b53d feae 1fbe 98b8 49be 9fbd 10bd
00000080: e3ff e5bd 3d60 d238 41be a6bb 3d33 983c
00000090: 2711 043e 41ae 0ebc e90e 943d c9ec c3bd
000000a0: a791 1ebe 3e39 27be 4998 453d 4a6c 08be
000000b0: d98c 1abd 8a94 783d 3ef2 08bd 6550 b7bd
000000c0: ef2d b1bb 9535 343e 27b8 d53d 7874 ff3d
000000d0: 4be4 c73c 042c 55be 32c3 f5bd 9c5a f5bd
000000e0: 4694 aa3d f34e 2fbe 83ee d5bd cc92 0dbc
000000f0: 5f4c 673e 48f0 c4ba 767a 3d3d 5dbf d03d
00000100: ea78 04be 48c6 033e 72ef 3ebe 5b74 3e3e
00000110: 7a43 95bc cebc 3cbe 9b95 cfbc 85e8 ce3d
00000120: 0817 023d 8d8b 933b a9ac bdbd bded dc3d
00000130: 4663 d83d b0db 5abe c0bd b6bc 361c 60bc
00000140: f20b f53d 46e5 23be 83c0 85bd cd4d 1a3d
00000150: e9ad ae3d 9a39 61bd fcb2 153e ef95 bc3d
00000160: 2096 8cbd 25b2 54be 7584 15bd 8ef5 9c3c
00000170: 42bf 453e 18fe f0bd 9596 223e ff6e 993d
00000180: 034e aebd 9fae 8bbd fa4e 923d 50c9 cf3d
00000190: fa43 853d 5b7c 853d 8de1 2bbe 6702 133e
000001a0: 2b61 ca3d f123 143e c024 b23d 7476 23be
000001b0: 4b5b 243e e302 18be 59ac 203e 2f68 683c
000001c0: ec95 2d3e eb0a 91bd da66 223e 00fd 013d
000001d0: b5ba da3d d786 d83d 5516 c03d d78b d9bd
000001e0: d466 5fbd fd19 763d 8e82 3c3d ee52 963d
000001f0: 20ee 43bd c755 bb3d 9ea8 213e ec4d 26be
00000200: 313a aabc 49ac 7a3b 9e78 033e b1ac 27be
00000210: 2b0c a4bd 0374 90bc e109 25be 0acc 4d3e
00000220: 8c45 5bbd 3f09 013e 2577 0abc 01cd 223e
00000230: 76db 03be 62ba c3bb 064e 073e 0a1a e13c
00000240: 7403 58be 1ca2 c9bc aad6 ec3d 4c96 26be
00000250: 1786 5fbe 3dae d9bd 874c 5f3c 81d8 273e
00000260: 791d a2bd a0a5 063e 5f04 0e3e 0884 183e
00000270: 7218 523d 8993 5dbe 6c38 edbd 478b 38be

output_layer.attn.weight f4 [1, 10]
-0.029435394 -0.20547315 0.017972674 -0.16866824 -0.24033178 -0.17812374 0.13460813 -0.15574877
-0.052777484 -0.055761505
00000000: 7f22 f1bc 8e67 52be 6e3b 933c 5eb7 2cbe
00000010: 8919 76be 1266 36be b7d6 093e 9b7c 1fbe
00000020: 342d 58bd 2d66 64bd

fc1.weight f4 [5, 45]
-0.02392399 -0.037517108 0.010495584 -0.026024804 0.027848093 0.114050075 0.10876741 -0.095088094
0.007151144 0.05213983 -0.10079723 0.09559649 -0.17830202 -0.11533343 0.09002941 0.1311849
0.056217235 0.0006778425 0.07266791 0.153387 -0.09733286 -0.10929997 -0.115160756 0.030484658
0.0032878027 -0.07852219 0.0557097 -0.12681015 -0.10770962 0.029375955 0.12127607 0.10555537
-0.018805925 0.017468944 -0.085104436 -0.023268413 -0.106060125 -0.15705524 0.1229175 0.10361486
0.031597976 -0.009362973 -0.00796817 0.06324868 -0.07061818 -0.0014109206 -0.06571481 -0.004892167
0.05568097 0.08719708 0.14251906 0.03370544 -0.10205837 -0.12524685 0.14579158 -0.079563655
0.103035055 -0.09394041 0.117678784 0.14044563 0.101406224 0.06573111 0.0045520416 -0.076364234
0.12442059 -0.089368366 -0.12322801 -0.031358443 0.07716228 0.080448754 0.08899318 0.080397844
-0.09407963 -0.12673506 -0.059317317 -0.116672434 0.016459014 -0.01074389 -0.04677204 0.028890653
-0.10463414 0.025237173 0.020752871 -0.061184075 0.13439232 0.04377631 0.103387564 0.07673998
-0.12253871 -0.063499264 -0.07369962 9.750401e-05 -0.17585704 -0.012876934 0.14132808 -0.111807585
-0.07522221 -0.011448541 0.14311065 -0.003115313 -0.037257265 0.12088731 0.04586481 0.10544406
0.03813232 0.07048414 0.03889322 -0.12503801 0.12701763 0.10021081 -0.030013012 0.09917496
0.116434254 0.1265168 0.008550739 0.12354989 0.06674229 -0.042389423 -0.06951643 0.015462483
-0.012174383 -0.13556415 -0.07590985 0.012537938 -0.037846822 0.1275806 0.022467587 -0.08821729
0.11200198 0.082258984 0.15222426 -0.023667585 0.12977996 -0.07814648 -0.071265616 0.0040475596
-0.024189496 0.0444695 -0.0056919125 -0.037706062 0.059959684 -0.13798775 0.09541605 0.16116041
0.09900382 0.16575561 -0.104987465 0.06529074 0.11764413 0.12708136 -0.016839486 -0.0843641
-0.00421083 -0.13570571 -0.07087166 -0.09102661 -0.01861168 0.071397685 0.120347925 0.06784083
0.033758275 -0.088506825 0.00060867675 -0.035369374 0.057137847 0.02254744 0.120164394 0.09514047
0.11047124 0.053286802 0.039711107 0.006470005 0.050914813 0.12647562 0.1402885 0.05069452
0.1350738 0.027855802 -0.049905874 -0.03166079 -0.09246659 0.16181363 0.18215431 -0.06420691
-0.07843167 -0.09805782 0.1374708 0.056813225 -0.00020196325 0.0987257 0.038337823 0.02050774
0.016122654 0.028964257 -0.03693896 -0.07431483 0.09563965 -0.064650424 0.09796969 -0.038703497
-0.17031349 0.11478201 0.16530177 0.06374681 -0.18005586 -0.16636288 0.13959344 0.13528398
-0.12095843 0.0499431 -0.018188829 0.188927 0.054266464 0.013652903 -0.18178621 -0.049787663
0.067199744 0.09160119 -0.089931265 -0.14473398 -0.041433595 -0.050102282 0.040710997 -0.09727995
-0.172081
00000000: 3efc c3bc 8aab 19bd acf5 2b3c f831 d5bc
00000010: af21 e43c 1693 e93d 73c1 de3d 8cbd c2bd
00000020: 2554 ea3b 9390 553d c76e cebd 18c8 c33d
00000030: ce94 36be ef33 ecbd 5761 b83d 5655 063e
00000040: 0b44 663d 3db1 313a ead2 943d 7b11 1d3e
00000050: 7356 c7bd aad8 dfbd 67d9 ebbd f6ba f93c
00000060: 2d78 573b 3ed0 a0bd db2f 643d 85da 01be
00000070: dc96 dcbd d8a5 f03c 975f f83d 6a2d d83d
00000080: e20e 9abc 081b 8f3c 3c4b aebd 669d bebc
00000090: 0d36 d9bd 17d3 20be 2cbc fb3d 0734 d43d
000000a0: e16c 013d 2867 19bc ed8c 02bc 8688 813d
000000b0: 44a0 90bd a4ee b8ba 7c95 86bd 794e a0bb
000000c0: bb11 643d 6294 b23d 84f0 113e b70e 0a3d
000000d0: fb03 d1bd b640 00be 634a 153e 45f2 a2bd
000000e0: 0b04 d33d d463 c0bd 9301 f13d fbd0 0f3e
000000f0: 11ae cf3d 089e 863d 4b29 953b da64 9cbd
00000100: 39d0 fe3d c306 b7bd f85e fcbd b671 00bd
00000110: 4207 9e3d 51c2 a43d 0e42 b63d a0a7 a43d
00000120: d2ac c0bd d6c6 01be b7f6 72bd f5f1 eebd
00000130: 0ed5 863c 2407 30bc 0a94 3fbd 17ac ec3c
00000140: 6d4a d6bd 30be ce3c ed01 aa3c 279c 7abd
00000150: 249e 093e ca4e 333d dcbc d33d da29 9d3d
00000160: 93f5 fabd e70b 82bd d4ef 96bd 117b cc38
00000170: de13 34be c7f9 52bc 4fb8 103e 60fb e4bd
00000180: 1a0e 9abd a992 3bbc 998b 123e 472a 4cbb
00000190: 139b 18bd c493 f73d bddc 3b3d 0ef3 d73d
000001a0: a330 1c3d fd59 903d 7f4e 1f3d f709 00be
000001b0: e910 023e 533b cd3d d9dd f5bc 3e1c cb3d
000001c0: 1575 ee3d 9f8d 013e 6618 0c3c ba07 fd3d
000001d0: 2fb0 883d 88a0 2dbd a15e 8ebd 5b56 7d3c
000001e0: 1077 47bc 54d1 0abe a076 9bbd ec6b 4d3c
000001f0: 4505 1bbd 7da4 023e f20d b83c 44ab b4bd
00000200: 4b61 e53d 6677 a83d ade0 1b3e 86e2 c1bc
00000210: 0ae5 043e 430b a0bd b5f3 91bd 64a1 843b
00000220: 0d29 c6bc a725 363d 3983 babb ac71 1abd
00000230: 4998 753d a94c 0dbe 7d69 c33d 3c07 253e
00000240: 84c2 ca3d d7bb 293e ab03 d7bd 27b7 853d
00000250: 68ef f03d 9e21 023e f6f2 89bc 16c7 acbd
00000260: 01fb 89bb 70f6 0abe 2925 91bd 296c babd
00000270: 8677 98bc f338 923d f978 f63d 22f0 8a3d
00000280: 1e46 0a3d 1143 b5bd 9b8f 1f3a 7adf 10bd
00000290: 6009 6a3d 69b5 b83c c018 f63d 02d9 c23d
000002a0: bf3e e23d 4343 5a3d 1da8 223d 5602 d43b
000002b0: 0d8c 503d d382 013e caa7 0f3e 0fa5 4f3d
000002c0: c950 0a3e da31 e43c 1a6a 4cbd bfae 01bd
000002d0: 205f bdbd 79b2 253e a986 3a3e ea7e 83bd
000002e0: c9a0 a0bd 8ad2 c8bd 25c5 0c3e fcb4 683d
000002f0: 19c6 53b9 b330 ca3d 1f08 1d3d d9ff a73c
00000300: a813 843c 7346 ed3c 4f4d 17bd 6032 98bd
00000310: b9de c33d 7167 84bd 55a4 c83d 8f87 1ebd
00000320: a966 2ebe d512 eb3d de44 293e b08d 823d
00000330: 9060 38be 085b 2abe 95f1 0e3e e287 0a3e
00000340: 0eb9 f7bd 2391 4c3d bd00 95bc 1476 413e
00000350: 8346 5e3d 6db0 5f3c 2a26 3abe 26ee 4bbd
00000360: 05a0 893d 6899 bb3d e22d b8bd 2535 14be
00000370: 46b6 29bd 0d38 4dbd 93c0 263d b63a c7bd
00000380: 0036 30be

fc1.bias f4 [5]
-0.0055944626 -0.034681905 0.147719 0.0062358985 0.116801746
00000000: c151 b7bb 9d0e 0ebd a643 173e 8256 cc3b
00000010: c135 ef3d
