saved_weights/LunarLander-v2/426/actor.pth (torch, 32677 bytes, 12 tensors)

attentions1.linear.weight f4 [16, 1]
0	0xbeba242a	-0.36355716
1	0xbf8615b0	-1.0475368
2	0xbe2eb4f7	-0.1706122
3	0x3ed07b8a	0.40719253
4	0x3f0935aa	0.5359751
5	0x3f4e5cf1	0.8061057
6	0xbf7a11b5	-0.9768327
7	0xbf8133f8	-1.0093985
8	0xbd40808b	-0.046997588
9	0x3e90f99b	0.28315434
10	0x3ea898de	0.32929128
11	0x3f81fb0c	1.0154738
12	0xbf158c7b	-0.5841748
13	0x3f8213a1	1.016224
14	0xbf5801cb	-0.84377736
15	0xbd1e2fe5	-0.038619895

attentions1.attn.weight f4 [1, 8]
0	0xbdde0726	-0.10841207
1	0x3e0906bf	0.1338148
2	0x3c9c0d3d	0.019049281
3	0x3e9ee10a	0.31031066
4	0xbeeb05e4	-0.45902932
5	0xbf03245c	-0.51227355
6	0x3ef3aec6	0.4759428
7	0x3ebd7bd6	0.37008542

attentions2.linear.weight f4 [16, 16]
0	0x3d4e4314	0.05035694
1	0xbd57acb6	-0.052654944
2	0xbe1ad3aa	-0.15119806
3	0x3ce10479	0.027467953
4	0xbe36962f	-0.17830728
5	0xbcf4e44d	-0.029894019
6	0xbe408b54	-0.1880315
7	0xbc6a4ea5	-0.014300977
8	0xbcc0366f	-0.023463456
9	0x3b50eed6	0.0031880639
10	0x3da438f9	0.08018679
11	0xbe397ab5	-0.18113215
12	0x3b8ff840	0.0043936074
13	0x3db710d9	0.0893876
14	0xbe258925	-0.16165598
15	0xbd864df3	-0.065578364
16	0x3e143fef	0.14477514
17	0x3e37212f	0.17883752
18	0xbe807d42	-0.25095564
19	0xbe00a00f	-0.12561058
20	0x3e636caa	0.22209421
21	0x3e019861	0.12655784
22	0x3e17b0e7	0.14813577
23	0xbe980560	-0.296916
24	0xbd551bf6	-0.05202862
25	0xbe35b820	-0.1774602
26	0xbd667789	-0.05626634
27	0xbe1da51b	-0.15395014
28	0xbd903877	-0.0704202
29	0xbd60f53e	-0.05492138
30	0xbd3f231e	-0.04666435
31	0xbe6d7467	-0.23188935
32	0x3e1f0d40	0.15532398
33	0xbe70a056	-0.23498663
34	0x3e3579c0	0.17722225
35	0xbdcf59b8	-0.10124534
36	0x3dc7583f	0.097336285
37	0xbe6d3941	-0.23166372
38	0x3e0f39e9	0.13986935
39	0x3cd7eefb	0.026359072
40	0xbca97f60	-0.02069062
41	0x3db2b573	0.08726015
42	0x3d308749	0.043097768
43	0x3e3f2a04	0.18668371
44	0xbe27d549	-0.16389956
45	0xbe62327f	-0.22089575
46	0x3cdef332	0.027215574
47	0xbe711093	-0.23541479
48	0x3d9e1723	0.07719257
49	0x3d9b564a	0.07584818
50	0x3d7ed73d	0.062216986
51	0x3e6028d8	0.2189058
52	0xbe02b539	-0.12764443
53	0x3d9acf2b	0.075590454
54	0x3e3328b6	0.17495999
55	0x3e2aaf87	0.16668521
56	0xbe5748dd	-0.21023889
57	0x3b873124	0.004125731
58	0xbe10672c	-0.14101857
59	0x3d941b02	0.07231714
60	0x3c1b229b	0.0094687
61	0x3db62be5	0.08895091
62	0xbe43bb86	-0.19114503
63	0x3dc51e49	0.09624917
64	0xbc651dfc	-0.0139842
65	0x3d14d4a8	0.036335617
66	0x3e590e3a	0.21196833
67	0xbe9b35c0	-0.30314445
68	0x3d9bd0fb	0.07608219
69	0x3d67986c	0.056541845
70	0x3e00703f	0.12542818
71	0x3d3a51cd	0.045488168
72	0xbce8aac1	-0.028401734
73	0x3cb9b3f6	0.02266882
74	0xbe0fc582	-0.14040187
75	0x3dba3213	0.09091582
76	0xbc06ebf4	-0.008234967
77	0xbdbd938a	-0.092566565
78	0xbe7ddb46	-0.24790677
79	0x3daae637	0.08344691
80	0xbe216b73	-0.15763645
81	0x3e47f5ae	0.19527313
82	0x3cb9eaf9	0.022695052
83	0xbdcb6590	-0.09931481
84	0x3e14c796	0.14529261
85	0xbd8cb5a6	-0.06870584
86	0xbe585207	-0.21125041
87	0x3d48144b	0.048847478
88	0xbe3155cf	-0.1731789
89	0xbc74fb01	-0.014952422
90	0x3e506c49	0.20353808
91	0xbd4cf361	-0.05003679
92	0x3dfe5288	0.12418085
93	0xbda2edaa	-0.07955487
94	0xbda3bbdf	-0.07994818
95	0x3e667378	0.22504985
96	0xbe8d10d7	-0.2755191
97	0xbdcb63ba	-0.09931131
98	0xbe82469e	-0.25444502
99	0x3d6b3f13	0.0574332
100	0x3de7717f	0.113009445
101	0x3d28ffbb	0.04125951
102	0x3e2a6268	0.16639102
103	0x3dc21378	0.094763696
104	0x3e25d566	0.16194686
105	0xbda80f79	-0.08206076
106	0xbc36220f	-0.011116519
107	0xbdb94b42	-0.090475574
108	0x3df90f27	0.12161093
109	0xbcd3be9e	-0.02584773
110	0xbdd422f9	-0.10358233
111	0x3e036e95	0.12835152
112	0xbe1f81fc	-0.15576929
113	0xbd1708f3	-0.03687377
114	0xbe321a96	-0.17392954
115	0x3e5eb29f	0.21747826
116	0xbe6971f7	-0.2279738
117	0xbc0d4f4c	-0.008624863
118	0x3e15033c	0.14552015
119	0x3e3df6f4	0.18551236
120	0x3e121749	0.14266695
121	0x3d1e6cc3	0.038677942
122	0xbd8d6d21	-0.0690558
123	0x3e51b811	0.20480372
124	0x3dbbab75	0.09163562
125	0xbe1eb2a5	-0.15497835
126	0x3deb3f0b	0.11486634
127	0x3c1d072b	0.0095842285
128	0x3e271a5c	0.16318649
129	0x3e078844	0.13235575
130	0xbd25e8e1	-0.040505294
131	0x3e2a9d38	0.16661537
132	0xbe580859	-0.21096934
133	0x3e601212	0.21881893
134	0xba40f708	-0.0007361029
135	0x3e66641c	0.22499126
136	0xbdfcbc02	-0.12340547
137	0xbe63fc95	-0.22264321
138	0xbc949dae	-0.018141594
139	0x3dccfdc1	0.10009337
140	0xbe35fc7c	-0.17772096
141	0xbd4ac393	-0.04950292
142	0x3e44f88a	0.19235435
143	0xbe2c80bb	-0.16845982
144	0x3e46b3c4	0.19404513
145	0x3bb04426	0.0053792177
146	0x3e0326c4	0.12807757
147	0x3dfaf57a	0.12253852
148	0xbc3a89ed	-0.011385423
149	0x3e743c8d	0.23851223
150	0x3de23282	0.1104479
151	0xbe533650	-0.20626187
152	0x3d8adc6b	0.06780323
153	0xbe3e2f0a	-0.18572631
154	0xbdbdfaec	-0.09276375
155	0xbe664bb5	-0.22489817
156	0xbbb40cc6	-0.005494687
157	0x3e935190	0.28773165
158	0x3d008ef0	0.031386316
159	0x3d3fed5b	0.04685722
160	0xbe2242c4	-0.15845782
161	0xbe80c50c	-0.25150335
162	0xbe8a298c	-0.26984823
163	0x3e62354c	0.22090644
164	0xbe6d4dd6	-0.23174223
165	0x3d0f5cf0	0.03500074
166	0xbe1f187d	-0.15536685
167	0x3de9b126	0.114107415
168	0xbca22ad1	-0.019795807
169	0x3dc9757c	0.098368615
170	0x3cd21b36	0.02564774
171	0xbe6e487f	-0.23269843
172	0x3e1d9af6	0.15391144
173	0xbdf8b7b9	-0.12144417
174	0xbd3ddf78	-0.046355695
175	0x3ce9982b	0.028514942
176	0x3d729f2c	0.05923383
177	0xbe60f19b	-0.21967165
178	0x3de4ae1c	0.11166021
179	0xbd13d4c8	-0.036091596
180	0x3d937ee8	0.0720194
181	0xbe73b8e2	-0.23800996
182	0xbd73df6b	-0.05953924
183	0xbc0dbbc9	-0.0086507285
184	0x3c32dd10	0.010916963
185	0xbe483d15	-0.19554551
186	0x3e3bcdf9	0.18340291
187	0xbe65ad3a	-0.22429362
188	0xbe3213f4	-0.17390424
189	0x3dd9dd8b	0.10637959
190	0xbdf71fed	-0.12066636
191	0x3c8375af	0.016047327
192	0x3dce7879	0.10081572
193	0x3ea8fe8c	0.33006704
194	0x3df3b362	0.11899449
195	0xbe86656b	-0.2624925
196	0xbb0bd73d	-0.0021338009
197	0x3df26421	0.11835504
198	0x3e6ea197	0.23303829
199	0xbd5e26dc	-0.054236278
200	0x3e15def7	0.14635836
201	0xbd4e0326	-0.05029597
202	0x3e007398	0.12544096
203	0xbe95a72e	-0.2922911
204	0x3e040dd8	0.12895906
205	0x3e18e6a4	0.14931732
206	0xbdec3f3a	-0.11535497
207	0x3db05880	0.0861063
208	0xbe32e2b7	-0.17469297
209	0xbe6dc58f	-0.23219894
210	0xbca82d82	-0.020529512
211	0x3d49e508	0.049290687
212	0xbe6d2d6b	-0.23161857
213	0x3d1d37a7	0.038383152
214	0xbe7bd8e4	-0.24594456
215	0x3dfeb3fe	0.124366745
216	0xbc9ac863	-0.01889438
217	0x3de2dc44	0.110771686
218	0x3d8b2fdd	0.067962386
219	0xbe47d8ef	-0.19516347
220	0x3e352a19	0.1769184
221	0x3d8778a2	0.06614806
222	0x3e37a9fe	0.1793594
223	0xbdaff325	-0.08591298
224	0x3df61fd0	0.120177865
225	0x3e1d2a06	0.15348062
226	0x3e402474	0.18763906
227	0x3d2f3eea	0.04278461
228	0x3cac3781	0.02102256
229	0x3db769ba	0.089557126
230	0xbdf62258	-0.12018269
231	0xb95315e0	-0.00020130677
232	0xbe7bb50c	-0.24580783
233	0x3e3fb766	0.18722305
234	0xbde8ff3d	-0.11376808
235	0xbd1a1a90	-0.03762299
236	0xbe76679c	-0.24062961
237	0xbd58e384	-0.05295135
238	0xbde517ad	-0.111861564
239	0xbdadfb06	-0.084951445
240	0xbde2970a	-0.11063965
241	0x3e8dfc89	0.27731732
242	0x3d8c07d0	0.068374276
243	0xbe81168f	-0.25212523
244	0x3d0ff703	0.035147678
245	0xbe5c75d2	-0.2152932
246	0xbc7bee9c	-0.015376713
247	0x3e561a14	0.20908386
248	0xbd7c1362	-0.061541922
249	0x3c1e5f22	0.009666236
250	0x3df6b089	0.1204539
251	0xbe5137bd	-0.20431419
252	0x3dc7a379	0.09747977
253	0xbd818376	-0.06323902
254	0xbe0942cb	-0.13404386
255	0xbdd43be5	-0.103629865

attentions2.attn.weight f4 [1, 8]
0	0xbe9a506e	-0.30139488
1	0x3d3ff026	0.046859883
2	0x3d43676d	0.047706056
3	0x3e78359f	0.24239205
4	0xbed7b54b	-0.42130503
5	0xbeb208b9	-0.3477228
6	0xbe2fee78	-0.17180812
7	0x3db2c068	0.08728105

attentions3.linear.weight f4 [16, 16]
0	0x3e1461d7	0.14490448
1	0x3c0488dd	0.008089271
2	0xbdd2a66c	-0.10285649
3	0xbdc99d08	-0.098444045
4	0xbe41e4dd	-0.1893496
5	0x3d8da108	0.0691548
6	0x3e5a8084	0.21338087
7	0x3eca76e7	0.3954384
8	0xbd85192b	-0.06498941
9	0xbe82dce3	-0.25559148
10	0x3e4572f4	0.19282132
11	0xbde82c85	-0.113366164
12	0x3e5e874a	0.21731296
13	0x3e64ea4f	0.22355007
14	0xbe2cf1d0	-0.16889119
15	0xbd3e7eb6	-0.04650756
16	0x3e16070b	0.14651124
17	0x3e34ad8a	0.17644325
18	0xbe090a5b	-0.13382857
19	0xbe4e41c9	-0.20142283
20	0xbdb5ebec	-0.08882889
21	0x3b726914	0.00369889
22	0xbe30254c	-0.17201728
23	0x3e2d0c42	0.16899207
24	0xbc3f4ab7	-0.011675528
25	0xbdc3144c	-0.09525356
26	0x3e16ded4	0.1473344
27	0xbe679a90	-0.22617555
28	0xbe4821f7	-0.19544207
29	0xbdf62712	-0.12019171
30	0x3db82f95	0.089934506
31	0xbd9b1456	-0.07572238
32	0xbe863f8b	-0.26220354
33	0xbe8d15d2	-0.2755571
34	0xbbea374c	-0.007147705
35	0x3e572205	0.21009071
36	0xbd9d4018	-0.076782405
37	0xbe27759e	-0.16353461
38	0x3b1640c4	0.0022926787
39	0x3ebad1aa	0.36488086
40	0x3dc20a31	0.094746
41	0xbe5ea3e2	-0.21742204
42	0x3e67855e	0.2260947
43	0xbdf3b023	-0.1189883
44	0xbe8dcbb7	-0.27694485
45	0x3e57b88b	0.21066491
46	0xbd354c8f	-0.044262465
47	0xbe447e1f	-0.19188736
48	0xbe3c5064	-0.18390042
49	0x3e639276	0.22223839
50	0x3dbd5bc5	0.09246019
51	0x3d0d919c	0.034562692
52	0x3e7359a8	0.2376467
53	0xbd633236	-0.055467807
54	0xbdd1f052	-0.102509156
55	0xbef52503	-0.478798
56	0xbe64a3ea	-0.22328153
57	0x3e891bc5	0.26779
58	0xbcdf12f8	-0.027230725
59	0xbe0c4c11	-0.13700892
60	0xbc30baca	-0.0107867215
61	0x3e204344	0.1565066
62	0x3e123e11	0.14281489
63	0xbe32fc55	-0.1747907
64	0x3db05970	0.08610809
65	0x3d5065a7	0.050878193
66	0x3c38f80f	0.0112896105
67	0x3d5ac235	0.053407867
68	0xbd86b89c	-0.0657818
69	0x3d7060d1	0.05868608
70	0xbdaf07f7	-0.08546441
71	0xbbb67ff1	-0.005569451
72	0xbe62a859	-0.22134532
73	0x3d714d1b	0.058911424
74	0xbce75eb6	-0.028243404
75	0xbe8f177f	-0.27947614
76	0x3e330c94	0.17485267
77	0xbdc9194c	-0.09819278
78	0xbd160ea1	-0.036635045
79	0xbe2ba2f3	-0.16761379
80	0x3e4ff24f	0.20307277
81	0xbdfd7546	-0.12375884
82	0x3d69e92b	0.057107132
83	0x3dd9258f	0.10602867
84	0xbe86b14f	-0.2630715
85	0x3ddb94ad	0.10721717
86	0x3dc37dcd	0.09545479
87	0x3db386ee	0.0876597
88	0xbe13054f	-0.14357494
89	0xbe88f4f1	-0.26749375
90	0xbdab0cd0	-0.08352053
91	0xbbcc1c74	-0.006228978
92	0xbe0c00cd	-0.1367218
93	0xbc470b1c	-0.012148645
94	0x3d83df91	0.06439126
95	0x3d052aa7	0.03251138
96	0x3ba2aefc	0.0049647074
97	0xbcb54830	-0.022129148
98	0x3d00f104	0.03147985
99	0xbe5944c7	-0.21217643
100	0x3e65b493	0.22432165
101	0x3e67c107	0.22632228
102	0xbe876967	-0.26447603
103	0xbe4ad19a	-0.19806519
104	0x3e312eb4	0.17302972
105	0x3e552356	0.20814261
106	0xbc633beb	-0.013869266
107	0x3be3fe18	0.0069577806
108	0x3e9dfc30	0.30856466
109	0xbe1677e6	-0.14694175
110	0xbdda1561	-0.10648609
111	0x3c99b14b	0.018761298
112	0xbda55648	-0.080730975
113	0x3e13561c	0.14388317
114	0x3dab3d84	0.083613425
115	0x3dab24d6	0.08356635
116	0x3dffabd5	0.12483946
117	0xbe4483f3	-0.1919096
118	0xbdb8f26f	-0.090306155
119	0xbcfb48ce	-0.030674364
120	0x3de5d05c	0.11221382
121	0x3db72e83	0.08944418
122	0x3db56c24	0.08858517
123	0xbe184921	-0.14871646
124	0xbdc51e7b	-0.09624954
125	0x3d966149	0.073427744
126	0x3daeec45	0.085411586
127	0xbe7cd121	-0.24689151
128	0xbd515299	-0.051104162
129	0x3e6ad456	0.22932562
130	0x3dd42c53	0.10360017
131	0x3df1343a	0.117775396
132	0xbe3327ed	-0.17495699
133	0xbe5f8ce0	-0.21831083
134	0x3cb30d09	0.021856802
135	0x3e0d6196	0.13806757
136	0x3d5aab63	0.053386103
137	0xbe307a33	-0.17234115
138	0x3ceffadb	0.029294422
139	0xbe72a7c7	-0.23696814
140	0x3e5ac7bf	0.2136526
141	0x3d78da96	0.060755335
142	0xbc7f4a37	-0.015581659
143	0x3e4e287d	0.20132633
144	0xbd7a668a	-0.061132945
145	0x3e2fd645	0.17171581
146	0x3e7728d7	0.24136673
147	0xbe0454d1	-0.1292298
148	0xbdf6374d	-0.120222665
149	0x3dfe6a48	0.12422615
150	0x3e1eb609	0.15499128
151	0x3e3dd1de	0.18537089
152	0x3e987df5	0.29783598
153	0xbd7cef1f	-0.06175148
154	0xbd4cbc3b	-0.049984198
155	0x3da3a86a	0.07991107
156	0xbe56be41	-0.20971014
157	0xbe1d12a5	-0.15339144
158	0xbd037872	-0.032097287
159	0xbe0c4b4d	-0.137006
160	0x3e6f7747	0.23385344
161	0x3dd245fd	0.102672555
162	0xbe3b01bb	-0.18262379
163	0x3e7e51cf	0.24835895
164	0xbc80aa9c	-0.015706353
165	0x3e318884	0.17337233
166	0xbe64e346	-0.22352323
167	0xbe1c495d	-0.15262361
168	0x3e2b4b4d	0.16727944
169	0x3e21c508	0.15797818
170	0xbe856811	-0.2605596
171	0xbdc9bd79	-0.09850592
172	0xbe2d7f4d	-0.16943093
173	0x3cb91662	0.02259368
174	0xbd33114d	-0.04371767
175	0x3db3c3b2	0.0877756
176	0xbdf55e05	-0.119808234
177	0x3dd92712	0.10603155
178	0x3e4ea715	0.20180924
179	0xbcbc0126	-0.022949766
180	0xbdfdc174	-0.12390414
181	0xbdb841a6	-0.089968964
182	0xbc5b27a4	-0.01337615
183	0x3df26628	0.11835891
184	0xbe0d4006	-0.13793954
185	0x3e1c7f6e	0.15282986
186	0xbd558d4b	-0.0521367
187	0x3e07a52b	0.132466
188	0xbe0de92f	-0.13858484
189	0x3e397345	0.18110378
190	0x3d3b7039	0.04576132
191	0x3dcc2b1f	0.09969162
192	0x3c56d99d	0.0131134065
193	0xbdefedb1	-0.11715258
194	0x3c8f6ee7	0.017508937
195	0x3e62c53e	0.22145554
196	0xbd13e68a	-0.03610853
197	0x3e2600e5	0.16211279
198	0x3da3b323	0.07993152
199	0x3e180883	0.14846997
200	0x3e09db27	0.13462506
201	0xbe67e327	-0.22645245
202	0x3d888859	0.06666631
203	0xbe1fdd71	-0.15611817
204	0x3e12c71d	0.14333768
205	0xbe441ad1	-0.19150855
206	0x3e4ca478	0.19984615
207	0xbd945b67	-0.07243996
208	0xbe55d219	-0.20880927
209	0x3d0cf7f7	0.034416165
210	0xbe097bcb	-0.1342613
211	0x3db03945	0.08604673
212	0x3d57779c	0.052604303
213	0x3e4316b0	0.19051623
214	0x3ce72abc	0.02821862
215	0x3d432b1c	0.047648534
216	0xbd0dd84f	-0.034630116
217	0x3e8b9c6e	0.27267784
218	0xbd8c69ab	-0.06856092
219	0xbd7b58fc	-0.06136416
220	0x3e078fe5	0.13238485
221	0xbe7b6a81	-0.24552347
222	0x3ea82c55	0.32846323
223	0xbba56dba	-0.005048481
224	0x3d9078e7	0.0705431
225	0xbd9916c6	-0.07475047
226	0xbd8e0e47	-0.06936317
227	0xbdb4ad7e	-0.088221535
228	0x3e8664d6	0.26248807
229	0xbdcb8970	-0.099383235
230	0xbdfe8ab9	-0.12428803
231	0xbe985acd	-0.29756775
232	0xb91a7a00	-0.00014732033
233	0xbd0b99ff	-0.03408241
234	0xbe5ec724	-0.21755654
235	0x3e5fa730	0.2184112
236	0x3e812aa8	0.25227857
237	0x3e1695a7	0.14705525
238	0x3d22c97e	0.03974294
239	0x3e83029e	0.25587934
240	0xbe27c3d5	-0.16383298
241	0xbe1cb2f5	-0.15302642
242	0xbddab063	-0.10678174
243	0x3e34842c	0.17628545
244	0xbe38051a	-0.17970696
245	0x3e7ad3af	0.24494813
246	0x3b9ed434	0.004847074
247	0x3e9605b7	0.29301235
248	0xbdf3dd84	-0.11907485
249	0xbd8658f8	-0.06559938
250	0xbd558260	-0.05212629
251	0xbcacf9c6	-0.021115195
252	0xbd1cae55	-0.038252193
253	0x3e0623fa	0.13099661
254	0xbc67aebd	-0.014140782
255	0xbdc2bf35	-0.09509126

attentions3.attn.weight f4 [1, 8]
0	0x3d2d1317	0.042254534
1	0x3d1d38f0	0.038384378
2	0xbe8de1f3	-0.27711448
3	0x3d937fe6	0.07202129
4	0xbe6625c5	-0.22475345
5	0xbe7229dc	-0.2364878
6	0xbdd14148	-0.102175295
7	0x3e2ba526	0.16762218

output_layer.linear.weight f4 [5, 16]
0	0x3e3dd613	0.18538694
1	0xbdecda93	-0.11565127
2	0x3e8b8bfc	0.27255237
3	0xbe996012	-0.29956108
4	0x3e029f22	0.12756017
5	0xbd46485e	-0.04840886
6	0xbdae6e3c	-0.08517119
7	0x3b88cda5	0.0041749054
8	0x3e42ce9d	0.19024129
9	0x3dde1949	0.108446665
10	0x3d586de0	0.05283916
11	0x3d91b41e	0.07114433
12	0x3e724ad7	0.23661362
13	0xbe42f51a	-0.19038811
14	0x3dec6dfe	0.11544417
15	0xbc89537b	-0.01676344
16	0xbe7f07ec	-0.24905366
17	0xbd2ef2d5	-0.04271205
18	0xbe5d10ad	-0.21588393
19	0x3e76771c	0.24068874
20	0xbdc731db	-0.09726306
21	0xbe12f442	-0.1435099
22	0xbcfbcbe5	-0.030736873
23	0x3d36ef9a	0.044662096
24	0xbe96f060	-0.29480267
25	0xbe4bc8ef	-0.19900869
26	0x3e8e0b58	0.2774303
27	0x3c98c812	0.018650088
28	0xbd0cff8d	-0.0344234
29	0x3c776a4d	0.015101028
30	0x3d6afb99	0.05736885
31	0xbe817ffc	-0.25292957
32	0x3d830be2	0.06398751
33	0xbe8319fb	-0.2560576
34	0xbbc004f7	-0.005859967
35	0xbdcf0aa8	-0.101094544
36	0xbbda26a7	-0.0066574397
37	0xbda737b1	-0.08164919
38	0x3e16661c	0.14687389
39	0xbd3e020f	-0.046388682
40	0x3e58eb4e	0.21183512
41	0xbe1144f5	-0.14186461
42	0x3ba2b4e1	0.00496541
43	0xbe1c2273	-0.15247516
44	0x3dadd394	0.08487621
45	0x3df2f7c7	0.11863666
46	0x3db36c1e	0.08760856
47	0xbe8aaa7a	-0.27083188
48	0xbe2946c9	-0.16530909
49	0xbcc0cb0a	-0.023534317
50	0xbda03e2a	-0.07824357
51	0x3e4d7240	0.20063114
52	0x3e8d4ce6	0.2759773
53	0xbe51e5c7	-0.2049781
54	0x3e79e380	0.2440319
55	0x3e06ffe4	0.13183552
56	0x3de1a3c8	0.11017567
57	0xbd5dd7d7	-0.05416092
58	0x3d771aeb	0.060328405
59	0xbc94d475	-0.018167714
60	0xbe2d04f8	-0.16896427
61	0x3e8aa6ee	0.27080482
62	0x3e86b1a3	0.263074
63	0xbcc28ac2	-0.023747806
64	0xbc628c9c	-0.013827469
65	0x3dd7621e	0.10516761
66	0x3e7c3d45	0.24632747
67	0x3d0183c3	0.0316198
68	0x3e0a51ad	0.1350772
69	0x3e354b0a	0.17704406
70	0xbe4d2ef5	-0.20037444
71	0x3e6b6387	0.22987185
72	0xbe13b816	-0.14425692
73	0x3d4431e4	0.047899142
74	0xbe7643fb	-0.2404937
75	0xbd54936f	-0.051898416
76	0xbe47b623	-0.19503073
77	0xbe3aea82	-0.1825352
78	0xbe8547c2	-0.2603131
79	0x3cd9fa54	0.026608624

output_layer.attn.weight f4 [1, 10]
0	0x3daa48d7	0.08314674
1	0xbeb41faa	-0.35180408
2	0x3e3eecff	0.18645094
3	0xbe2cdce1	-0.16881134
4	0x3e83775c	0.25677
5	0xbe0b92df	-0.13630246
6	0x3eb2d2d5	0.34926477
7	0x3e6f5591	0.23372485
8	0x3ea4b293	0.3216749
9	0xbe361d3e	-0.17784593

fc1.weight f4 [128, 45]
0	0xbdd6569b	-0.104657374
1	0xbd9e07e5	-0.077163495
2	0x3dc672bf	0.09689855
3	0x3dd579ce	0.10423623
4	0x3df9d532	0.12198867
5	0xbe136d74	-0.14397222
6	0x3d510b5c	0.051036224
7	0x3d609b84	0.05483581
8	0xbdd9f3e1	-0.10642219
9	0x3d4aa2f7	0.04947182
10	0xbe1c5e81	-0.15270425
11	0x3e126de5	0.14299734
12	0xbbba44d3	-0.005684474
13	0x3e1a9a98	0.15098035
14	0x3d53db7d	0.051722992
15	0xbd39d691	-0.045370642
16	0x3dacd93a	0.0843987
17	0xbe16dfdc	-0.14733833
18	0x3dd54349	0.10413224
19	0x3d104b5e	0.035228126
20	0x3dc07b80	0.09398556
21	0x3dea3c38	0.11437267
22	0xbd044edf	-0.03230178
23	0xbd511b6c	-0.051051542
24	0x3e351e6b	0.17687385
25	0xbe05205a	-0.13000622
26	0x3d71ee98	0.05906543
27	0x3d1526ff	0.036414143
28	0x3e1b7f77	0.15185343
29	0x3dc12bfa	0.09432216
30	0x3e4d49cc	0.20047683
31	0xbd135632	-0.035970874
32	0xbd1e2c4f	-0.038616475
33	0x3d0d1044	0.03443934
34	0xbcd35fc0	-0.025802493
35	0x3e3415dc	0.17586464
36	0xbe0e6d8c	-0.13908976
37	0xbd8cbc00	-0.06871796
38	0xbe166eb7	-0.14690672
39	0xbdea9724	-0.11454609
40	0xbd3aa8e7	-0.045571234
41	0x3bbdde98	0.0057943575
42	0x3e2a4f0b	0.16631715
43	0xbdccfeb9	-0.10009522
44	0xbdfd56b6	-0.123700544
45	0xbe21a224	-0.15784508
46	0x3da1d9bd	0.079028584
47	0x3d35d49e	0.04439222
48	0xbd860255	-0.065434135
49	0xbd7c42a6	-0.061587
50	0x3c562209	0.013069638
51	0xbdc565a6	-0.096385285
52	0xbdc2aa49	-0.095051356
53	0x3da4a18e	0.080386266
54	0xbe07e4de	-0.132709
55	0xbe0b1a14	-0.13584167
56	0x3db8be39	0.09020657
57	0x3d601c82	0.054714687
58	0x3dddf4c2	0.108376995
59	0x3ddb7e2d	0.107174255
60	0xbd1fc91f	-0.039010163
61	0x3dbdb178	0.09262365
62	0x3e0df420	0.13862658
63	0xbdd6e95a	-0.10493727
64	0xbdd21d0d	-0.10259447
65	0x3d8ae6be	0.06782292
66	0xbd4dbbac	-0.050227806
67	0x3e226a88	0.15860951
68	0x3e10dbcc	0.14146346
69	0xbde8a7ef	-0.11360156
70	0xbd21523c	-0.039385065
71	0xbd5e04ca	-0.054203786
72	0xbd6a00d4	-0.057129696
73	0x3934f968	0.00017259049
74	0x3dc96d39	0.09835286
75	0x3db54803	0.08851626
76	0x3d786b26	0.06064906
77	0xbdd13c16	-0.102165386
78	0xbdbd310c	-0.092378706
79	0xbc306108	-0.010765322
80	0x3dc20c09	0.09474952
81	0x3d6dde9b	0.05807362
82	0x3c3ccf02	0.011523964
83	0x3d926241	0.07147647
84	0xbde72da9	-0.11288006
85	0x3db8feed	0.09032998
86	0xbcb3d1e9	-0.021950679
87	0x3d60c72d	0.05487745
88	0x3d347736	0.044059
89	0x3dd91db2	0.10601367
90	0xbe29448e	-0.16530058
91	0x3c95da02	0.01829243
92	0x3cc6fde4	0.024290986
93	0x3e141513	0.14461164
94	0x3c70b96a	0.014692644
95	0xbdbf1b38	-0.093313634
96	0x3d4bf2af	0.049791988
97	0x3d648cd3	0.055798363
98	0xbcc2a68a	-0.023761053
99	0xbdf97320	-0.121801615
100	0x3dcd50f2	0.10025205
101	0xbcba5bcb	-0.022748848
102	0x3d42bb5f	0.047541972
103	0xbd0b2fcd	-0.033981133
104	0xbc3276c3	-0.010892573
105	0x3d81a758	0.063307464
106	0xbdd4a281	-0.10382558
107	0xbdb79746	-0.089644
108	0xbcfdbab0	-0.030972809
109	0x3cdd4575	0.027010659
110	0x3db87ac0	0.09007788
111	0x3cdda790	0.02705744
112	0x3dee27bf	0.11628675
113	0xbd6d282d	-0.057899643
114	0xbd1a4642	-0.03766466
115	0xbe1798f5	-0.14804442
116	0xbd5d5c3d	-0.054043043
117	0x3d35177b	0.044211846
118	0x3df39050	0.1189276
119	0xbda3ec5a	-0.08004065
120	0x3da74dd7	0.08169144
121	0xbd9d42b4	-0.07678738
122	0xbe1eab81	-0.15495111
123	0x3a16b934	0.00057496433
124	0x3e052181	0.13001062
125	0xbdcf7975	-0.10130588
126	0xbc90dbfe	-0.017683025
127	0xbdb955e3	-0.09049585
128	0xbdd4bd37	-0.10387652
129	0xbbacc868	-0.0052729137
130	0x3c233dc4	0.009963457
131	0x3db6d12d	0.08926616
132	0x3e0f0a5c	0.13968796
133	0x3ca32724	0.019916125
134	0xbd3f7185	-0.04673912
135	0xbe0203c9	-0.12696756
136	0xbe1287ba	-0.14309588
137	0x3ac2c880	0.0014860779
138	0xbda84838	-0.082169
139	0xbdac4317	-0.08411234
140	0xbca9a5b0	-0.020708889
141	0x3d08cec0	0.033400297
142	0x3dd0a7ae	0.10188232
143	0x3de9cd02	0.11416055
144	0xbd372fd8	-0.04472336
145	0x3da66988	0.08125597
146	0xbd8ab155	-0.06772105
147	0xbd1c0800	-0.038093567
148	0x3df08616	0.11744325
149	0xbcf5e76c	-0.030017577
150	0xbe0144e0	-0.1262393
151	0x3dc40004	0.095703155
152	0x3dd050ce	0.10171662
153	0x3d1809cc	0.037118718
154	0xbda6b02e	-0.08139072
155	0x3d57e198	0.052705377
156	0x3c7ee590	0.015557662
157	0x3db7d844	0.08976796
158	0x3e0f65db	0.14003699
159	0x3e09a849	0.13443102
160	0x3de6957a	0.11258979
161	0xbd2c1340	-0.042010546
162	0xbe0d41db	-0.13794653
163	0xbcfaa3f0	-0.03059575
164	0x3d10b778	0.03533122
165	0x3da91ca4	0.08257416
166	0x3d9c2460	0.076241255
167	0xbdbf7c7e	-0.09349917
168	0x3d8cfb9c	0.06883928
169	0x3df54daa	0.11977704
170	0xbc4152f0	-0.011799559
171	0x3ccda488	0.025102869
172	0xbd9c7cf5	-0.07641021
173	0x3debe8aa	0.115189865
174	0xbdd4fb5e	-0.10399507
175	0xbd8f244d	-0.06989346
176	0x3dd2b23e	0.10287903
177	0x3dcffca6	0.10155611
178	0x3c3ce250	0.0115285665
179	0xbdc7df14	-0.09759346
180	0x3dfafccc	0.122552484
181	0xbd9109e0	-0.07081962
182	0x3cec241d	0.028825814
183	0x3d9cfa87	0.07664972
184	0xbcb31d84	-0.02186466
185	0x3e190576	0.1494349
186	0x3cef7ac0	0.029233336
187	0xbcc2ff42	-0.023803357
188	0x3d04db31	0.0324356
189	0xbd54efb9	-0.05198643
190	0xbd447f43	-0.04797293
191	0x3e32bd46	0.17455015
192	0x3e34e9e5	0.17667349
193	0xbd059890	-0.032616198
194	0xbc7cf17f	-0.0154384365
195	0x3e7bab1f	0.24576996
196	0xbe2cdf34	-0.1688202
197	0xbbe45b94	-0.006968925
198	0xbe26756b	-0.16255729
199	0xbc2b537a	-0.010456914
200	0x3e129152	0.14313248
201	0xbda8afc7	-0.08236652
202	0x3ced3998	0.028958127
203	0x3d84f6e7	0.064924054
204	0x3c9b5b28	0.018964365
205	0x3d9b4f7a	0.07583518
206	0x3e1c147b	0.15242188
207	0xbd464601	-0.048406605
208	0x3e082215	0.13294251
209	0xbb9a6d73	-0.0047127544
210	0x3e8be8c5	0.27326027
211	0xbbcfb223	-0.006338374
212	0xbdb99a8e	-0.09062682
213	0x3d59c3b4	0.053165153
214	0xbd695932	-0.05696983
215	0xbdb7c318	-0.08972758
216	0xbc0fc3d2	-0.008774715
217	0xbc2a1f3a	-0.010383422
218	0xbe2085c5	-0.15676029
219	0xbcbf5ba9	-0.023359137
220	0xbc7d481e	-0.015459089
221	0x3e102eeb	0.14080398
222	0x3d766768	0.06015721
223	0x3da926ce	0.082593545
224	0xbc9540f6	-0.018219452
225	0xbe28e871	-0.1649492
226	0x3c72faf3	0.014830339
227	0x3da91688	0.082562506
228	0x3e2615b9	0.16219224
229	0x3e0584b1	0.13038899
230	0xbe33ca08	-0.17557538
231	0xbd7a03af	-0.06103867
232	0x3e0839ee	0.13303348
233	0x3df81a10	0.12114346
234	0xbbda7570	-0.0066668317
235	0xbcaeb6fe	-0.021327492
236	0x3df73b2c	0.12071833
237	0xbe00b2f9	-0.12568273
238	0xbdc1ab5e	-0.09456514
239	0x3ddc27d4	0.10749784
240	0x3d6dcef9	0.058058713
241	0x3d81ddd4	0.063411385
242	0xbe0597ea	-0.13046232
243	0xbd8d8f66	-0.06912117
244	0x3ce6406e	0.028106894
245	0x3dedbb7d	0.11608026
246	0x3d7173b1	0.058948223
247	0xbe37863c	-0.179223
248	0xbdf41a5b	-0.119190894
249	0xb91541ac	-0.00014234212
250	0x3e68ec9b	0.22746508
251	0x3cc5339a	0.024072457
252	0xbcc7944b	-0.024362704
253	0xba79bd00	-0.00095267594
254	0xbd2c5420	-0.042072415
255	0x3e15bad7	0.14622055

fc1.bias f4 [128]
0	0x3dd3ec82	0.10347845
1	0xbd5cfe1f	-0.053953286
2	0xbd126ec9	-0.035750184
3	0xbe01045e	-0.12599322
4	0x3ddc3304	0.10751918
5	0xbd0e5a2d	-0.034753967
6	0xbb97eea0	-0.0046366006
7	0x3e416aa5	0.18888338
8	0x3d9d6118	0.07684535
9	0x3c0967e0	0.008386582
10	0x3dd7c33b	0.10535284
11	0x3e3c11de	0.18366191
12	0xbd4345e0	-0.04767406
13	0x3c964042	0.018341187
14	0xbdb285c0	-0.08716917
15	0x3e5ab0d0	0.21356511
16	0xbdae00f1	-0.08496273
17	0x3e0f724f	0.14008449
18	0xbde55292	-0.1119739
19	0x3d487ce9	0.04894725
20	0xbd4f4014	-0.05059822
21	0x3dd6bca4	0.10485199
22	0x3e768a17	0.24076115
23	0x3cac696c	0.021046363
24	0xbc090a66	-0.008364296
25	0x3b83928d	0.004015273
26	0xbd137705	-0.036002178
27	0xbdfe285d	-0.124100424
28	0x3d655275	0.05598684
29	0xbda8590f	-0.082201116
30	0xbd964d7a	-0.07338996
31	0xbd8e9fb2	-0.06964053
32	0x3e2508db	0.1611666
33	0xbc429c40	-0.011878073
34	0x3e4b10a3	0.19830565
35	0xbe0512c7	-0.12995444
36	0x3e2be6be	0.1678724
37	0x3e6540b5	0.22387965
38	0xbdf570ea	-0.11984427
39	0x3e1521ec	0.14563721
40	0x3de99001	0.1140442
41	0x3e583b4d	0.21116371
42	0x3e2a92d1	0.16657569
43	0x3d8215c1	0.063518055
44	0x3e462f38	0.1935395
45	0xbde32e36	-0.110927984
46	0x3d004124	0.031312123
47	0x3d85328d	0.065037824
48	0x3e20d709	0.1570703
49	0x3e40bbfc	0.1882171
50	0xbe0461ad	-0.12927885
51	0x3df456cb	0.11930617
52	0x3d46fa82	0.048578747
53	0x3d3f0f13	0.046645235
54	0x3a6c2128	0.0009007626
55	0x3e76dc71	0.24107529
56	0xbd639d4c	-0.055569932
57	0xbc926990	-0.017872602
58	0x3d3d3437	0.046192374
59	0xbd795e02	-0.06088067
60	0x3e433211	0.19062068
61	0xbcc48a08	-0.0239916
62	0xbd1ddf91	-0.038543288
63	0x3e1fdcf8	0.15611637
64	0x3e250ec9	0.16118921
65	0xbd0f7772	-0.03502602
66	0xbde2c256	-0.11072223
67	0xbe170726	-0.1474882
68	0xbdbb858a	-0.0915633
69	0xbe11987f	-0.14218329
70	0x3e092a4b	0.1339504
71	0x3e6e4ead	0.232722
72	0x3bc6db55	0.006068627
73	0xbe0e03d8	-0.13868654
74	0xbe0e384f	-0.13888668
75	0x3ba14aaa	0.0049222307
76	0xbd9b5062	-0.07583691
77	0xbcf78fb8	-0.030219898
78	0xbdb5e628	-0.088817894
79	0x3d13ca9c	0.036081895
80	0xbb86e456	-0.0041165752
81	0xbdaec8ea	-0.08534415
82	0xbdc832de	-0.09775327
83	0xbde99598	-0.11405486
84	0x3dd37157	0.10324352
85	0xbdec3d8c	-0.11535177
86	0x3d8ea55f	0.06965136
87	0xbc86cd99	-0.016455458
88	0xbd78ce72	-0.060743757
89	0x3b435711	0.0029806534
90	0x3dc8e553	0.09809365
91	0x3e4ba82c	0.19888371
92	0xbe1182a0	-0.14209986
93	0xbda1178b	-0.078658186
94	0x3e634458	0.2219404
95	0x3c8e2673	0.017352318
96	0xbcb0f59a	-0.021601487
97	0x3ca9d84e	0.020733025
98	0x3e1dc576	0.15407357
99	0xbde87ce4	-0.11351946
100	0xbd95309c	-0.07284662
101	0x3e4e653b	0.20155804
102	0xbe019841	-0.12655737
103	0x3b034958	0.002003273
104	0xbd63ba53	-0.055597614
105	0x3e56bb28	0.20969832
106	0xbdb32cc3	-0.08748772
107	0x3df848c2	0.121232525
108	0x3ddd6aa7	0.10811358
109	0xbd9f47e9	-0.07777388
110	0xbb91eb9c	-0.0044531357
111	0x3e200364	0.15626293
112	0x3e1b593e	0.15170762
113	0x3e0783f1	0.13233925
114	0xbda020fa	-0.0781879
115	0xbdd5dc22	-0.104423776
116	0x3dd115dc	0.102092475
117	0x3d917f81	0.071043976
118	0xbe0f9a61	-0.14023735
119	0xbd4d4789	-0.05011705
120	0x3dbafb96	0.091300175
121	0xbdb3e529	-0.08783943
122	0x3d05de87	0.03268292
123	0xbdb7a568	-0.089670956
124	0xbdf65e50	-0.120297074
125	0x3e11acdc	0.14226097
126	0x3ce2ae66	0.02767105
127	0x3d86731f	0.06564926

fc2.weight f4 [5, 128]
0	0x3cfe6340	0.031053185
1	0x3ca6ec9f	0.020376502
2	0xbbd687b6	-0.0065469397
3	0xbda40dac	-0.0801042
4	0xbca25fc3	-0.019821053
5	0x3bc8f561	0.006132767
6	0xbc850420	-0.016237319
7	0x3d1b9432	0.037983127
8	0x3db14377	0.08655446
9	0xbba9535e	-0.005167409
10	0x3db9c5e8	0.09070951
11	0x3ccf3bb0	0.025297016
12	0xbba0c8f0	-0.004906766
13	0xbd25e78e	-0.04050403
14	0xbd1140f1	-0.035462324
15	0x3d1d5a38	0.038416117
16	0xbc23da89	-0.010000833
17	0x3d4f01f4	0.050538972
18	0x3b661be0	0.003511183
19	0x3dc746ab	0.09730276
20	0xbb1ff4e0	-0.0024407431
21	0xbca89bf5	-0.020582179
22	0x3d22a99b	0.03971253
23	0xbd8dc991	-0.06923211
24	0xbca3ee21	-0.02001101
25	0x3d163257	0.0366691
26	0xbda69761	-0.08134342
27	0x3d9f8989	0.077899046
28	0x3d8794e1	0.06620193
29	0x3e0ff48c	0.14058131
30	0x3ceee030	0.029159635
31	0x3d7d3c12	0.061824866
32	0x3df2313b	0.11825796
33	0x3d0c2940	0.034219027
34	0x3dbacb8f	0.09120857
35	0xbd5e01dc	-0.054200992
36	0x3ce1736c	0.027520858
37	0xbcdfb5b7	-0.027308328
38	0xbd91811c	-0.07104704
39	0x3b6924d9	0.0035574941
40	0x3de40908	0.11134535
41	0xbbe1f2ff	-0.0068954225
42	0x3d8af82f	0.067856185
43	0x3d0a3553	0.03374226
44	0x3d2d01c0	0.042237997
45	0xbdb25aa4	-0.087086946
46	0x3bf203ca	0.0073857056
47	0x3da5f6d6	0.08103721
48	0x3c293c53	0.010329324
49	0xbd2cbf70	-0.042174757
50	0xbbe1d820	-0.006892219
51	0x3e05f4cb	0.13081662
52	0x3d494033	0.04913349
53	0x3d975c5b	0.07390662
54	0x3b5357cb	0.0032248374
55	0x3dad7cba	0.08471055
56	0xbdd8e863	-0.10591199
57	0xbd4c2bcf	-0.049846467
58	0x3d9b1389	0.075720854
59	0xbda25808	-0.07926947
60	0x3c993e8d	0.018706584
61	0x3d9f326d	0.0777329
62	0x3d74c283	0.059755813
63	0x3dcd4ead	0.10024772
64	0x3dcd4ea2	0.10024764
65	0xbd1596c3	-0.03652073
66	0x3afd55c0	0.0019327924
67	0xbd144aa1	-0.036203984
68	0xbd9605ce	-0.07325326
69	0x3c54b6a6	0.012983
70	0x3cea137e	0.028573748
71	0x3c125ea0	0.008933693
72	0x3d839ebe	0.06426762
73	0xbc189b58	-0.009314381
74	0x3cc1da18	0.023663566
75	0x3c596b3e	0.013270197
76	0x3d9ee5dd	0.07758687
77	0xbcfd545e	-0.030924018
78	0x3cefff24	0.029296465
79	0xbd48dbf0	-0.049037874
80	0x3c3ef74d	0.011655641
81	0xbd51534c	-0.05110483
82	0x3d24006e	0.040039472
83	0x3d6473b6	0.055774413
84	0x364d5f00	3.0602678e-06
85	0x3d458efe	0.04823207
86	0x3d8510de	0.06497358
87	0xbd92e3b2	-0.07172336
88	0xbd12ee87	-0.03587201
89	0xbcc2b242	-0.02376664
90	0xba8ced74	-0.0010751919
91	0xbd2e0a83	-0.042490494
92	0xbd9651a2	-0.07339789
93	0x3d8e9e05	0.069637336
94	0x3da03579	0.07822699
95	0xbd828210	-0.06372464
96	0x3dc35e44	0.09539464
97	0x3c0aac73	0.008463967
98	0x3d72b7e8	0.059257418
99	0xbc1ce670	-0.009576425
100	0x3d144e44	0.036207452
101	0x3cb38e41	0.021918418
102	0x3ca22294	0.019791879
103	0xbcee2e61	-0.02907485
104	0xbd1a7693	-0.037710737
105	0x3de86c39	0.11348767
106	0xbce55718	-0.027995631
107	0x3dacdc63	0.08440473
108	0x3c022782	0.00794399
109	0xbb273120	-0.0025511459
110	0xbd9f1c96	-0.07769124
111	0x3d712ff6	0.05888363
112	0x3cb5335e	0.02211922
113	0x3d8fc4ce	0.070199594
114	0xbd6560d8	-0.05600056
115	0x3cf61ad0	0.030042082
116	0x3d6d04aa	0.057865776
117	0x3d62096a	0.05518476
118	0xbced67b2	-0.02898011
119	0x3d417f30	0.047240436
120	0xbab10add	-0.0013507266
121	0xbd84589f	-0.06462216
122	0x3cfa3a55	0.030545393
123	0xbd24a292	-0.0401941
124	0x3d695966	0.056970023
125	0x3d1e57fd	0.03865813
126	0x3bb0dd39	0.0053974655
127	0xbad9882e	-0.0016596371
128	0x3dbcd7a8	0.09220821
129	0x3d5c9f81	0.053863052
130	0x3d116737	0.035498824
131	0xbc97cef8	-0.018531308
132	0x3ce39181	0.027779343
133	0xbbc61102	-0.006044508
134	0x3d96b5a1	0.07358862
135	0xbc21ce84	-0.009875897
136	0x3dd0cb3e	0.10195015
137	0x3bebbcd5	0.0071941414
138	0x3e0b7ad6	0.13621077
139	0x3db8f75e	0.090315565
140	0xbd0e4fcf	-0.03474408
141	0x3d14f141	0.03636289
142	0xbd9eb76b	-0.07749828
143	0xbc2abf6d	-0.010421616
144	0xbd382df1	-0.04496569
145	0x3da61eb7	0.08111327
146	0xbd8e5d10	-0.06951344
147	0xbd8d6f51	-0.069059975
148	0x3d9fc305	0.07800869
149	0x3de58a70	0.112080455
150	0x3c2cfef5	0.010558833
151	0x3d4603e2	0.048343547
152	0x3d245f37	0.040129866
153	0x3d489e4f	0.0489791
154	0x3c95bca9	0.018278437
155	0x3d5eaa72	0.054361768
156	0xbb3790de	-0.0028009932
157	0xbe232ebc	-0.15935796
158	0xbd25bc7c	-0.040462956
159	0x3c312d9c	0.010814097
160	0xbcf472d1	-0.029839905
161	0x3c271278	0.010197274
162	0x3d084322	0.033267148
163	0x3dac4dc5	0.08413271
164	0xbc679e26	-0.014136827
165	0x3d3460e5	0.04403772
166	0x3c9ced84	0.019156225
167	0x3d7b0e83	0.061293136
168	0xbc156588	-0.009118445
169	0x3dcc0f38	0.0996384
170	0x3caaa769	0.02083178
171	0x3ccb3f52	0.024810467
172	0x3cd1a0c7	0.02558936
173	0x3d62e7de	0.055396907
174	0x3daa34e3	0.083108686
175	0xbd30bdb9	-0.043149684
176	0x3d552975	0.05204149
177	0x3cd5d274	0.026101328
178	0x3cd0409c	0.025421433
179	0x3e020fbe	0.12701318
180	0x3dc1f632	0.09470786
181	0xbcd02c39	-0.025411712
182	0x3b4a0448	0.0030825306
183	0x3d894c1f	0.06703972
184	0xbc6a9f48	-0.014320202
185	0x3d9259c9	0.071460314
186	0x3c9507e2	0.018192235
187	0xbdb49304	-0.088171035
188	0x3e0b1fd2	0.13586357
189	0xbd3a8bd3	-0.045543503
190	0xbd52fc1f	-0.051509973
191	0x3e009e96	0.12560496
192	0xbb6a4946	-0.003574924
193	0x3d906dd6	0.070521995
194	0x3d55cf62	0.05219973
195	0x3d56dc0a	0.05245594
196	0x3d463b82	0.048396595
197	0x3d4fa5bb	0.050695162
198	0xbd134697	-0.03595599
199	0x3dfaefb2	0.122527495
200	0x3d18911b	0.03724776
201	0xbdb4d931	-0.088304885
202	0xbd729b00	-0.05922985
203	0xbc6bdcd4	-0.014395911
204	0x3c3182d8	0.010834418
205	0x3c2de750	0.010614231
206	0xbb588a20	-0.0033041313
207	0x3d7ba482	0.061436184
208	0xbc8437cd	-0.01613989
209	0xbc71acb6	-0.01475065
210	0x3d29af36	0.04142686
211	0x3d4dabbe	0.050212614
212	0xb9c74d14	-0.00038013665
213	0x3da1212a	0.07867654
214	0x3c41f6cb	0.011838625
215	0x3c306757	0.010766826
216	0xbcd2bc04	-0.025724418
217	0x3ca7656c	0.020434104
218	0xbd461e9a	-0.048369028
219	0x3de87db4	0.11352101
220	0xbd17c4a5	-0.03705277
221	0x3d898159	0.06714124
222	0x3d46f45d	0.048572887
223	0xbd918ecf	-0.07107317
224	0x3d2ccd13	0.04218776
225	0x3baaf864	0.0052175988
226	0x3d24d677	0.040243592
227	0x3c539e00	0.012916088
228	0xbd6bfe38	-0.05761549
229	0x3ce76ea2	0.028250996
230	0xbda01f5b	-0.078184806
231	0xbd7b9ec2	-0.0614307
232	0xbd29768f	-0.041372832
233	0x3d1847bf	0.037177797
234	0x3d8bef8d	0.068328
235	0x3e1c68ee	0.15274402
236	0x3d92b468	0.07163316
237	0xbc9e8230	-0.019349188
238	0x3ccfb7c2	0.025356177
239	0x3c3b242f	0.011422201
240	0x3d715af4	0.05892463
241	0x3afa3279	0.0019088528
242	0x3d480426	0.04883208
243	0x3cb1e6b0	0.021716446
244	0xbd8da121	-0.069154985
245	0xbc9edcb1	-0.019392343
246	0xbd5af871	-0.05345959
247	0x3dadc08a	0.084839895
248	0x3db43a50	0.08800185
249	0xbdd6bf5b	-0.10485717
250	0x3d3ac9fd	0.045602787
251	0xbc5c4f50	-0.013446644
252	0xbd106ab1	-0.035258
253	0x3d6b126e	0.057390623
254	0xbb87a064	-0.004138993
255	0xbbd02f4b	-0.006353294

fc2.bias f4 [5]
0	0x3dec7c3e	0.11547135
1	0x3d5200fe	0.051270477
2	0xbcda6692	-0.026660237
3	0x3ccf9727	0.02534063
4	0xbda277ac	-0.07932982
