saved_weights/Grid_5_5/2952/actor.pth (torch, 73637 bytes, 12 tensors)

attentions1.linear.weight f4 [16, 1]
-0.515219 -0.91923296 -0.87992066 -0.5543566 -0.5909429 -0.56807846 1.0158165 0.2189604
-0.63114923 -0.6837449 -0.18901818 -0.19850644 1.1693552 -0.6675315 -0.2403833 -0.9473852
00000000: 64e5 03bf da52 6bbf 7b42 61bf 50ea 0dbf
00000010: 0948 17bf 976d 11bf 4606 823f 2837 603e
00000020: ff92 21bf e809 2fbf fb8d 41be 4645 4bbe
00000030: 6ead 953f 58e3 2abf 0a27 76be d687 72bf

attentions1.attn.weight f4 [1, 8]
0.63807595 0.9526661 0.68984073 0.5146087 -0.5791152 -0.24208358 -0.55120367 0.13127549
00000000: f258 233f ede1 733f 6799 303f 65bd 033f
00000010: e540 14bf c2e4 77be af1b 0dbf 156d 063e

attentions2.linear.weight f4 [16, 16]
0.38610622 0.18971044 0.20700939 0.388136 0.15596364 0.09497578 0.17364551 0.06158181
-0.054145098 0.3529903 0.08980757 0.24943057 -0.028315015 -0.21311359 -0.16679779 0.07302411
-0.24211046 -0.22176805 -0.18889757 -0.28469765 -0.11919111 0.11230452 -0.21229415 -0.29058254
-0.20228727 -0.018210037 -0.18343799 0.019632138 -0.011612484 0.2969026 -0.04973799 0.39956424
-0.26644665 -0.4454979 -0.052147027 -0.47205928 -0.057927493 -0.29342595 0.24813767 -0.0450244
-0.3699846 -0.36129028 -0.26845056 -0.1558507 0.35623243 0.064441234 -0.24091548 0.024582177
-0.051335894 -0.18417318 -0.30322313 -0.39171603 -0.09638944 -0.14817263 -0.18943384 -0.17686407
0.03900779 -0.22928905 -0.03336808 -0.072782665 -0.05715327 0.15803553 0.04139785 -0.05768375
0.010769124 0.28766295 0.12132791 0.22829089 0.37999293 0.024125624 -0.4130686 -0.1785422
-0.13355328 0.118383415 -0.31800017 0.29504022 -0.32503566 0.38469347 0.044381756 0.38231307
-0.03840687 0.23549126 -0.14110346 -0.08143803 0.18893176 0.03530634 -0.16615506 -0.4320555
-0.058431495 -0.15695406 -0.06373105 -0.06798505 -0.23631841 0.16820292 0.11296224 0.21739231
-0.023201732 -0.2804789 0.029931841 0.02816818 -0.1476528 0.07023748 0.12894411 0.11976335
-0.32966322 -0.13033576 -0.10062704 -0.23711567 0.14923331 0.08443582 0.107979335 -0.1831123
-0.06271311 0.021526152 0.17742597 0.15166973 -0.45479998 -0.48038116 0.034117445 0.012336394
0.15608412 0.0112787 -0.06443294 0.07952983 0.5138036 -0.52493453 -0.18051872 -0.24607992
0.29290515 0.40632132 0.3131239 0.1368547 0.12221172 0.4830697 -0.4378114 -0.079601645
0.26362383 0.08368571 0.2080333 -0.06999346 -0.2020977 0.095073454 0.48385933 0.35404232
0.3020418 0.09212656 0.21104325 0.34031078 0.3492227 0.3495649 -0.37843856 -0.29814002
0.0642139 0.06932227 0.12905034 0.0922791 -0.3863733 -0.032351486 0.27623212 -0.017388772
0.099701285 -0.2670358 0.069846496 0.17764802 -0.43197098 -0.36183053 0.30423728 0.44005886
-0.15707947 -0.053603884 -0.15179582 -0.09850154 0.11518835 -0.43134177 -0.26625708 -0.22122784
0.2659396 0.03831749 0.117377385 0.17323324 -0.43403262 -0.30743405 0.04126515 0.069793
-0.03756447 0.16525002 0.10849015 -0.06713285 0.48419 -0.13046502 -0.2336785 -0.18548653
0.21146442 0.276827 0.24716346 0.25759137 0.091279924 0.030521533 -0.033352327 -0.063512966
0.016662475 -0.1262499 -0.02457596 -0.050563026 0.043325588 -0.2353837 -0.1989442 -0.21358655
0.15654804 0.037499554 0.24202824 0.20164393 -0.36329302 -0.03902406 -0.081518896 -0.029955322
0.26726088 -0.18809427 0.17123646 -0.035117246 0.38634047 -0.4236894 -0.13511461 -0.11580015
-0.28836232 -0.22594227 -0.066811174 -0.47739062 0.17538851 -0.061106835 0.010779558 0.18013562
-0.30443716 -0.17832813 -0.25142682 -0.46768358 0.16972707 0.179847 -0.12389795 0.13899787
-0.45290044 -0.39389533 -0.34940466 -0.31472865 0.13067582 -0.18357208 -0.115525246 0.017542863
0.027879123 -0.37752023 -0.17982848 -0.007952095 0.115659826 0.02078032 -0.023465268 -0.010804074
00000000: b7af c53e 7443 423e 45fa 533e c3b9 c63e
00000010: efb4 1f3e a982 c23d 21d0 313e 353d 7c3d
00000020: 40c7 5dbd 25bb b43e 08ed b73d ba6a 7f3e
00000030: e4f4 e7bc 733a 5abe 0acd 2abe aa8d 953d
00000040: ceeb 77be 2a17 63be 5d6e 41be e4c3 91be
00000050: 781a f4bd eaff e53d a363 59be 3cc7 94be
00000060: 6524 4fbe 372d 95bc 2bd7 3bbe 94d3 a03c
00000070: 4a42 3ebc 9e03 983e 10ba 4bbd af93 cc3e
00000080: b26b 88be 4d18 e4be 1f98 55bd c1b1 f1be
00000090: 6145 6dbd ed3b 96be cd17 7e3e 816b 38bd
000000a0: 9f6e bdbe 0afb b8be 5a72 89be 5397 1fbe
000000b0: 1964 b63e c4f9 833d 8cb2 76be 9060 c93c
000000c0: 9645 52bd e597 3cbe 1040 9bbe 018f c8be
000000d0: d467 c5bd 91ba 17be f2fa 41be db1b 35be
000000e0: a2c6 1f3d c0ca 6abe f8ac 08bd 140f 95bd
000000f0: 8c19 6abd 11d4 213e cb90 293d cc45 6cbd
00000100: fb70 303c 8f48 933e c47a f83d 16c5 693e
00000110: 6f8e c23e 1aa3 c53c ba7d d3be c4d3 36be
00000120: 31c2 08be 0173 f23d ebd0 a2be 830f 973e
00000130: 136b a6be 8bf6 c43e a5c9 353d 8abe c33e
00000140: 8650 1dbd 9f24 713e 6d7d 10be fbc8 a6bd
00000150: 5477 413e 619d 103d 8d24 2abe 6136 ddbe
00000160: dd55 6fbd 91b8 20be 6d85 82bd bf3b 8bbd
00000170: 74fd 71be 633d 2c3e bf58 e73d 179c 5e3e
00000180: 8f11 bebc ee9a 8fbe 9f33 f53c f4c0 e63c
00000190: 4c32 17be abd8 8f3d ed09 043e 7d46 f53d
000001a0: 9ec9 a8be bd76 05be 8d15 cebd 73ce 72be
000001b0: 9ed0 183e b0ec ac3d 4524 dd3d ca81 3bbe
000001c0: bb6f 80bd 9d57 b03c 27af 353e 4f4f 1b3e
000001d0: 8bdb e8be 85f4 f5be bcbe 0b3d 961e 4a3c
000001e0: 84d4 1f3e 4cca 383c 6bf5 83bd 89e0 a23d
000001f0: a288 033f 1c62 06bf e6d9 38be 60fc 7bbe
00000200: aaf7 953e 5909 d03e c751 a03e a323 0c3e
00000210: 234a fa3d e954 f73e d128 e0be 3006 a3bd
00000220: b4f9 863e 6a63 ab3d ae06 553e bb58 8fbd
00000230: b3f2 4ebe dfb5 c23d 69bc f73e 0945 b53e
00000240: 39a5 9a3e daac bc3d b91b 583e 373d ae3e
00000250: 51cd b23e 2cfa b23e b3c2 c1be cfa5 98be
00000260: 9482 833d d6f8 8d3d c625 043e d3fc bc3d
00000270: b9d2 c5be fe82 04bd 4c6e 8d3e e672 8ebc
00000280: 3030 cc3d ebb8 88be ae0b 8f3d 5de9 353e
00000290: 4d2b ddbe da41 b9be fdc4 9b3e 654f e13e
000002a0: 71d9 20be bf8f 5bbd 5d70 1bbe 2dbb c9bd
000002b0: dfe7 eb3d d4d8 dcbe d952 88be 8d89 62be
000002c0: 3c29 883e cdf2 1c3d 8e63 f03d 0e64 313e
000002d0: 8639 debe ff67 9dbe a505 293d a2ef 8e3d
000002e0: 34dd 19bd 4d37 293e 1530 de3d f37c 89bd
000002f0: c0e7 f73e 9f98 05be 6b49 6fbe 2ef0 3dbe
00000300: 218a 583e 45bc 8d3e 6b18 7d3e 04e3 833e
00000310: f8f0 ba3d 4b08 fa3c 739c 08bd 1613 82bd
00000320: be7f 883c a747 01be 8653 c9bc 2d1b 4fbd
00000330: 2c76 313d 6d08 71be 07b8 4bbe 6fb6 5abe
00000340: 214e 203e 2299 193d 40d6 773e bf7b 4e3e
00000350: 8b01 babe b1d7 1fbd 61f3 a6bd dd64 f5bc
00000360: 6bd6 883e c99b 40be 9c58 2f3e 1ad7 0fbd
00000370: 6bce c53e d1ed d8be 7c5b 0abe a128 edbd
00000380: 3aa4 93be 695d 67be 4cd4 88bd 8b6c f4be
00000390: 0c99 333e 294b 7abd be9c 303c 7975 383e
000003a0: 30df 9bbe a69b 36be 04bb 80be 3974 efbe
000003b0: efcc 2d3e d029 383e 35be fdbd 7555 0e3e
000003c0: 91e2 e7be a6ac c9be 2be5 b2be 1d24 a1be
000003d0: e2cf 053e 52fa 3bbe 8098 ecbd 0db6 8f3c
000003e0: c262 e43c 554a c1be f524 38be 8149 02bc
000003f0: 0fdf ec3d 7d3b aa3c 3c3a c0bc 9203 31bc

attentions2.attn.weight f4 [1, 8]
0.6046893 0.21965818 -0.60621005 0.11710209 -0.7516636 -0.018799404 0.7714249 0.98408437
00000000: ebcc 1a3f 13ee 603e 9530 1bbf 38d3 ef3d
00000010: 076d 40bf 3501 9abc 1a7c 453f f4ec 7b3f

attentions3.linear.weight f4 [16, 16]
0.15729016 -0.26263762 0.18832867 -0.103859305 0.20716165 -0.16970882 -0.26542443 0.2978998
-0.12359142 0.16944477 0.14878301 0.07641313 0.35457903 0.40178412 -0.07109812 -0.3640164
0.019568669 -0.0669837 -0.04817013 -4.030997e-05 -0.10319446 -0.021256797 0.04370868 0.37073642
0.065304674 0.08709067 0.3241421 0.31282547 -0.012347706 0.51024324 -0.07585213 -0.37675273
0.23336005 -0.23613168 0.03611281 -0.06571766 0.0917621 0.028099941 -0.018115474 0.40432626
0.28243184 0.22308731 -0.18572418 0.36067748 -0.017565839 0.16904366 -0.24877152 -0.18713604
-0.3928419 0.13430652 0.42084908 0.16263746 0.08166503 0.1651613 0.4795668 -0.18969643
-0.08862876 0.05627694 0.16086674 -0.3226968 -0.2236826 -0.47428715 0.025906518 0.18203746
0.17545253 0.2385452 0.065889366 -0.08393226 0.121369146 0.43240905 -0.018001579 -0.35772622
0.3895755 0.42329782 -0.42481446 -0.25397405 -0.044823054 -0.6084186 -0.09026881 0.06485519
0.16579823 0.15792032 -0.06554964 0.16117285 0.051386964 0.074837215 0.07566369 -0.062316865
-0.19146556 0.053546783 -0.21084195 0.018395942 0.08403681 -0.15039152 -0.11353117 0.14902341
0.11494793 0.089432426 0.002822682 0.09479502 -0.15286562 0.09180621 0.018711213 -0.5345
0.03358044 0.010192931 0.064693645 -0.2829408 -0.109599516 -0.12585384 0.114658184 0.1429135
-0.018645959 0.08310258 -0.05039189 0.12984909 -0.25902268 -0.013669014 0.15903965 0.14952919
-0.049774595 -0.21929254 -0.19198336 0.19396043 0.023773361 -0.12103671 -0.0074175145 0.18522944
-0.10283549 -0.08767699 -0.11388272 -0.23443729 0.17111732 0.19401245 -0.14470044 0.056683548
-0.12517798 0.13058448 0.3366491 0.03794237 -0.080767244 0.03090431 0.1338002 0.21357588
-0.28227183 -0.15343499 0.32700947 -0.030491384 -0.36497152 -0.40103307 0.12794536 0.46073374
-0.45193368 -0.42950538 0.20664838 0.27704802 -0.17509545 0.3713989 0.0861357 -0.063509196
-0.15119588 0.31756607 -0.002943858 0.098597586 0.1949042 0.2802189 -0.14851373 -0.47280344
0.20574968 0.19979063 -0.34804937 -0.5709588 -0.22778633 -0.23335613 -0.074966565 0.18344572
0.36002475 -0.07735732 -0.30133918 -0.0031762416 0.2765892 0.18832673 -0.078001305 -0.3402804
0.42062095 0.08616743 -0.3167333 -0.034307025 0.21591294 -0.10409216 -0.12878583 -0.1254186
0.080567434 0.030932982 -0.22065368 -0.2545832 0.07644372 -0.26632568 0.12907737 0.49461582
-0.07663154 -0.1472287 0.2459428 0.18291482 -0.05128293 0.40946382 -0.25204188 -0.27734274
-0.036603767 -0.02012424 -0.10352698 -0.19447134 0.014030052 -0.17202917 -0.21765348 0.41175118
0.2123207 0.01471323 0.010457905 0.13632497 0.3692372 -0.06679836 -0.1363038 -0.23676576
0.13290411 -0.23829539 -0.026371162 -0.07300449 0.18985835 -0.06897771 -0.15671858 0.1302355
0.017856624 -0.013427879 0.12371161 0.28470472 0.12792572 0.09778755 -0.27207807 -0.35317612
-0.15545693 0.31666568 0.31707057 0.2054266 0.1815422 0.10925468 0.18570814 -0.36628732
-0.059573404 -0.091114126 -0.075839594 -0.5354535 -0.35977176 -0.45454997 0.31529406 0.10245328
00000000: ac10 213e 7078 86be 3bd9 403e 30b4 d4bd
00000010: 2f22 543e 26c8 2dbe b6e5 87be 5386 983e
00000020: 801d fdbd ee82 2d3e 935a 183e 7d7e 9c3d
00000030: 628b b53e a6b6 cd3e e49b 91bd 5c60 babe
00000040: 794e a03c c02e 89bd 0b4e 45bd 8012 29b8
00000050: 9e57 d3bd bc22 aebc df07 333d 2ad1 bd3e
00000060: 75be 853d 985c b23d f4f5 a53e a92a a03e
00000070: 084e 4abc 4d9f 023f 5d58 9bbd bce5 c0be
00000080: f0f5 6e3e 81cc 71be 07eb 133d fb96 86bd
00000090: c5ed bb3d d931 e63c e766 94bc da03 cf3e
000000a0: e89a 903e 0071 643e 7b2e 3ebe b8aa b83e
000000b0: 3ce6 8fbc c819 2d3e f6bd 7ebe 97a0 3fbe
000000c0: 9322 c9be a687 093e 8879 d73e 6f8a 263e
000000d0: ff3f a73d 0b20 293e c889 f53e c83f 42be
000000e0: ff82 b5bd a682 663d 40ba 243e 8438 a5be
000000f0: 0d0d 65be c4d5 f2be e839 d43c 0768 3a3e
00000100: d4a9 333e 3145 743e 01f1 863d ade4 abbd
00000110: 6390 f83d b864 dd3e 0c78 93bc e427 b7be
00000120: 7176 c73e 7eba d83e 4881 d9be e308 82be
00000130: 6198 37bd 52c1 1bbf dbde b8bd ccd2 843d
00000140: 03c7 293e ddb5 213e e43e 86bd 7f0a 253e
00000150: 237b 523d 4144 993d 91f5 9a3d f83f 7fbd
00000160: 8c0f 44be df53 5b3d f4e6 57be 16b3 963c
00000170: 7e1b ac3d 3c00 1abe 0883 e8bd 9899 183e
00000180: d269 eb3d 5928 b73d bffc 383b e423 c23d
00000190: ce88 1cbe e504 bc3d 4248 993c fed4 08bf
000001a0: a58b 093d 4000 273c 1a7e 843d 9edd 90be
000001b0: b675 e0bd d4df 00be e9d1 ea3d eb57 123e
000001c0: 69bf 98bc af31 aa3d ba67 4ebd 29f7 043e
000001d0: 9f9e 84be 00f4 5fbc 4adb 223e 2e1e 193e
000001e0: 72e0 4bbd 398e 60be 4997 44be 909d 463e
000001f0: 5ac0 c23c 18e2 f7bd 9f0e f3bb c9ac 3d3e
00000200: 6a9b d2bd fe8f b3bd 583b e9bd 5410 70be
00000210: 6139 2f3e 33ab 463e 5a2c 14be 022d 683d
00000220: a82e 00be f0b7 053e 455d ac3e 7569 1b3d
00000230: 4c69 a5bd 092b fd3c eb02 093e a3b3 5a3e
00000240: ef85 90be 101e 1dbe c96d a73e 11c9 f9bc
00000250: 8cdd babe 3554 cdbe 1c04 033e 4be5 eb3e
00000260: da63 e7be 21e8 dbbe a29b 533e 3dd9 8d3e
00000270: 394c 33be ff27 be3e ea67 b03d 1c11 82bd
00000280: 18d3 1abe 0598 a23e beed 40bb 88ed c93d
00000290: f794 473e da78 8f3e fc13 18be 4b13 f2be
000002a0: 0bb0 523e ea95 4c3e 8733 b2be 5b2a 12bf
000002b0: d240 69be e9f4 6ebe 1288 99bd 32d9 3b3e
000002c0: 2a55 b83e 846d 9ebd 2149 9abe 7e28 50bb
000002d0: 1a9d 8d3e b9d8 403e 26bf 9fbd 3c39 aebe
000002e0: a15b d73e 8d78 b03d de2a a2be 8685 0cbd
000002f0: 4818 5d3e 452e d5bd 6fe0 03be bc6d 00be
00000300: 8a00 a53d 2a67 fd3c 0af3 61be bb58 82be
00000310: 868e 9c3d d75b 88be dc2c 043e 493e fd3e
00000320: fff0 9cbd 1fc3 16be 6ed8 7b3e 064e 3b3e
00000330: 0d0e 52bd 3ea5 d13e a20b 81be deff 8dbe
00000340: d5ed 15bd 97db a4bc f405 d4bd 7f23 47be
00000350: 4ede 653c 6a28 30be 8ee0 5ebe 0dd1 d23e
00000360: 996a 593e c20f 713c a257 2b3c c698 0b3e
00000370: a90c bd3e 94cd 88bd 3993 0bbe b972 72be
00000380: 0418 083e b503 74be 5608 d8bc 6183 95bd
00000390: 3a6a 423e 3044 8dbd d67a 20be 745c 053e
000003a0: 0e48 923c 9b00 5cbc 835c fd3d d1c4 913e
000003b0: f6fe 023e d744 c83d d14d 8bbe 80d3 b4be
000003c0: 1a30 1fbe 0122 a23e 1357 a23e 5a5b 523e
000003d0: 33e6 393e ebc0 df3d 462a 3e3e 038a bbbe
000003e0: 3e03 74bd 0b9a babd ca51 9bbd 7b13 09bf
000003f0: 0134 b8be c6ba e8be 396e a13e 06d3 d13d

attentions3.attn.weight f4 [1, 8]
-0.45244604 0.038899604 0.08108969 0.32212457 -0.47814018 -0.83549416 -1.117366 0.89214504
00000000: 02a7 e7be 3155 1f3d 5a12 a63d 83ed a43e
00000010: cace f4be f2e2 55bf d905 8fbf 9e63 643f

output_layer.linear.weight f4 [5, 16]
0.32788488 0.20864561 0.39697257 -0.18396692 -0.15735601 -0.04303758 0.13647567 -0.23212485
-0.05535973 0.07470596 -0.28794265 -0.12278428 0.306357 0.37047616 0.33601815 -0.1649161
-0.1971547 -0.20998934 -0.34903198 0.29074386 0.27864048 0.01881261 0.26240328 0.019854672
-0.11455211 -0.43099782 0.37179315 0.04854599 -0.32995188 -0.091979906 0.104953334 0.16197033
-0.1781867 -0.48398587 0.13434511 0.09172405 0.4664729 -0.050591283 -0.18868665 -0.16797738
0.04357331 -0.592789 0.30611438 0.38723734 -0.25963005 -0.07189654 -0.13068767 0.4087976
-0.2456396 -0.3111521 -0.3059859 -0.04209575 -0.057362244 0.03858197 0.18006176 -0.245191
0.041681305 -0.2274704 -0.07266419 -0.05554285 -0.16497776 -0.19837825 -0.34461242 0.42489025
0.17378424 0.3507695 0.12560904 0.016179498 -0.33309 0.10771743 -0.14940126 0.05213406
0.11508003 0.25484607 -0.32419425 -0.13330908 0.066658534 -0.00020426937 0.032640077 -0.41144273
00000000: 87e0 a73e 32a7 553e fd3f cb3e d361 3cbe
00000010: ef21 21be 2c48 30bd 47c0 0b3e 23b2 6dbe
00000020: e2c0 62bd 70ff 983d 386d 93be 5376 fbbd
00000030: d3da 9c3e 0daf bd3e 920a ac3e c4df 28be
00000040: ece2 49be 7207 57be 52b4 b2be 61dc 943e
00000050: f7a9 8e3e e71c 9a3c b959 863e 44a6 a23c
00000060: 4c9a eabd bfab dcbe ac5b be3e 29d8 463d
00000070: 74ef a8be f65f bcbd c6f1 d63d 8ddb 253e
00000080: 9376 36be ffcc f7be c491 093e d2d9 bb3d
00000090: 89d5 ee3e ce38 4fbd 1337 41be 4302 2cbe
000000a0: ed79 323d 05c1 17bf 06bb 9c3e f943 c63e
000000b0: 3bee 84be 7e3e 93bd fdd2 05be eb4d d13e
000000c0: f388 7bbe 544f 9fbe 2faa 9cbe 986c 2cbd
000000d0: acf4 6abd 2108 1e3d 1c62 383e 5913 7bbe
000000e0: 04ba 2a3d 00ee 68be f6d0 94bd e680 63bd
000000f0: eeef 28be ab23 4bbe 0a71 b0be 378b d93e
00000100: 7ff4 313e 0f98 b33e a89f 003e de8a 843c
00000110: c68a aabe f59a dc3d a5fc 18be 868a 553d
00000120: 14af eb3d 2f7b 823e cafc a5be 2d82 08be
00000130: 4584 883d 2431 56b9 9ab1 053d 9fa8 d2be

output_layer.attn.weight f4 [1, 10]
0.07991489 0.021181408 0.32261074 -0.4861683 -0.4872816 -0.4412551 0.76813877 0.45877185
0.59701836 -0.53487414
00000000: 6baa a33d a284 ad3c 3c2d a53e 0deb f8be
00000010: f97c f9be 30ec e1be bea4 443f 25e4 ea3e
00000020: 32d6 183f 83ed 08bf

fc1.weight f4 [128, 125]
-0.021250127 -0.074177004 -0.020210266 -0.13149141 0.075723946 0.10680843 -0.08349691 -0.04153246
-0.0967656 -0.069832526 0.13419843 -0.012834621 0.036795616 0.010493995 0.0050917533 0.01390145
-0.0016908887 0.061997157 -0.05045283 -0.07505413 0.08556515 -0.02885321 0.007714587 -0.063252576
0.019862106 0.027592383 -0.089628935 -0.053740013 -0.027451122 -0.06039889 0.012794577 -0.0012830308
-0.0041174786 -0.12477959 0.07536943 0.11131676 0.048492927 0.06543667 -0.13384989 0.031340495
0.108567595 0.050746728 0.073070936 -0.022848405 -0.009119911 0.14254846 0.072277606 0.021650657
-0.12826476 -0.050067898 0.08779893 0.06396646 0.083482526 -0.057998143 0.09823441 0.050273195
-0.0953349 0.005801391 -0.009993384 -0.024789806 0.0023673994 -0.047188193 0.0037952112 -0.13122171
0.06614722 0.121349126 -0.04169037 0.017933866 -0.07800425 -0.018329896 0.11983749 -0.10748703
0.05829077 -0.040534895 -0.012352909 -0.0036822003 -0.028932292 0.07446942 0.058547586 0.09035307
0.084850065 -0.03196115 0.06182886 0.021112433 -0.0012594009 -0.013746917 -0.048426356 -0.030841198
-0.052713256 -0.016795535 0.049090058 -0.010702669 0.0046320017 -0.0215025 0.068818174 0.024655877
-0.1319581 0.11994469 -0.002215848 0.052487355 0.10298241 -0.0004322865 0.054988556 -0.038035884
0.010441962 -0.059829105 -0.0773423 0.01698312 0.062634505 0.044397924 0.07530275 0.017142963
0.028625712 0.008345901 0.050581932 -0.009230545 0.021645706 0.061205022 -0.10720044 -0.037509274
0.068468794 -0.023398148 -0.033090353 0.0037916072 0.009998217 -0.058814254 -0.046221204 0.075581476
0.0045671794 -0.053193662 0.08021342 -0.07022161 0.0606149 0.05539743 -0.027081767 0.03913855
0.06951143 -0.030317754 -0.07687693 -0.049147967 -0.026809659 -0.012300028 -0.019187577 -0.043702215
0.07848674 0.07893149 -0.08057339 0.025593849 -0.009394376 0.0045576114 -0.015047396 0.045922898
-0.048784856 -0.008428092 0.04012989 0.042276036 -0.044343874 0.055921506 0.011165998 0.067468405
0.063580684 0.02349096 -0.01059249 0.009336436 -0.0734713 0.05887648 -0.01651245 -0.027704455
-0.051886555 0.003993234 0.0013182014 -0.011314918 0.1376782 0.018120348 0.054925952 -0.024837593
0.017920585 0.088809125 -0.01114423 -0.041301567 -0.0050239093 0.014509851 0.00065925997 -0.045334786
0.03690334 0.00142869 -0.012236296 0.09930285 -0.07016731 0.060991682 0.09299201 0.011981267
0.021744024 -0.023349412 -0.0048490125 -0.0681953 -0.07014832 0.0088585075 -0.06572205 0.037719224
-0.03305112 0.009592226 -0.070638984 -0.08311473 0.0033511007 0.0414111 0.005906415 0.074865125
0.027550314 -0.013882391 0.07292326 0.014544289 -0.019622536 -0.041570805 -0.03331252 -0.05262083
-0.0046485253 -0.040823355 -0.09731687 -0.050197538 -0.075411804 0.022827756 -0.072548434 -0.04055721
-0.04287989 -0.00071447575 0.025408836 0.052655157 0.048142336 -0.0048290575 -0.047252517 -0.10285681
0.026172332 -0.059089553 0.019785233 -0.0009974263 -0.0787641 -0.061395302 0.064165965 0.08718225
-0.025738694 -0.09877886 -0.073124185 -0.101848274 -0.05150472 0.033299923 0.010508586 -0.009957751
0.075725935 0.0066198213 0.017918805 -0.06472897 0.0165491 0.0016539022 0.03685161 0.02470311
00000000: bf14 aebc 1dea 97bd 0090 a5bc afa5 06be
00000010: 2815 9b3d 61be da3d 6e00 abbd f11d 2abd
00000020: 0b2d c6bd 5b04 8fbd 506b 093e 4d48 52bc
00000030: 00b7 163d 01ef 2b3c b9d8 a63b e8c2 633c
00000040: cfa0 ddba bbf0 7d3d a0a7 4ebd fbb5 99bd
00000050: c83c af3d 915d ecbc a5ca fc3b 918a 81bd
00000060: dbb5 a23c 6c09 e23c 608f b7bd 7d1e 5cbd
00000070: 2de1 e0bc d464 77bd 58a0 513c 5f2b a8ba
00000080: eaeb 86bb 718c ffbd 4a5b 9a3d 0bfa e33d
00000090: 85a0 463d a903 863d f20f 09be e45e 003d
000000a0: b058 de3d cddb 4f3d 37a6 953d 942c bbbc
000000b0: ae6b 15bc 39f8 113e 4806 943d b85c b13c
000000c0: d657 03be ff13 4dbd edcf b33d d900 833d
000000d0: e3f8 aa3d 768f 6dbd 1f2f c93d 44eb 4d3d
000000e0: f23e c3bd 9819 be3b 4abb 23bc fe13 cbbc
000000f0: 5f26 1b3b 6848 41bd 14b9 783b fc5e 06be
00000100: 3278 873d e485 f83d 85c3 2abd 0bea 923c
00000110: b1c0 9fbd 9428 96bc 5c6d f53d 2922 dcbd
00000120: 4dc2 6e3d eb07 26bd db63 4abc 1251 71bb
00000130: 6a03 edbc 6c83 983d 98cf 6f3d 080b b93d
00000140: dfc5 ad3d b2e9 02bd 4240 7d3d fbf3 ac3c
00000150: 7b12 a5ba c03a 61bc b75a 46bd aea6 fcbc
00000160: dbe9 57bd ca96 89bc a812 493d 3f5a 2fbc
00000170: 0cc8 973b 0326 b0bc 8bf0 8c3d 1ffb c93c
00000180: 0620 07be 90a5 f53d c337 11bb fbfc 563d
00000190: 71e8 d23d 83a4 e2b9 ae3b 613d 84cb 1bbd
000001a0: c314 2b3c 5d0f 75bd a465 9ebd 2f20 8b3c
000001b0: 8546 803d 99da 353d 5438 9a3d 666f 8c3c
000001c0: 7880 ea3c 3fbd 083c 002f 4f3d b63b 17bc
000001d0: 5652 b13c 1eb2 7a3d e78b dbbd 53a3 19bd
000001e0: 5e39 8c3d 79ad bfbc c089 07bd 9d7c 783b
000001f0: 90cf 233c 37e7 70bd 7252 3dbd 76ca 9a3d
00000200: 47a8 953b 99e1 59bd ef46 a43d 59d0 8fbd
00000210: 5447 783d 6ae8 623d 95da ddbc bf4f 203d
00000220: 025c 8e3d f05c f8bc a771 9dbd 614f 49bd
00000230: ee9f dbbc 0e86 49bc 442f 9dbc 1801 33bd
00000240: a8bd a03d d5a6 a13d a903 a5bd 31aa d13c
00000250: deea 19bc 0458 953b 5a89 76bc a619 3c3d
00000260: a1d2 47bd fb15 0abc 3d5f 243d a329 2d3d
00000270: eca1 35bd f30d 653d 97f1 363c e02c 8a3d
00000280: 9736 823d 1d70 c03c 208c 2dbc daf7 183c
00000290: 1f78 96bd 7728 713d 1e45 87bc 74f4 e2bc
000002a0: ff86 54bd add9 823b 80c7 ac3a 3562 39bc
000002b0: 84fb 0c3e 2071 943c 09fa 603d 3578 cbbc
000002c0: 31ce 923c 8fe1 b53d 4a96 36bc d52b 29bd
000002d0: 9b9f a4bb baba 6d3c 30d2 2c3a f8b0 39bd
000002e0: f527 173d e242 bb3a bf7a 48bc 4b5f cb3d
000002f0: e1b3 8fbd 6ad2 793d 9872 be3d 134d 443c
00000300: 8620 b23c 4447 bfbc 77e4 9ebb faa9 8bbd
00000310: eca9 8fbd 4623 113c 4899 86bd 797f 1a3d
00000320: 9c60 07bd b628 1d3c 2cab 90bd 0e38 aabd
00000330: 249e 5b3b b09e 293d 9a8a c13b e352 993d
00000340: 32b1 e13c f872 63bc ca58 953d 2b4b 6e3c
00000350: 71bf a0bc 2646 2abd b572 08bd f088 57bd
00000360: a852 98bb 6436 27bd 114e c7bd ef9b 4dbd
00000370: 8171 9abd 4601 bb3c 4694 94bd 511f 26bd
00000380: d3a2 2fbd a84b 3bba 3126 d03c efac 573d
00000390: e630 453d 123d 9ebb db8b 41bd 97a6 d2bd
000003a0: 5c67 d63c e307 72bd a414 a23c 13bc 82ba
000003b0: 134f a1bd a479 7bbd 7269 833d 9c8c b23d
000003c0: f4d9 d2bc 924c cabd 22c2 95bd d495 d0bd
000003d0: 9df6 52bd 8065 083d 342c 2c3c d625 23bc
000003e0: 3316 9b3d 16eb d83b 75ca 923c 9f90 84bd
000003f0: fa91 873c c0c7 d83a b7f1 163d 2d5e ca3c

fc1.bias f4 [128]
-0.11749487 -0.06081579 -0.09180388 0.042741165 -0.061231982 0.043224476 0.117384695 -0.022907777
-0.15281533 -0.054220267 -0.034955494 0.037683714 0.03625798 -0.028614653 -0.012398743 -0.0808393
-0.081033245 -0.085236095 0.057945102 0.15872365 0.035050377 0.045381375 0.050317246 0.022371188
0.2000536 -0.11429292 0.01855644 0.024410456 -0.0036911203 0.029196221 0.08925784 0.13525234
-0.11185467 0.132803 -0.06441979 -0.035460424 0.049869575 0.10623284 -0.10394161 0.012804424
0.00042496834 -0.07993622 -0.009263144 0.16106601 0.17013068 -0.10474142 -0.07653772 -0.10458021
0.061785825 0.035860498 -0.119953364 0.13248672 -0.021198474 0.14144282 -0.110903464 -0.07789633
-0.10026483 -0.0691266 -0.02037689 -0.07968173 0.046774868 0.07109754 -0.0904746 0.034412213
0.044780914 0.06471646 0.100758545 -0.0127237765 -0.059691258 -0.1516829 0.027710997 0.0869681
-0.028692545 -0.08331662 -0.05697354 -0.036745615 -0.10817213 -0.115921944 -0.027910115 -0.1212193
0.06992866 0.12348352 -0.07603317 0.027652092 0.13211875 0.033024244 0.12627631 -0.11951833
-0.016870849 0.059585005 0.12904754 -0.11208432 0.0642887 0.0122182 -0.0019558384 0.12904692
0.14325887 -0.12629111 -0.15752785 -0.012706826 -0.03493029 0.089590415 0.021850329 0.040546797
0.11078356 -0.027206104 -0.0432903 0.119202845 -0.09430813 0.038464136 -0.111600675 -0.132601
0.10375227 0.05781362 0.07551446 -0.02807336 0.02349683 0.0049960986 -0.08688207 0.12775898
-0.09257531 -0.07836886 0.07116326 -0.04973878 -0.056424018 0.11056309 -0.14947441 -0.06122262
00000000: 27a1 f0bd fa19 79bd ac03 bcbd 5c11 2f3d
00000010: 63ce 7abd 260c 313d 6367 f03d 17a9 bbbc
00000020: 9f7b 1cbe 1216 5ebd 7e2d 0fbd 3d5a 1a3d
00000030: 3f83 143d 4769 eabc 1924 4bbc 138f a5bd
00000040: c2f4 a5bd 4390 aebd d857 6d3d 7488 223e
00000050: fc90 0f3d d2e1 393d 7519 4e3d c843 b73c
00000060: dada 4c3e 6812 eabd ad03 983c 70f8 c73c
00000070: b9e6 71bb ea2c ef3c d0cc b63d 977f 0a3e
00000080: 1014 e5bd 82fd 073e 86ee 83bd f33e 11bd
00000090: 0a44 4c3d 9a90 d93d 57df d4bd a6c9 513c
000000a0: 49ce de39 9ab5 a3bd 71c4 17bc 7dee 243e
000000b0: bd36 2e3e ab82 d6bd cfbf 9cbd 262e d6bd
000000c0: 2213 7d3d 75e2 123d 1caa f5bd 99aa 073e
000000d0: 6ca8 adbc 63d6 103e 5b21 e3bd 1c88 9fbd
000000e0: a657 cdbd 3f92 8dbd 70ed a6bc 2d30 a3bd
000000f0: 0197 3f3d 969b 913d bf4a b9bd d2f3 0c3d
00000100: 316c 373d 108a 843d 7f5a ce3d 6377 50bc
00000110: d27e 74bd c352 1bbe 2c02 e33c 551c b23d
00000120: a10c ebbc e7a1 aabd 165d 69bd 9282 16bd
00000130: 5a89 ddbd 7c68 edbd c1a3 e4bc d341 f8bd
00000140: c236 8f3d ede4 fc3d 47b7 9bbd a486 e23c
00000150: 234a 073e 6e44 073d 944e 013e 07c6 f4bd
00000160: bc34 8abc 680f 743d 0a25 043e 778c e5bd
00000170: cba9 833d d82e 483c 862d 00bb e024 043e
00000180: 74b2 123e 7552 01be fb4e 21be 4b30 50bc
00000190: 1013 0fbd 2e7b b73d 76ff b23c 6614 263d
000001a0: 7ee2 e23d 56df debc 2b51 31bd 9f20 f43d
000001b0: 9f24 c1bd 928c 1d3d e58e e4bd 8ec8 07be
000001c0: 127c d43d f9cd 6c3d 53a7 9a3d 1afa e5bc
000001d0: 6d7c c03c 50b6 a33b 3aef b1bd 40d3 023e
000001e0: 2098 bdbd da7f a0bd 0bbe 913d e4ba 4bbd
000001f0: df1c 67bd e76e e23d d20f 19be 92c4 7abd

fc2.weight f4 [5, 128]
0.06447791 0.022846337 0.077469505 0.022111505 0.039879896 -0.010350084 -0.25077808 0.057744134
0.0031269323 0.008721663 0.006852032 0.015228672 0.13395214 -0.0038827513 -0.07502851 0.0240346
0.1137899 0.03481412 0.1269347 -0.28836748 0.120721325 -0.0057374635 -0.0434871 0.05484183
-0.48157102 -0.006269308 -0.03997202 0.043796867 -0.029858258 -0.044214103 0.023742056 -0.19794796
0.058719017 -0.025012223 0.047539342 0.004821827 0.14230601 -0.3721535 -0.057547778 -0.004450928
0.03072729 0.024485312 0.0005485015 -0.0022574156 0.04164123 0.04796801 -0.07114811 -0.045943175
0.09242781 0.16376863 -0.03753262 0.06996457 -0.076020926 0.10001702 0.01615189 -0.00042790375
0.021473072 0.038403604 0.0737968 -0.062369283 0.10368914 0.11370184 0.032911036 0.14348994
0.29194742 -0.124137454 0.07776473 -0.0777833 -0.010570222 0.045601092 0.039027836 0.30811852
-0.013280609 -0.0021587098 0.013880905 -0.0071294997 -0.10549879 -0.060408793 -0.04563112 0.0742591
-0.22182013 -0.065165415 0.08055265 0.08092371 0.09015771 0.031241342 0.058560476 -0.0672943
0.10557162 -0.0112883495 0.07080775 0.03540275 0.25822207 0.0989882 -0.012254132 -0.08502626
0.12029591 0.088378094 0.09705156 -0.06313797 0.05092492 0.106172845 0.068566225 0.14262408
0.22023366 0.0953877 0.042742103 0.15503235 -0.044146277 -0.024315234 -0.1438456 0.055894595
0.12536201 0.07993631 -0.3169085 0.00021488307 0.04916122 0.459156 0.059525292 0.09465257
0.032345198 0.033044606 -0.11487773 0.036727455 -0.037691966 -0.23908557 -0.01735272 0.09934557
0.0047591873 0.053533375 -0.026107993 -0.31213182 0.017899007 0.051788844 0.062091153 0.043479417
-0.039089553 -0.33011535 0.028606065 -0.020163905 0.13087238 -0.048526835 0.054299377 -0.08352073
0.05375591 0.05254702 0.014943443 0.0034229432 0.10785482 -0.03755841 -0.017507851 -0.21149527
0.014322123 -0.02087984 0.09441606 0.12722997 -0.052959703 -0.060911395 0.091197275 0.18602698
-0.05135429 0.16395938 -0.04957957 -0.01805647 0.08787803 0.056802414 0.16654046 -0.22211088
0.02584705 0.011518263 0.01595488 0.11142338 0.13680653 -0.0037220123 0.07470319 -0.013791707
0.04731402 0.16993986 -0.005344797 0.05404897 0.1172268 0.13729924 -0.05626421 0.13302776
0.05012094 -0.042223655 0.12166723 0.013463277 -0.23555681 -0.18241777 -0.08545187 -0.023288274
0.02921152 -0.3254189 0.13157426 0.050715372 0.041194007 0.071026295 -0.034838226 -0.26605377
-0.023321921 -0.010907002 -0.02952121 0.03362318 0.0008059629 -0.08337347 0.014837976 -0.032582346
-0.1438978 0.026904484 0.008744089 0.14717922 0.1681537 0.0012791723 0.16787797 -0.03571056
-0.026259704 0.12760569 0.1985288 -0.043448567 -0.1344728 -0.10948892 -0.071677536 0.1455256
0.14672343 0.023873268 0.014406556 -0.04214585 -0.08108952 0.0740307 -0.04890268 -0.3354176
0.2838161 0.05196232 -0.1827545 0.19412008 -0.063723005 -0.017918292 -0.009106162 -0.1291959
0.027025266 0.052196994 0.15292326 0.007028196 0.024876349 0.025260072 0.021757595 0.1283266
0.08711572 -0.027576441 0.3477261 0.063070655 0.09815894 0.25590086 0.020299658 0.030532287
00000000: ff0c 843d 3e28 bb3c 55a8 9e3d 3023 b53c
00000010: 1a59 233d 6693 29bc fc65 80be 1d85 6c3d
00000020: 38ed 4c3b 4ee5 0e3c 0387 e03b ae81 793c
00000030: c02a 093e c275 7ebb 8ca8 99bd 36e4 c43c
00000040: ae0a e93d 4099 0e3d 2cfb 013e e7a4 93be
00000050: be3c f73d 5501 bcbb 881f 32bd d4a1 603d
00000060: 7a90 f6be c46e cdbb b3b9 23bd 5864 333d
00000070: 4e99 f4bc d919 35bd b37e c23c dfb2 4abe
00000080: 5a83 703d 6fe6 ccbc 9db8 423d 6b00 9e3b
00000090: abb8 113e e78a bebe 38b7 6bbd 17d9 91bb
000000a0: ccb7 fb3c 6c95 c83c 50c9 0f3a 26f1 13bb
000000b0: ff8f 2a3d 1b7a 443d 1ab6 91bd e92e 3cbd
000000c0: cb4a bd3d f7b2 273e cebb 19bd 9649 8f3d
000000d0: dcb0 9bbd b9d5 cc3d f850 843c 4558 e0b9
000000e0: 4ce8 af3c 194d 1d3d c722 973d ef76 7fbd
000000f0: f95a d43d 83dc e83d b9cd 063d 07ef 123e
00000100: 227a 953e c73b febd 1d43 9f3d da4c 9fbd
00000110: b92e 2dbc 36c8 3a3d a7db 1f3d b6c1 9d3e
00000120: e996 59bc 2479 0dbb bc6c 633c 949e e9bb
00000130: c00f d8bd 366f 77bd b3e7 3abd 2815 983d
00000140: d124 63be 7275 85bd caf8 a43d 54bb a53d
00000150: 9ba4 b83d d8ed ff3c 1cdd 6f3d 98d1 89bd
00000160: ef35 d83d c5f2 38bc a703 913d 7902 113d
00000170: af35 843e 53ba ca3d 8ec5 48bc 3f22 aebd
00000180: b45d f63d 93ff b43d f8c2 c63d 7b4e 81bd
00000190: a696 503d 2671 d93d 736c 8c3d 0c0c 123e
000001a0: ef84 613e a05a c33d 5812 2f3d cdc0 1e3e
000001b0: bad2 34bd be30 c7bc 434c 13be bbf1 643d
000001c0: e65e 003e a6b5 a33d d541 a2be 3c52 6139
000001d0: 475d 493d 7f16 eb3e cbd0 733d 35d9 c13d
000001e0: 667c 043d c859 073d 0445 ebbd 876f 163d
000001f0: e462 1abd d9d2 74be 4b27 8ebc b175 cb3d
00000200: f5f2 9b3b d045 5b3d 6ee0 d5bc becf 9fbe
00000210: f0a0 923c 8a20 543d 4b53 7e3d 7917 323d
00000220: 5e1c 20bd e104 a9be 4457 ea3c c62e a5bc
00000230: 6903 063e 13c4 46bd 0669 5e3d eb0c abbd
00000240: 282f 5c3d 8b3b 573d 58d5 743c 7553 603b
00000250: fde2 dc3d d9d6 19bd a06c 8fbc 3792 58be
00000260: 56a7 6a3c 330c abbc 355d c13d 9348 023e
00000270: 46ec 58bd 3a7e 79bd a3c5 ba3d db7d 3e3e
00000280: e058 52bd f8e4 273e f213 4bbd 2aeb 93bc
00000290: 66f9 b33d a6a9 683d 9589 2a3e 0971 63be
000002a0: 31bd d33c 19b7 3c3c cfb3 823c f131 e43d
000002b0: 0317 0c3e 01ed 73bb fcfd 983d 9df6 61bc
000002c0: 59cc 413d b704 2e3e 6823 afbb 7462 5d3d
000002d0: 9b14 f03d 2c98 0c3e 4d75 66bd 6e38 083e
000002e0: 9d4b 4d3d b6f2 2cbd ab2c f93d 1495 5c3c
000002f0: ce35 71be b9cb 3abe 6401 afbd 0dc7 bebc
00000300: ff4c ef3c 4e9d a6be 67bb 063e ecba 4f3d
00000310: 0cbb 283d 3c76 913d 87b2 0ebd 3338 88be
00000320: 9d0d bfbc 48b3 32bc 77d6 f1bc 76b8 093d
00000330: 4147 533a b6bf aabd fb1a 733c 1175 05bd
00000340: f259 13be cb66 dc3c 5e43 0f3c 26b6 163e
00000350: 7c30 2c3e e6a9 a73a 34e8 2b3e 3c45 12bd
00000360: 971e d7bc 11ab 023e 224b 4b3e 20f7 31bd
00000370: 3db3 09be ba3b e0bd accb 92bd aa04 153e
00000380: ab3e 163e df91 c33c 7a09 6c3c 20a1 2cbd
00000390: 4312 a6bd 689d 973d 2d4e 48bd dbbb abbe
000003a0: 5850 913e 71d6 543d ff23 3bbe 6ac7 463e
000003b0: 3581 82bd 62c9 92bc 0332 15bc ee4b 04be
000003c0: 1764 dd3c 84cc 553d ea97 1c3e c84c e63b
000003d0: 7cc9 cb3c 36ee ce3c fc3c b23c 0c68 033e
000003e0: ba69 b23d fde7 e1bc 2809 b23e 302b 813d
000003f0: 8e07 c93d 7005 833e 784b a63c d91e fa3c

fc2.bias f4 [5]
-0.02513318 -0.014196057 0.03369887 -0.045740537 -0.16047773
00000000: 19e4 cdbc 9496 68bc d407 0a3d 6e5a 3bbd
00000010: 4654 24be
