saved_weights/LunarLander-v2/1259/critic.pth (torch, 12859 bytes, 9 tensors)

attentions1.linear.weight f4 [32, 1]
0.660107 0.9650425 0.8123082 -0.04741929 -0.32315075 -0.57800126 0.9892534 -0.23266064
0.12377414 0.84897244 0.7521425 0.3662419 -0.6483083 0.17268972 0.84725106 0.031828508
0.3305658 0.43023062 0.32028925 0.239842 -0.120818615 0.90232825 -0.26664937 -0.6060279
-0.22256568 0.3625034 0.46983334 -0.619763 0.055078533 0.5354955 -0.29932407 -0.46402627
00000000: c6fc 283f 060d 773f 6ef3 4f3f bb3a 42bd
00000010: 0474 a5be e4f7 13bf b63f 7d3f 973e 6ebe
00000020: 4c7d fd3d 4256 593f 698c 403f 0f84 bb3e
00000030: 88f7 25bf 93d5 303e 72e5 583f 9c5e 023d
00000040: ec3f a93e 3047 dc3e f4fc a33e 2499 753e
00000050: c06f f7bd fcfe 663f 4486 88be a524 1bbf
00000060: 42e8 63be 0c9a b93e ff8d f03e caa8 1ebf
00000070: 079a 613d 3c16 093f 0141 99be da94 edbe

attentions1.attn.weight f4 [1, 64]
-0.03308318 -0.04554074 -0.043627556 0.03191819 0.028397944 -0.066465914 0.045764234 -0.03314924
0.03409384 -0.04779221 -0.033797108 -0.039230995 0.05661272 -0.046505846 -0.01445604 0.107791126
-0.071429275 -0.04135425 -0.11978922 -0.0646458 0.11046849 -0.107887715 0.042903494 0.107991725
-0.051488873 -0.031669617 -0.007433769 -0.028125625 0.09865539 -0.10845884 -0.0006969025 0.09181362
0.004111018 0.0773236 0.15148595 -0.1439993 -0.041698843 -0.1546092 -0.041156866 -0.053312857
-0.027653368 0.116968475 0.119169995 0.14595653 0.028071837 0.06242124 -0.01809332 0.05029204
0.1540904 0.0383933 0.152436 0.066746935 0.06809331 0.08202851 -0.05915186 -0.14012668
-0.10121534 0.13720363 0.041349936 -0.15284511 -0.038853463 0.03090488 0.02163795 0.0025632838
00000000: 3b82 07bd ed88 3abd cfb2 32bd a6bc 023d
00000010: cea2 e83c 481f 88bd 4773 3b3d 7fc7 07bd
00000020: fba5 0b3d c4c1 43bd d66e 0abd aeb0 20bd
00000030: bde2 673d ea7c 3ebd 07d9 6cbc 98c1 dc3d
00000040: 8349 92bd 1363 29bd 0d54 f5bd 0465 84bd
00000050: 4e3d e23d 3cf4 dcbd 93bb 2f3d c42a dd3d
00000060: ffe5 52bd 00b8 01bd f996 f3bb b667 e6bc
00000070: d60b ca3d ab1f debd 56b0 36ba c708 bc3d
00000080: b8b5 863b d65b 9e3d 221f 1b3e 8d74 13be
00000090: 68cc 2abd e051 1ebe 1a94 28bd 955e 5abd
000000a0: 5189 e2bc 2b8d ef3d 660f f43d a175 153e
000000b0: e9f6 e53c 6aad 7f3d 7138 94bc 07ff 4d3d
000000c0: e0c9 1d3e 4b42 1d3d 2f18 1c3e 9eb2 883d
000000d0: 8174 8b3d 90fe a73d 3949 72bd 5e7d 0fbe
000000e0: fd49 cfbd 1c7f 0c3e 8d5e 293d 6e83 1cbe
000000f0: cf24 1fbd 3b2c fd3c 1242 b13c c4fc 273b

attentions2.linear.weight f4 [32, 32]
0.11495129 -0.0029336822 0.029821124 0.035389263 0.102220476 -0.010606596 -0.11432811 0.14435446
-0.056064263 -0.1600241 0.04312226 -0.0802797 0.09322215 -0.19390808 -0.07031901 0.02477266
-0.15423046 0.06111379 0.09923614 0.14633733 0.06364638 -0.15912749 -0.13571729 -0.012504564
-0.013882327 -0.12714529 -0.08289867 0.14642082 -0.183578 -0.114678346 0.11624619 0.083607376
-0.12373075 -0.09929119 -0.026227256 0.06455976 -0.08986819 -0.015726443 -0.064851955 0.15383393
0.10763953 -0.15790159 -0.01874187 -0.049321514 0.17135897 -0.17467652 0.01992625 0.0069394326
-0.15622397 -0.09565906 0.066204615 0.017236458 0.16989395 -0.10178424 0.037435595 0.024983225
0.11772828 -0.048828796 -0.04213227 0.15767007 0.07052106 0.08347411 0.054003045 8.997444e-05
-0.19202615 -0.09623148 -0.074172854 0.035456654 -0.031058779 -0.02373966 -0.1825756 0.055963956
-0.12137946 0.11137696 -0.004825583 -0.03709639 0.028218415 -0.19166228 -0.07737921 -0.034518275
0.11905569 -0.08584225 0.09382255 0.10212055 0.031865973 -0.14508766 -0.078015305 0.08398395
0.18423817 -0.13211009 -0.15585367 0.03109057 -0.06945269 -0.033965338 0.093842626 0.14507869
0.060222086 -0.04398218 0.14802203 -0.06526404 -0.12629288 -0.18218024 -0.017220324 0.103815414
-0.08564671 0.14357203 0.19530907 0.091699034 -0.035940666 -0.13515507 -0.06916685 -0.03302331
0.0017096285 -0.1263596 -0.09514209 -0.1292002 0.10923456 0.110610634 -0.14135644 -0.15768707
-0.20433131 -0.01980893 0.009418853 0.028264416 0.19632831 0.039183352 -0.20300889 0.14212902
-0.10271271 -0.1442657 -0.09100693 -0.126695 0.089082815 -0.11067525 -0.008533107 -0.12863216
0.008227626 0.04027487 -0.09201406 -0.002749385 0.076920114 -0.15797341 0.08155565 -0.13167956
-0.14492041 0.045810934 -0.05014297 -0.19907007 -0.058905907 0.096716635 0.19567272 -0.027653616
0.10258651 0.09939546 -0.058263484 0.07998648 0.025169982 -0.028578155 0.14026487 0.08702378
-0.011383055 0.03548807 0.013170054 -0.10262427 -0.05312034 -0.1584049 0.17578875 -0.0018712208
-0.09401693 0.1888724 -0.13260221 0.110093735 -0.05960457 0.14463966 0.067271605 0.19577104
-0.058739368 -0.018100003 0.07299414 0.15260142 -0.15488783 -0.06693072 -0.04995714 0.07835022
0.0561965 0.05347691 0.14878182 -0.12872157 -0.06623918 0.04491695 0.09843186 -0.15756206
-0.18824725 -0.18150978 0.15329815 0.091262616 0.13709633 0.09697539 -0.11593521 0.030857451
0.060826927 0.08617797 -0.10107106 -0.092747346 -0.04346118 0.13304557 0.08282217 -0.1635302
0.09156841 -0.15213594 -0.033321377 0.025597721 0.077744514 -0.09789951 0.058080442 0.02542951
0.18452725 -0.03257243 -0.11471331 0.10969216 -0.027829431 0.08446122 0.016953014 0.023066904
-0.06178412 -0.1414404 0.09047914 0.074094355 -0.00998354 -0.09744324 0.13682437 0.12478247
-0.19487621 -0.13556336 0.13738438 -0.1712963 -0.08676348 0.0629549 -0.030440798 -0.20874557
0.018567866 0.056694277 -0.0516059 -0.06829629 0.16607864 0.062492155 0.14753157 0.12928796
0.13321787 -0.12980454 0.0058771246 -0.1091787 -0.084694624 -0.19881475 0.04136364 0.04565839
00000000: 956b eb3d 0543 40bb 6e4b f43c 55f4 103d
00000010: f858 d13d 4ac7 2dbc db24 eabd a8d1 133e
00000020: a4a3 65bd 5cdd 23be f8a0 303d af69 a4bd
00000030: 41eb be3d d78f 46be 6a03 90bd 09f0 ca3c
00000040: 97ee 1dbe 7452 7a3d 513c cb3d 74d9 153e
00000050: 0959 823d 51f2 22be 79f9 0abe f1df 4cbc
00000060: b372 63bc 6032 02be c7c6 a9bd 57ef 153e
00000070: dffb 3bbe 7bdc eabd 7c12 ee3d 583a ab3d
00000080: 8c66 fdbd 2e59 cbbd 8bda d6bc e837 843d
00000090: d00c b8bd bed4 80bc 1ad1 84bd a486 1d3e
000000a0: 1d72 dc3d f4b0 21be 8d88 99bc 5b05 4abd
000000b0: ba78 2f3e 67de 32be 603c a33c 2e64 e33b
000000c0: 2df9 1fbe e6e8 c3bd 4996 873d 7933 8d3c
000000d0: aef8 2d3e 4174 d0bd 1156 193d 9fa9 cc3c
000000e0: 861b f13d b400 48bd e392 2cbd 4374 213e
000000f0: 586d 903d 79f4 aa3d 4c32 5d3d a9b0 bc38
00000100: 81a2 44be 0315 c5bd f0e7 97bd ff3a 113d
00000110: fb6e febc ad79 c2bc 19f5 3abe 763a 653d
00000120: cb95 f8bd 9b19 e43d ed1f 9ebb 62f2 17bd
00000130: 4e2a e73c 1e43 44be fe78 9ebd 0963 0dbd
00000140: 78d3 f33d 10ce afbd 0926 c03d 9424 d13d
00000150: e585 023d dc91 14be 7dc6 9fbd c7ff ab3d
00000160: eea8 3c3e de47 07be 1b98 1fbe a7b1 fe3c
00000170: 363d 8ebd 3d1f 0bbd 9030 c03d 828f 143e
00000180: 6fab 763d a926 34bd 1693 173e 27a9 85bd
00000190: ec52 01be 758d 3abe a311 8dbc 2d9d d43d
000001a0: 8b67 afbd 8c04 133e 1aff 473e b4cc bb3d
000001b0: 8536 13bd 1766 0abe 59a7 8dbd 7343 07bd
000001c0: 9d15 e03a 6964 01be dbd9 c2bd 0f4d 04be
000001d0: 5eb6 df3d d487 e23d bebf 10be b878 21be
000001e0: 3a3c 51be 5646 a2bc 8851 1a3c c78a e73c
000001f0: 4a0a 493e b97e 203d 90e1 4fbe 458a 113e
00000200: 0b5b d2bd 63ba 13be d761 babd 56bc 01be
00000210: 0d71 b63d b5a9 e2bd 72ce 0bbc 26b8 03be
00000220: 2acd 063c 43f7 243d de71 bcbd 072f 34bb
00000230: 4b88 9d3d c8c3 21be a606 a73d 02d7 06be
00000240: 0466 14be 3fa4 3b3d b762 4dbd 06d9 4bbe
00000250: 5247 71bd 5f13 c63d 6e5e 483e d689 e2bc
00000260: e018 d23d d98f cb3d b1a5 6ebd f4cf a33d
00000270: 4731 ce3c bc1c eabc 98a1 0f3e 8639 b23d
00000280: fe7f 3abc f05b 113d 36c7 573c ac2c d2bd
00000290: b794 59bd e534 22be f701 343e c043 f5ba
000002a0: f38b c0bd c467 413e e0c8 07be d378 e13d
000002b0: ec23 74bd 6b1c 143e b2c5 893d 3478 483e
000002c0: b198 70bd 7546 94bc f47d 953d 8c43 1c3e
000002d0: ea9a 1ebe f912 89bd dc9f 4cbd 1576 a03d
000002e0: 4d2e 663d 9b0a 5b3d 435a 183e 96cf 03be
000002f0: 68a8 87bd d6fa 373d a596 c93d f357 21be
00000300: e3c3 40be b3dd 39be 31fa 1c3e e5e7 ba3d
00000310: fb62 0c3e 099b c63d 706f edbd c4c8 fc3c
00000320: a825 793d 137e b03d 58fe cebd 52f2 bdbd
00000330: 5a04 32bd 193d 083e ab9e a93d 7674 27be
00000340: 3888 bb3d 86c9 1bbe ff7b 08bd 50b2 d13c
00000350: 8438 9f3d 8a7f c8bd c2e5 6d3d 8c51 d03c
00000360: b6f4 3c3e ab6a 05bd d0ee eabd 48a6 e03d
00000370: 8cfa e3bc 01fa ac3d 0ce1 8a3c cef6 bc3c
00000380: 5811 7dbd c1d5 10be 214d b93d c8be 973d
00000390: 0092 23bc 5290 c7bd b01b 0c3e f48d ff3d
000003a0: a18d 47be 1fd1 0abe 7eae 0c3e 4c68 2fbe
000003b0: 0db1 b1bd 80ee 803d fb5e f9bc 66c1 55be
000003c0: a31b 983c 4238 683d b560 53bd edde 8bbd
000003d0: 8510 2a3e c6f7 7f3d 8412 173e 1064 043e
000003e0: 446a 083e 7beb 04be e594 c03b 1599 dfbd
000003f0: 6074 adbd 1896 4bbe ec6c 293d 4b04 3b3d

attentions2.attn.weight f4 [1, 64]
-0.06129504 0.058485035 0.07022537 -0.0076186275 -0.01975772 0.017416269 0.011615842 0.08592833
0.11551373 0.10023928 -0.011673711 0.010782586 0.114084095 0.051456984 0.011375801 0.065455765
0.044483606 -0.12082446 0.030533057 0.042253036 0.08639316 0.108448274 0.0039507183 -0.087703906
-0.0061294106 0.0564277 -0.03516145 -0.045121074 0.039850947 -0.06772082 0.0034468393 0.112566106
-0.035596564 -0.039206967 -0.16748579 0.058922466 -0.014703321 0.1270793 0.038467158 0.044094168
0.14684081 0.12980054 -0.07313939 0.004002812 -0.066155575 -0.14974351 0.14722338 0.0047017727
0.030575134 -0.14398743 -0.10280228 -0.09452921 -0.028480142 0.0060827136 0.01479989 -0.06341693
0.04544583 -0.070050314 0.077134244 -0.028363388 0.16541587 0.06403988 0.1625864 -0.15682313
00000000: 8210 7bbd 018e 6f3d 52d2 8f3d aea5 f9bb
00000010: f1da a1bc 90ac 8e3c 5f50 3e3c 31fb af3d
00000020: 7692 ec3d 404a cd3d 1843 3fbc 72a9 303c
00000030: eca4 e93d 8fc4 523d 9161 3a3c ac0d 863d
00000040: 7134 363d d172 f7bd 7620 fa3c 8511 2d3d
00000050: e6ee b03d 211a de3d 0775 813b 1b9e b3bd
00000060: 39d9 c8bb bb20 673d 7405 10bd e0d0 38bd
00000070: bf3a 233d 37b1 8abd 5ee4 613b 0f89 e63d
00000080: b4cd 11bd 7c97 20bd 6581 2bbe af58 713d
00000090: 33e6 70bc 1321 023e bd8f 1d3d 169c 343d
000000a0: 705d 163e 6fea 043e 1bca 95bd 052a 833b
000000b0: 937c 87bd 5d56 19be bac1 163e 5411 9a3b
000000c0: b478 fa3c 7171 13be 008a d2bd 8898 c1bd
000000d0: 304f e9bc 8051 c73b 3d7b 723c bce0 81bd
000000e0: 6825 3a3d 8a76 8fbd 8ff8 9d3d 565a e8bc
000000f0: c762 293e 5727 833d 0d7d 263e 3e96 20be

attentions3.linear.weight f4 [32, 32]
0.17192477 0.020704726 0.0727009 -0.10198061 0.05430192 0.12238268 0.1599917 0.14899929
-0.16164404 -0.059239354 0.02557542 0.16531214 -0.08712878 0.18786858 -0.10871258 0.19155712
-0.010158096 -0.12787099 -0.055654477 0.18482141 0.041276652 0.11828114 0.021600224 0.061164033
0.07132415 0.112176165 0.14844306 -0.21463127 -0.028616782 0.09112178 -0.029759029 0.11460212
0.03657471 0.045219533 -0.19279648 0.14465924 -0.031440098 -0.058108766 -0.11474945 -0.137533
0.20482175 -0.06793322 -0.0068948665 -0.09532203 -0.0011676342 -0.025526347 -0.03395314 0.043869536
0.008362846 0.00078481436 0.017051062 0.046289317 -0.014390006 0.18360378 -0.077339 -0.14683236
0.18205498 0.07685747 -0.18353014 -0.08006426 0.13288686 0.1720976 -0.14076835 -0.100065745
0.12658119 -0.0045001656 0.0625916 0.08142986 -0.18787107 0.19566873 -0.1037198 0.17686217
-0.00024784898 0.19450511 0.11951434 -0.09338331 0.121514566 -0.0931206 0.048969418 -0.18139055
0.1950968 -0.11900139 -0.1959815 0.039477378 -0.0042819534 0.049718346 0.08757102 -0.0073385434
0.070442535 0.019501172 -0.11400622 0.11230642 0.03313172 0.016452093 -0.056327414 -0.079356775
-0.07839315 0.05995156 0.0017730944 0.051577646 0.18774419 0.11782338 0.19225156 -0.010172078
-0.016344124 0.049301192 0.059437472 -0.11112231 -0.09352324 0.20590651 0.050177645 -0.12928993
0.09476942 -0.1457996 0.17187348 0.09307921 -0.085380115 -0.09640968 0.1257131 0.065367326
-0.12826262 0.04474633 0.20213047 0.09559401 -0.12026769 -0.07155387 -0.15298012 0.1884535
0.031528693 0.044693895 0.13309117 0.11709878 -0.13622105 -0.080475695 -0.0708699 -0.022269998
0.05791243 0.09976254 0.10872025 0.057558116 0.14769423 0.008236774 0.139782 0.109222844
0.1557625 -0.012216518 -0.025192313 0.038909383 0.0032673322 0.033691052 -0.11073857 -0.0013530381
-0.034147263 -0.14859627 -0.09934682 -0.1008254 -0.09234565 0.094262026 -0.10033018 -0.20150647
-0.052427635 -0.13354142 0.15369493 -0.047233663 0.13326049 -0.026981637 0.03407105 -0.15135346
-0.093722366 0.1251163 -0.075077556 -0.030064669 0.080936246 0.07165112 -0.05720815 -0.12110183
0.038272172 0.18575059 0.07218084 -0.06697621 0.0985279 -0.17187329 0.10446686 0.18609504
-0.16989593 0.19882175 0.15253559 -0.049238294 0.011093293 -0.03755917 0.03844949 0.08737114
0.0029937641 0.08045468 -0.085813336 0.026244333 0.12014615 -0.07622015 0.13388486 0.12774494
0.0011521411 0.0333837 -0.16516936 0.11486823 0.054223165 -0.109083295 0.08976486 -0.11005576
-0.14082585 0.1328816 0.05707295 0.011096145 -0.1471425 0.07369499 0.10367752 -0.039346777
0.10972923 0.121958785 -0.059656654 -0.1711764 -0.14288305 0.10884169 0.13417175 -0.076595336
-0.096390806 -0.17470771 0.07322795 -0.0923836 0.12436926 -0.049096037 0.029691057 0.01567935
0.111877896 0.10263759 0.065774985 0.035527766 -0.08398363 0.000172739 0.028259205 -0.032667406
0.008102651 0.0423545 -0.21877494 -0.1496903 0.0026276046 -0.004873129 -0.03918714 -0.034109395
0.08320223 -0.006267694 -0.0027839788 0.21209495 0.080843195 -0.12927426 0.15714417 -0.14389916
00000000: 0c0d 303e f59c a93c 36e4 943d 36db d0bd
00000010: b16b 5e3d c5a3 fa3d ddd4 233e 4593 183e
00000020: 0486 25be f7a4 72bd 8b83 d13c 9647 293e
00000030: 9370 b2bd 9f60 403e b3a4 debd 8d27 443e
00000040: 256e 26bc 9df0 02be f3f5 63bd d341 3d3e
00000050: b511 293d 623d f23d f4f2 b03c 2387 7a3d
00000060: 6512 923d 9ebc e53d 7501 183e 4dc8 5bbe
00000070: be6d eabc 0e9e ba3d 35c9 f3bc 84b4 ea3d
00000080: 5dcf 153d 1e38 393d 716c 45be 8d21 143e
00000090: 55c7 00bd 7503 6ebd c201 ebbd 73d5 0cbe
000000a0: cbbc 513e 9220 8bbd 55ee e1bb 3238 c3bd
000000b0: 4d0b 99ba a11c d1bc 7312 0bbd 8bb0 333d
000000c0: 5204 093c 00bc 4d3a abae 8b3c de99 3d3d
000000d0: 0fc4 6bbc a102 3c3e e963 9ebd 395b 16be
000000e0: 9f6c 3a3e 7367 9d3d 53ef 3bbe bbf8 a3bd
000000f0: 7e13 083e 5a3a 303e 9425 10be 45ef ccbd
00000100: 809e 013e 2076 93bb 0630 803d b3c4 a63d
00000110: 4661 40be 625d 483e 0c6b d4bd 5b1b 353e
00000120: baf1 81b9 592c 473e efc3 f43d c03f bfbd
00000130: a1dc f83d 03b6 bebd 2894 483d 72be 39be
00000140: 75c7 473e 00b7 f3bd 60af 48be 08b3 213d
00000150: a14f 8cbb 77a5 4b3d 6f58 b33d 2a78 f0bb
00000160: 2d44 903d ecc0 9f3c 187c e9bd e900 e63d
00000170: 20b5 073d 8ac6 863c 93b7 66bd ce85 a2bd
00000180: 968c a0bd c48f 753d 2d67 e83a 1543 533d
00000190: 0340 403e 624d f13d 98dd 443e caa8 26bc
000001a0: 1de4 85bc 0cf0 493d b574 733d 1894 e3bd
000001b0: 1d89 bfbd 28d9 523e 1387 4d3d 9464 04be
000001c0: 7816 c23d 7e4c 15be 9aff 2f3e 50a0 be3d
000001d0: c5db aebd 7072 c5bd efba 003e 4edf 853d
000001e0: 4757 03be ed47 373d 4afb 4e3e cbc6 c33d
000001f0: e84e f6bd d68a 92bd d2a6 1cbe f4f9 403e
00000200: 3b24 013d f210 373d 0d49 083e 7cd1 ef3d
00000210: 887d 0bbe 71d0 a4bd 3d24 91bd 926f b6bc
00000220: 9635 6d3d 4d50 cc3d b9a8 de3d 0fc2 6b3d
00000230: 283d 173e 89f3 063c 0323 0f3e 3ab0 df3d
00000240: 3480 1f3e ca27 48bc 1c60 cebc 725f 1f3d
00000250: bd20 563b a1ff 093d e7ca e2bd 6d58 b1ba
00000260: 00de 0bbd 9f29 18be 5876 cbbd 8c7d cebd
00000270: b71f bdbd 730c c13d e979 cdbd b657 4ebe
00000280: 5cbe 56bd 15bf 08be 3462 1d3e 1678 41bd
00000290: 7075 083e 9808 ddbc 168e 0b3d 67fc 1abe
000002a0: 83f1 bfbd 7d1e 003e 43c2 99bd 2e4a f6bc
000002b0: e7c1 a53d d3bd 923d 1853 6abd 3c04 f8bd
000002c0: 48c3 1c3d 6735 3e3e 8cd3 933d d32a 89bd
000002d0: ffc8 c93d 8dff 2fbe b9f2 d53d b38f 3e3e
000002e0: 33f9 2dbe ee97 4b3e 4a32 1c3e 18ae 49bd
000002f0: a5c0 353c a5d7 19bd 367d 1d3d a4ef b23d
00000300: 0733 443b 6cc5 a43d e7be afbd 5bfe d63c
00000310: 2f0f f63d 4f19 9cbd 1d19 093e 92cf 023e
00000320: 7103 973a 59bd 083d 2822 29be 0940 eb3d
00000330: 1c19 5e3d 1067 dfbd a4d6 b73d ea64 e1bd
00000340: a734 10be 1d12 083e 53c5 693d 9bcc 353c
00000350: 86ac 16be 66ed 963d e154 d43d 162a 21bd
00000360: b8b9 e03d 87c5 f93d 895a 74bd de48 2fbe
00000370: ef4f 12be 64e8 de3d 5264 093e 04de 9cbd
00000380: 8b68 c5bd 94e6 32be 89f8 953d 9d33 bdbd
00000390: 50b5 fe3d ed18 49bd a93a f33c fb71 803c
000003a0: 3d20 e53d a833 d23d 09b5 863d 9085 113d
000003b0: 9cff abbd 4621 3539 d97f e73c 42ce 05bd
000003c0: fbc0 043c ea7b 2d3d 8a06 60be 6a48 19be
000003d0: e433 2c3b c5ae 9fbb b282 20bd 4bb6 0bbd
000003e0: ee65 aa3d 3a61 cdbb 6a73 36bb 6b2f 593e
000003f0: 1e91 a53d 7960 04be 67ea 203e 4d5a 13be

attentions3.attn.weight f4 [1, 64]
-0.083611965 0.15530945 -0.025322756 0.022026302 -0.034127496 0.060941756 -0.15812565 0.15935999
-0.022984654 -0.035725687 -0.15980676 0.14040872 0.03994697 0.026119664 -0.15993898 -0.032796066
-0.048712987 -0.11205659 -0.107007384 -0.11575636 0.045744423 -0.15642855 -0.08752424 0.05749782
-0.017612323 -0.10230098 -0.12484631 -0.047349993 0.010429452 0.1664765 -0.15927568 0.08506067
0.14748628 0.025165929 -0.10324506 0.14007927 -0.12947601 0.08361381 0.16519095 -0.14881119
0.10060253 -0.010938068 -0.04731158 -0.023107272 0.04821405 -0.09511751 -0.032367285 0.012512588
0.12182729 0.16802636 0.09115236 0.06679419 -0.16595563 -0.053059455 0.060094055 -0.060395513
-0.115998976 0.1368708 0.097078726 0.116187654 0.04281752 -0.0072845616 -0.010930016 0.15180396
00000000: c03c abbd 7109 1f3e ab71 cfbc 8170 b43c
00000010: 46c9 0bbd 109e 793d b1eb 21be 442f 233e
00000020: 504a bcbc 1955 12bd 62a4 23be 4ec7 0f3e
00000030: 6f9f 233d e8f8 d53c 0bc7 23be 2b55 06bd
00000040: 4587 47bd ed7d e5bd b026 dbbd ac11 edbd
00000050: 815e 3b3d ce2e 20be e93f b3bd d682 6b3d
00000060: b847 90bc 2d83 d1bd 6caf ffbd 11f2 41bd
00000070: 4be0 2a3c d178 2a3e 2a19 23be 4a34 ae3d
00000080: a506 173e c728 ce3c 2572 d3bd f170 0f3e
00000090: 5c95 04be b83d ab3d d127 293e f661 18be
000000a0: b308 ce3d 9535 33bc cac9 41bd 764b bdbc
000000b0: 187c 453d f8cc c2bd 8f93 04bd 9901 4d3c
000000c0: 9680 f93d 1a0f 2c3e 17ae ba3d 64cb 883d
000000d0: 46f0 29be df54 59bd 2f25 763d 4961 77bd
000000e0: df90 edbd dc27 0c3e 36d1 c63d cbf3 ed3d
000000f0: 6d61 2f3d 55b3 eebb cf13 33bc 7f72 1b3e

output_layer.linear.weight f4 [1, 32]
0.109782405 -0.14235437 -0.045974895 0.05869272 -0.019080054 0.15833728 0.15706347 -0.151463
0.16120294 0.1546909 0.040109158 -0.018230567 0.1863415 -0.11727654 0.1996792 0.15745148
0.07418477 0.1857904 0.04193148 0.030888665 -0.054819226 0.10054741 0.10518411 0.1997934
-0.043779753 0.016558819 0.1269751 0.16244459 -0.036058147 -0.069932096 0.08257472 0.07047963
00000000: 99d5 e03d 58c5 11be 2c50 3cbd c767 703d
00000010: c64d 9cbc 2b23 223e 3fd5 203e 1e19 1bbe
00000020: 6212 253e 4b67 1e3e 8049 243d 4558 95bc
00000030: 4ed0 3e3e af2e f0bd b478 4c3e f63a 213e
00000040: 2fee 973d d73f 3e3e 58c0 2b3d 3a0a fd3c
00000050: 208a 60bd cdeb cd3d c46a d73d a496 4c3e
00000060: 6652 33bd 5ca6 873c c305 023e e057 263e
00000070: b5b1 13bd 8f38 8fbd ef1c a93d a057 903d

output_layer.attn.weight f4 [1, 2]
0.5023822 0.47634706
00000000: 1f9c 003f c3e3 f33e

fc1.weight f4 [1, 9]
0.2811428 -0.22048563 -0.2708624 -0.27856848 0.16217484 0.18807547 0.06454435 -0.303409
0.12804091
00000000: f3f1 8f3e fcc6 61be 7aae 8abe 87a0 8ebe
00000010: 2911 263e db96 403e d42f 843d 6d58 9bbe
00000020: 281d 033e
