saved_weights/Grid_10_1-/255/actor.pth (torch, 265637 bytes, 12 tensors)

attentions1.linear.weight f4 [16, 1]
000000 db de 56 3f f3 8c 74 3f 88 95 18 3f cf 62 1c bd
       0.839338 0.9552757 0.59603167 -0.03818017
000010 1f 56 7a 3f f3 9d 87 3d c1 9e 4f be 75 d1 45 3d
       0.9778766 0.06621923 -0.20275404 0.048295457
000020 b8 cc 20 bf bb 28 4d bd b1 d4 65 3b 3c 54 1a 3f
       -0.62812376 -0.05008767 0.00350694 0.6028478
000030 b8 13 a6 3e 52 55 59 3f 1b a4 64 bf 17 ef 13 3f
       0.3243692 0.84895813 -0.89312905 0.577867

attentions1.attn.weight f4 [1, 8]
000000 40 ad 49 3e 1c 84 7b 3d 63 4b 01 be c3 e0 ad bc
       0.19694996 0.061405286 -0.12626414 -0.021225339
000010 b2 f6 b1 3e d9 d6 28 3e 59 fe 48 3e 8c a3 79 bd
       0.34758526 0.16488208 0.19628276 -0.060946986

attentions2.linear.weight f4 [16, 16]
000000 45 ee 53 be c1 65 95 3e 6f 8d ab 3d 8a 71 84 be
       -0.20696361 0.29179195 0.08376586 -0.25867873
000010 21 36 82 3e 5d b8 20 be b9 27 cc bd ad de 20 3e
       0.25431922 -0.15695329 -0.09968514 0.15709944
000020 83 4b cc bd 89 ad 0b be 8d fa 63 bc 6f 98 93 bd
       -0.0997534 -0.13640417 -0.013914716 -0.07206809
000030 d9 16 ab 3d c9 94 71 3d 96 e4 2d be e0 66 99 bb
       0.08353967 0.058979783 -0.1698173 -0.004681453
000040 18 1f b1 3b 07 14 91 bd ba 13 7b 3e 99 97 ca 3d
       0.005405318 -0.07083898 0.24519244 0.09892196
000050 c5 ba 33 3e e4 5c b5 bc d3 ac 64 3e 0c 65 97 bd
       0.17551716 -0.02213902 0.22331552 -0.0739232
000060 2e c1 4e 3e df 1e 6e bc 1b 2b 80 3d 24 1e 2e 3e
       0.2019088 -0.014533727 0.06258222 0.17003685
000070 65 1c aa bd f7 2a cb 3d 09 7c 3a 3e 8e c3 5a 3e
       -0.08306197 0.09920304 0.18211378 0.2136366
000080 7c 66 89 3c e3 06 e9 bc da 8d d4 3d ea 32 6d bb
       0.016772501 -0.028445667 0.103786185 -0.0036193677
000090 b0 3f 09 be 35 2d 40 3e 39 0b 23 bb 28 af 32 3e
       -0.13403201 0.18767245 -0.0024878515 0.1744963
0000a0 47 fa b5 bd 80 3d ea 3d 8e 97 2e 3d 39 0f 8c 3b
       -0.08885627 0.114375114 0.042625003 0.0042742756
0000b0 0b 5e 9a bc 06 e5 35 bd 33 4d 78 bd 95 b9 7a 3d
       -0.018843671 -0.044407867 -0.060620498 0.06121214
0000c0 d2 d6 e5 bd f5 d2 2a bd 0a 3e 1a be 35 3b 68 be
       -0.11222614 -0.04170509 -0.15062729 -0.22678836
0000d0 b4 fb a6 3d c7 45 45 be 2c 9a a0 bc 1d a0 e3 3c
       0.08153477 -0.19264899 -0.019604765 0.027786309
0000e0 52 db 33 be 16 16 5a be b7 41 83 bd 8c 88 ea bd
       -0.17564133 -0.21297488 -0.064090185 -0.114518255
0000f0 63 37 b0 3d fa eb 81 be c9 89 56 bd 69 e5 1a be
       0.08604314 -0.25375348 -0.052377496 -0.15126576
000100 18 15 a5 3d 07 d9 36 3e 3e 56 da bc 26 0a fd bd
       0.08060664 0.17856227 -0.026652452 -0.12355451
000110 e9 e8 32 3d 34 cb 57 be 16 15 bc 3c f7 96 03 be
       0.04367915 -0.2107361 0.022959273 -0.12850557
000120 c7 4c 02 be 1f 4c 32 be f4 c0 2b be 0e b3 24 3e
       -0.127246 -0.1741185 -0.16772825 0.16083929
000130 85 36 8c bd f9 6e 0b be d0 ca 46 be 88 83 02 bd
       -0.06846336 -0.13616551 -0.19413304 -0.03186372
000140 29 7b b4 3d 6b 33 87 3e 3f c0 75 3c be ef ed 3d
       0.088125534 0.26406416 0.014999448 0.11617993
000150 84 f1 6e be 77 2a 50 3d 71 1e a8 bb b6 d9 46 be
       -0.23334318 0.050821748 -0.005130582 -0.19418988
000160 58 24 2b 3e e1 c6 6e be 82 eb 04 3e ea 67 24 be
       0.16713083 -0.23318054 0.12980464 -0.16055265
000170 a1 ff 25 be d7 b0 ef bd c8 7f 65 3d 08 ae 50 3e
       -0.16210796 -0.117036514 0.056030065 0.20378888
000180 a8 e2 33 3e 6c 17 87 3e 8d 82 87 3e ba 6a 87 3c
       0.17566931 0.26385057 0.2646679 0.016530383
000190 9e 1c 3f be 85 b7 34 be ef 2b 89 be 6c b9 8b 3e
       -0.1866326 -0.17648132 -0.2679133 0.27289903
0001a0 03 22 5f be bb 32 1f 3e a6 57 13 3e 47 b3 36 bd
       -0.21790318 0.15546696 0.14388904 -0.044604566
0001b0 78 c5 a3 3b 30 1e 8a 38 a8 33 df bd d7 c3 1f be
       0.0049979053 6.585976e-05 -0.108985245 -0.1560205
0001c0 c3 02 53 be ce 4c 83 3e e7 b1 ad 3d ac d4 6b be
       -0.20606522 0.25644535 0.08481198 -0.23030347
0001d0 46 f1 28 3e 9d fd 63 3e ec 94 77 be a2 87 f6 3d
       0.16498289 0.22264715 -0.24177903 0.12037589
0001e0 2f 91 b6 bc f1 50 e9 bd 74 0b 1a be 4b 52 74 3e
       -0.022286026 -0.113923915 -0.15043432 0.23859517
0001f0 65 a1 44 be 3b 86 f4 bc 73 a6 f5 3d d9 c3 75 3d
       -0.19202192 -0.029849162 0.11994638 0.060001228
000200 3a 29 67 3e bd e9 12 3e b8 e8 48 be 41 6e e6 bc
       0.2257432 0.14346977 -0.19620025 -0.028128745
000210 1d f7 42 3e 13 7a d0 3a ed 79 4a be 25 d0 60 be
       0.19039579 0.0015905522 -0.19773073 -0.21954401
000220 af 36 a1 bd 49 41 57 3e ef af 43 be ab e4 0d 3e
       -0.07871758 0.21020998 -0.19110082 0.13856761
000230 80 78 50 3e 63 a3 46 be a8 ed 62 bd 7d f0 2e be
       0.20358467 -0.19398265 -0.055402428 -0.17083926
000240 07 7c 35 be 72 c0 7d bd 63 70 fe bd 98 0e 5d 3d
       -0.17723094 -0.06195111 -0.1242378 0.053968996
000250 c5 f1 07 3d 49 e5 ea bc c8 a0 57 be c8 f8 0b 3e
       0.033189554 -0.028673785 -0.21057427 0.13669121
000260 eb 55 5f 3e 49 df 2e 3e a8 1c 27 be 86 a3 0c be
       0.21810119 0.17077364 -0.16319525 -0.13734254
000270 b5 44 7a 3e 0d 9c e5 bc 42 a0 72 bd e7 78 84 3e
       0.24440272 -0.028028512 -0.059234865 0.2587349
000280 58 38 79 be 5b 84 48 3e 84 1a 13 be 90 0f 3e be
       -0.243379 0.1958174 -0.14365584 -0.18560624
000290 be 69 c3 bd af ae 62 3e 55 91 3a 3e 9b 3b 5c 3e
       -0.09541653 0.22136949 0.18219502 0.21507113
0002a0 7f 45 44 3e 9a c4 a1 3d 72 36 c1 3d 1c e4 a5 bd
       0.19167136 0.07898827 0.09434213 -0.08100149
0002b0 53 92 54 be f2 8f 33 3e 78 49 05 3e 6a ce 06 3e
       -0.20758943 0.1753538 0.13016307 0.13164678
0002c0 48 6b a1 bd ae b6 95 be fc 20 f1 3d 27 eb 35 be
       -0.078817904 -0.29240936 0.117738694 -0.17765485
0002d0 8e af 59 bd 7b ef 91 3d 1a 3c be bd 67 bf 5f be
       -0.053145938 0.071257554 -0.09288807 -0.21850358
0002e0 e1 24 11 3d 8b 1d 39 3e a1 c9 6b be 01 ed 9a be
       0.03543556 0.18077676 -0.23026134 -0.30258945
0002f0 6a 81 29 3c 0b cd 20 3e 87 0e 3f 3e 0e bf 20 3e
       0.010345796 0.15703218 0.18657885 0.15697882
000300 b6 26 90 be 25 59 c7 3d a2 79 b0 3c 43 e7 04 3d
       -0.28154534 0.097338 0.021542374 0.03244711
000310 ba ce dc 3b e1 82 81 be e5 fb 84 3e f8 e8 82 be
       0.006738511 -0.25295165 0.2597343 -0.25568366
000320 09 c3 0a be 51 40 5f bc 17 42 f1 3d 43 49 7b bc
       -0.13550963 -0.013626174 0.11780184 -0.015337291
000330 a6 dd f8 3c 7b f2 22 bd 0b 84 7c 3d 34 de a6 bd
       0.030379128 -0.03978203 0.061649363 -0.08147851
000340 cb 0f 37 be 92 91 39 3d 12 24 46 bb 07 16 2c be
       -0.17877118 0.045304842 -0.0030233902 -0.16805278
000350 59 ff c4 bd ee c4 ad 3d 89 46 9a bd e1 a1 88 3d
       -0.09619016 0.08484827 -0.07532985 0.06671501
000360 3b bd 63 3e 11 19 70 3e 88 40 49 3e a4 e7 ba bb
       0.22240154 0.23447062 0.19653523 -0.0057038832
000370 a0 a5 1f be f0 5b b2 bd a5 7f b7 3d 62 8d 59 be
       -0.15590525 -0.08708942 0.08959893 -0.2124534
000380 e7 2d df bd 67 01 8c be 31 09 45 3e 4b b5 b2 3d
       -0.10897427 -0.2734482 0.19241787 0.08725985
000390 0a 9a f5 bd 38 6c f7 bd d7 d5 92 3c 36 1e 93 3d
       -0.11992271 -0.12081188 0.017924232 0.07183497
0003a0 ba dd 83 3c 32 59 2f 3e 1d 99 5b be d2 23 55 be
       0.016096938 0.17123869 -0.21445127 -0.20814446
0003b0 62 14 8e be 51 54 89 be d9 5b 29 be 21 a6 f9 bd
       -0.27749926 -0.2682214 -0.16538943 -0.1218989
0003c0 cf 48 7c 3e 3c b9 23 3d 2a 0b 5b bd 8e b2 64 bb
       0.2463715 0.039971575 -0.053477444 -0.0034896466
0003d0 a5 08 51 bd d3 cd 76 3c 11 8e 85 be 33 1b 9c bd
       -0.051033635 0.015063721 -0.2608495 -0.07622375
0003e0 24 d7 1d 3e 00 60 6c 3d f7 07 04 3e cb 67 67 be
       0.15414101 0.05770874 0.12893663 -0.22598188
0003f0 08 8a 3f 3e 7d a8 b3 bc db 61 22 3d e5 41 18 3e
       0.18704998 -0.021930927 0.039644103 0.14868887

attentions2.attn.weight f4 [1, 8]
000000 8f 24 0e be 98 a5 e8 3d 3c 8c 63 be 1a 39 9c 3e
       -0.13881133 0.113597095 -0.22221464 0.30512315
000010 1c b9 24 3e 73 ff 96 be 8d 3a 8b 3e ec 03 a5 3d
       0.16086239 -0.29491767 0.27193108 0.08057389

attentions3.linear.weight f4 [16, 16]
000000 19 5b 44 be 8a a5 ab 3d 5b fe ba bd 6e 5b e5 3d
       -0.19175376 0.083811834 -0.09130546 0.111990795
000010 6e 56 25 3b 8e 9e cb bd 36 40 84 be 1b d1 e7 bc
       0.0025228518 -0.09942351 -0.2583024 -0.028297951
000020 27 f3 8e be 5b 4f 0e 3d af 3f 3a 3e 81 3f 40 3d
       -0.27919886 0.034743648 0.18188356 0.046935562
000030 f4 54 d7 bd 06 42 09 3e 64 01 08 3e 40 16 cf bb
       -0.105142504 0.13404092 0.1328178 -0.006319791
000040 32 66 30 3d 5a aa 5a be 27 8b 17 3e 53 7e 7b be
       0.04306621 -0.21354046 0.14799176 -0.24559908
000050 b4 4c 62 3d 56 9b 54 be fa b6 64 3e 8e 57 8d 3d
       0.05524893 -0.20762381 0.22335425 0.06901465
000060 6f 6c b5 bd ce 23 3c 3e 7e a1 46 bc 03 b5 f2 bc
       -0.08858573 0.18373033 -0.012123464 -0.029627329
000070 87 96 25 be 53 11 df 3c ce 4a 24 be 5e 5a d2 3d
       -0.16170703 0.02722994 -0.1604416 0.102711424
000080 8f 47 11 3e 1f a7 55 be a3 69 41 3e 9c ff 11 be
       0.14187454 -0.20864533 0.18887953 -0.14257663
000090 17 a4 80 be e8 2e 29 bd 56 85 ee 3d c8 b0 00 bd
       -0.2512519 -0.0413045 0.116465256 -0.03141859
0000a0 3e 02 40 be db ab 40 3d f2 ce 1d 3e 2f d6 2e be
       -0.18750855 0.047038894 0.15410975 -0.17073892
0000b0 01 78 0a 3e 3b cf cb bc 58 40 af 3d 8c 19 fc bd
       0.1352234 -0.024879089 0.085571945 -0.1230956
0000c0 08 69 34 be d2 3e 46 bd 2f 92 fd bc 64 54 29 be
       -0.17618191 -0.048399754 -0.030953495 -0.16536099
0000d0 ea 0b 5a 3e 1d 50 4c 3b 50 a3 3f 3e 7e f7 d7 bd
       0.21293607 0.003117568 0.18714643 -0.10545252
0000e0 b2 ea 25 3c 83 26 54 3e c0 c2 1b 3e 8e 73 48 3e
       0.0101267565 0.20717816 0.1521101 0.1957533
0000f0 4c 12 1b be 21 22 e5 bc 62 57 0f be 75 7b 39 be
       -0.15143698 -0.027970375 -0.13998178 -0.18113501
000100 02 ed 91 be dc ed 75 3d 78 f1 f9 3d f7 07 f8 bd
       -0.28501135 0.060041294 0.1220426 -0.12110894
000110 e4 a6 39 be 2a d5 98 bd 6f 96 8c be 3f 6b 02 3d
       -0.1813007 -0.07462533 -0.27458522 0.03184056
000120 e8 24 6e be 28 79 6d 3d 4f 47 80 3e 88 39 0d 3e
       -0.23256266 0.05797687 0.25054404 0.13791478
000130 67 05 89 bd d1 5e 85 3e 24 2b 7d 3e 7b e8 10 be
       -0.066904835 0.26048902 0.24723488 -0.14151184
000140 e6 fd b8 bb 31 dc 7e 3e dd 96 e0 bd da eb 79 be
       -0.0056455014 0.24888684 -0.10966275 -0.24406376
000150 db 5f 7c 3d e2 91 11 bc e7 13 32 be 74 33 39 bd
       0.061614852 -0.008884879 -0.17390405 -0.045215085
000160 c5 89 02 3e c3 d1 f7 bd b1 9b 2c 3e f1 4a 1f be
       0.12747867 -0.12100556 0.16856267 -0.15555932
000170 bf 90 57 bd 40 bd a5 bd a4 93 66 3e 46 0d 48 be
       -0.052628275 -0.08092737 0.22517258 -0.19536313
000180 77 38 92 3d 3f a6 34 be cf 6e 44 be 0f df 18 be
       0.07139676 -0.17641543 -0.19182895 -0.1492884
000190 3d 48 6c bd ee bf 8a 3d 3b c0 d9 3d 2f b0 59 3d
       -0.05768608 0.06774889 0.10632368 0.053146537
0001a0 82 0b 01 bc 98 eb 90 3b 3a f7 a8 bd ea 9c 11 be
       -0.007876279 0.004422616 -0.0825028 -0.14220014
0001b0 62 41 1d be ac c2 ef 3d 45 7a 59 3e fd 9b 32 be
       -0.15356973 0.117070526 0.21238048 -0.17442317
0001c0 a2 6c 9d bc 16 4c 16 bd 64 b4 07 3e 66 2a 3f 3e
       -0.01921684 -0.036693655 0.13252407 0.18668517
0001d0 e2 0a 1b be 40 fc a7 3d 59 bc 88 be 22 25 23 be
       -0.1514087 0.0820241 -0.26706198 -0.15932134
0001e0 2b 9a 83 be 27 52 f7 bd a6 c4 e1 3d 88 2e 08 3e
       -0.25703558 -0.12076216 0.11023836 0.13299
0001f0 13 a8 c5 3d ae 27 c0 bc 31 a5 04 3e 90 7f fe bd
       0.09651198 -0.02345642 0.1295364 -0.12426674
000200 37 88 b2 3d d3 61 2a 3d ff ee 0b 3e 54 1c 29 3d
       0.08717387 0.0415972 0.13665389 0.04128678
000210 b2 2f 48 be 34 68 c2 3c a3 9d 49 3e c4 d2 85 be
       -0.19549444 0.023731329 0.1968904 -0.26137364
000220 04 63 cf bb 92 a0 43 3e 3a fa ac 3d 62 48 1c 3e
       -0.0063289423 0.19104221 0.084461644 0.15261987
000230 dd 6e 3b 3e 51 db df 3d 19 32 83 3d 04 9d 43 be
       0.1830401 0.10930503 0.0640604 -0.19102865
000240 07 07 d9 3d 5a 5c 37 3d 1a 63 1a 3e a6 8d 61 3e
       0.105970435 0.044765808 0.15076867 0.22026691
000250 85 81 58 3e a6 12 99 bd 07 7c 2f be d1 14 06 be
       0.21143158 -0.0747426 -0.17137156 -0.13093878
000260 b6 0c 8d 3d fb 21 33 be e1 4d 8c 3e fb 02 56 be
       0.0688719 -0.17493431 0.27403167 -0.20899574
000270 b3 02 50 3e e5 33 34 be fe b8 73 3d 84 e4 16 3e
       0.2031353 -0.17597921 0.059502594 0.1473561
000280 eb 2a 58 be 19 0a 54 be 41 62 91 3b 11 7f 96 bd
       -0.21110122 -0.20706977 0.0044367616 -0.07348455
000290 ae 36 6e bd 7a b2 65 be 65 41 9c be 0e 2f 2b be
       -0.058157615 -0.22431365 -0.30518642 -0.16717169
0002a0 a1 ca de bd 04 8d 9b bd b5 df 18 be 7e ce 6c 3e
       -0.10878492 -0.07595256 -0.14929087 0.23125646
0002b0 2f 61 83 3e 79 01 31 3e a6 b0 87 3e 1b 96 7d be
       0.25660083 0.17285718 0.2650196 -0.24764292
0002c0 46 9c 34 3e 42 8d e5 3d 63 04 75 be df fc 3e 3d
       0.17637739 0.112085834 -0.23927455 0.046627875
0002d0 8b 85 40 bd db 06 44 3e db 02 18 3e 29 09 19 be
       -0.047002356 0.1914324 0.1484484 -0.149449
0002e0 dd df e3 3d 1f 8d 35 be 59 77 53 3e 3b 06 37 3e
       0.11126683 -0.17729615 0.20650996 0.1787347
0002f0 81 5a 9f 3d 5c f5 63 3e d4 22 1c 3e 70 ce 56 bd
       0.07780934 0.22261566 0.15247661 -0.052442968
000300 3d fb 4e 3e 1a 83 69 3e b3 07 db bc f1 63 2a 3e
       0.20213027 0.22803918 -0.02673707 0.16639687
000310 d3 08 54 3d fb 73 91 3d 8b 23 64 bd 89 02 58 3d
       0.051766228 0.071022 -0.05569796 0.052736793
000320 0f db 21 be 7f ff 84 be 04 d0 01 3e 1d 9e f5 3d
       -0.1580622 -0.25976178 0.12677008 0.11993048
000330 bd 76 1c 3d 0a b4 2f 3d db d9 28 be a7 5c f4 3c
       0.038199175 0.042896308 -0.16489355 0.029829336
000340 6f 73 5c be ae 0e 2b be 3b d5 5e bd 16 0e 85 3e
       -0.2152841 -0.16704819 -0.05440257 0.2598731
000350 42 99 0e 3d a0 df 00 be 72 94 87 bc e7 f4 22 be
       0.034814127 -0.12585306 -0.016550276 -0.15913735
000360 8e 7a cd 3d 22 c1 63 3d 0d 1f 3b 3c f3 b2 cf bd
       0.10033141 0.055604108 0.011420977 -0.10141554
000370 30 52 2d 3e 49 6e 11 3e 7e 12 a5 3b cf 5a af 3b
       0.16925883 0.14202227 0.005037605 0.0053514014
000380 25 83 11 be 96 e1 6b 3e 20 bf 3b 3e 9f ab 16 3e
       -0.14210184 0.23035273 0.18334627 0.14713906
000390 f9 19 86 3e bf a1 5e be eb f4 a0 bd 3b 43 b3 bd
       0.2619169 -0.21741389 -0.078592144 -0.087530576
0003a0 9a 67 7e 3e 40 8a 67 be 14 3e c1 3d 1d 6f 19 3e
       0.24844208 -0.22611332 0.094356686 0.14983793
0003b0 9f 90 6a be b6 b5 01 be 98 da 0e be 70 ac df 3d
       -0.22906731 -0.12666973 -0.13950574 0.10921562
0003c0 8c dc f1 bd 9c c6 39 3e 13 cf 7a 3d 2c 74 67 3e
       -0.11809644 0.1814217 0.061232638 0.2260291
0003d0 e9 f3 89 be 03 8e 05 be 23 99 3c be 15 f8 e8 3d
       -0.269439 -0.13042454 -0.18417792 0.11375443
0003e0 9a 38 3e bd c1 7a 63 3e 05 ff 5c 3d f3 25 3c 3e
       -0.0464407 0.22214796 0.053954143 0.18373851
0003f0 6c b2 ab bd 0d fb f8 bc 78 87 71 3e 4a 81 48 3e
       -0.08383641 -0.030393148 0.23586833 0.1958057

attentions3.attn.weight f4 [1, 8]
000000 0a d2 48 bd ce c3 93 3e 48 b8 31 be 46 b8 65 be
       -0.049028434 0.28860325 -0.17355454 -0.22433576
000010 ef a2 17 be 0d 99 bf 3e f8 ed bd bd fa 46 82 be
       -0.14808248 0.37421456 -0.092739046 -0.25444776

output_layer.linear.weight f4 [5, 16]
000000 7d 23 79 3e c3 f6 57 be 1c e5 b6 3d b2 5d 73 bd
       0.24329944 -0.21090226 0.08930418 -0.059415527
000010 c4 86 86 3e 7c cc 3b be 9f 97 a7 3c 87 b6 13 be
       0.26274693 -0.18339723 0.02045804 -0.14425097
000020 8a 3d 2c be a7 73 77 3d 28 c1 36 3e 85 ad 10 3e
       -0.1682035 0.06041303 0.17847121 0.14128692
000030 be 58 2a 3d e7 59 52 3e f0 00 c2 bd 1f e2 77 3e
       0.041588537 0.20542108 -0.09472835 0.24207352
000040 0c f1 7e bd 44 29 94 3d 78 45 a2 3d e1 b1 3d 3e
       -0.0622416 0.07234433 0.07923406 0.18524887
000050 37 21 49 be 24 48 9f bd 1b 82 d7 bd da da 85 be
       -0.19641577 -0.077774316 -0.105228625 -0.26143533
000060 a0 64 30 bc e7 27 cb 3d c6 44 3d 3d 18 85 39 bd
       -0.010766178 0.0991972 0.046208166 -0.045292944
000070 43 21 5a bc 28 c6 81 be d4 99 16 3e 25 84 30 3c
       -0.013313594 -0.25346494 0.14707118 0.010773693
000080 71 4b 56 3d 70 79 ee 3d de 64 b3 bc 10 2f a4 3d
       0.05231804 0.11644256 -0.021898683 0.08016789
000090 12 95 9b bd ee 02 b9 bd 16 1b 19 be 81 87 8b be
       -0.07596792 -0.09033762 -0.14951739 -0.2725182
0000a0 ea 26 1e 3e 27 fe 68 3d 99 42 aa 3d ac 44 50 3e
       0.15444532 0.056883004 0.08313484 0.20338696
0000b0 ae 9e cb 3d 41 c1 7a be 8f 71 4c 3e 9d 2f b1 3d
       0.09942375 -0.24487783 0.19965194 0.0865166
0000c0 84 5c b6 3d d2 a7 04 3e 29 83 88 3e b8 88 38 3e
       0.08904365 0.12954643 0.26662567 0.18020904
0000d0 e4 d9 cb 3d ad a7 89 3e 3e eb 89 bd 40 a0 d6 3d
       0.09953669 0.2688574 -0.06734322 0.10479784
0000e0 b0 3b 40 3e 34 70 07 bd 98 85 3c 3e 0d 4e 22 bb
       0.18772769 -0.03306599 0.18410337 -0.002476576
0000f0 41 f9 c6 3d 7b 6f 87 3e 55 65 5d be 10 7a 89 bc
       0.0971551 0.2645224 -0.21620686 -0.016781837
000100 7a 86 a2 3d ad f5 b0 bd 61 af 3d be 7a b7 bc bc
       0.079358056 -0.08640609 -0.18523933 -0.023036707
000110 90 8c 60 bd 2d c9 0d be 2a 6c 9b bd 8c 14 b9 3d
       -0.05482155 -0.13846274 -0.0758899 0.09037122
000120 91 a0 60 3e 2b 21 72 3d 1e 3f 8c 3e 7a 43 9a bd
       0.21936251 0.059113663 0.27391905 -0.075324014
000130 dd ed 4e be be d5 0e be f1 6a 8f bc b8 d1 3f 3e
       -0.20207925 -0.13948724 -0.017507048 0.18732345

output_layer.attn.weight f4 [1, 10]
000000 c2 b2 f6 3d e3 29 93 bd 5a 5f 92 3e 0f 89 88 be
       0.12045814 -0.07185724 0.28588372 -0.26667067
000010 e0 3d 91 be 28 e5 15 be 2d 43 87 be 2d 05 a6 3d
       -0.2836752 -0.14638197 -0.2641844 0.08106456
000020 08 e1 77 be 88 87 25 be
       -0.24206936 -0.16164982

fc1.weight f4 [128, 500]
000000 45 16 22 3a 00 47 14 bd 4c 24 e5 bc af 35 e2 3c
       0.0006183128 -0.036200523 -0.02797141 0.027613489
000010 3f af 93 bb 40 c1 7e 3d 36 6a 92 ba f6 7f f4 3c
       -0.004506975 0.062196016 -0.0011170569 0.029846173
000020 3f 20 ce 3c 0d 6a d4 3c d5 0f 75 3d 7b 25 1d bd
       0.02516186 0.025929475 0.05982955 -0.038365822
000030 ac 0e eb 3c b8 61 37 3d 62 a7 37 bc b3 16 6c 3d
       0.02869352 0.044770926 -0.011209341 0.057638835
000040 5b f5 5a 3b 62 60 68 3b 24 d3 4c 3d 5d 96 13 3d
       0.0033410403 0.003545784 0.050006047 0.03603207
000050 3b 11 a1 bc 1e 91 c3 bc da fb 1a bd 80 96 e0 ba
       -0.019661536 -0.023872908 -0.03783784 -0.0017134696
000060 97 f0 34 bd 8b f2 2a 3d 22 b6 f8 3c a3 f4 92 bc
       -0.044174757 0.041735213 0.030360285 -0.017938918
000070 00 59 11 ba 8b 1e 0a 3d f5 f7 04 3b b3 a4 2a bd
       -0.0005544573 0.033720534 0.0020289395 -0.041660976
000080 9b 46 9d bc 4c 71 2a 3d bf 58 65 bb 4b c2 d5 3c
       -0.019198706 0.041611955 -0.0034995524 0.026093623
000090 03 0c 0b 3b 2f 23 b0 bc 4e 61 24 3d fc 25 e1 3c
       0.0021216876 -0.021501152 0.04013186 0.027483933
0000a0 d0 26 ec 3c 84 2c 90 3c 3b c3 f3 3b 74 07 3b 3d
       0.028827101 0.017599352 0.007439045 0.045661405
0000b0 93 fc 68 bc 2c 56 3a 3c d4 b6 61 3b aa bd ba bb
       -0.014220375 0.011373084 0.003444125 -0.0056988792
0000c0 82 f7 cd 3b 8c f4 ef 3c 28 8c be bb 01 e2 18 bd
       0.0062856087 0.029291414 -0.005815048 -0.03732491
0000d0 49 31 ff 3c fe 8c 52 bc c3 6c 43 3d 7c 53 27 3d
       0.03115143 -0.012850998 0.047711145 0.0408511
0000e0 88 9c d5 bb 5c 19 51 3d 54 92 6d 3d 38 ec f6 3b
       -0.006518904 0.051049575 0.058000877 0.0075354837
0000f0 00 15 ec 3c e8 59 7d bd a5 ba 90 bc 71 10 1e 3d
       0.028818607 -0.06185332 -0.017667124 0.0385899
000100 de 56 69 ba b3 f2 33 3d ec 10 0a 3c 07 b4 70 3d
       -0.0008901189 0.043932628 0.008426886 0.058765437
000110 32 ea 37 3c af bf 49 bc 87 e9 5f 3d f6 71 6c bd
       0.01122527 -0.012313767 0.05466607 -0.05772587
000120 f2 f3 13 3d 01 f0 e3 3c 8e 5d 49 3c 8d 11 c6 3c
       0.036121316 0.027824404 0.012290372 0.02417829
000130 38 01 9a 3c c7 a1 7e bc 34 e2 02 3d f6 b5 12 3d
       0.01879941 -0.0155415 0.031954005 0.035818063
000140 56 31 26 3d 5b a7 3d bd 7e d3 a4 3c 8a d8 38 3d
       0.040574394 -0.04630218 0.020120379 0.045128383
000150 ed 44 8b 3c 01 a9 1c bb 7f 1d 41 bc b5 0c b7 bc
       0.01700064 -0.0023904445 -0.011786818 -0.022344926
000160 90 1f 87 3d 00 3c 80 bb 6b 82 77 3c 7e 29 2c 3c
       0.06597817 -0.0039134026 0.015106778 0.010507939
000170 42 24 9b bc 4b 16 6a 3d b1 07 47 bc 31 51 ab bc
       -0.018938188 0.057150166 -0.01214783 -0.020912739
000180 aa 63 dd bc b5 89 0c 3d 0c a1 27 3c 93 52 4b bb
       -0.027025063 0.034311015 0.010231268 -0.003102456
000190 49 86 03 3c fd 6b 1d bc 54 79 1b 3b 83 43 a3 bc
       0.008027622 -0.009608266 0.002372344 -0.019929653
0001a0 b3 7f 1e 3d 26 0b d7 3c 65 1d 11 bd 9d ff 10 bc
       0.038696002 0.026250433 -0.035428423 -0.008850005
0001b0 35 5f 43 3b b4 05 d8 39 c7 95 57 3d 0a 40 44 bd
       0.0029811386 0.0004120298 0.052633073 -0.047912635
0001c0 1a df 8b bb e7 a2 e7 3c b7 e7 b9 bc dc 63 00 3c
       -0.004268539 0.02827592 -0.022693498 0.007836308
0001d0 72 ff 12 bd 32 ce 80 bc 38 83 71 3d 02 1b 92 bb
       -0.035888143 -0.015723322 0.05896303 -0.004458786
0001e0 98 d0 12 3d 59 fd b6 bc 04 3b 18 bc 05 6a 84 bc
       0.03584346 -0.022337602 -0.009291414 -0.016163835
0001f0 01 93 7d 3d 4a 33 24 3c aa 2b 09 3c f1 bb 70 3d
       0.061907772 0.010021994 0.008372227 0.058772985
000200 3a e9 8d 3b 80 17 7c 3d c0 f9 73 3d bd d8 b9 3c
       0.0043307813 0.06154585 0.059564352 0.022686357
000210 a3 b7 60 3d 7c d9 ba 3c 7c 83 46 3d dc 04 35 bc
       0.05486263 0.022808783 0.048465237 -0.011048522
000220 6e 19 12 bd 31 5b 61 3d f5 e0 7b 3c a2 27 a5 bc
       -0.035668783 0.055018608 0.015373458 -0.0201605
000230 f4 da 5b 3d dd c9 55 bd b6 d3 b7 bc f5 3e 61 3d
       0.053675607 -0.052194465 -0.022439819 0.05499168
000240 1e 05 20 3d 8b af 02 3d 67 95 42 bd bd 6e ae 3a
       0.03906738 0.031905692 -0.047505762 0.0013308149
000250 2a db 67 3d 0e 6f e4 3c 6b 65 00 3d cf e7 d7 bb
       0.056605496 0.027884986 0.03134672 -0.006588913
000260 f5 f0 3e 3c fb e1 2a bc 30 55 42 3d b3 03 9d bc
       0.011654128 -0.0104298545 0.047444522 -0.019166803
000270 14 d5 8c 3b 40 64 09 3b cd e8 a9 bb d7 56 ae 3b
       0.004297862 0.0020964295 -0.0051852227 0.0053204107
000280 4b 5a 41 bc c7 ae 12 bd c4 11 70 3c 76 74 1b 3c
       -0.011801313 -0.035811212 0.014652673 0.009488216
000290 b8 38 1f 3c d8 0d 3c 3c e2 15 c2 3c 79 d1 1c bc
       0.009718113 0.01147791 0.023692075 -0.009571427
0002a0 6f 8c bb 3c 78 7e f0 3b d8 fa 85 3d 11 56 61 bd
       0.022894112 0.007339295 0.06541985 -0.05501372
0002b0 44 27 23 3d 65 1a 54 3d 98 89 55 3d 87 72 a1 3c
       0.03983237 0.051782984 0.052133173 0.019707931
0002c0 98 e1 8b bc 7b 67 4b 3d 4d b4 36 3c 48 70 2f 3d
       -0.017075345 0.049659234 0.0111513855 0.04283169
0002d0 56 45 07 3c 42 3b a9 3b 1e 87 38 3c 5a 9a 7a 3d
       0.008256277 0.005164535 0.011262683 0.061182357
0002e0 80 00 93 bc 8f 30 6d 3d 40 b5 b9 3c 50 1c 37 3d
       -0.017944574 0.057907637 0.022669435 0.044704735
0002f0 ef 51 ea ba 2f 43 88 bb 60 77 38 3d a4 f4 68 bd
       -0.0017877201 -0.0041583995 0.04503572 -0.056873932
000300 0b 51 5b bc ed 3f 8f 3c 52 ef 24 bc 15 3a 42 3d
       -0.013386021 0.017486537 -0.010066824 0.047418673
000310 d0 23 94 bc b1 ad 6e 3c b4 bf 1d 3b d0 28 2d 3d
       -0.018083483 0.014567778 0.0024070563 0.04227525
000320 bc d7 8d bb 95 c5 9b 3a df 0a 01 bd 9c 84 dc 3c
       -0.004328696 0.0011884446 -0.031504508 0.026918702
000330 b0 07 47 3d aa 36 98 3c 3e 31 09 bd f9 6b 29 3d
       0.048591316 0.018580753 -0.033494227 0.041362736
000340 19 29 a5 bc 81 c9 98 3b eb 18 b3 3c 86 f5 3e bd
       -0.020161198 0.004662693 0.021862468 -0.04662087
000350 b0 ef 99 bc 9d 00 9a bc e2 34 67 bc e9 aa 29 3d
       -0.01879105 -0.01879912 -0.014111729 0.04142276
000360 61 19 aa 3c 65 da 8a bb 65 84 2a 3d 99 a3 8a 3c
       0.020764055 -0.0042374604 0.041630168 0.016923713
000370 de db 21 3d e7 43 13 bd be e5 31 bc 5c 00 2d 3d
       0.039516322 -0.03595343 -0.010857997 0.04223667
000380 fa 83 30 bc 21 00 95 bb 3d 16 bd bb c6 da 88 bb
       -0.010773653 -0.0045471345 -0.0057704733 -0.0041764705
000390 73 24 7c 3d 00 d1 92 bc ec 15 d0 3c 7d b2 03 3c
       0.0615582 -0.017921925 0.025401078 0.00803816
0003a0 e0 62 ea ba 86 30 97 bc ce 65 5d 3d 77 a9 6c 3d
       -0.001788225 -0.018455755 0.054052167 0.0577788
0003b0 d8 cb 05 bd 25 ac 40 ba c3 5b 0b bc 2d 4d b2 3c
       -0.032665104 -0.000734987 -0.008505764 0.021765316
0003c0 0a 64 59 3d 52 2d 4b bd c0 72 27 3b c6 4f 70 3c
       0.05307392 -0.049603768 0.0025550574 0.014667457
0003d0 ad 55 3e 3d da c2 d5 3b c5 04 8e bb bc 8d 39 3d
       0.046468426 0.0065234723 -0.0043340647 0.045301184
0003e0 2e 85 a7 bc 4d 32 02 3d 9c 74 05 3c 48 89 4e bd
       -0.020449247 0.03178625 0.008145478 -0.05042389
0003f0 aa 9b 46 3d 60 01 0d bc 31 5e 85 3b 47 ac 7b 3a
       0.048488297 -0.008606285 0.0040700664 0.00096005615

fc1.bias f4 [128]
000000 0f 63 40 bd c9 59 86 bb ee cb af 3d c6 f9 56 bd
       -0.04696947 -0.0041000587 0.085838184 -0.052484296
000010 5b 08 b3 bb d1 30 12 bd ea 89 bd 3c 67 a7 20 3d
       -0.0054636425 -0.035691086 0.023137052 0.039222147
000020 a2 5a 74 3d 2e 92 19 3d 6a 62 31 3d 55 fe 62 bd
       0.059656747 0.037492923 0.043306746 -0.05541833
000030 55 c7 55 bd 7d 68 f2 bc af b6 28 bd 67 d7 32 bd
       -0.05219205 -0.02959084 -0.041189846 -0.043662455
000040 3b 8e 8e bd d5 1d 50 bd 22 d8 db 3c a4 78 8a bd
       -0.06960722 -0.0508097 0.026836459 -0.067612916
000050 a7 3a 81 bd 88 93 58 bd 93 2b 04 bd 8e f2 30 bd
       -0.06310015 -0.05287507 -0.032268118 -0.04320007
000060 9a 5d 2c 3d 73 6b b5 3d 50 d3 a1 3c 32 26 67 3d
       0.042081453 0.08858385 0.019754082 0.05643291
000070 9e ce d2 3d b3 d4 d0 bc 3e 56 89 bd dd db 7f bd
       0.10293315 -0.025492048 -0.067059025 -0.062465537
000080 a7 53 33 3d c7 c8 47 3d f0 bb 59 bd 19 53 00 bd
       0.04378095 0.04877546 -0.053157747 -0.031329248
000090 65 69 10 3e d5 95 18 bd 0a c1 2b 3c db b6 99 bd
       0.14102705 -0.037252266 0.010483036 -0.0750558
0000a0 f9 56 4a 3c ff 95 af bc f1 40 27 bd 8d de 0a bd
       0.012349837 -0.021433828 -0.040833417 -0.033903647
0000b0 58 90 d7 3a 3e 1a b8 bb d5 bf 36 3d 21 40 ff ba
       0.0016446216 -0.0056183627 0.04461654 -0.0019474068
0000c0 71 be 7a 3d c9 c7 ca 3c e7 30 af 3c 54 65 6e 3d
       0.061216775 0.024753468 0.021385623 0.058202103
0000d0 ff a6 83 3d d9 48 56 3d 0e f3 07 3d 15 f0 4a 3c
       0.06428336 0.052315567 0.03319078 0.012386342
0000e0 a4 bd 29 3c 5f 55 43 bd aa 7f 4d bd f6 82 08 bd
       0.010360155 -0.047688838 -0.050170578 -0.03332802
0000f0 bb 58 e5 bc 74 ac 9b 3c 74 16 53 3d 1a 85 5a bd
       -0.027996412 0.01900313 0.051535085 -0.05334959
000100 9c a7 b2 bc fa 29 8b 3d 01 7e 6d bc 0a c1 1c 3c
       -0.021808438 0.06795116 -0.014495374 0.0095675085
000110 1a fd 69 bd f2 66 95 bd d4 34 fc bb d4 7e d9 3d
       -0.057126142 -0.07295026 -0.0076967273 0.10619894
000120 f2 5f f7 bc 88 d0 ea bc 30 00 21 bc 1b 89 75 3d
       -0.030197117 -0.028663889 -0.009826705 0.059945207
000130 67 ef 26 bc 86 aa 9c 3d 4d 2c dc 3d 59 29 b0 bc
       -0.010188914 0.07649712 0.10750637 -0.021504091
000140 8e 5b 1c bd ff 59 13 bd b7 fa ff bc 79 e5 4f bc
       -0.03817325 -0.0359745 -0.03124748 -0.012688988
000150 9f 05 57 3d 11 84 88 3d f5 f6 06 bd a5 be 07 bd
       0.052495595 0.06665815 -0.03295036 -0.033140797
000160 10 8f 55 bd 44 33 4d 3b 89 85 2d 3d cb ea 12 3d
       -0.05213839 0.0031311074 0.042363677 0.035868447
000170 7b ac b0 bd 60 f3 af 3d 6a 22 b2 bd bb 0e 44 3c
       -0.08626648 0.08591342 -0.0869797 0.011966403
000180 32 00 24 bd 16 38 01 bd 47 ce 6e 3d 4e d6 4f bd
       -0.04003925 -0.03154763 0.05830219 -0.050741486
000190 39 3b 8c 3c cf 47 90 3d 0d f5 a3 bd e9 34 94 3d
       0.017118083 0.070449464 -0.08005724 0.07236654
0001a0 ad 00 32 bd 11 68 f9 3c f7 d8 35 bd ed 09 27 bd
       -0.043457676 0.03044513 -0.044396367 -0.04078095
0001b0 25 b8 63 bd 4e 45 94 3d e7 72 f3 bc eb e4 8b bd
       -0.055595536 0.07239781 -0.029717876 -0.06830772
0001c0 c2 15 8d bc e5 ec 6c 3c c8 39 e1 bc 0c fc 33 3d
       -0.017222289 0.014460777 -0.027493373 0.043941543
0001d0 e9 e8 31 3d fa 02 2e bd 09 d2 4c 3d 40 87 79 bd
       0.04343501 -0.042483307 0.050004993 -0.06092
0001e0 20 73 55 3d e6 55 ad 3d 50 b7 b0 bd 91 cf 30 3d
       0.052111745 0.084636495 -0.08628714 0.0431667
0001f0 30 24 c2 bc 7d ab 7e bd 04 84 94 bc 2f ac 9c 3c
       -0.023698896 -0.062175263 -0.018129356 0.019125072

fc2.weight f4 [5, 128]
000000 a6 37 3f 3d 94 ad 95 bc dc 6e a3 3d 77 59 2d 3d
       0.04668393 -0.018271245 0.07980129 0.04232165
000010 44 b9 54 bd 68 24 e3 3c 39 a5 97 bd 4a 36 f9 3d
       -0.051934496 0.02772732 -0.074045606 0.12168558
000020 b5 bd ac 3d 41 88 66 bd d7 38 b2 3d ad 5e 99 3c
       0.08434621 -0.056282286 0.087022476 0.018721903
000030 d7 fb 8e bc 6a 09 fc 3d e3 d9 96 3d f1 77 04 3d
       -0.017454071 0.12306483 0.07365777 0.032340948
000040 de fe 59 3c 06 91 18 3d e7 48 84 3d 89 59 08 bd
       0.013305394 0.03724768 0.064592175 -0.033288512
000050 96 4b 98 bd af 93 01 bd 39 f3 4f be fc bf c5 bd
       -0.07436292 -0.031634983 -0.20307626 -0.09655759
000060 aa f5 98 bc 32 00 81 3d 48 68 13 be ad 08 a7 3d
       -0.01867183 0.062988654 -0.14395249 0.08155952
000070 bc 41 8d 3c 97 68 8e 3b 67 34 55 bc 37 9c 09 bd
       0.017243259 0.004345964 -0.013012982 -0.033596244
000080 79 cf a6 bd f4 cd 20 3c 19 50 01 b9 e3 48 85 3d
       -0.08145041 0.009814728 -0.00012332237 0.06508043
000090 f7 6d b6 3d 1b 7f 5e bd d2 dc b1 3d 6e b6 1c be
       0.08907693 -0.054320436 0.08684696 -0.15303966
0000a0 51 6e 90 bd 27 40 20 bd be 0d cf bd 1f d5 b1 bc
       -0.07052291 -0.03912368 -0.10110043 -0.02170807
0000b0 e9 a3 bb bd 5b b3 e1 3d 19 ed 25 bd 28 fc 1e be
       -0.09162123 0.110205375 -0.040509317 -0.15525877
0000c0 bc 57 0a 3d c2 71 66 3e 2f c2 7a bc 0a 96 8a 3d
       0.033775076 0.22504333 -0.015305086 0.06766899
0000d0 f2 c3 fa 3d bb 59 bc 3d f7 74 9f 3c db 23 01 bd
       0.12244405 0.09196802 0.019464953 -0.031528335
0000e0 a9 95 b0 3d 3e 87 4c be 05 eb 34 3c 7f 61 87 3d
       0.086222954 -0.19973466 0.011042361 0.06610393
0000f0 24 d3 6d bd 29 69 bc bd c8 26 34 3d 5e aa 0a bc
       -0.058062688 -0.09199745 0.043982297 -0.00846347
000100 ce 8d 3c 3d 12 f5 39 be ec b8 82 bd 5c 7b 9a 3d
       0.046033673 -0.18159893 -0.06382927 0.0754306
000110 83 10 3c 3d bc 66 97 bd 6a c1 91 bc 7e 65 2f 3c
       0.045914184 -0.07392642 -0.017792422 0.01070535
000120 b7 d1 06 be 18 9f 16 3d 78 54 cc bd 2d cd 4e 3d
       -0.13165937 0.036772817 -0.09977049 0.05048864
000130 7b c9 07 bd 13 46 d2 3d 2d 3c e5 3d 1a 5c 59 bd
       -0.03315113 0.10267272 0.11193118 -0.05306635
000140 24 4c 9e bc 16 93 d9 bc 0b e1 2d bd e2 c8 2a 3e
       -0.019323416 -0.026559394 -0.042450946 0.16678193
000150 08 ae 25 bd 59 a0 d1 3d a5 93 8b bd 5f dc 5a bc
       -0.040449172 0.10235662 -0.0681527 -0.013358205
000160 58 4c 88 3d 60 e1 84 3c 4e 35 2f be 70 82 96 3d
       0.066551864 0.016220748 -0.17110178 0.07349098
000170 5e 14 c2 bd e0 94 78 bc e4 85 e4 bc e8 6d b2 bb
       -0.09476541 -0.015172213 -0.027895875 -0.0054452308
000180 60 5d 5e 3d ba 7e 20 bd 89 91 aa 3d 21 2a 0d bd
       0.054288268 -0.039183356 0.0832854 -0.034464005
000190 7f d9 af 3d 95 04 b6 3d 13 4f 81 bd a2 a7 03 3d
       0.08586406 0.08887593 -0.0631391 0.03214229
0001a0 32 67 54 bd 8f 98 64 3c 90 ce d8 3b 52 9d 95 bc
       -0.051856227 0.013952388 0.006616421 -0.018263493
0001b0 ef 31 54 bd 48 18 ea 3d 97 77 09 3d ed 3a 8e bc
       -0.051805433 0.114304125 0.033561315 -0.017362082
0001c0 12 9c 8b 3d 4f de d5 3c 5d 64 29 3d 2a b5 90 3d
       0.068168774 0.026106982 0.04135548 0.07065804
0001d0 42 36 42 be 67 bc 2b bd de d4 08 be ed 4b fa bd
       -0.1896601 -0.04192772 -0.13362452 -0.12221513
0001e0 d8 93 8f 3d b8 5f 25 be 74 58 33 3d 7e 3c 7c 3d
       0.07010621 -0.16149795 0.043785527 0.061581127
0001f0 24 56 90 3d 33 58 71 bd 49 6a 82 bc f1 e4 43 bd
       0.0704768 -0.058922004 -0.015919821 -0.047825757
000200 f3 c8 9b bc 02 44 c4 bd c3 96 ac 3d 21 1c e4 3c
       -0.019016718 -0.09583284 0.08427193 0.027845444
000210 20 64 66 3c d2 b9 c8 bd 03 81 b9 bd df 70 8c bc
       0.014061958 -0.098010674 -0.0905781 -0.017143665
000220 05 90 34 bc 0a 04 36 3d 60 89 9d 3d 77 be f6 b9
       -0.011020665 0.044437446 0.07692218 -0.00047062684
000230 6c 8a 68 bd 0f 8f ee bd 04 cf 9f 3c e7 40 e0 3c
       -0.056772634 -0.1164838 0.019507892 0.027374698
000240 83 32 38 3d 05 3c af bd e5 38 76 bd 8f df 64 3d
       0.044970047 -0.0855637 -0.060112853 0.055877265
000250 52 4c 87 3c 34 8d 6f bd 02 bd 66 3e 15 a6 06 bd
       0.016515885 -0.05848427 0.22533038 -0.032873232
000260 88 44 a8 3d eb aa ee 3d bd a1 06 3e 55 1a 2b be
       0.08216196 0.11653694 0.13147636 -0.16709264
000270 b9 55 ad 3d 75 b1 0b 3d 6e 82 c8 bb e1 83 76 bd
       0.08463616 0.034104783 -0.006119064 -0.060184363
000280 8e 0a 2e 3a bc bb 66 bd 1a cd 89 bd f6 30 47 bc
       0.0006639146 -0.05633138 -0.06728573 -0.012157669
000290 59 62 cd 3d 5d 8a 50 bd a9 8e 90 bb 42 00 12 3e
       0.10028524 -0.050913204 -0.0044115377 0.14257911
0002a0 3e 26 c7 3d 88 98 82 3d 13 43 e0 bb 63 c0 52 bd
       0.09724091 0.06376749 -0.0068439334 -0.051453006
0002b0 47 a8 45 3d 4c e5 d7 bd f2 4e df bd 98 ff 00 3e
       0.048256185 -0.10541782 -0.109037295 0.12597501
0002c0 36 60 8c bd 1c 23 9a bd 94 2d 91 bd 1c fb 06 3c
       -0.06854288 -0.07526228 -0.070887715 0.00823858
0002d0 f1 e5 36 3d fa 75 96 bd dc 06 1c 3e 1a 79 5e 3d
       0.044652883 -0.07346721 0.15236992 0.05431471
0002e0 a6 cd b6 bd af ef c2 3d 03 42 9c bd 1e 31 81 3b
       -0.08925943 0.09518372 -0.07629778 0.003942623
0002f0 c2 af 1f 3d b9 77 f4 3d 2f 8a f1 3d bf 6c 94 bd
       0.038985975 0.11936898 0.117939346 -0.07247304
000300 f3 38 1d be 42 ab 9f 3c 2e 9d c9 bd b0 12 72 bd
       -0.15353756 0.019490842 -0.09844433 -0.059099853
000310 80 3c 61 bd a6 eb 53 bd 0c 6d 36 bd cd cf f3 3d
       -0.054989338 -0.051738404 -0.04453759 0.11904869
000320 78 8e 02 3d 26 47 b7 3c db 54 c9 3d 97 a0 dc bd
       0.03187415 0.022372793 0.09830638 -0.107728176
000330 a5 c5 85 bc f6 72 93 bc d4 33 df 3d 51 63 8d bd
       -0.016329596 -0.017999154 0.10898557 -0.06903709
000340 69 a4 9e 3d f0 1c 70 3d 61 2a b1 bc 80 b8 5b bd
       0.077462025 0.058621347 -0.021626653 -0.05364275
000350 8d 5e e3 3d a8 15 4c be 4d a4 4d bd 11 3b b8 bb
       0.111020185 -0.19930136 -0.050205518 -0.0056222756
000360 20 2a d6 3c 93 45 c4 bd c2 ba a9 3b 44 79 ef bd
       0.026143134 -0.09583583 0.005179734 -0.116930515
000370 7f 6f 6b bd d4 bf ea 3d 4f a2 8f bd ec 49 0d be
       -0.057479378 0.114623696 -0.0701338 -0.1379773
000380 ae f4 75 bb 62 33 d7 bc 78 cc f0 3d 6d 34 b6 3c
       -0.0037529874 -0.026269618 0.11757749 0.022241795
000390 ae 7c 45 bd fb 37 7c ba fe db c7 3d 14 03 ad bb
       -0.048214607 -0.0009621379 0.09758757 -0.005279908
0003a0 a2 25 3d 3d 98 37 33 bd 89 ee b3 3d 3c a0 68 bd
       0.046178468 -0.04375419 0.08785731 -0.056793436
0003b0 16 0e aa bc e4 31 0e bd 0f d5 7e bd 8e 50 37 3d
       -0.02075867 -0.03471555 -0.062214907 0.044754557
0003c0 57 3a 8b bd 84 3b bf bd 58 2f c2 bc e5 36 9d bd
       -0.06798237 -0.093375236 -0.023704216 -0.07676486
0003d0 31 16 0e 3b 08 d7 35 bd 93 6c fc 3d 01 79 4a bd
       0.0021680708 -0.044394523 0.123253964 -0.049431805
0003e0 2e 5d 13 3d 78 48 55 3e 97 f1 12 be 49 53 b7 bd
       0.035977535 0.20828426 -0.14349972 -0.08951432
0003f0 a3 eb bc 3c 0a 3b e2 3d 6e c5 18 bd 9b b3 ee 3c
       0.02306158 0.11046417 -0.03729766 0.029138377

fc2.bias f4 [5]
000000 b7 ba db bc 6a 59 ba bc 22 34 45 bd 17 fd 29 3d
       -0.026822431 -0.022747714 -0.04814542 0.04150113
000010 ae a5 48 be
       -0.19594452
