saved_weights/Grid_10_1-/255/critic.pth (torch, 32435 bytes, 11 tensors)

attentions1.linear.weight f4 [16, 1]
0	0xbf8833dc	-1.0640826
1	0xbd5c4a76	-0.05378195
2	0xbe0ed66c	-0.13948983
3	0xbf6fd649	-0.9368635
4	0xbf85a584	-1.0441136
5	0x3f5d35e6	0.8641037
6	0xbf7347c3	-0.95031375
7	0xbeb2b4ed	-0.3490366
8	0x3e5a2ca0	0.21306086
9	0xbe03e8d5	-0.12881787
10	0xbe840c28	-0.25790524
11	0xbf7e0d45	-0.99239
12	0xbed99d1e	-0.42502683
13	0x3ecdd4df	0.4020147
14	0xbf18d1ee	-0.5969533
15	0xbf6c3d31	-0.9228087

attentions1.attn.weight f4 [1, 8]
0	0xbeb361ea	-0.3503564
1	0xbcc99d78	-0.02461122
2	0xbd851a99	-0.06499214
3	0x3e420fd3	0.18951349
4	0x3e1cd690	0.15316224
5	0xbe037d27	-0.1284071
6	0x3dbbc5e3	0.09168603
7	0x3e373b42	0.17893699

attentions2.linear.weight f4 [16, 16]
0	0x3e921bf7	0.2853696
1	0xbdf80516	-0.12110345
2	0x3e285427	0.16438352
3	0x3d705365	0.05867328
4	0x3e1910ca	0.14947811
5	0xbcf167ab	-0.029468378
6	0x3cab84cc	0.020937346
7	0x3e4850dd	0.19562097
8	0xbe729e2f	-0.23693155
9	0xbde6b695	-0.112652935
10	0x3e24a3d4	0.1607812
11	0x3e229dca	0.15880504
12	0x3d2a8f4f	0.041640576
13	0xbe4bd2b3	-0.19904594
14	0x3d390fc4	0.04518105
15	0x3e92f3f5	0.2870175
16	0xbe973e75	-0.29539838
17	0xbded952d	-0.11600719
18	0x3c5f2ee8	0.013622023
19	0xbe30a2a6	-0.17249545
20	0x3e1c5424	0.15266472
21	0x3d94ee30	0.07271993
22	0xbe8fe56a	-0.28104717
23	0x3e0d6114	0.13806564
24	0xbd10298c	-0.035195872
25	0x3d3c5083	0.04597522
26	0xbe86653d	-0.26249114
27	0xbe969ad9	-0.29415014
28	0xbe86c5e4	-0.26322854
29	0xbcce4635	-0.025179962
30	0x3ded7705	0.11594967
31	0x3d886878	0.06660551
32	0xbea0dcb6	-0.3141839
33	0x3c9c3ff8	0.019073471
34	0x3cf6294a	0.030048985
35	0xbe6452bd	-0.22297187
36	0xbe27e5ec	-0.16396302
37	0x3e38a5f8	0.18032062
38	0x3bb5de7d	0.0055502043
39	0x3c53cd62	0.012927385
40	0xbe3cb8da	-0.1842989
41	0xbe04f1dd	-0.12982889
42	0x3d2a93ac	0.041644737
43	0x3c94a81f	0.018146573
44	0xbe643d73	-0.22289066
45	0xbc79111a	-0.015201831
46	0xbc6b1a38	-0.014349513
47	0xbc259c2d	-0.010108036
48	0xbe1b08e3	-0.15140109
49	0xbd34ecb2	-0.044171043
50	0xbe7ab998	-0.24484861
51	0xbe2feb5f	-0.1717963
52	0xbdd78779	-0.10523886
53	0xbe2db9f6	-0.1696547
54	0x3df9f465	0.12204818
55	0xbe35c6a8	-0.17751563
56	0x3e8585a9	0.26078537
57	0x3ddcb91b	0.107774936
58	0xbe23fdd2	-0.16014794
59	0xbe94d203	-0.29066476
60	0x3e2abab6	0.16672787
61	0x3e9333bc	0.28750408
62	0x3e059d63	0.1304832
63	0xbe4b9231	-0.19879986
64	0x3e0479ad	0.1293704
65	0x3e462503	0.19350056
66	0xbd5ed718	-0.054404348
67	0x3e173401	0.14765932
68	0x3e6c0c5c	0.2305159
69	0xbda5a316	-0.08087747
70	0xbd90f8fe	-0.070787415
71	0x3afe2b07	0.0019391485
72	0x3d8707c3	0.06593277
73	0xbda1f726	-0.07908468
74	0x3ddee402	0.10883333
75	0x3e5eb450	0.21748471
76	0x3e089224	0.13336998
77	0xbe1a4863	-0.15066676
78	0x3e8ec138	0.2788179
79	0x3e4399cc	0.19101638
80	0xbde8ea0d	-0.11372767
81	0x3e5cecc1	0.2157469
82	0xbdf4fb0b	-0.11961945
83	0xbe0c3f78	-0.13696086
84	0xbd613a43	-0.054987203
85	0x3e61b73e	0.22042558
86	0xbe8361e6	-0.25660628
87	0xbd674c90	-0.0564695
88	0x3d36c13a	0.04461787
89	0xbe05a68d	-0.13051815
90	0xbba32b71	-0.004979544
91	0xbd5deb6f	-0.054179605
92	0x3a7a0798	0.0009537875
93	0x3e71fac3	0.23630814
94	0xbe9f0442	-0.31057936
95	0xbd48c680	-0.04901743
96	0x3c0487be	0.008089004
97	0x3dd181f8	0.10229868
98	0x3e8bcea8	0.27306104
99	0xbe130c4f	-0.14360164
100	0x3e6cfa08	0.23142254
101	0x3e283b08	0.16428769
102	0xbde3372e	-0.11094509
103	0x3e7b3249	0.24530901
104	0xbe671f80	-0.2257061
105	0xbda78ec5	-0.08181528
106	0x3e086cd4	0.13322765
107	0x3e4c050d	0.19923802
108	0x3e83d865	0.25751033
109	0xbccdf196	-0.025139611
110	0xbd3e3d6f	-0.046445306
111	0x3e98d9aa	0.29853565
112	0x3da44675	0.08021251
113	0xbe11ef8a	-0.14251533
114	0xbeabb791	-0.33538488
115	0x3d29c592	0.041448183
116	0xbe3016a6	-0.1719614
117	0x3d89eabf	0.067342274
118	0xbe296f5a	-0.16546384
119	0xbd2eaa1d	-0.0426427
120	0xbdfe69cb	-0.12422522
121	0xbe3143b5	-0.17310984
122	0xbd3bf188	-0.04588464
123	0xbe7b562d	-0.24544592
124	0xbda21ee8	-0.07916051
125	0x3e994972	0.29938847
126	0xbe496672	-0.19667986
127	0xbdbbdd5a	-0.09173079
128	0xbe13ec1d	-0.14445539
129	0xbdea80ec	-0.11450371
130	0xbea36e91	-0.31920293
131	0xbe4e169d	-0.20125814
132	0xbdd73aa7	-0.10509234
133	0x3e8d918c	0.27650106
134	0xbe267745	-0.16256435
135	0x3db445fa	0.088024095
136	0x3dab0d14	0.08352104
137	0x3de0cf1f	0.10977005
138	0x3e24a9d9	0.16080417
139	0x3d19ec7c	0.037579045
140	0xbe8e6fc1	-0.27819636
141	0x3e0f51ae	0.13996002
142	0xbe200ecf	-0.15630649
143	0x3c9735ba	0.018458236
144	0x3e35d0c6	0.17755422
145	0x3e0f7104	0.14007956
146	0xbd8d6391	-0.069037564
147	0xbd383c42	-0.04497934
148	0xbe083686	-0.13302049
149	0x3c537eac	0.012908619
150	0xbe90c020	-0.2827158
151	0x3e2bdccf	0.1678345
152	0x3de2a905	0.11067394
153	0xbe218a34	-0.15775377
154	0xbe25d225	-0.16193445
155	0xbd176428	-0.03696075
156	0xbe849e47	-0.25902006
157	0x3d36fd38	0.044675082
158	0xbe93f7a9	-0.28899887
159	0xbe73e7d9	-0.23818912
160	0xbdc07e70	-0.09399116
161	0xbe4ffbdb	-0.20310919
162	0xbe0978b1	-0.13424946
163	0xbe97db0d	-0.2965931
164	0xbe87e7c8	-0.26544023
165	0xbe4adda0	-0.19811106
166	0xbdb4021b	-0.08789464
167	0x3e2fb757	0.17159782
168	0xbd2ac540	-0.04169202
169	0x3e04cc41	0.12968542
170	0xbda13800	-0.07872009
171	0x3dc29910	0.095018506
172	0x3bd2b68d	0.006430453
173	0x3de0917f	0.10965251
174	0xbc8f5267	-0.017495347
175	0x3d28f727	0.041251328
176	0xbdc3f1ff	-0.095676415
177	0x3e005ab7	0.12534605
178	0x3e583ced	0.21116991
179	0xbda9559a	-0.0826828
180	0x3dc209f9	0.094745584
181	0x3ded17cf	0.11576807
182	0xbd365f76	-0.044524632
183	0xbdc12d0e	-0.094324216
184	0xbcaebb91	-0.021329673
185	0xbd6e91dc	-0.05824457
186	0x3d0be1bc	0.034150824
187	0x3e6bfc23	0.23045401
188	0xbd1358b2	-0.03597326
189	0xbdbe0b79	-0.09279532
190	0xbd4467ab	-0.047950428
191	0xbd80ad67	-0.06283074
192	0x3e3cbd34	0.1843155
193	0x3e4a4a64	0.1975494
194	0x3e9b242a	0.30301028
195	0x3e167ffe	0.14697263
196	0x3d98ebe0	0.074668646
197	0xbdfc39d5	-0.12315718
198	0x3de92f11	0.1138593
199	0xbe407502	-0.18794635
200	0xbdbee9ee	-0.09321962
201	0xbe499636	-0.19686207
202	0xbe428692	-0.18996647
203	0x3dda2cd9	0.10653085
204	0x3e3e6a2b	0.18595187
205	0x3d377ba8	0.044795662
206	0xbbb98bea	-0.005662431
207	0xbe43fe6d	-0.19140024
208	0x3da9f7b0	0.08299196
209	0xbe0c96c3	-0.13729386
210	0xbea565ce	-0.32304233
211	0xbe85f4bf	-0.2616329
212	0xbe894032	-0.2680679
213	0x3e16cd20	0.14726686
214	0xbd8565f1	-0.065135844
215	0x3dd893b5	0.10575048
216	0x3ccc757c	0.024958365
217	0xbe0dc4c5	-0.13844593
218	0xbe02e98e	-0.12784407
219	0xbd86a943	-0.06575253
220	0xbdafed7a	-0.08590217
221	0x3e5575e2	0.2084575
222	0xbdbfa44a	-0.093575075
223	0xbdaffdf0	-0.085933566
224	0x3e8602ca	0.26174003
225	0xbe03c41e	-0.12867782
226	0xbcc5a0cc	-0.024124525
227	0x3df0a329	0.1174987
228	0x3e22abd2	0.15885857
229	0xbe4049ff	-0.18778227
230	0xbda884c1	-0.08228446
231	0xbdb7864b	-0.08961161
232	0x3e1b44be	0.15162942
233	0x3dde414d	0.10852299
234	0x3e40c6d8	0.18825853
235	0x3e3ecdb2	0.18633154
236	0x3e12aac5	0.14322956
237	0xbe1ca37c	-0.1529674
238	0xbe1d9054	-0.15387088
239	0x3d3bd502	0.045857437
240	0x3dd85762	0.10563542
241	0x3de2ca11	0.11073697
242	0x3da2e11b	0.07953092
243	0xbdb4e803	-0.08833315
244	0x3e16edd0	0.14739156
245	0xbe156f33	-0.145932
246	0x3e1ba935	0.15201266
247	0xbe2938cb	-0.16525571
248	0xbdec3c3e	-0.11534928
249	0xbe67c765	-0.22634657
250	0xbe7babd3	-0.24577264
251	0x3d97cfd7	0.07412689
252	0xbe6980a2	-0.22802976
253	0x3e3f5852	0.18686035
254	0xbdcd73d5	-0.10031859
255	0xbd2e6024	-0.042572156

attentions2.attn.weight f4 [1, 8]
0	0xbd45c484	-0.048283115
1	0xbc8fc12f	-0.017548172
2	0x3e8526c5	0.2600614
3	0x3e1ed9a6	0.15512714
4	0xbe4e0029	-0.20117249
5	0xbdb3af73	-0.08773699
6	0xbe510b4f	-0.2041447
7	0xbd56316a	-0.05229322

attentions3.linear.weight f4 [16, 16]
0	0x3e1ac539	0.15114297
1	0xbd941870	-0.072312236
2	0x3d3e53b7	0.046466555
3	0x3e6312a4	0.2217508
4	0xbac05b18	-0.0014675586
5	0x3e12af75	0.14324744
6	0xbd479a40	-0.04873109
7	0xbd211152	-0.03932316
8	0xbe8b4c5c	-0.27206695
9	0xbcf39b6a	-0.029737193
10	0x3e17e0a8	0.14831793
11	0xbd07317d	-0.03300618
12	0xbdcd8487	-0.10035043
13	0xbe1f74d4	-0.1557191
14	0x3e7570c0	0.23968792
15	0xbdd578b8	-0.10423416
16	0x3d887b10	0.06664097
17	0xbc8c8202	-0.017151836
18	0x3ddd03b4	0.10791722
19	0x3e1195e6	0.14217338
20	0xbd95300e	-0.07284556
21	0xbe9cecf3	-0.30649528
22	0xbb7c2117	-0.0038471872
23	0xbe8a2221	-0.26979163
24	0xbdd39a0a	-0.10332115
25	0xbe7970aa	-0.24359384
26	0xbe45ab39	-0.19303598
27	0xbe02137d	-0.12702747
28	0x3e841837	0.25799724
29	0xbd8e0194	-0.06933895
30	0xbdaeae0a	-0.08529289
31	0x3e2622fa	0.1622428
32	0xbe78579f	-0.24252175
33	0x3dd12507	0.102121405
34	0xbe5d81ad	-0.21631499
35	0xbdf0e53f	-0.11762475
36	0xbe5aa3df	-0.21351574
37	0xbcce3290	-0.025170594
38	0x3e781b5b	0.24229185
39	0xbba824dc	-0.005131347
40	0xbe212a1b	-0.15738718
41	0x3d48776e	0.048942022
42	0x3cb52c4e	0.022115853
43	0xbe18f5e7	-0.14937554
44	0x3d498759	0.049201343
45	0x3dd1ba49	0.10240609
46	0xbd1f9411	-0.038959567
47	0xbd16cd0f	-0.036816653
48	0x3ea30509	0.3183978
49	0x3dc1aaa4	0.09456375
50	0xbd8c4e2a	-0.06850846
51	0xbced47b9	-0.028964864
52	0x3e2e12d7	0.16999374
53	0xbe5c22b4	-0.21497613
54	0x3dbf1079	0.09329314
55	0xbd14b9f8	-0.036310166
56	0x3ddba410	0.10724652
57	0xbe6e8a00	-0.2329483
58	0x3d64d80f	0.055870112
59	0xbe117f06	-0.14208612
60	0xbb4466ea	-0.0029968568
61	0x3c26adb1	0.010173247
62	0x3e47c219	0.19507636
63	0x3e09d46e	0.13459942
64	0xbd8cf289	-0.068821974
65	0xbe381df1	-0.17980172
66	0xbe165193	-0.14679556
67	0xbdb86eeb	-0.09005531
68	0x3e3f0467	0.18654023
69	0x3d15ad9c	0.03654252
70	0xbc4ad737	-0.012380413
71	0xbe867212	-0.26258904
72	0xbd13f51e	-0.036122434
73	0xbe503f9b	-0.20336764
74	0xbe2d240f	-0.16908287
75	0x3cde4dbb	0.027136674
76	0x3da24bc8	0.079246104
77	0x3b00dd9c	0.001966334
78	0x3d810724	0.0630019
79	0x3e16b128	0.14716017
80	0xbc526dc4	-0.012843553
81	0x3df1866b	0.11793216
82	0x3e8fdc59	0.280978
83	0x3d961734	0.073286444
84	0x3e126970	0.14298034
85	0xbdf9ca05	-0.12196735
86	0xbd3df311	-0.046374384
87	0xbde7e139	-0.11322255
88	0x3d324e10	0.043531477
89	0x3e3ecdf9	0.1863326
90	0xbdc893a1	-0.09793783
91	0xbd92bbd6	-0.07164733
92	0x3dd363aa	0.10321744
93	0xbd152199	-0.036408994
94	0xbdd04e55	-0.10171191
95	0xbe12ef97	-0.14349209
96	0x3e575796	0.21029505
97	0xbd7757c0	-0.06038642
98	0xbe9eba91	-0.31001714
99	0xbe7e5274	-0.24836141
100	0xbe262bf2	-0.16227701
101	0xbe03a3de	-0.12855479
102	0x3e168535	0.14699252
103	0x3baaa319	0.005207431
104	0x3db67811	0.089096196
105	0x3e2fbd7d	0.17162128
106	0x3e22d9ee	0.15903446
107	0xbddf7620	-0.109112024
108	0x3e670164	0.22559124
109	0xbe9d8b08	-0.30770135
110	0xbc87c440	-0.016573071
111	0xbe195a77	-0.14975916
112	0x3e5942fc	0.21216959
113	0xbe90aa4f	-0.28254935
114	0xbdc040c1	-0.09387351
115	0xbe5be1d2	-0.21472862
116	0x3e6c7b1c	0.23093837
117	0xbea8ce6b	-0.32969984
118	0x3e36546e	0.17805645
119	0xbea9ab54	-0.33138525
120	0xbe8d67c0	-0.27618217
121	0x3e113726	0.14181194
122	0xbe30a50c	-0.1725046
123	0xbe13d880	-0.14438057
124	0x3e3da1a7	0.18518697
125	0x3ca4cc1b	0.020116856
126	0x3e1369ee	0.14395878
127	0xbe1ec2f1	-0.15504052
128	0xbeaa233e	-0.33230013
129	0xbdbbbdd1	-0.09167064
130	0x3e18a2cf	0.14905857
131	0x3da86eca	0.08224256
132	0xbe4b7340	-0.19868183
133	0x3e9e3693	0.30901012
134	0xbd7d0ffb	-0.06178282
135	0x3e85aec6	0.26109904
136	0x3de01399	0.10941238
137	0x3e9388f8	0.28815436
138	0x3d933fcd	0.071899034
139	0xbcfadc91	-0.030622752
140	0xbdeeafa3	-0.11654594
141	0xbcb60770	-0.022220343
142	0xbe989512	-0.29801232
143	0xbc766f51	-0.015041188
144	0x3e0da376	0.13831887
145	0xbe86eaf6	-0.26351136
146	0xbdc949c1	-0.098285206
147	0xbe42392c	-0.18967122
148	0x3da3aa93	0.07991519
149	0xbe9956bd	-0.2994899
150	0x3e81e9d4	0.2537371
151	0xbd83512a	-0.06411965
152	0xbe465f67	-0.1937233
153	0xbe2131df	-0.1574168
154	0xbd993364	-0.07480505
155	0x3dd329e2	0.10310723
156	0xbe2c2f3f	-0.16814898
157	0xbe97d575	-0.29655042
158	0xbde79519	-0.11307735
159	0x3ddac596	0.10682218
160	0xbe56cbcc	-0.2097618
161	0x3d6962dc	0.056979045
162	0x3d3bcadf	0.04584777
163	0xbe10ec83	-0.14152722
164	0x3d49f985	0.049310226
165	0xbd5fe54e	-0.05466204
166	0x3e33990f	0.17538856
167	0xbd69040d	-0.05688863
168	0xbe4ccfc5	-0.20001133
169	0x3e2ecbbc	0.17069906
170	0x3e5afad3	0.21384744
171	0xbe9d741a	-0.3075264
172	0xbdb6f2e4	-0.089330465
173	0x3d565bdc	0.052333698
174	0x3e131eb8	0.14367187
175	0xbe376aad	-0.17911787
176	0x3e8231a8	0.2542851
177	0xbe8ec139	-0.27881792
178	0x3da7662d	0.08173785
179	0xbd265210	-0.040605605
180	0x3e9802ea	0.29689723
181	0x3e097043	0.1342173
182	0xbc1ed2f8	-0.009693854
183	0xbe5e1521	-0.21687748
184	0xbe8c9721	-0.27459052
185	0x3e01572a	0.12630907
186	0xbe5956fe	-0.21224591
187	0x3da58d2f	0.08083569
188	0xbd8a6114	-0.067567974
189	0xbe23801c	-0.15966839
190	0x3e07a468	0.1324631
191	0x3e0be0fe	0.13660046
192	0xbdbf5af8	-0.09343523
193	0x3e5e19c1	0.21689512
194	0xbdf564af	-0.119820945
195	0x3e37941d	0.17927594
196	0xbe12cd72	-0.14336184
197	0x3e8fb064	0.28064263
198	0xbdfcdc41	-0.123466976
199	0x3d0a3f89	0.033751998
200	0x3df7ec3d	0.12105606
201	0x3cc8a6b9	0.024493562
202	0x3e48788c	0.19577235
203	0x3cdc2987	0.02687527
204	0x3d8c58d8	0.06852883
205	0x3b487f9f	0.0030593646
206	0xbe42b52c	-0.19014424
207	0x3e71f176	0.23627266
208	0x3d664721	0.056220178
209	0xbcbec2da	-0.023286272
210	0xbe608283	-0.21924786
211	0x3d9d55ae	0.07682358
212	0x3e4db679	0.20089139
213	0x3dfb9bae	0.12285553
214	0xbd8db11a	-0.06918545
215	0xbe4b6679	-0.19863309
216	0x3e2035c7	0.15645514
217	0x3e1ee344	0.15516382
218	0x3d896781	0.06709195
219	0xbe2d93e8	-0.16950953
220	0x3e7c3ff7	0.24633776
221	0xbe3a38c3	-0.18185715
222	0x3e3590ff	0.17731093
223	0x3d8f8812	0.07008375
224	0x3d5a49fc	0.053293213
225	0x3e2fcabb	0.1716718
226	0x3e40863f	0.18801211
227	0x3e653c3f	0.22386263
228	0x3d7ae56d	0.061253954
229	0x3e6942a7	0.22779332
230	0xbcfc6b60	-0.03081292
231	0xbe0a8cfd	-0.13530345
232	0x3e086afe	0.13322064
233	0x3e8053e6	0.2506401
234	0xbe89113d	-0.26770964
235	0xbdd469a6	-0.10371713
236	0xbe226b59	-0.15861262
237	0x3d8605e5	0.06544093
238	0xbd3b21cf	-0.04568654
239	0x3e734efb	0.23760597
240	0x3dbe2026	0.092834756
241	0x3e1f82c4	0.15577227
242	0xbdd263e1	-0.10272957
243	0x3d5ed621	0.054403428
244	0xbd91db52	-0.0712191
245	0x3e04caaa	0.12967935
246	0xbe016f5f	-0.12640141
247	0xbe0b8ec9	-0.13628687
248	0x3ddc2763	0.107497
249	0xbc61b8fe	-0.013777016
250	0x3e133159	0.14374293
251	0x3d795941	0.060876135
252	0x3c51c05c	0.01280221
253	0x3e77d848	0.24203598
254	0x3de55c71	0.111992724
255	0x3e3a8b1b	0.18217127

attentions3.attn.weight f4 [1, 8]
0	0xbe2990cd	-0.16559143
1	0x3c9fda18	0.019513175
2	0xbda95831	-0.08268774
3	0xbd99281e	-0.07478355
4	0xbd98dd99	-0.074641414
5	0xbd04e51b	-0.032445055
6	0xbd13cb34	-0.03608246
7	0xbc810886	-0.015751135

output_layer.linear.weight f4 [1, 16]
0	0x3d81664b	0.06318339
1	0x3dcf5fb5	0.101256765
2	0xbc8b0c09	-0.016973512
3	0x3db984ba	0.09058519
4	0x3db85317	0.09000223
5	0xbdc2ef3e	-0.09518288
6	0x3e37ba51	0.17942168
7	0x3e4e8d40	0.2017107
8	0xbe8e9fde	-0.27856344
9	0x3e933d59	0.28757742
10	0x3bccf73d	0.006255059
11	0x3e30e686	0.17275438
12	0xbd9f4dc7	-0.07778507
13	0x3d8b2613	0.067943715
14	0xbda7f377	-0.08200734
15	0xbcd65e7a	-0.026168097

output_layer.attn.weight f4 [1, 2]
0	0xbec03263	-0.37538442
1	0xbeb5dd6c	-0.35520494

fc1.weight f4 [64, 100]
0	0x3dce48cc	0.10072479
1	0x3dea86c0	0.11451483
2	0x3da0458c	0.07825765
3	0x3dc2f883	0.09520056
4	0x3c81558f	0.015787868
5	0xbd6045c1	-0.054754023
6	0x3dd9297d	0.106036164
7	0x3dc46627	0.095897965
8	0x3da7aa7e	0.08186816
9	0x3df614d0	0.120156884
10	0x3e1ffc06	0.15623483
11	0x3e1824ab	0.14857738
12	0x3e106ace	0.14103243
13	0xbcf1f988	-0.029537931
14	0x3d12a684	0.035803333
15	0x3d4c32e1	0.04985321
16	0xbd93f8ac	-0.07225165
17	0x3d6feef3	0.05857749
18	0x3c21c54d	0.0098737
19	0xbb79d61d	-0.0038122006
20	0x3d68f9e2	0.05687893
21	0x3e27f98c	0.16403788
22	0x3d23db85	0.040004272
23	0x3d6ef3eb	0.058338087
24	0x3c16a15b	0.009193744
25	0x3cf68151	0.03009096
26	0x3cb375bc	0.021906726
27	0xbcc6f89c	-0.024288468
28	0xbc8f754f	-0.017511992
29	0x3cbdb4f3	0.023157572
30	0x3c7f76ac	0.015592258
31	0x3e1c4437	0.15260397
32	0xbd886d27	-0.06661444
33	0x3dbe2323	0.092840455
34	0xbc9b4e88	-0.018958345
35	0xbd900da5	-0.070338525
36	0xbc018991	-0.007906334
37	0x3db33775	0.08750812
38	0xbc89d117	-0.016823335
39	0x3d5a5e70	0.05331272
40	0x3e00afd3	0.12567072
41	0x3dcf03ab	0.101081215
42	0x3b8becc5	0.0042701685
43	0xbcf082cf	-0.02935925
44	0xbc695525	-0.014241491
45	0x3cd95d24	0.02653367
46	0xbd73f74f	-0.059562024
47	0xbd814701	-0.06312371
48	0xbd0eb47b	-0.03484009
49	0x3dc83997	0.097766094
50	0x3e0020ff	0.12512587
51	0x3df73a4e	0.120716676
52	0xbdadf201	-0.08493424
53	0xbe0fee68	-0.14055789
54	0xbd22dad9	-0.03975949
55	0x3d255048	0.040359765
56	0xbcfee759	-0.031116175
57	0x3d043f78	0.03228709
58	0xbda83023	-0.08212306
59	0xbd53e693	-0.051733565
60	0xbc87db9e	-0.016584214
61	0xbcddf577	-0.027094586
62	0xbd9a61e8	-0.075382054
63	0x3d4760a3	0.048676144
64	0xbe009e6f	-0.12560438
65	0xbd13d5e0	-0.03609264
66	0xbe2276d0	-0.15865636
67	0xbd8cdcb5	-0.06878034
68	0xba24fbff	-0.0006293654
69	0xbd8a8311	-0.0676328
70	0x3ddee92c	0.10884318
71	0xbca784df	-0.0204491
72	0x3dc90730	0.09815824
73	0xbd9a0f4c	-0.07522449
74	0xbdf917af	-0.121627204
75	0xbcef3b12	-0.029202972
76	0xbd661b44	-0.056178346
77	0xbdc100e9	-0.09424002
78	0xbde351e2	-0.11099602
79	0x3d4db94b	0.050225537
80	0x3e1249c7	0.14285956
81	0xbd2b3363	-0.041797053
82	0xbd1aa9dd	-0.03775965
83	0x3e191efa	0.14953223
84	0x3ce6515f	0.028114973
85	0x3ca319bf	0.019909738
86	0xbd71b527	-0.05901065
87	0xbd3b0d0e	-0.045666747
88	0x3dbe5d7a	0.09295173
89	0x3e1a509f	0.15069817
90	0x3d686b41	0.05674291
91	0x3d03bc83	0.0321622
92	0x3de52dd7	0.11190384
93	0x3d9115cf	0.07084238
94	0x3dd16bf8	0.102256715
95	0xbdbd07ab	-0.09229978
96	0x3c89851d	0.016787106
97	0x3db2ae1c	0.08724615
98	0x3e14171e	0.14461944
99	0x3cd8155c	0.026377372
100	0xbe3dd9ee	-0.18540165
101	0xbd93cdb7	-0.07216971
102	0xbdd6cb43	-0.10487988
103	0xbe0220a7	-0.12707768
104	0xbdd34c29	-0.10317261
105	0xbd336e45	-0.043806333
106	0xbcb405b3	-0.021975374
107	0x3d63b095	0.055588324
108	0x3e4c0628	0.19924223
109	0x3e402086	0.18762407
110	0xbd8fa93b	-0.070147
111	0xbdb0672b	-0.08613428
112	0xbd87aa64	-0.06624296
113	0xbd9350f0	-0.07193172
114	0xbcdb64bd	-0.026781434
115	0x3ddbd8c8	0.10734707
116	0x3e04b2a1	0.12958767
117	0x3deabac6	0.114614055
118	0x3e02ad4f	0.12761424
119	0x3dc9c719	0.09852428
120	0x3d0813e7	0.033222105
121	0x3cfc8582	0.03082538
122	0x3cd89604	0.02643872
123	0xbce0274b	-0.027362486
124	0x3c12bd96	0.008956334
125	0x3d9d2a38	0.07674068
126	0x3e134981	0.14383508
127	0x3e0c0b40	0.13676167
128	0x3e22ff85	0.15917785
129	0x3e048e61	0.12944938
130	0x3d491ae8	0.049097925
131	0x3dc4ced3	0.09609761
132	0x3d56b5a1	0.05241931
133	0xbdae47e0	-0.08509803
134	0x3cae8186	0.021301996
135	0x3b8b7b52	0.0042566443
136	0xbc4112f2	-0.011784302
137	0x3e200668	0.15627444
138	0x3db37427	0.08762389
139	0x3d5f9706	0.054587387
140	0x3dee1ff4	0.11627188
141	0x3d89db6a	0.06731303
142	0x3e1a1ee6	0.1505085
143	0x3d4200d4	0.04736407
144	0xbdbcd8e7	-0.09221058
145	0x3bbc1503	0.0057398095
146	0xbb8360fd	-0.0040093646
147	0x3daf663d	0.08564422
148	0x3cc61992	0.024182115
149	0xbd0a61e0	-0.033784747
150	0x3d1a2c86	0.037640117
151	0x3cfb189b	0.030651381
152	0x3d48624f	0.04892188
153	0x3d2cc512	0.04218013
154	0xbce33f80	-0.02774024
155	0xbcaf51a6	-0.021401238
156	0xbcb23489	-0.021753566
157	0x3b095314	0.002095406
158	0x3cd8651b	0.026415398
159	0x3db95b00	0.0905056
160	0x3d30b803	0.043144237
161	0x3a115c88	0.0005545099
162	0x3e1a5018	0.15069616
163	0x3e25f325	0.16206034
164	0x3d8370e8	0.064180195
165	0x3d9e3466	0.07724838
166	0x3d8fd391	0.07022775
167	0x3de1dddc	0.110286444
168	0x3d985ee1	0.07439972
169	0x3d22013c	0.03955196
170	0x3dd07ad4	0.101796776
171	0x3d976e59	0.07394094
172	0x3d334a17	0.04377183
173	0x3d869d04	0.06572917
174	0x3df61d0f	0.12017261
175	0x3d6e704d	0.058212567
176	0xbd177898	-0.03698024
177	0xbcbab73a	-0.022792447
178	0xbd876b06	-0.0661221
179	0xbd2d8274	-0.042360738
180	0xbc023ca9	-0.007949033
181	0x3e14007f	0.14453314
182	0x3e31ef0b	0.17376344
183	0xbc19e616	-0.009393236
184	0xbc7031de	-0.014660327
185	0xbd995b05	-0.07488064
186	0x3d778dc7	0.060437944
187	0xbd284d2a	-0.041089214
188	0xbdd4e8ae	-0.10395943
189	0xba8006da	-0.0009767667
190	0xbc6edd0e	-0.014579071
191	0x3d3c3e17	0.04595765
192	0xbc45bec8	-0.012069412
193	0x3e13a957	0.14420067
194	0x3cc66b0f	0.024220971
195	0xbcef32e9	-0.02919908
196	0x3c543810	0.0129528195
197	0xbe0122c0	-0.12610912
198	0xbd935f6d	-0.071959354
199	0xbd99acf1	-0.07503689
200	0xbd6c3151	-0.05766422
201	0xbbb3c2d2	-0.005485871
202	0x3d342d17	0.043988314
203	0xbd02efaa	-0.031966843
204	0xbd6efc00	-0.058345795
205	0xbd5632f2	-0.05229468
206	0xbc911a69	-0.017712789
207	0xbd3b4f28	-0.045729786
208	0xbdaf3848	-0.08555657
209	0xbe51fcb3	-0.20506553
210	0xbe17605f	-0.14782856
211	0xbdd057ff	-0.10173034
212	0x3dc15787	0.09440523
213	0x3d34b578	0.044118375
214	0x3dbf7779	0.093489595
215	0xbcf5cb6d	-0.030004228
216	0xbe23a80f	-0.15982078
217	0xbe124a27	-0.142861
218	0xbcc65386	-0.024209749
219	0xbe3a9229	-0.18219818
220	0xbdfda615	-0.12385193
221	0xbdebc47e	-0.11512087
222	0x3aa387ec	0.0012476421
223	0x3df23e67	0.118283086
224	0xbd83f404	-0.06443027
225	0xbd3de65d	-0.04636227
226	0xbe249c34	-0.16075212
227	0x3cebcaef	0.02878329
228	0xbdd7b67d	-0.10532854
229	0xbdb77d0f	-0.089594
230	0xbce059b4	-0.027386524
231	0x3dad88a8	0.08473331
232	0x3d48b83a	0.049003817
233	0x3d919459	0.07108373
234	0x3cff781a	0.031185199
235	0xbd51d318	-0.051226705
236	0x3c252a68	0.010080911
237	0x3cecba1a	0.028897334
238	0xbcb5fc71	-0.0222151
239	0x3d5bf7a8	0.05370298
240	0xbd481e26	-0.048856877
241	0xbd63bfe8	-0.055602938
242	0x3cc5be85	0.024138698
243	0x3d7f6ac5	0.062357683
244	0xbd2df357	-0.042468395
245	0xbd7dc010	-0.061950743
246	0xbb8e3f24	-0.004341023
247	0xbd58fbde	-0.052974574
248	0x3d24a949	0.040200505
249	0x3d90b207	0.07065206
250	0x3da6ccd5	0.08144537
251	0x3d638135	0.055543143
252	0xbd8c4505	-0.06849102
253	0x3e190133	0.14941864
254	0xbcce8dd9	-0.025214123
255	0x3ce61b59	0.028089212

fc1.bias f4 [64]
0	0x3d5f4568	0.05450955
1	0xbd1a6a23	-0.037698876
2	0x3d8b8012	0.06811537
3	0x3c7c7202	0.015408041
4	0x3e07a69f	0.13247155
5	0xbd28cae5	-0.04120912
6	0x3d404a40	0.04694581
7	0xbde23ac6	-0.110463664
8	0x3c6ef306	0.0145843085
9	0x3d1a5d4a	0.037686624
10	0x3d8fffc1	0.07031203
11	0xbd733873	-0.059380006
12	0xbd34b39b	-0.044116598
13	0xbd910132	-0.07080306
14	0xbd158e68	-0.036512762
15	0xbdc0e5a6	-0.09418802
16	0xbdad6c9e	-0.08467983
17	0xbb8944c8	-0.0041891076
18	0xbd266d52	-0.0406316
19	0xbbd1c53a	-0.006401685
20	0x3df9ded2	0.12200703
21	0xbd34042d	-0.043949295
22	0x3bd417cf	0.006472565
23	0xbc320e0c	-0.010867607
24	0xbe03836d	-0.12843104
25	0xbd7b8052	-0.061401673
26	0x3ce18bb2	0.027532432
27	0x3d990fe7	0.07473736
28	0xbd746eb4	-0.059675887
29	0xbb60015c	-0.0034180498
30	0xbdaf3e98	-0.08556861
31	0xbd100c7c	-0.035168156
32	0x3d09dd6c	0.03365843
33	0xbd93f24c	-0.07223949
34	0xbd3e0812	-0.046394415
35	0x3df40769	0.11915476
36	0xbce596ae	-0.028025951
37	0xbd90eb1e	-0.07076095
38	0x3c138446	0.009003704
39	0x3d0aa51f	0.033848878
40	0x3d9e5314	0.0773069
41	0xbdbcbf00	-0.09216118
42	0xbc83b716	-0.016078513
43	0xbdb3c872	-0.08778466
44	0x3d626216	0.055269323
45	0xbd3c5747	-0.04598167
46	0x3cabe924	0.020985194
47	0xbdc840de	-0.097779974
48	0xbd0727ce	-0.032996945
49	0xbbbba02d	-0.0057258816
50	0xbd9621c1	-0.07330657
51	0x3dba8401	0.09107209
52	0xbdc5cf38	-0.096586645
53	0xbba58d04	-0.0050522108
54	0x3dbee38d	0.093207456
55	0xbdfab36c	-0.12241253
56	0xbda045e3	-0.0782583
57	0xbd22cf1a	-0.03974829
58	0x3cdf5670	0.027262896
59	0x3d73e3ef	0.059543546
60	0x3ddc88a1	0.107682474
61	0x3e216e2f	0.15764688
62	0x3d56b57a	0.052419163
63	0x3decdc4b	0.11565455

fc2.weight f4 [1, 64]
0	0xbc4ca700	-0.012490988
1	0x3da662cc	0.08124313
2	0xbdc68491	-0.09693254
3	0x3de2756f	0.11057555
4	0xbe36f2cc	-0.17866057
5	0xbd77dfe5	-0.060516257
6	0x3e002ad3	0.12516336
7	0xbcb1b131	-0.021690937
8	0x3b903733	0.0044011115
9	0x3e38c95a	0.1804556
10	0xba0b2d5c	-0.0005309188
11	0x3d9454dc	0.07242748
12	0x3d25d9e9	0.04049102
13	0x3d330027	0.043701317
14	0x3db166bd	0.08662174
15	0x3cd27aba	0.025693286
16	0x3ddfea07	0.10933309
17	0x3e194fda	0.14971867
18	0x3dd9660f	0.10615169
19	0x3e921c70	0.2853732
20	0xbe877cce	-0.26462406
21	0x3b92d490	0.004480906
22	0x3e37b5c9	0.1794044
23	0x3e01c34f	0.1267216
24	0xbd45b825	-0.048271317
25	0x3d96c88f	0.07362472
26	0x3e71ad0e	0.23601171
27	0x3e2a3811	0.1662295
28	0x3d7919a2	0.06081546
29	0x3e4d7709	0.2006494
30	0x3e8943d8	0.26809573
31	0x3dbf11fa	0.09329601
32	0x3e02dfb4	0.12780648
33	0x3d283ef0	0.041075647
34	0x3c106750	0.008813694
35	0xbdee073a	-0.11622472
36	0x3e29fb3c	0.16599745
37	0x3e5eb8ed	0.21750231
38	0x3d114d1e	0.035473935
39	0x3d684eff	0.05671596
40	0xbd90e082	-0.070740715
41	0xbbbc5f3c	-0.0057486575
42	0x3d01336b	0.031543177
43	0xbd1c52d7	-0.03816494
44	0x3e9c43dd	0.30520526
45	0xbc448bf2	-0.011996256
46	0x3e562f53	0.2091649
47	0x3e3a900e	0.18219015
48	0xbd1fc893	-0.03900964
49	0x3d8f897e	0.070086464
50	0xbc9d1840	-0.019176602
51	0xbe1b34e2	-0.15156892
52	0xbcd0e33c	-0.025498979
53	0xbcad0acd	-0.021123314
54	0xbe835ba5	-0.25655857
55	0xbd946eb4	-0.072476774
56	0xbd97f0d7	-0.074189834
57	0xbdb2036f	-0.08692061
58	0x3cbe1638	0.023203954
59	0xbdeb158e	-0.114787206
60	0xbd82326b	-0.06357273
61	0xbe055772	-0.13021639
62	0x3e629b53	0.22129564
63	0x3e20b5e5	0.15694387
