saved_weights/Grid_4_4/429/critic.pth (torch, 10931 bytes, 11 tensors)

attentions1.linear.weight f4 [16, 1]
0	0xbeb27a95	-0.34859148
1	0xbdfdfc5c	-0.12401649
2	0x3ee7c000	0.45263672
3	0xbebfd166	-0.37464446
4	0x3ee50d25	0.4473659
5	0x3f473b21	0.778246
6	0xbf322155	-0.6958211
7	0xbe830c64	-0.2559539
8	0xbf696fdc	-0.9118631
9	0xbf0fc68d	-0.5616234
10	0x3f00812a	0.5019709
11	0xbf493b55	-0.7860616
12	0xbf031398	-0.5120177
13	0xbedb9347	-0.428858
14	0x3ede52ae	0.43422455
15	0xbec45fae	-0.38354248

attentions1.attn.weight f4 [1, 8]
0	0x3e4ecea0	0.20196009
1	0x3e0c8e19	0.13726081
2	0xbe8ef148	-0.27918458
3	0x3e1d2369	0.15345539
4	0x3cbfd678	0.023417696
5	0x3eb84e15	0.35997072
6	0xbea0f313	-0.3143545
7	0x3deb7e34	0.11498681

attentions2.linear.weight f4 [16, 16]
0	0x3e1427b1	0.14468266
1	0x3e9a0b66	0.3008682
2	0xbe876691	-0.2644544
3	0x3e7f79a5	0.24948747
4	0x3ade86b8	0.0016977405
5	0x3e001b1b	0.1251034
6	0x3db37148	0.08761841
7	0x3e277b22	0.16355565
8	0x3e977938	0.2958467
9	0xbcf39048	-0.029731885
10	0xbec931af	-0.39295718
11	0x3e9f6396	0.31130666
12	0x3e6b5c23	0.22984366
13	0x3dd79add	0.10527585
14	0xbdf88dff	-0.121364586
15	0x3ebac613	0.36479244
16	0xbead52f2	-0.33852345
17	0xbd21e679	-0.039526436
18	0x3e1d5796	0.15365443
19	0xbe832d50	-0.25620508
20	0x3d17044e	0.03686934
21	0xbe1dc75e	-0.15408084
22	0x3d958e5a	0.07302542
23	0xbe0c107a	-0.1367816
24	0x3d708225	0.058717865
25	0xbe880587	-0.26566717
26	0xbd5d555b	-0.05403648
27	0x3ac07cd8	0.0014685644
28	0xbe0eaf7c	-0.1393413
29	0xbdbad530	-0.091226935
30	0x3e404139	0.1877488
31	0xbc40a6cb	-0.011758517
32	0xbd9fdf0d	-0.078062154
33	0x3e4e4c10	0.20146203
34	0xbbe7e939	-0.007077363
35	0xbe674ac8	-0.2258712
36	0xbdb7f9ba	-0.089831784
37	0xbe1833b7	-0.14863478
38	0xbc904def	-0.017615287
39	0x3e2633a5	0.16230638
40	0x3e41b302	0.18915942
41	0x3e2d9db3	0.16954689
42	0xbe2d101e	-0.1690068
43	0xbe3d47aa	-0.18484369
44	0xbd8de45c	-0.06928322
45	0xbe114121	-0.14185001
46	0xbe67b50f	-0.22627662
47	0xbe5b7d34	-0.2143448
48	0xbdb93eb0	-0.0904516
49	0x3d22978f	0.03969532
50	0xbe73e8f6	-0.23819336
51	0x3e871ec0	0.26390648
52	0xbe831306	-0.2560045
53	0x3de9a358	0.114081085
54	0x3dc3b922	0.09556796
55	0x3dbe5671	0.09293831
56	0x3e3ea488	0.18617451
57	0x3b467eee	0.0030288058
58	0xbe56a7eb	-0.20962493
59	0xbe5cd894	-0.21566993
60	0xbde8a3a5	-0.11359338
61	0xbe52fd9e	-0.2060456
62	0xbe587b2d	-0.21140738
63	0xbcc1cb1e	-0.023656424
64	0xbe316d6b	-0.17326896
65	0xbdf0940d	-0.117469884
66	0x3ea360de	0.3190984
67	0x3c08baf2	0.0083453525
68	0x3e09769c	0.13424152
69	0x3dd51763	0.10404851
70	0x3de36f74	0.11105242
71	0xbe8b9df7	-0.27268955
72	0xbe9497a6	-0.2902195
73	0xbe8eaace	-0.2786469
74	0x3e562f27	0.20916425
75	0xbe971e4f	-0.2951531
76	0xbdf134b0	-0.117776275
77	0xbdbab7da	-0.09117098
78	0xbd8e5dfa	-0.06951518
79	0xbe1314f8	-0.14363468
80	0x3da7dfa4	0.08196953
81	0xbe51f07e	-0.20501897
82	0x3e8902ae	0.26759857
83	0xbe8bb95e	-0.2728986
84	0x3d91222f	0.07086598
85	0x3e809520	0.25113773
86	0xbe83d4dc	-0.25748336
87	0xbdd7d832	-0.10539283
88	0xbe8d8931	-0.2764373
89	0xbdcb3e8a	-0.09924038
90	0x3e866c44	0.26254475
91	0x3d8526e8	0.065015614
92	0x3e2c0a32	0.16800764
93	0xbea41fd9	-0.32055548
94	0xbce386b6	-0.027774196
95	0xbe487fea	-0.19580045
96	0xbe17d4c5	-0.14827259
97	0x3d60a9bb	0.054849368
98	0x3e319390	0.17341447
99	0xbcf9c685	-0.03049017
100	0x3dd9e593	0.10639491
101	0x3e56e7cf	0.20986865
102	0xbe4e96b2	-0.20174673
103	0x3bbf0c56	0.005830328
104	0x3da7ae3c	0.081875294
105	0xbd7b4772	-0.061347432
106	0xbd0aef28	-0.033919483
107	0x3c150e1f	0.009097605
108	0x3d96a36d	0.0735539
109	0x3ddcb415	0.107765354
110	0x3ea8be68	0.32957768
111	0xbe3ef3ba	-0.18647662
112	0x3e2d67ee	0.16934177
113	0x3de55b01	0.11198998
114	0x3e14b8fe	0.14523694
115	0xbe14798d	-0.14499493
116	0x3e494225	0.19654138
117	0x3e8dadfc	0.27671802
118	0xbe0a4e1e	-0.13506362
119	0x3e314a5a	0.17313519
120	0xbe8d3520	-0.27579594
121	0xbe363c9b	-0.17796557
122	0x3d1d1ec3	0.038359415
123	0xbe656363	-0.22401194
124	0x3e16b006	0.14715585
125	0xbdfbe4ee	-0.12299524
126	0x3dfb18fe	0.12260626
127	0x3d45d270	0.048296392
128	0x3eae839e	0.3408479
129	0xbdf62b9b	-0.12020036
130	0xbe24b719	-0.16085471
131	0xbd94dcf9	-0.0726871
132	0x3d11dfeb	0.035613935
133	0xbcd42b50	-0.02589956
134	0xbc8bcf94	-0.017066754
135	0xbd0a4ea3	-0.0337664
136	0xbdc7dcb9	-0.097588964
137	0x3c24cbde	0.010058371
138	0xbea72ab0	-0.32649755
139	0x3e3b806c	0.18310708
140	0x3db4a477	0.08820432
141	0x3e75338f	0.2394545
142	0xbe0f7372	-0.14008883
143	0xbda24a01	-0.079242714
144	0xbe8d7230	-0.2762618
145	0xbe1c4887	-0.15262042
146	0x3e3bbf9b	0.1833481
147	0xbd9db5cb	-0.0770069
148	0x3e3f7302	0.18696216
149	0x3e3f326f	0.18671583
150	0xbde16f97	-0.11007612
151	0x3db2ac7a	0.087243035
152	0x3dca6f8a	0.09884556
153	0x3e2aed6f	0.16692136
154	0xbe0a752a	-0.13521257
155	0x3e36075f	0.1777625
156	0xbe8e407a	-0.27783567
157	0xbe109e9e	-0.14123008
158	0x3ea56f8f	0.32311675
159	0xbd710694	-0.058844164
160	0xbe486242	-0.19568732
161	0x3e919cb4	0.28439867
162	0xbe85dcd8	-0.26145053
163	0x3e8c6922	0.2742396
164	0xbe644660	-0.22292471
165	0xbe8d0011	-0.27539113
166	0xbe645599	-0.22298278
167	0x3e384ea7	0.17998753
168	0xbe2489ef	-0.16068242
169	0x3dd30937	0.10304492
170	0xbe8b8134	-0.27247012
171	0xbd5c647e	-0.053806774
172	0x3e8cd3ea	0.27505428
173	0xbdeddc9f	-0.11614346
174	0x3dc6fac5	0.09715799
175	0xbe2a0da6	-0.16606769
176	0x3e646b37	0.22306524
177	0x3e8f6b7e	0.28011698
178	0xbe082f0e	-0.132992
179	0xbe315f9a	-0.17321625
180	0xbe875968	-0.264354
181	0xbe79c086	-0.24389848
182	0x3e0e71fa	0.13910666
183	0xbdf95b7d	-0.12175653
184	0x3c11ca3f	0.008898317
185	0x3de0bf21	0.10973955
186	0xbe9a6846	-0.3015768
187	0xbe2bf230	-0.16791606
188	0x3e09119c	0.13385624
189	0xbe53b400	-0.20674133
190	0xbe18d0e9	-0.14923443
191	0xbca4cc24	-0.020116873
192	0xbe63722e	-0.22211525
193	0xbdb5c65a	-0.08875723
194	0xbd6e7363	-0.05821551
195	0xbe0b6fa2	-0.13616803
196	0x3b3c2d31	0.002871346
197	0x3e664c2c	0.22489995
198	0x3dc897b6	0.097945616
199	0xbe646c5e	-0.22306964
200	0x3e3d31c0	0.1847601
201	0x3ddfd435	0.10929147
202	0x3e4f47b7	0.20242201
203	0x3e2761d8	0.16345918
204	0x3c71911a	0.014744068
205	0xbcca9c92	-0.024732862
206	0xbddc3a4b	-0.10753306
207	0x3d569ffc	0.052398667
208	0xbe7c4b4c	-0.24638098
209	0x3e0ffd99	0.14061584
210	0x3de84eb6	0.11343138
211	0x3c23a8f7	0.009989015
212	0x3d88120d	0.06644068
213	0xbdf50c17	-0.119651966
214	0xbd0720bc	-0.032990202
215	0x3e2478be	0.16061684
216	0xbdbda9a9	-0.09260876
217	0xbe23c092	-0.15991428
218	0x3e00109e	0.12506339
219	0xbe8bf63f	-0.27336308
220	0xbe7e42c6	-0.2483016
221	0x3d52c73c	0.051459536
222	0x3c9e8c44	0.019353993
223	0xbe00fa2b	-0.12595432
224	0xbe0a1578	-0.13484752
225	0xbe55a152	-0.2086232
226	0x3e68ba03	0.22727208
227	0xbe68b841	-0.22726537
228	0x3d928035	0.0715336
229	0x3dd04182	0.101687446
230	0x3e610b63	0.21977
231	0x3dcdd5db	0.10050555
232	0xbdaf9883	-0.08574011
233	0x3e10ab97	0.14127956
234	0x3e8b0a21	0.27156165
235	0xbe970588	-0.29496408
236	0xbca04c8e	-0.019567754
237	0xbe078985	-0.13236053
238	0x3dcd4ec0	0.10024786
239	0xbd060111	-0.03271586
240	0x3e37ef85	0.17962463
241	0x3ebd4de5	0.3697349
242	0xbef0abbd	-0.47006026
243	0x3e19db74	0.15025121
244	0xbea632b2	-0.32460552
245	0x3d448ff9	0.047988866
246	0xbc1f47a2	-0.009721668
247	0x3e1ebacc	0.15500945
248	0x3e971e70	0.2951541
249	0x3db32bab	0.087485634
250	0xbe478b53	-0.19486742
251	0x3e04dd61	0.12975074
252	0x3ea41e35	0.32054296
253	0x3eb50335	0.3535401
254	0xbd97094a	-0.073748186
255	0x3eedab48	0.4641974

attentions2.attn.weight f4 [1, 8]
0	0xbb866519	-0.0041014072
1	0x3df5a162	0.11993672
2	0x3e652fe3	0.22381549
3	0x3dd05bc1	0.10173751
4	0x3dbe8894	0.09303394
5	0x3e399fe0	0.18127394
6	0x3e948d46	0.29014033
7	0x3de0ea41	0.109821804

attentions3.linear.weight f4 [16, 16]
0	0xbe6fffba	-0.23437396
1	0xbc2ef2c1	-0.010677994
2	0xbe3acd0d	-0.18242283
3	0x3e072240	0.13196659
4	0x3e65bcde	0.22435328
5	0xbd7c5a51	-0.06160957
6	0x3df2c5f1	0.118541606
7	0xbdf7bdc3	-0.12096741
8	0x3bab04e1	0.0052190875
9	0x3d7a91a3	0.061174046
10	0x3db5d2d5	0.08878104
11	0xbe0dff5e	-0.13866946
12	0x3e17b21f	0.14814042
13	0x3ddec1dc	0.108768195
14	0xbdc07159	-0.09396619
15	0xbe53d8e8	-0.20688212
16	0x3e8194f7	0.25308964
17	0x3e3d32ce	0.18476412
18	0x3d5e4c12	0.054271765
19	0x3e879581	0.2648125
20	0xbd8791b1	-0.06619585
21	0xbd248bd6	-0.04017242
22	0xbe8f046f	-0.2793307
23	0xbc58cfe8	-0.013233162
24	0x3e9b275e	0.30303472
25	0xbc614aa6	-0.013750708
26	0x3e94a2c9	0.29030445
27	0xbd4c01f3	-0.049806546
28	0xbe62aad2	-0.22135475
29	0xbd09f12a	-0.033677258
30	0xbdf0e5be	-0.1176257
31	0x3eb13679	0.34611872
32	0x3bcd2af0	0.006261222
33	0xbde301a9	-0.11084301
34	0xbd99f129	-0.07516701
35	0x3da9e198	0.08294982
36	0x3cd0e7d6	0.025501173
37	0x3e1425b1	0.14467503
38	0x3d8516b1	0.06498469
39	0xbe07f4cc	-0.13276976
40	0xbe639fbe	-0.22228906
41	0xbe386db0	-0.18010592
42	0x3dd29105	0.102815665
43	0x3d923a6c	0.07140049
44	0x3e1071eb	0.14105956
45	0x3d23b49a	0.039967157
46	0x3e942416	0.2893378
47	0x3da60112	0.08105673
48	0x3ce4534b	0.027871748
49	0xbd825a43	-0.06364872
50	0x3e3aa703	0.18227772
51	0x3deb17e2	0.11479165
52	0x3d894313	0.067022465
53	0xbe83d5f5	-0.25749174
54	0xbe9ba15c	-0.30396545
55	0x3df61c73	0.12017145
56	0x3da74e50	0.08169234
57	0x3e220e6f	0.15825818
58	0x3c1d435b	0.009598578
59	0xbde8ad48	-0.11361176
60	0x3e5a0ed9	0.21294726
61	0xbe865246	-0.26234645
62	0xbe7551fc	-0.23957056
63	0x3e64e25f	0.22351979
64	0xbb6cffe5	-0.0036163267
65	0x3e2a55f7	0.16634355
66	0xbda452d6	-0.08023612
67	0x3e2c518d	0.16827984
68	0xbe96eda9	-0.29478195
69	0xbe6df7af	-0.23239015
70	0x3d6e10f0	0.05812162
71	0xbe64176d	-0.22274561
72	0x3e9d5452	0.30728394
73	0xbe920b23	-0.28524122
74	0x3e659da0	0.2242341
75	0xbe44dff4	-0.19226056
76	0xbddcacc0	-0.10775137
77	0xbc21290a	-0.009836445
78	0x3ac7670a	0.0015213203
79	0x3e9d71bd	0.30750838
80	0x3da27f48	0.07934433
81	0xbe6c9d13	-0.23106794
82	0xbe4aaa67	-0.19791566
83	0xbdfd3e15	-0.12365357
84	0xbe34adb0	-0.17644382
85	0xbe339fb1	-0.17541386
86	0xbe9378e3	-0.28803167
87	0xbe6eb89d	-0.23312612
88	0x3df5f833	0.12010231
89	0xbe780b39	-0.24223031
90	0xbe240892	-0.16018894
91	0xbd9825fb	-0.07429119
92	0x3e53d5f7	0.2068709
93	0x3c03e3c8	0.008049913
94	0xbe3770fe	-0.17914197
95	0x3e845e68	0.25853276
96	0x3d6b9b9c	0.057521448
97	0xbe735180	-0.23761559
98	0x3e42431d	0.18970914
99	0xbde967b0	-0.1139673
100	0xbe6ef959	-0.23337306
101	0xbb8242c9	-0.0039752466
102	0xbca611ca	-0.020272154
103	0xbda01777	-0.078169756
104	0xbcca31c5	-0.024681935
105	0xbc7be5aa	-0.01537458
106	0x3e07b5fb	0.13253014
107	0x3e51fd22	0.20506719
108	0xbdc00e9e	-0.09377788
109	0xbe2179ed	-0.15769167
110	0xbe557c0b	-0.208481
111	0x3ea96b0d	0.33089486
112	0x3dd06bac	0.10176787
113	0xbe673e4c	-0.22582358
114	0x3cd26e6f	0.025687424
115	0x3e518a88	0.20463002
116	0xbe042986	-0.12906465
117	0x3cff4655	0.031161467
118	0xbd6c7b2f	-0.057734665
119	0xbe2ac5ce	-0.16677019
120	0x3e7d6584	0.24745756
121	0xbe6bc56a	-0.23024526
122	0x3e406aca	0.18790737
123	0x3e5b313f	0.21405505
124	0xbaf04d39	-0.0018333561
125	0xbdb73fe0	-0.0894773
126	0xbdfff6ba	-0.12498231
127	0x3e20c723	0.15700965
128	0x3e9035a5	0.28165928
129	0xbe03b3b7	-0.12861525
130	0x3e66adf5	0.22527297
131	0x3ccf41c7	0.02529992
132	0xbe33bb61	-0.17551948
133	0xbd008957	-0.031380977
134	0x3c90ebb1	0.017690511
135	0x3de6e05b	0.11273261
136	0x3cc6bfc6	0.024261367
137	0x3c903290	0.017602235
138	0x3e53bf12	0.20678356
139	0xbe1df424	-0.15425164
140	0xbe11e778	-0.14248455
141	0xbcbbc538	-0.02292119
142	0xbe9d411d	-0.3071374
143	0x3ce4c429	0.027925568
144	0xbe97fac9	-0.2968352
145	0x3e7fc701	0.24978258
146	0xbcad4d5e	-0.021155056
147	0xbd8c7985	-0.068591155
148	0x3ea73ef5	0.3266522
149	0x3cf29da6	0.029616188
150	0x3e3bec8a	0.18351951
151	0x3e94a2ae	0.29030365
152	0x3ccb8015	0.024841348
153	0x3e9d3410	0.30703783
154	0xbe9fe64d	-0.31230393
155	0xbdad6ad2	-0.0846764
156	0xbda61492	-0.08109392
157	0x3dc2d479	0.09513182
158	0x3e9530a0	0.2913866
159	0xbe0e0c3b	-0.13871853
160	0xbc6b34a0	-0.0143558085
161	0xbd36856e	-0.044560842
162	0x3b88ec14	0.0041785333
163	0xbdd3cd23	-0.10341861
164	0x3e9d718c	0.30750692
165	0x3e97e46d	0.29666463
166	0x3e5f0bea	0.21781889
167	0x3e7dbbb6	0.24778637
168	0x3e354b88	0.17704594
169	0x3e1fd3e3	0.15608172
170	0x3bd2caa3	0.0064328476
171	0xbe984e4d	-0.2974724
172	0xbd2d9062	-0.042374022
173	0x3e416a6f	0.18888257
174	0xbd3c586c	-0.045982763
175	0xbe0c9be6	-0.13731346
176	0x3dff300d	0.12460337
177	0x3e847a98	0.25874782
178	0xbe36d1b4	-0.17853433
179	0x3e3995e4	0.18123585
180	0x3dba9700	0.09110832
181	0x3cc00631	0.023440452
182	0xbd4d9f3f	-0.050200697
183	0x3db6a0f6	0.089174196
184	0x3e48770f	0.19576667
185	0x3d8ac0e5	0.06775073
186	0x3e1486c8	0.1450454
187	0x3e81b9e9	0.2533715
188	0xbd483af4	-0.048884347
189	0xbe1fe1d4	-0.1561349
190	0xbcda190a	-0.026623268
191	0xbe21d82c	-0.1580512
192	0x3e40ce8a	0.18828788
193	0xba3f3743	-0.00072943064
194	0x3e1e13ce	0.15437242
195	0xbd9b221d	-0.07574866
196	0xbe9a65e3	-0.30155858
197	0xba8e9da2	-0.0010880718
198	0x3e232b09	0.15934385
199	0xbe08d354	-0.13361865
200	0x3e0c9b09	0.13731016
201	0xbe7c4e54	-0.24639255
202	0x3c91ab5e	0.01778191
203	0x3c1f0917	0.009706757
204	0x3d9c6398	0.076361835
205	0xbe986aa2	-0.29768854
206	0xbe82f66d	-0.25578633
207	0x3eafe3ab	0.34353384
208	0x3ea50141	0.3222752
209	0x3e39276d	0.18081446
210	0x3e68276f	0.22671293
211	0xbde937a3	-0.11387565
212	0xbe74b77b	-0.23898117
213	0xbda60290	-0.081059575
214	0xbe73f063	-0.23822169
215	0x3dd777f5	0.10520927
216	0x3e177544	0.14790827
217	0x3d358651	0.044317547
218	0x3c4be19e	0.012443928
219	0x3df4ac11	0.119468816
220	0x3ce905a7	0.028445078
221	0xbec851ec	-0.39125
222	0xbdc52bf9	-0.09627528
223	0x3dd346ec	0.10316262
224	0xbe9f383e	-0.31097597
225	0x3d98504d	0.07437191
226	0x3d802e56	0.06258838
227	0xbcec60a3	-0.028854674
228	0x3e4ce65c	0.2000975
229	0x3ea14adc	0.31502426
230	0x3ea19d2c	0.31565225
231	0xbcc210ea	-0.023689706
232	0x3df241f2	0.11828984
233	0xbdbc032a	-0.09180291
234	0xbe7a68fd	-0.24454112
235	0xbe9517ed	-0.29119816
236	0x3e2b7a16	0.16745791
237	0x3e573cf6	0.21019349
238	0x3cf9bc60	0.030485332
239	0xbe9cd261	-0.30629256
240	0xbe970c7c	-0.29501712
241	0x3cdd699a	0.027027894
242	0xbe58955f	-0.2115073
243	0xbe6eaaea	-0.23307386
244	0x3e1e0a73	0.15433674
245	0x3e0d365f	0.13790272
246	0xbda4314b	-0.080172144
247	0x3d8c938e	0.06864081
248	0x3e06b14c	0.13153571
249	0x3e046154	0.12927753
250	0x3e2847a6	0.16433582
251	0x3d894c75	0.06704036
252	0xbd851903	-0.06498911
253	0x3ae5d1b7	0.0017533813
254	0x3ea29ffd	0.31762686
255	0x3da37dc0	0.07982969

attentions3.attn.weight f4 [1, 8]
0	0xbeb2afc4	-0.34899724
1	0xbd00cce1	-0.031445388
2	0x3d8c1fcd	0.06842003
3	0xbdc959ef	-0.098316066
4	0xbe8d7889	-0.27631024
5	0x3e917331	0.28408197
6	0x3ea17e66	0.31541747
7	0xbe7e9e75	-0.24865134

output_layer.linear.weight f4 [1, 16]
0	0x3e30050b	0.17189424
1	0xbe982348	-0.29714417
2	0x3c7344b0	0.014847919
3	0xbe06bae0	-0.13157225
4	0xbe939b5a	-0.2882946
5	0xbe67f809	-0.22653212
6	0xbde1c08d	-0.11023054
7	0xbe188e3e	-0.14898011
8	0xbdc37013	-0.09542861
9	0x3e9b4b29	0.3033078
10	0x3e844d2e	0.25840133
11	0xbc9f9822	-0.019481722
12	0xbdd3345a	-0.1031272
13	0xbe0019b4	-0.12509805
14	0x3e7f0114	0.24902755
15	0x3dac62ba	0.08417268

output_layer.attn.weight f4 [1, 2]
0	0x3e2be37f	0.16786002
1	0x3eaf5ed8	0.34252048

fc1.weight f4 [64, 16]
0	0xbd79e3a5	-0.061008114
1	0x3e1a529f	0.1507058
2	0xbd14d842	-0.036339052
3	0x3dba9c3c	0.091118306
4	0xbe689dca	-0.22716442
5	0x3d3d8626	0.046270512
6	0x3e2c895a	0.1684927
7	0x3e044b7d	0.12919421
8	0xbdaae891	-0.0834514
9	0xbda1994f	-0.078905694
10	0x3e1650bb	0.14679234
11	0x3dc9c22b	0.09851488
12	0x3dfd01fd	0.12353895
13	0x3d060335	0.032717902
14	0x3dd26f59	0.10275144
15	0xbe00a382	-0.12562373
16	0x3e0f3671	0.13985611
17	0x3e975afc	0.29561603
18	0x3e4de6b1	0.20107533
19	0x3e7123fa	0.2354888
20	0x3e880711	0.2656789
21	0x3def96fe	0.11698721
22	0x3dd699de	0.104785666
23	0x3e34eb45	0.17667873
24	0xbeac2ed8	-0.3362949
25	0xbe5686c1	-0.20949842
26	0xbd941185	-0.07229904
27	0xbc5bfbbe	-0.013426719
28	0xbeb0bc99	-0.3451889
29	0xbec6d3e4	-0.38833535
30	0xbdd4a548	-0.103830874
31	0xbd2a868a	-0.041632213
32	0x3e5d0143	0.21582513
33	0xbd03c7dd	-0.032173026
34	0xbe10e8d3	-0.14151315
35	0xbdbd1da9	-0.09234173
36	0x3e611e9f	0.21984337
37	0x3e106f0c	0.14104861
38	0x3dc4bcfb	0.09606358
39	0xbda83e24	-0.082149774
40	0xbd263e5a	-0.040586807
41	0xbe1f5293	-0.15558843
42	0xbe490d13	-0.19633894
43	0xbe5bd8f3	-0.21469478
44	0x3d9963cc	0.07489738
45	0xbe467e04	-0.19384009
46	0xbe83ab44	-0.25716603
47	0xbd5640a7	-0.05230775
48	0xbecd950d	-0.4015278
49	0xbe9397ed	-0.28826848
50	0xbe141d35	-0.14464267
51	0x3ca64cdc	0.020300321
52	0xbe0acfb4	-0.13555795
53	0x3e803259	0.25038412
54	0xbe1c900c	-0.15289325
55	0x3e98b0ad	0.29822293
56	0x3da2e891	0.07954515
57	0xbe385892	-0.18002537
58	0x3e1d9a43	0.15390877
59	0x3d1dbf44	0.038512483
60	0xbe1e234b	-0.1544315
61	0x3e3b720d	0.18305226
62	0x3ddaa66c	0.10676274
63	0x3ea21110	0.31653643
64	0x3cef5bf4	0.029218651
65	0xbd6876cd	-0.056753922
66	0xbe073cc1	-0.1320677
67	0x3e422536	0.18959507
68	0x3e9f8065	0.31152645
69	0xbde0b3bb	-0.10971781
70	0xbe3bf31a	-0.18354455
71	0xbe1b1ce1	-0.15147735
72	0xbe585ec8	-0.21129906
73	0xbd05809e	-0.032593362
74	0xbd93fdbe	-0.07226132
75	0x3e82ad32	0.25522763
76	0x3e25bcb5	0.16185267
77	0xbdb7ffb6	-0.0898432
78	0x3e56eb50	0.20988202
79	0x3e81bb4f	0.25338218
80	0x3ddf5d7f	0.10906505
81	0xbd1c4849	-0.038154874
82	0xbe6d32b4	-0.23163873
83	0x3e69f71f	0.22848175
84	0xbe9e84a7	-0.3096058
85	0x3da3be2e	0.07995258
86	0xbe9979a0	-0.29975605
87	0xbdd22a75	-0.10262004
88	0xbe9d9bde	-0.3078298
89	0xbe6d25c3	-0.23158936
90	0x3cbe0e84	0.023200281
91	0xbde5b241	-0.1121564
92	0x3cfafb94	0.03063754
93	0xbd4dd782	-0.050254352
94	0xbe4eaf17	-0.20183979
95	0xbdbd758c	-0.09250936
96	0xbd93e5e8	-0.072215855
97	0x3c479071	0.012180434
98	0x3e8f4e75	0.27989545
99	0x3db9a305	0.09064297
100	0x3d9c79c8	0.076404154
101	0x3d414612	0.047185965
102	0xbd93b34c	-0.072119325
103	0x3e83a21d	0.2570962
104	0xbe899b00	-0.26876068
105	0xbcc64f18	-0.024207637
106	0x3e81dc98	0.25363612
107	0x3e0d5d3e	0.138051
108	0xbea7568a	-0.32683212
109	0xbd955f5d	-0.0729358
110	0xbe834ae0	-0.25643063
111	0x3d46c535	0.048527915
112	0xbeaac06e	-0.33349937
113	0xbcbb400a	-0.022857685
114	0xbe808b1c	-0.25106132
115	0xbe8aab58	-0.2708385
116	0xbe12c2d0	-0.14332128
117	0xbd89c46b	-0.06726917
118	0x3e8d0795	0.27544847
119	0xbcb2cdb9	-0.021826612
120	0xbdf26482	-0.118355766
121	0x3eb77ae8	0.35835958
122	0x3eb8b1d1	0.36073163
123	0xbe298e32	-0.1655815
124	0x3e6f7181	0.23383142
125	0x3e82378f	0.25433013
126	0xbc9d775a	-0.01922195
127	0xbc408706	-0.011750942
128	0x3db5a421	0.08869196
129	0xbdcf7087	-0.10128885
130	0x3dbd890e	0.09254657
131	0x3e9de280	0.30836868
132	0xbe0ae2c7	-0.13563071
133	0x3dd189ea	0.10231383
134	0x3e39bbc8	0.18138039
135	0x3e2ca825	0.16861017
136	0xbd272cd9	-0.040814254
137	0xbea2c91e	-0.31794065
138	0x3d9105e4	0.07081202
139	0x3d9d7560	0.07688403
140	0x3e7b9ad3	0.2457078
141	0xbd18a6d2	-0.037268467
142	0xbe6f5d30	-0.23375392
143	0xbc335c34	-0.010947276
144	0xbe77a8e4	-0.2418552
145	0xbd2cfe48	-0.04223469
146	0xbe782d46	-0.2423602
147	0x3e01eaca	0.12687221
148	0x3e3cd08c	0.1843893
149	0xbe7476c6	-0.23873433
150	0xbe56b8e6	-0.2096897
151	0x3ce0fdf0	0.027464837
152	0x3d16a6f8	0.036780328
153	0xbe045cc0	-0.12926006
154	0xbdb030c0	-0.08603048
155	0x3e244eb2	0.16045645
156	0xbe6fe8de	-0.23428676
157	0xbe47c2c8	-0.19507897
158	0x3e1a68f4	0.15079099
159	0x3c106840	0.008813918
160	0xbca26e1f	-0.0198279
161	0x3df62bc3	0.12020066
162	0xbc36da7b	-0.011160488
163	0x3ea3cf6c	0.31994188
164	0x3e6c0cb9	0.23051728
165	0xbe991df6	-0.2990567
166	0x3e3df841	0.18551733
167	0xbe237f3b	-0.15966503
168	0xbdb1204d	-0.08648739
169	0xbe39390f	-0.18088172
170	0x3e31ee67	0.173761
171	0x3e493a0b	0.19651048
172	0xbe11fdfe	-0.14257047
173	0x3e15da2c	0.14634007
174	0xbda22f1d	-0.079191424
175	0x3e30ba40	0.17258549
176	0x3de45b65	0.111502446
177	0x3e3bb89d	0.18332143
178	0x3e07f519	0.13277091
179	0xbd8696a4	-0.06571701
180	0xbdb5520e	-0.08853541
181	0x3e37bd20	0.17943239
182	0x3e010551	0.12599684
183	0xbd077bf3	-0.03307719
184	0x3e33840c	0.1753084
185	0x3cb490ee	0.022041764
186	0x3e8959a6	0.2682621
187	0x3d36101a	0.04444895
188	0x3e10d555	0.1414388
189	0x3b5cf9a7	0.003371814
190	0x3e277cbc	0.16356176
191	0x3d236abb	0.039896708
192	0x3e38e008	0.18054211
193	0xbe45b990	-0.19309068
194	0x3e389798	0.18026578
195	0x3dc103f8	0.09424585
196	0x3d65fa03	0.056146633
197	0x3e49117a	0.19635573
198	0xbd08dde4	-0.033414736
199	0xbd048d6b	-0.03236143
200	0x3d1f618b	0.038911384
201	0xbe7cf80b	-0.24703996
202	0xbe566470	-0.20936751
203	0x3e447ef6	0.19189057
204	0xbd9efe0e	-0.07763301
205	0x3d2eab1c	0.04264365
206	0x3e463491	0.1935599
207	0x3e307326	0.17231426
208	0xbea0d13b	-0.3140963
209	0xbe1c4739	-0.15261544
210	0xbd9eb703	-0.077497505
211	0x3d6ea0ad	0.0582587
212	0xbe62cf3b	-0.22149365
213	0xbe431c5c	-0.19053787
214	0xbdb0f6b9	-0.086408086
215	0x3e33ad28	0.17546523
216	0xbe608d06	-0.21928796
217	0x3e9b4196	0.30323476
218	0x3ddab05f	0.10678171
219	0x3e9d1983	0.30683526
220	0xbc1b38e0	-0.009474009
221	0x3e12b5f1	0.14327218
222	0xbe002875	-0.12515433
223	0x3e925bd3	0.2858568
224	0xbe90e136	-0.28296822
225	0xbe3c9a78	-0.184183
226	0x3e1df31a	0.15424767
227	0x3dcfa0f6	0.10138123
228	0xbce36e8b	-0.027762672
229	0x3d8e8df6	0.06960671
230	0xbdda7d27	-0.10668402
231	0xbde04712	-0.109510556
232	0x3dd07e57	0.101803474
233	0x3da8818b	0.08227833
234	0x3d08d28a	0.03340391
235	0xbdc2edf1	-0.0951804
236	0xbd0edfee	-0.034881525
237	0xbd5d433d	-0.0540192
238	0xbe90e945	-0.2830297
239	0x3e368ffb	0.17828362
240	0xbd6c028c	-0.057619616
241	0x3d845e02	0.06463243
242	0xbd0714aa	-0.03297869
243	0xbe2e346d	-0.17012186
244	0xbdb2c787	-0.08729463
245	0xbe1e1286	-0.15436754
246	0xbe23cd6b	-0.1599633
247	0xbc8f7523	-0.01751191
248	0xbe4ad425	-0.19807489
249	0xbe8bb75f	-0.2728834
250	0x3e3044fa	0.17213812
251	0x3e581c07	0.21104442
252	0xbcc8d17d	-0.024513954
253	0xbe7a4715	-0.24441178
254	0xbdb5596c	-0.088549465
255	0x3be91654	0.0071132574

fc1.bias f4 [64]
0	0x3e426626	0.18984279
1	0xbe488474	-0.19581777
2	0x3e1c17b5	0.15243419
3	0xbdb9a9ad	-0.09065566
4	0x3e2bc594	0.16774589
5	0x3e1ca4c7	0.15297233
6	0xbdcd7571	-0.10032166
7	0x3e5b1f6c	0.21398705
8	0x3e8da8d5	0.2766787
9	0xbe3db26a	-0.18525091
10	0x3e57e12e	0.21081993
11	0x3dd6b236	0.1048321
12	0x3d9c1a96	0.07622258
13	0x3b9acd06	0.0047241477
14	0xbcc0e876	-0.023548346
15	0xbca784d5	-0.020449081
16	0xbdf9e804	-0.122024566
17	0x3d513ce5	0.051083464
18	0xbdf9e410	-0.122017026
19	0x3e0eef60	0.13958502
20	0x3d942695	0.072339214
21	0x3da9a063	0.082825445
22	0x3e5d5a16	0.21616396
23	0x3de0251d	0.10944579
24	0x3dda8408	0.10669714
25	0xbd3f64b5	-0.0467269
26	0xbe3200cc	-0.17383116
27	0x3d4cc028	0.049987942
28	0xbe8672ce	-0.26259464
29	0xbe809a31	-0.2511764
30	0xbe5797ae	-0.21053955
31	0x3dff83b2	0.12476291
32	0xbdd6fecc	-0.104978174
33	0x3dfbdc70	0.122979045
34	0x3af8b0d3	0.0018973596
35	0xbdb2ea6e	-0.0873612
36	0xbd21baab	-0.03948466
37	0xbdfe90b4	-0.12429944
38	0x3e185607	0.14876567
39	0x3df9ecb3	0.1220335
40	0xbd0e3316	-0.034716688
41	0xbe1f24f9	-0.15541448
42	0x3e156daa	0.14592615
43	0x3e100dad	0.14067717
44	0xbdecf330	-0.11569822
45	0x3e5d644d	0.21620293
46	0xbe7ea3e3	-0.24867205
47	0xbe7e396a	-0.24826589
48	0xbc8bb97e	-0.017056223
49	0xbd68bbdc	-0.05681978
50	0x3e68be28	0.22728789
51	0x3e04a782	0.12954524
52	0x3c02266f	0.007943734
53	0x3e18e51f	0.14931153
54	0x3db8fc1f	0.09032463
55	0xbe4cb170	-0.19989562
56	0xbca59f17	-0.020217462
57	0xbe42409a	-0.18969956
58	0xbdaca624	-0.08430126
59	0xbe57dfe0	-0.21081495
60	0xbe3cbc1b	-0.18431132
61	0x3e157cf6	0.1459845
62	0x3e01f878	0.1269244
63	0xbd80b23e	-0.06283997

fc2.weight f4 [1, 64]
0	0xbd6a37e1	-0.057182197
1	0x3ebceb32	0.3689819
2	0x3d9587d8	0.07301301
3	0x3e97832e	0.2959227
4	0x3b1adb4c	0.0023629246
5	0xbd7a766c	-0.061148092
6	0x3e4f1679	0.20223416
7	0x3e2c27c3	0.16812043
8	0xbe061275	-0.13092978
9	0xbdfee366	-0.124457166
10	0xbd7d1f06	-0.061797164
11	0x3d03b4c1	0.032154802
12	0xbdb6a4e3	-0.089181684
13	0x3eab8f33	0.3350769
14	0xbd8ae944	-0.06782773
15	0x3d841dcd	0.064509965
16	0xbd69f6b0	-0.057120025
17	0xbda7def0	-0.08196819
18	0x3e24c32a	0.16090074
19	0xbdcec246	-0.100956485
20	0xbc470ef6	-0.012149563
21	0x3e3efcce	0.18651125
22	0xbdb1824a	-0.08667429
23	0xbd9e4bc2	-0.077292934
24	0xbdf2e3e4	-0.11859873
25	0x3eab7455	0.33487192
26	0xbdb5716a	-0.08859523
27	0xbc8e15d6	-0.017344397
28	0xbe298397	-0.16554104
29	0xbd84d4ce	-0.06485902
30	0x3cb55804	0.022136696
31	0x3e23c2d9	0.15992297
32	0xbdeaed32	-0.11471023
33	0xbe363d1a	-0.17796746
34	0xbe03f9d8	-0.12888277
35	0x3e8e1b09	0.27755
36	0x3e811a0d	0.25215188
37	0x3e4902dd	0.19629999
38	0xbe1af484	-0.15132338
39	0xbd94fbd2	-0.072745934
40	0x3d23a10a	0.0399485
41	0x3d28c457	0.04120287
42	0xbd0d6d1f	-0.034527894
43	0xbe1ec2e6	-0.15504035
44	0x3d940594	0.072276264
45	0x3cb0f6f7	0.021602137
46	0xbd916805	-0.07099918
47	0x3e23a44e	0.15980646
48	0x3e0ffb31	0.14060666
49	0x3e05d1aa	0.13068262
50	0xbd0824d3	-0.033238243
51	0xbbbf586c	-0.005839398
52	0x3bfd2022	0.007724778
53	0x3d32a6e8	0.043616205
54	0xbd2a4a98	-0.041575044
55	0x3d98c284	0.07458976
56	0x3cc53d8e	0.024077203
57	0xbdb2eea2	-0.08736922
58	0x3e7bcf22	0.24590734
59	0xbdb7beee	-0.08971964
60	0x3e47065f	0.19436024
61	0xbe1347c4	-0.14382845
62	0xbe31a837	-0.17349325
63	0x3e6b0b46	0.22953519
