saved_weights/Grid_10_1-/4/actor.pth (torch, 265637 bytes, 12 tensors)

attentions1.linear.weight f4 [16, 1]
00000000: 5db1 4f3f 3429 6d3f 3f23 1f3f bf13 dcbc
00000010: cdfb 7a3f 1915 943e 0530 48be 291a ad3d
00000020: b536 23bf 06aa 7bbd 3e55 493d 25dd 1d3f
00000030: b5d5 a73e a171 633f 12c5 65bf 727e 313f
0.8113001 0.92640996 0.62163156 -0.026864884 0.9804047 0.28922346 -0.19549568 0.08452255
-0.6375535 -0.061441444 0.04915356 0.61665565 0.32780233 0.8884526 -0.8975383 0.69333565

attentions1.attn.weight f4 [1, 8]
00000000: 3fca 493e 5158 7c3d 341b 01be a763 adbc
00000010: 2778 9e3e 88a0 033e be1a d93d d100 79bd
0.19706057 0.061607663 -0.12608033 -0.021165682 0.30951044 0.12854207 0.10600804 -0.060791794

attentions2.linear.weight f4 [16, 16]
00000000: 3860 76be 2324 843e a8ef 4f3d ef31 80be
00000010: 53cc 673e c91b 3abe 855d 9cbd fd37 123e
00000020: 2d2f b3bd 63b9 0bbe 8899 5dbd bfce aabd
00000030: de54 8f3d 4e86 313d b9be 1dbe f420 a7bc
00000040: 9b70 9dbb 805b a6bd f3dc 713e 875d b03d
00000050: 5b18 2e3e 0367 bcbc 7429 693e 49ed 9abd
00000060: 8ab6 4b3e a1c6 79bc d6ff e33c 5c60 323e
00000070: 7c64 a3bd c545 d03d 60dc 393e 21ef 5d3e
00000080: 6e94 b43c ccca bebc 34d7 df3d 3a4c 00bd
00000090: 10e4 03be bdef 403e 694e 19bc ef66 3d3e
000000a0: 65af c1bd efe5 cd3d be11 ba3c 4d3e 503c
000000b0: 88b1 16bc 8612 14bd db44 85bd af1c 8d3d
000000c0: 0088 bcbd 211b b0bc 92f9 05be ca4c 66be
000000d0: 0e83 ca3d af8b 33be d112 08bd e5e8 053d
000000e0: e9f5 3dbe 0ff2 55be d8b4 f5bc c03f dabd
000000f0: 8b94 c03d 689e 79be b2a4 83bd 4666 10be
00000100: 5ad6 563d e6ee 193e 56a6 5dbd 3095 f5bd
00000110: ec0f b03c 9a40 6bbe b6ed 263d 3930 0dbe
00000120: 2c3f f8bd b317 38be b174 4fbe 90b5 1f3e
00000130: f07a 9bbd 3623 15be bca4 3cbe d9ae 29bd
00000140: 2343 8f3d 23fd 7b3e 8a56 7cbb 0ba0 1c3e
00000150: 591c 7dbe 1838 173d 8b55 bc3b 2d7e 4fbe
00000160: 662b 2a3e 9d7f 75be dd4b 0f3e c1a2 26be
00000170: 8ae0 2cbe b01d febd ac71 683d a840 493e
00000180: 8f54 0e3e ec8e 683e 553e 6a3e 31a9 ea3c
00000190: fcec 5ebe 3a2d 4fbe 150a 77be f03d 833e
000001a0: a425 4ebe 1543 223e 8b29 d63d 5986 74bd
000001b0: 8031 45bc 0a4d 9cbc 76ff b5bd a33c 33be
000001c0: 50f7 66be a6a2 723e d195 863d 9dc4 6abe
000001d0: d83b 1b3e cac8 583e baed 6ebe eeb4 f73d
000001e0: 635f dabc f8e4 06be 0f39 2ebe cf2a 793e
000001f0: 0726 43be 161c f9bc 4a85 f43d da47 733d
00000200: bc08 493e 136d e93d 2b53 66be 4e0f b6bc
00000210: 52e8 2a3e 2e1c 94bc 0014 37be 6c6b 6bbe
00000220: 1d78 92bd 7699 523e a682 66be c64e 073e
00000230: 344e 473e 25dd 51be e6a0 36bd 3429 3abe
00000240: c7e1 23be 172b 37bd c875 dcbd 5629 783d
00000250: 933e 313d 8c8e a0bc 70f8 5cbe f5ee 093e
00000260: 3c4d 6a3e 308f 443e 7e08 11be 9895 17be
00000270: 0aa4 733e eaf4 05bd 6d22 59bd 3c4c 823e
00000280: 87e5 75be e1d7 4b3e ded0 0fbe cb2d 35be
00000290: 0311 c5bd 2eca 633e a18a 3f3e d712 513e
000002a0: f9c0 513e f982 d43d 9e22 db3d 0e8b c1bd
000002b0: c864 60be 5b83 293e 4b2d 103e e909 fa3d
000002c0: 7917 4abc ca62 67be 7a20 3c3e f32f 6abe
000002d0: b022 fc3b b40e 043e a3f8 18be 3591 2ebe
000002e0: 1d2f 11bc f6c8 1a3e 5727 2fbe bf0e 84be
000002f0: 7258 6f3d 27aa 533e d753 0e3e 4ad9 533e
00000300: b45f 81be f14d 013e ae18 4c3d 3d71 e73c
00000310: 0201 f73c 67ce 6cbe 45c1 763e 0d55 7abe
00000320: f948 12be 5724 2abc 6b4d 1f3e db7d 07bc
00000330: 57dd 223d 20ae e8bc 6110 513d 1f09 8fbd
00000340: d614 12be 96dc a63d da32 053d bd7c 39be
00000350: bd0d 86bd 0c2c e53d 58a7 cfbd 4b99 ab3d
00000360: cdc0 533e 3e08 6d3e 6f63 733e d387 183c
00000370: 803f 0ebe 5850 8bbd 9828 913d e20e 46be
00000380: ca5a 8bbd 4afe 6dbe cc37 6e3e df2b 983d
00000390: 3e70 aebd 4160 b7bd 4bc7 41bc e549 c03d
000003a0: 3c85 4bba 7ec9 273e b683 27be a491 43be
000003b0: 0b19 84be 7c90 7cbe d1ef 3dbe f93b cdbd
000003c0: 0861 623e 3089 6e3c 4c77 9fbd 5c8b 2bbb
000003d0: 336f 8ebd ac25 393a e19c 7cbe 1a22 abbd
000003e0: d4a5 1d3e e5d8 4a3d a147 c73d 4814 67be
000003f0: a966 3c3e 9051 dbbc 9928 323d 2a4a 133e
-0.24060142 0.2580882 0.050765663 -0.25038096 0.22636537 -0.18174662 -0.07635025 0.1427917
-0.087492324 -0.13644938 -0.054101497 -0.08340215 0.06998609 0.043340974 -0.15404786 -0.020401455
-0.0048046834 -0.08122921 0.23619442 0.08611589 0.17001478 -0.022998339 0.2276972 -0.0756479
0.19893852 -0.015245111 0.027831953 0.1741957 -0.0797815 0.101695575 0.18150473 0.21673252
0.022043433 -0.02329006 0.109297186 -0.031322695 -0.12879968 0.18841453 -0.009357073 0.18496297
-0.09457282 0.10053622 0.022713538 0.012710166 -0.0091976 -0.036150478 -0.06507274 0.068902366
-0.092056274 -0.021497311 -0.13083485 -0.2249023 0.09888278 -0.17533754 -0.03322107 0.03269281
-0.18550839 -0.2089312 -0.02999346 -0.106566906 0.09403332 -0.24376833 -0.064278975 -0.14101514
0.052450515 0.15032539 -0.05411371 -0.11991346 0.021491967 -0.22973862 0.040754043 -0.13787927
-0.12121424 -0.1797779 -0.20259358 0.15596604 -0.07591808 -0.14564213 -0.18422216 -0.041426513
0.06995227 0.24608283 -0.003850373 0.15295427 -0.24717845 0.03691873 0.005747502 -0.20262976
0.16618118 -0.23974462 0.13993783 -0.16273023 -0.1688253 -0.12408006 0.05674903 0.1965357
0.13899444 0.2271077 0.2287534 0.02864513 -0.2177009 -0.20232096 -0.2412494 0.25633192
-0.20131546 0.15845902 0.104571424 -0.059698436 -0.0120357275 -0.019079704 -0.08886616 -0.175036
-0.2255528 0.23694858 0.06571544 -0.22926565 0.15159547 0.21170345 -0.23332873 0.120950565
-0.026656812 -0.13173282 -0.17013954 0.24332736 -0.19057475 -0.0304089 0.11939485 0.059394695
0.19632238 0.113977574 -0.22492664 -0.022224095 0.16690186 -0.018079843 -0.17878723 -0.22990197
-0.07151816 0.20566353 -0.22510776 0.13213643 0.19463426 -0.20494516 -0.04458704 -0.1817978
-0.16004096 -0.044718828 -0.107646525 0.060586296 0.043272566 -0.019599222 -0.21579146 0.13470061
0.22881025 0.19195247 -0.14163396 -0.14803159 0.23793045 -0.03270427 -0.053011347 0.25448787
-0.24013339 0.1990657 -0.1404452 -0.1769325 -0.09622385 0.22245094 0.18705226 0.20417343
0.2048377 0.103765436 0.10699962 -0.09450351 -0.21913445 0.16554014 0.14079778 0.122089215
-0.012334698 -0.22596279 0.18371764 -0.22869854 0.0076945648 0.12896234 -0.14938597 -0.1704758
-0.00886133 0.15115723 -0.1710485 -0.257925 0.058433957 0.20670377 0.1389917 0.20688358
-0.25268328 0.12627389 0.049828224 0.028252238 0.030151848 -0.23125611 0.24097164 -0.24446507
-0.1428565 -0.010384641 0.15556876 -0.008269752 0.039761867 -0.028403342 0.05104101 -0.069841616
-0.14265761 0.08147542 0.0325192 -0.1811399 -0.06545589 0.11190042 -0.1013934 0.08378848
0.20679016 0.23147675 0.237684 0.009309727 -0.13891411 -0.06802434 0.07087821 -0.19341615
-0.06804426 -0.23241535 0.23263472 0.07430243 -0.08517502 -0.08953906 -0.0118273 0.09389094
-0.0007763689 0.16385457 -0.16358837 -0.19098526 -0.25800356 -0.24664491 -0.18548514 -0.100212045
0.22107327 0.014559075 -0.07786426 -0.0026175594 -0.06954803 0.00070628035 -0.2466922 -0.08356114
0.1539529 0.049523253 0.09730459 -0.2256633 0.18398537 -0.02677229 0.04349575 0.1438376

attentions2.attn.weight f4 [1, 8]
00000000: 2d4d e7bd 01e0 5e3e 7d56 4cbe ea30 aa3e
00000010: 0db1 f83d 7754 6bbe 65c6 8d3e caf4 673d
-0.11294017 0.21765138 -0.19954868 0.33240443 0.12143145 -0.2298144 0.27690426 0.056629933

attentions3.linear.weight f4 [16, 16]
00000000: 0736 2abe ac6e f53d b80c dcbd 5157 b63d
00000010: 1e7f ae3c d13a dabd ba48 65be 5dd0 e4bb
00000020: 995f 81be 9131 9b3c 8e50 2b3e bf44 5a3d
00000030: 0405 f9bd 13dd e83d 9c83 d03d a079 0f3c
00000040: c2f1 173d b85e 61be 2679 343e 92cf 76be
00000050: a7a7 643d 9969 57be 33a6 593e 77e8 883d
00000060: 7966 bfbd 2221 3a3e 333b 29bc 029d 56bd
00000070: 939f 26be 3aeb 043d 087e 16be 3978 eb3d
00000080: 268e 1c3e 870c 5fbe 40d3 403e caa0 20be
00000090: 766e 72be 7c0e 543d b57d 0c3e 9f02 88bc
000000a0: 9809 30be d543 de3c f6d8 113e 7e44 3cbe
000000b0: d401 f83d 5dbe febc 90e1 9b3d 2eb8 d5bd
000000c0: 7ddf 49be d541 18bd edc6 2dbd 8767 13be
000000d0: 1180 483e 8e1d 6e3b 5d09 3a3e 20d2 fabd
000000e0: e021 4939 4c3a 6c3e 1038 3f3e 0394 4d3e
000000f0: 22fa 06be c619 f93b eabb e4bd 2235 1fbe
00000100: f25d 85be 4078 b83d 79f5 d53d ad86 12be
00000110: 14d7 26be f992 97bd 0d41 78be 3986 543d
00000120: 778e 54be e2e0 2b3d 7a13 713e 06e7 143e
00000130: be09 aabd cf5e 753e a8d1 5d3e 1bb7 05be
00000140: 0323 a9bc 6c5e 5d3e 7a92 01be d01a 6ebe
00000150: 392c 543d 5bdc f93d 99fc 3ebe 6043 5fbd
00000160: 4193 ec3d edba edbd 9f30 373e b74c 18be
00000170: 65a5 35bd b138 84bd 52bd 783e fa58 49be
00000180: 9d71 683d 3673 62be 569b 52be 6082 0cbe
00000190: 8020 92bd 0adb fa3d d10a a93d e5eb 203d
000001a0: 9ba3 e5bc 03e4 823c 76bf a3bd e653 f2bd
000001b0: 55e8 11be 3c52 fa3d cffe 643e 518b 58be
000001c0: e10e 873b 22d6 a0bc fa29 de3d e0bf 293e
000001d0: df7c 08be ff13 ec3d 986a 73be 06d2 0fbe
000001e0: 0b81 6fbe 5e87 0ebe ba6d bd3d d99c 0d3e
000001f0: ab84 a43d fd11 38bd 01e3 cb3d ccef f1bd
00000200: c33c e03d 7756 ae3d 5e63 f03d 992a ad3c
00000210: e3be 38be c079 2b3d b592 6e3e 4af2 76be
00000220: f60c a33c 7ae2 353e 51e1 9e3d ec64 1d3e
00000230: 29ec 2d3e 0dd8 c93d 058e 213d bf0c 28be
00000240: 83c9 ff3d 203c ac3d 2fc4 323e dd7e 503e
00000250: f7f8 6d3e e8a7 3cbe 820e 1abe 6cf6 eebd
00000260: 5e1d b83d 36df 38be 5cf4 843e cfcb 3fbe
00000270: a440 3f3e 0845 48be 30ff 233d 9fd3 273e
00000280: dd9b 32be f072 22be 4419 d5bb 850a dcbd
00000290: 2f94 e8bc dde2 64be a4db 83be 3e46 09be
000002a0: e961 8fbd 5f9d d3bd 66ad 31be a578 673e
000002b0: fb08 6b3e 72df 123e 08fa 643e deff 5ebe
000002c0: 0712 533e dd83 1f3e ddd4 65be b6b2 a43c
000002d0: 0b26 d0bc 4d57 173e 48b3 363e 0f10 03be
000002e0: 498a 0c3e 2d50 45be 4f6b 413e 18ce 363e
000002f0: 9063 6e3d e609 483e 2c7b f63d f062 2dbd
00000300: 5c33 323e 608f 6c3e 4ba4 f3bc 27cc 4a3e
00000310: 61e0 ac3c 50da 29bd 7a98 bcbd a826 af3c
00000320: 6fad 43be 90d0 60be 743f 2b3e 76be 533e
00000330: c3e0 8f3d b08b 8f3d ddab 0abe 2dd4 51bc
00000340: 40fd 44be cb73 12be 5de6 98bd e620 753e
00000350: 200f 553d 733f e7bd 573c 5c3c 1cce 0fbe
00000360: dc2c fd3d 6070 213d d62a 6cbb 42a4 bdbd
00000370: 08a1 1d3e 9021 fa3d d537 c6bc 50d3 623c
00000380: 8d49 22be 8fc4 593e 87fa 533e 4d97 253e
00000390: 42cc 803e d534 71be e029 d1bd e1e3 cdbd
000003a0: 6f4f 6d3e 032d 5dbe 5c14 d53d 8d4e 0a3e
000003b0: 532c 61be 017d e8bd b745 efbd 185c da3d
000003c0: 0731 bcbd 3d98 603e 7a80 3e3d c33d 4f3e
000003d0: 9234 80be ac5d 13be 9fa9 18be 8805 0b3e
000003e0: 769d 9ebc 3c79 533e 7f4a 1e3d 12bc 3e3e
000003f0: a224 cebd 90c3 51bd ec2b 513e 101b 593e
-0.16622172 0.119839996 -0.107446134 0.08903373 0.021300849 -0.106557496 -0.22391024 -0.0069828467
-0.25268248 0.018944534 0.16729948 0.053288218 -0.1215916 0.113702916 0.101813525 0.008757025
0.037095793 -0.22008789 0.1762434 -0.2410262 0.05582395 -0.21036376 0.21254806 0.06684964
-0.09345717 0.18176702 -0.010329056 -0.052395828 -0.1627181 0.032450892 -0.14696515 0.1149754
0.152886 -0.21782123 0.18830585 -0.15686336 -0.2367495 0.051771626 0.13719828 -0.016602812
-0.1719116 0.027131954 0.1424292 -0.18385503 0.12109724 -0.031096632 0.07611382 -0.1043552
-0.1971416 -0.037172157 -0.04242604 -0.14394961 0.19580103 0.0036333534 0.18167634 -0.122471094
0.00019181473 0.23069113 0.1867373 0.20075993 -0.13181356 0.0076019494 -0.11168654 -0.15547612
-0.26048237 0.09007311 0.10447211 -0.14309187 -0.16292983 -0.0740108 -0.24243565 0.051885817
-0.20757471 0.04196251 0.23542586 0.14541253 -0.083026394 0.23961948 0.21662009 -0.1305813
-0.020646578 0.2161805 -0.12653533 -0.23252416 0.051799987 0.122002326 -0.18651046 -0.054507613
0.11551524 -0.11607919 0.17889641 -0.14873014 -0.044347186 -0.064561255 0.2429097 -0.19662848
0.056748975 -0.22114262 -0.20567068 -0.13721609 -0.07135105 0.1224881 0.08254016 0.039287467
-0.028032115 0.015977865 -0.07995503 -0.118324086 -0.14248784 0.12222716 0.22362827 -0.21146895
0.0041216468 -0.019633356 0.1084785 0.16577101 -0.13328885 0.115272515 -0.23771131 -0.14044961
-0.2338907 -0.13918826 0.09249444 0.13829364 0.08033117 -0.04493903 0.09955407 -0.11813316
0.109490894 0.085125856 0.11737703 0.021138476 -0.18041568 0.041864157 0.23298152 -0.24115863
0.019903641 0.17762175 0.077578194 0.1537053 0.16984619 0.098556615 0.03944208 -0.16411112
0.12489607 0.084099054 0.1745765 0.20360895 0.23239504 -0.18423426 -0.15044597 -0.11668095
0.08989976 -0.18053898 0.2596768 -0.1873009 0.18677002 -0.19557583 0.040038288 0.16389321
-0.1744227 -0.15864158 -0.006503256 -0.10744194 -0.028390972 -0.22352166 -0.2575351 -0.13405702
-0.07001097 -0.103327505 -0.17351303 0.22604616 0.22952645 0.1434305 0.22361004 -0.21777293
0.20612346 0.15577646 -0.22444482 0.020104747 -0.025408765 0.14779396 0.17841828 -0.12799095
0.13724627 -0.19268866 0.18888591 0.17852056 0.05820042 0.19535026 0.12035212 -0.042330682
0.17402405 0.23101568 -0.029741427 0.1980444 0.021103086 -0.041467965 -0.0920877 0.021380737
-0.19109128 -0.2195456 0.16723424 0.20678124 0.07025292 0.07009065 -0.13542123 -0.012806934
-0.19237232 -0.14301984 -0.07465813 0.23938331 0.052016377 -0.11291399 0.0134421205 -0.14043468
0.12362072 0.03941381 -0.0036036274 -0.09259845 0.1539346 0.12213433 -0.024196545 0.013844326
-0.1584837 0.21266387 0.20701037 0.16170998 0.25155836 -0.2355531 -0.10213065 -0.1005323
0.23174833 -0.21599202 0.10404274 0.13506527 -0.21989565 -0.113519676 -0.11683219 0.10662097
-0.09189039 0.21933074 0.046509244 0.20238404 -0.25040108 -0.14391202 -0.14908455 0.13576329
-0.019362193 0.20651716 0.038645264 0.1862643 -0.10065581 -0.051211894 0.20426911 0.2120173

attentions3.attn.weight f4 [1, 8]
00000000: 09f1 40bc b254 963e 98be 2ebe 7005 63be
00000010: bafd 06be b7d5 873e 25ba 08bd 36d6 84be
-0.011776217 0.29361492 -0.17064893 -0.22170043 -0.13182727 0.2653024 -0.033380646 -0.2594468

output_layer.linear.weight f4 [5, 16]
00000000: 2bdb 633e 4baa 4fbe 77ba 4c3d 7aa7 a6bc
00000010: cdd7 703e 1b95 67be e889 c8bc 16ef 2ebe
00000020: 9915 27be 899b d83d 33ee 1a3e 8f07 283e
00000030: 4118 863d 6e83 443e a2cd cebd ee1d 663e
00000040: 3a63 53bd 6f2a 983d 03ff cd3d 2a90 153e
00000050: bba0 37be 716c 40bd 7a81 a1bd 6880 7bbe
00000060: a0bb c3bc 9e80 313d 6158 813d ad8c 9ebd
00000070: 44e7 71bd 4005 80be aa95 263e 6ff4 993c
00000080: c714 ad3d b4a5 cd3d b80b 8bbd 5427 d03d
00000090: 4416 29bd 21e7 d0bd 2f90 4dbe 6410 7cbe
000000a0: e320 423e 6980 793d 96bc ef3d c116 6b3e
000000b0: c491 6a3d e334 68be 20c7 533e 7f3b fc3d
000000c0: 9904 883d 093b 0e3e fb44 6c3e de41 613e
000000d0: a198 903d fa04 6f3e 7efb cbbd 7d1d 9a3d
000000e0: 9cf8 433e 7c40 753c 380f 1e3e b5b9 d03c
000000f0: 864c 0d3e a92a 7f3e 8fee 62be 231a 12bd
00000100: 2628 4c3d b5e2 93bd e38b 6bbe 9b82 3a3c
00000110: dd93 babd 5039 31be f20d e8bd 5480 603d
00000120: 8465 5f3e a461 bc3d ef09 733e ee94 4dbd
00000130: b7ee 3fbe 1f8b 24be b2a8 cabc 7f92 253e
0.22251575 -0.20279805 0.049982514 -0.02034353 0.23519821 -0.22615473 -0.024479821 -0.17083392
-0.16316833 0.10576541 0.15129928 0.16409133 0.06547595 0.19190761 -0.10097815 0.22472355
-0.0516083 0.074299686 0.10058405 0.14605775 -0.17932408 -0.046978418 -0.07886024 -0.24560702
-0.023893178 0.04333555 0.06315685 -0.077416755 -0.059058443 -0.25004005 0.1626803 0.018793313
0.084512286 0.10041371 -0.067893445 0.10163751 -0.041281 -0.10200334 -0.20074533 -0.24615628
0.18957858 0.060913477 0.11705892 0.22957899 0.05726792 -0.22676425 0.20681429 0.123160355
0.06641502 0.13889708 0.23073189 0.21997783 0.07060362 0.23341742 -0.09960078 0.07525156
0.19137806 0.014968988 0.15435493 0.025479177 0.13798723 0.24918617 -0.22161315 -0.035669457
0.049842976 -0.07220975 -0.23002581 0.011383678 -0.09110234 -0.17307019 -0.11330785 0.054809883
0.21816069 0.09198311 0.23734258 -0.05019086 -0.18743406 -0.16068695 -0.024738643 0.16169165

output_layer.attn.weight f4 [1, 10]
00000000: 7445 633e bde1 28be 458f a23e dfe4 30be
00000010: 09d6 37be 38ee 10be 038a 8ebe ae84 503c
00000020: 0c04 72be 17bb 2fbe
0.22194463 -0.16492362 0.3174993 -0.17274807 -0.17952742 -0.14153373 -0.2783967 0.012726946
-0.23634356 -0.17161213

fc1.weight f4 [128, 500]
00000000: 73ce 91bc 344d 91bc 29fd 29bd 0c20 193c
00000010: bb50 babc 9f43 2e3d de2c 973c 3c0c 783c
00000020: 1040 bc3b 882d d73b 4328 203d 027c 90bc
00000030: 948c 623c 46fd c63c 1b91 01bd c240 dc3c
00000040: 11bb 013d 5898 05bc c205 b53c 2023 013c
00000050: 3b11 a1bc 1e91 c3bc dafb 1abd 8096 e0ba
00000060: 97f0 34bd 8bf2 2a3d 22b6 f83c a3f4 92bc
00000070: 0059 11ba 8b1e 0a3d fc55 9cbc bcde aabc
00000080: b6cd 12bd 8ac5 aa3c e133 c7bc e054 993b
00000090: c610 c03c ce36 29bd 2a2e 9a3c c8bb c93b
000000a0: 689e f03b 57ed 1f3d dc8a 59bc ca6c c63c
000000b0: 4318 12bd 80dc 25bc c212 cc3c aed3 d9bc
000000c0: f8a8 78bc ec2a 003c b0a8 bcbc c78b a4bc
000000d0: 94a5 8d3c 6dbb f5bc 12b1 fa3c 6eb4 b43c
000000e0: 804c 4a3c 6d5f 143d 3d00 213d 94f6 35bc
000000f0: ec3c 053c 8e89 28bd 030c 0dbd d2ed 933c
00000100: a3e6 aebc 6a53 b13c fab8 fb3c 715e 2b3d
00000110: 3497 31bc 2e86 0cbd 7edb a63c 38cb d2bc
00000120: ae5d b23c b00e 76bb def0 9fbc e8f3 b13b
00000130: ebca 123d 241d bbbc 84bb 763c 5afc 983c
00000140: ee8e a03c 8fcf d2bc a8fb 8f3b 529d c93c
00000150: 60a4 6abb 1b15 c3bc f481 1c3c 812e 2dbd
00000160: 83e3 363d d8e5 cebc 98e2 d0bb dbdc 023d
00000170: 2e56 22bd 594a 123d 2c96 09bd aeb6 2dbd
00000180: e00a b6bb b486 5b3c 4c0e 38bc 254e c9bc
00000190: 0004 16bc e891 fa3b 90c5 39bc 40d8 17bd
000001a0: 4eee b03c 04b0 133c 9896 94bc 6220 bbbc
000001b0: 3ecb 68bc 9c0a 89bc 3147 093d 561e ebbc
000001c0: e4ea 9dbc 7098 173c 8ca1 2abd c89e 59bc
000001d0: 7a50 71bc 5c67 06bd f79c 1b3d 65cc cfbc
000001e0: 5090 583c 805a 9139 ffdb d7bc 50ed 1dbd
000001f0: cd18 223d ef17 c6bc 8b5f 253d ef60 343d
00000200: 6e02 dfbc 0eea f33c 370e 1e3d 7d2f 313d
00000210: b960 203d e0eb 153b 3e69 e43c 89d5 04bd
00000220: 22f4 6bbc 6f85 113d 6094 c0bb 8bb2 29bd
00000230: 51e6 033d 720b fcbc 5c3f 30bd 5582 093d
00000240: ce7e 903c 18a8 2a3c 8167 d5bc d187 9fbc
00000250: 51ff 0f3d 60a5 d23b f2a2 853c 4c15 0b3c
00000260: 8096 0bba a0ba d0bc e7d2 043d 0c53 14bd
00000270: 7689 af3c 68fa 37bc e9c9 b5bc d89d 3ebc
00000280: 243f edbc a619 98bc a05a b93a c840 f9bb
00000290: 981a f0bb 388a fcbb cb13 303d 7f0d c5bc
000002a0: 0069 7a3b bc54 3fbc b3cc 363d a20c 0cbd
000002b0: 82df c33c aa63 ff3c 8d4f 013d c070 c8ba
000002c0: 2825 843b 5975 133d 74da 1ebc 2250 b43c
000002d0: 9e3a 9bbc e276 fe3c b071 47bb 77bf 113d
000002e0: c5e0 32bd 791c 163d 4d1a 333d 265c d93c
000002f0: 6ee7 babc 3894 cebc e267 c13c d185 11bd
00000300: 8fd2 08bd b016 7cbb 61ab 00bd da9a d43c
00000310: 2049 5a3b 3092 c1bb 61a3 9bbc 92e2 aa3c
00000320: ae32 a4bc 86ce 8a3c 915d 35bd 3884 373c
00000330: c3ce 063d 2809 823b aa58 9abc 869a f33c
00000340: 1471 0ebd 6c86 22bc 6088 8c3b 9a26 edbc
00000350: 2507 03bd 11a7 14bd 063c 01bd 1a76 c63c
00000360: 89ee 1b3d 185e 89bc 0617 c93c 00f0 e5b8
00000370: 9e8e a73c 3892 89bc 85ba c8bc ca35 bf3c
00000380: a6a5 f2bc 9ce7 c6bc 188f 623c 3771 8cbc
00000390: 41e7 2c3d 5a9a 18bd 40eb cd3b 069f d73c
000003a0: 1463 20bc b91b 15bd 079d 133d 393c 0c3d
000003b0: 5cad 22bc 0e2e 7fbc 60a1 febc 00ea 6aba
000003c0: bb52 023d 33e2 e9bc e838 7fbc 603d d0bb
000003d0: 4234 d03c cc5d 73bc 94aa 8a3c 5a22 d43c
000003e0: 75c4 2abd 9873 2c3c b851 cabb f64a 14bd
000003f0: c900 0c3d f378 bcbc 0850 29bc b504 98bc
-0.017798638 -0.017737009 -0.041501198 0.0093460195 -0.022743573 0.042544957 0.018454012 0.015139636
0.0057449415 0.006566707 0.039100897 -0.017637257 0.013827462 0.024290692 -0.031632524 0.026886348
0.03167254 -0.008153997 0.022097472 0.00788191 -0.019661536 -0.023872908 -0.03783784 -0.0017134696
-0.044174757 0.041735213 0.030360285 -0.017938918 -0.0005544573 0.033720534 -0.01908397 -0.020858161
-0.035840712 0.020846147 -0.02431673 0.0046793073 0.023445498 -0.04131203 0.01882084 0.0061564185
0.0073431022 0.039044704 -0.013277736 0.024221797 -0.03566767 -0.010123372 0.024911288 -0.026590195
-0.015177004 0.007822733 -0.023029655 -0.020086182 0.017290868 -0.029996598 0.030602012 0.022058692
0.012347341 0.036223818 0.039306868 -0.011106152 0.008132201 -0.041146807 -0.034435283 0.018057737
-0.02135021 0.02164622 0.030727852 0.041838113 -0.010839272 -0.03430765 0.020368334 -0.025731668
0.021773186 -0.0037545376 -0.019524034 0.005430687 0.03583805 -0.022841044 0.015059356 0.018675018
0.019599404 -0.025733737 0.0043940134 0.024611149 -0.0035803542 -0.023813775 0.009552468 -0.042280678
0.044650566 -0.025256082 -0.0063746683 0.031948905 -0.03963297 0.035715435 -0.03359048 -0.042410545
-0.0055554956 0.013398815 -0.011233877 -0.024573395 -0.009156227 0.007646788 -0.0113386065 -0.037071466
0.021598008 0.009014133 -0.018138215 -0.02284259 -0.014208613 -0.016728692 0.03351516 -0.028700989
-0.019277044 0.0092526525 -0.04165797 -0.013282485 -0.01472866 -0.032813415 0.03799149 -0.025366018
0.0132180005 0.00027723983 -0.02635002 -0.038556397 0.039574433 -0.024181334 0.04037432 0.044037756
-0.027222838 0.029774692 0.038587775 0.04325818 0.039154742 0.0022876188 0.027882215 -0.032430205
-0.0144014675 0.035527643 -0.0058770627 -0.041430037 0.03220207 -0.030767176 -0.043029174 0.03357156
0.01763859 0.010416053 -0.026050331 -0.019473942 0.035155598 0.0064284056 0.01631305 0.008488964
-0.00053248554 -0.025479615 0.032427695 -0.036212012 0.021427851 -0.011229135 -0.022191005 -0.011634313
-0.028960772 -0.018566918 0.0014141388 -0.0076065995 -0.007327389 -0.0077069066 0.042987626 -0.024054287
0.0038209558 -0.011677917 0.04462881 -0.034191735 0.023910288 0.031175453 0.031570006 -0.0015292391
0.0040327497 0.036000583 -0.009695638 0.022010867 -0.01894885 0.031062547 -0.0030432753 0.035582986
-0.04367139 0.036648247 0.043726254 0.026533198 -0.022815432 -0.02521716 0.023609105 -0.035528008
-0.03340393 -0.0038465671 -0.03141344 0.025952745 0.0033307746 -0.0059073195 -0.018998804 0.02085999
-0.020043697 0.016944181 -0.044278685 0.011200957 0.032912027 0.0039683767 -0.018841106 0.029736768
-0.03477581 -0.009919744 0.004288718 -0.02894907 -0.031989235 -0.03629214 -0.031551383 0.024226237
0.03806928 -0.0167685 0.024547111 -0.000109642744 0.020453747 -0.016793355 -0.024503002 0.023341078
-0.029620003 -0.024280362 0.0138280615 -0.017143829 0.04221273 -0.037256576 0.0062841475 0.026320945
-0.009789247 -0.03640339 0.036038425 0.03423712 -0.009929027 -0.015574945 -0.031082809 -0.00089612603
0.03181718 -0.028550243 -0.015577532 -0.0063549727 0.025415543 -0.014853906 0.016927041 0.025895286
-0.041691262 0.010525607 -0.0061742924 -0.0362043 0.034180436 -0.023006892 -0.010334022 -0.018556932

fc1.bias f4 [128]
00000000: cce0 6ebc 6be5 c83c fbc3 b3bb 0d8a c6bc
00000010: 9e6d 4f3c 70dd 3038 df02 9f3c 28f4 e3bc
00000020: 2844 2d3d d46b acbc fe53 553d c324 22bd
00000030: 0ab3 09bd 7bb6 27bd afb6 28bd 2d53 91bc
00000040: 3e74 f4bc 9120 1abd 5212 073a c491 34bd
00000050: 66f1 22bd 7c82 0bbd 9c4c eebc 34bb 8cbc
00000060: a016 003d f5fd b13c 1c4e 4bbc 05be 4e3d
00000070: 5264 3a3d db09 09bc 642b 33bd 46b2 b5bc
00000080: a43e 15bc 4544 033d dd09 16bd 4b1f 98bc
00000090: 96ba 4a3c 0c3c c6bc 4a00 333d 399f 25bd
000000a0: d4a4 0a3a a59e 2ebd a5d3 96bc e8d8 883a
000000b0: b708 f6bc 40d3 bbbb 7b68 f13c 203f 25bd
000000c0: 4f4d f93c dabb 6ebc 8539 ca3c cc47 033d
000000d0: e032 c7bc 77e6 013d cbb7 c3bc d41a 803c
000000e0: c4ea 1f3c dc0c 1cbd 21dd 14bd f346 a4bc
000000f0: 7da0 50bc 8ada 083c d0d9 073b 9bfb 22bd
00000100: f618 01bd 0cae 10bc 01dd f73b 2216 553d
00000110: 12a7 17bd 0cae 2bbd 4861 e53c 30fc d43c
00000120: e4f6 5cbc 60e3 7bbc 7dfc 26bd eaa2 d53c
00000130: 1041 96bb 4273 553d 7d9e db3c 8cea e63b
00000140: 8e5b 1cbd 5e22 bcbc 9cce 5ebc c979 1fbd
00000150: ddbd 223d fe6c 1f3d 5d3d 703c 90be 14bc
00000160: 7296 09bd 8403 85bc 1e5f 243c 2a42 98bc
00000170: 50a1 40bc bd2b 683d a10d cbbc bf19 5a3c
00000180: 05fb 803c afc1 94bc 0a16 1b3d 8583 debc
00000190: bb8f a13c 0784 e63b 0fde e1bc c8cc f6bb
000001a0: 66fe f7bc 7d8a 32bd f7d8 35bd d6fb 7dbc
000001b0: 52fa 29bd d5f6 0a3c 106b f03c 2836 cbbc
000001c0: 8c77 1b3d 56a9 193d b071 ccbb c136 8c3c
000001d0: 9469 ce3a fb54 dfbc 4584 563c 12e9 5e3b
000001e0: 8597 bd3c 83ff ae3c 7bde f1bc 46f2 383d
000001f0: b8d9 1bbc 66d5 afbc dee3 4fbc a083 413d
-0.014579963 0.024523458 -0.005486009 -0.02423575 0.012660412 4.21679e-05 0.019410549 -0.027826384
0.042301327 -0.02104751 0.052082054 -0.03958584 -0.03361801 -0.04094551 -0.041189846 -0.017739857
-0.029840585 -0.037628714 0.0005152571 -0.044084325 -0.039780997 -0.034059986 -0.029089265 -0.01717911
0.031271577 0.021727541 -0.012408759 0.050474185 0.04550583 -0.008364166 -0.043742552 -0.022179734
-0.009109173 0.03204753 -0.0366305 -0.01856961 0.012373587 -0.024198554 0.043701448 -0.04043505
0.00052888435 -0.042631764 -0.018411467 0.001044062 -0.030033452 -0.00573197 0.029468765 -0.040343404
0.030432371 -0.0145711545 0.02468563 0.032050893 -0.024316251 0.03171393 -0.02389135 0.015637793
0.009760562 -0.0380982 -0.036343697 -0.020053362 -0.012733576 0.008352885 0.0020729192 -0.03979073
-0.031517945 -0.0088305585 0.0075641875 0.05202306 -0.037024565 -0.04191403 0.028000489 0.025999159
-0.013486598 -0.015374035 -0.040768135 0.02607866 -0.004585393 0.05211187 0.026808972 0.007047003
-0.03817325 -0.022965606 -0.013599064 -0.038934503 0.03973185 0.038922302 0.014663068 -0.009078637
-0.03359074 -0.016237028 0.010032443 -0.018586237 -0.01175721 0.056682337 -0.024786772 0.013311802
0.015744695 -0.018158762 0.037862815 -0.027162323 0.019721856 0.007034782 -0.027571706 -0.007531736
-0.030272674 -0.043589104 -0.044396367 -0.015501937 -0.04149849 0.008481701 0.029347926 -0.024806097
0.037955806 0.037515007 -0.0062391385 0.017115952 0.0015748017 -0.027262202 0.013093059 0.0034013432
0.02314354 0.021362072 -0.029525032 0.045152925 -0.009512357 -0.021464061 -0.012688605 0.047244668

fc2.weight f4 [5, 128]
00000000: 1046 983c 047a abbc 2cfe 8e3d 4e7d 163d
00000010: 0934 c6bc f1cd 513d f7af bc3c 7568 b43d
00000020: 5703 9e3d 5e9b 64bd 6986 983d a0ac 043d
00000030: 6c08 e2bc 1930 8d3d e3d9 963d 7be1 f83b
00000040: aadf 653d 3e50 4e3d 7d1f 333d e872 1bbc
00000050: ab2b 38bd 382a a7bc a0e1 213c d551 a1bd
00000060: 064d 093c d466 473d 3493 30bd e3e4 b83d
00000070: a264 203d 7023 143d 5a15 3abd 1623 73bd
00000080: 572d 95bd 9999 07bd 70dd 2a3c be2d 213d
00000090: 56c2 4b3d f690 89bd 2087 c13d 078a 59bd
000000a0: 581b 86bd c061 10bb a67b aebd 8065 5fbd
000000b0: 42fe d9bc 968f 643d 68d9 a0bc 8e83 94bd
000000c0: 12c6 74bd 39ba b23d 054b 96bd b7a6 1b3d
000000d0: ced1 283d 82dc 0f3d 5ef9 003d 0179 f7bc
000000e0: 5db7 893d 6a50 6dbd 6c10 a83c feb4 7c3d
000000f0: 74b9 42bd 7e06 4ebd b0c2 74bc 2409 adbc
00000100: 9a7f 463d 380f a2bd 7dcf 92bd 2972 943d
00000110: 319b 873d 1aba 28bd 4f01 09bc d31e c23b
00000120: 6c26 96bd 3cea c23c 680a d4bc d4a6 653c
00000130: 1790 0ebd f726 923d aed7 d33d 61f9 9dbd
00000140: 244c 9ebc 448e 25bd 77cd 3ebd ae83 7d3d
00000150: 3d01 6fbd 0a3f c23d 6357 41bd 0705 02bd
00000160: 8661 603d da32 bcbb 3974 e0bc 974b 42bd
00000170: 78c7 abbd 2640 1f3c 9005 a7bd e7e3 76bd
00000180: ed63 bb3d 3b79 3bbd 0007 953d dca6 c8bc
00000190: 92c5 b43d 2d62 1d3d 46b5 453d 404c 173b
000001a0: 90ed 84bd aa57 dabc 90ce d83b 1256 e9bc
000001b0: 5f70 83bd a8d4 923d d142 803d 3c28 55bd
000001c0: 9b18 6d3d 90b4 4c3d e225 9f3d d79d 343d
000001d0: 670b d3bd 6172 e2bc c81a 8fbd e113 95bd
000001e0: f0e7 a43d 5d40 86bd e3b2 843d d022 623d
000001f0: 7a96 923d 6aba b6bd 4c48 2dbc 6492 b8bc
00000200: 7805 08bc 644e 3fbd f9ae b63c bca3 dd3c
00000210: 9fdb 963c c8a0 8cbd 55b5 8ebd 3561 96bd
00000220: 663f 693c 4135 bc3b 0cc3 b13d f03a 693c
00000230: 9e94 9bbd 7fae 94bd 04cf 9f3c 5335 723b
00000240: 6e5d 383d c076 94bd 3d27 fabc 5e51 243d
00000250: 50e8 ad3b c209 9bbd 55ce ac3d 40d7 8ebc
00000260: 70e5 483d 477c 8c3d 81c2 833d 3885 b0bd
00000270: 9571 723d 4eb6 6d3d 40dd f43a 3eea 26bd
00000280: 605b 43bc ba1a 0cbd e7af 9bbd e87b 58bc
00000290: ab55 813d bab5 80bd deaa 7a3b 76d4 413d
000002a0: bfe8 ccbc aa20 333d 41d6 e73b a244 18bd
000002b0: 70fa c53c a282 01bd 1bad c0bd 4a37 1e3d
000002c0: 46cf a9bc 780f 76bc 9d83 55bd 7fa5 d73c
000002d0: 085d 16bc b6e7 0abd 4e39 9b3c e6f6 373c
000002e0: 9c31 58bd 20ee 763b 7746 89bd 00c6 043a
000002f0: 87c5 493d d176 413d 703a 743d c496 aebd
00000300: 2882 b0bc c7db 89bd da29 97bd ac25 d9bc
00000310: 0f57 10bd b717 2ebd 7ec5 01bd fa47 4f3d
00000320: f8d4 adbc fe01 0d3d 3e79 1b3d cb38 84bd
00000330: 12fa 30bc 48e8 3cbc 34c9 b33d eb03 d2bc
00000340: 69a4 9e3d 9772 943d 4025 b0bb 79ef 853d
00000350: b07a a43d e492 a1bd 09d4 bdbc 30a9 f93c
00000360: 681a 3e3c de90 95bd f379 42bd 3dea 42bd
00000370: b22b 89bd aef7 903d 4a35 f2bc 8ca3 a7bd
00000380: af17 3e3c d19e 1dbd ddf1 a33d 4e62 023d
00000390: 24b5 36bd dc25 27bc 5fd4 8d3d 7a14 85bd
000003a0: 9ee8 723d a64d f9bc 89ee b33d 43b4 91bd
000003b0: 1012 a0bb a9e9 54bd 5064 05bd d6bc 5a3d
000003c0: a687 cebc e2d6 7fbd 4166 9abc f379 25bd
000003d0: a519 26bc 954b 66bd 2467 7a3d fe81 30bd
000003e0: 4681 7a3c da8c b73d ffe6 6fbd 1997 62bd
000003f0: a938 12bb e569 9b3d cdc8 2ebd 1ce1 103c
0.018588096 -0.020932205 0.06982073 0.036740594 -0.024194734 0.05122179 0.023033125 0.08808986
0.07715481 -0.055812232 0.07447512 0.03239119 -0.027591906 0.068939395 0.07365777 0.0075952387
0.056121506 0.050369494 0.0437312 -0.009487845 -0.04496352 -0.020405874 0.009880453 -0.07876936
0.00838018 0.04868205 -0.043109134 0.09028032 0.03915847 0.03616661 -0.04543052 -0.059359632
-0.072840385 -0.033105467 0.010428771 0.039350264 0.04974588 -0.06717102 0.09449601 -0.05311015
-0.06548184 -0.002203092 -0.08519678 -0.054540157 -0.026610497 0.055800997 -0.019634917 -0.072516546
-0.059759207 0.087269254 -0.073385276 0.03800079 0.04121571 0.035122402 0.031487815 -0.030209066
0.06724427 -0.057938017 0.020515643 0.061696045 -0.047540143 -0.05029916 -0.014938995 -0.021122523
0.048461534 -0.07913059 -0.071684815 0.07248337 0.06621397 -0.041193105 -0.008362128 0.0059240847
-0.07331547 0.023793332 -0.025883868 0.014016826 -0.034805384 0.07136338 0.10343872 -0.07713581
-0.019323416 -0.04041888 -0.046582665 0.061893158 -0.05835079 0.0948468 -0.04720248 -0.031743076
0.054780506 -0.0057433667 -0.02739917 -0.04743537 -0.08387655 0.009719884 -0.08155358 -0.06027594
0.09149919 -0.04576991 0.07276726 -0.024493627 0.08826746 0.038423706 0.04826858 0.002308622
-0.06490624 -0.02665313 0.006616421 -0.028483424 -0.064179175 0.07169467 0.06262744 -0.052040324
0.057884794 0.049976885 0.077708974 0.04409584 -0.10304909 -0.02764243 -0.0698753 -0.07279182
0.08052051 -0.06555245 0.064794324 0.05520898 0.071576074 -0.089222744 -0.010576319 -0.022530742
-0.008302085 -0.04670562 0.02230023 0.027055614 0.01841527 -0.06866604 -0.0696818 -0.073427595
0.014236307 0.005743653 0.0867978 0.014235243 -0.07596706 -0.07259845 0.019507892 0.0036958053
0.045010976 -0.07249212 -0.030536288 0.04011666 0.005307235 -0.075702205 0.08437792 -0.017436624
0.049046934 0.068596415 0.06433583 -0.086191595 0.05919035 0.058035187 0.001868166 -0.040750735
-0.011923641 -0.034205176 -0.0760191 -0.013213135 0.06315168 -0.062846616 0.0038248817 0.04732176
-0.025013326 0.043732323 0.0070751016 -0.03717483 0.02416727 -0.03161872 -0.09408017 0.038626947
-0.020728718 -0.0150183365 -0.05212747 0.026324032 -0.009177454 -0.033912383 0.018948223 0.011228299
-0.052781686 0.0037678555 -0.06702893 0.00050649047 0.049260642 0.047232453 0.059626043 -0.0852485
-0.021546438 -0.06731372 -0.073810294 -0.026507221 -0.035239276 -0.042503085 -0.031682484 0.05060575
-0.021219715 0.034425728 0.037957422 -0.06456145 -0.010801809 -0.01152999 0.08778611 -0.025636634
0.077462025 0.07248419 -0.0053755343 0.065398164 0.08031213 -0.07889345 -0.023172395 0.030476183
0.011602975 -0.07303022 -0.04747958 -0.04758667 -0.06697787 0.07078491 -0.029566426 -0.08185491
0.011602326 -0.038481537 0.08005116 0.031832032 -0.044606343 -0.0102018975 0.06925272 -0.06498046
0.059303872 -0.030432533 0.08785731 -0.0711446 -0.0048849657 -0.05198065 -0.03256637 0.053402744
-0.025211167 -0.062460788 -0.018847587 -0.040399503 -0.01013795 -0.056224424 0.06113352 -0.04309272
0.01528961 0.08962412 -0.058569904 -0.05531988 -0.0022311604 0.07588557 -0.042671967 0.008842733

fc2.bias f4 [5]
00000000: 04f3 73bd cf49 ffbc e031 a8bd 343c 813c
00000010: 2d57 9ebd
-0.05955793 -0.031163124 -0.08212638 0.015775777 -0.07731471
