saved_weights/Grid_5_5/167/actor.pth (torch, 73637 bytes, 12 tensors)

attentions1.linear.weight f4 [16, 1]
0	0xbeeca722	-0.46221262
1	0xbf7b9038	-0.98266935
2	0xbf72319b	-0.9460694
3	0xbf1603cc	-0.58599544
4	0xbf0290e6	-0.5100235
5	0xbee3b871	-0.44476655
6	0x3f5a4c5e	0.8527278
7	0x3e1a938b	0.15095346
8	0xbf0be71e	-0.5464953
9	0xbf28b84c	-0.65906215
10	0xbc0c22e9	-0.008553245
11	0xbeb4a061	-0.3527861
12	0x3f52e4e2	0.823805
13	0xbf09bb59	-0.53801495
14	0xbe808703	-0.25103006
15	0xbf392e96	-0.7233671

attentions1.attn.weight f4 [1, 8]
0	0x3eb3ef24	0.35143387
1	0x3f25e985	0.6480945
2	0x3eec24bd	0.4612178
3	0x3e694273	0.22779255
4	0xbed4ea45	-0.41584983
5	0xbe2c5dd1	-0.16832663
6	0xbee21c45	-0.44162193
7	0x3e1c3e9c	0.15258259

attentions2.linear.weight f4 [16, 16]
0	0x3e3ef0b4	0.18646508
1	0x3d66b048	0.05632046
2	0x3d8dc0f3	0.06921568
3	0x3e5197a9	0.2046801
4	0x3e129e84	0.14318281
5	0x3da7fb94	0.082022816
6	0x3e4bdb14	0.1990779
7	0x3dd2b055	0.10287539
8	0xbe463892	-0.19357517
9	0x3e62db0a	0.2215387
10	0xbdb07ab5	-0.086171545
11	0x3dd8935f	0.10574984
12	0xbcc0498d	-0.023472572
13	0xbe5550a2	-0.2083154
14	0xbe34c7b7	-0.1765431
15	0x3dac6b2c	0.08418879
16	0xbe32df91	-0.17468096
17	0xbe5fc3d6	-0.21852049
18	0xbe3a1998	-0.18173826
19	0xbe6b422a	-0.22974458
20	0xbe725c49	-0.23668016
21	0xbbcc090c	-0.0062266644
22	0xbdcd3a8d	-0.10020933
23	0xbe469704	-0.19393545
24	0xbe470511	-0.19435526
25	0xbc847438	-0.016168699
26	0xbe226f24	-0.1586271
27	0x3d56eb1c	0.05247031
28	0x3e0294f1	0.12752129
29	0x3e216a87	0.15763293
30	0xbe2b2dda	-0.1671671
31	0x3e844318	0.25832438
32	0x3d3809b3	0.044931125
33	0xbe3d09c5	-0.18460758
34	0x3e596b46	0.21232328
35	0xbe37c17e	-0.17944905
36	0x3de9f413	0.114235066
37	0xbdf64c94	-0.12026325
38	0x3d90120b	0.070346914
39	0xbe78a878	-0.24283016
40	0xbdc6a0be	-0.09698628
41	0xbdc3a8f3	-0.09553709
42	0x3da20c37	0.07912486
43	0x3dcba6b0	0.099439025
44	0x3e40fc70	0.18846297
45	0x3e66e9c9	0.2255012
46	0xbd9e52fc	-0.07730672
47	0x3e38da5f	0.18052052
48	0x3d7ad1a6	0.061235093
49	0xbe086da2	-0.13323072
50	0xbe7e448e	-0.24830839
51	0xbe96b27e	-0.29433054
52	0xbe1130f6	-0.14178833
53	0xbe46a9ea	-0.19400755
54	0xbe1c1d0f	-0.1524546
55	0xbe20ef8a	-0.15716377
56	0x3dcdf940	0.10057306
57	0xbe32c2c8	-0.17457116
58	0x3d8983b9	0.06714577
59	0x3ad555ff	0.0016276239
60	0xb7ab26e0	-2.0402891e-05
61	0x3dc38d9b	0.095484935
62	0xbb86d593	-0.0041148155
63	0xbe0015d9	-0.12508334
64	0x3b95baf0	0.004569404
65	0x3e8c6136	0.27417916
66	0x3dde1af5	0.108449854
67	0x3e643223	0.2228475
68	0x3e711e30	0.23546672
69	0xbdfe1a8d	-0.12407408
70	0xbe8013c3	-0.25015077
71	0xbc6ee82d	-0.014581722
72	0xbe26cab3	-0.16288261
73	0x3db56796	0.08857648
74	0xbe9bc5b6	-0.3042428
75	0x3e8bdd99	0.27317503
76	0xbe13fcb4	-0.14451867
77	0x3e6b8bb4	0.23002511
78	0xbdd4789f	-0.10374569
79	0x3e6ef1ce	0.23334429
80	0xbb03da9c	-0.0020119315
81	0x3e508aab	0.20365398
82	0xbe2ce697	-0.16884838
83	0xbd681ba4	-0.056666985
84	0x3ac63509	0.0015122007
85	0xbe1dab75	-0.15397437
86	0x3cadc73f	0.021213172
87	0xbe8478e8	-0.25873494
88	0xbdbe6704	-0.092969924
89	0xbe496efc	-0.19671243
90	0xbdbcb176	-0.092135355
91	0xbd8ba463	-0.06818464
92	0xbc8cd407	-0.017190946
93	0xbd3774b6	-0.04478904
94	0xbd9a648e	-0.075387105
95	0x3ba7d96e	0.005122355
96	0x3d177e49	0.03698567
97	0xbe875b1b	-0.26436695
98	0x3d47889c	0.048714265
99	0x3da06b13	0.07832923
100	0xbd8bf0d1	-0.068330415
101	0x3e200810	0.15628076
102	0x3bd324c2	0.006443591
103	0xbcbafcc5	-0.022825608
104	0xbe910eed	-0.283317
105	0xbdb67a4d	-0.08910046
106	0xbd483789	-0.048881087
107	0xbe38ba7e	-0.18039891
108	0x3cc32ad9	0.023824142
109	0x3e20a59d	0.15688176
110	0x3e4f568f	0.20247863
111	0xbe0002d4	-0.12501079
112	0xbe148ae3	-0.14506106
113	0x3cb27110	0.021782428
114	0x3e30ced4	0.17266399
115	0x3da9ba75	0.08287517
116	0xbe789862	-0.2427688
117	0xbe881ea9	-0.26585892
118	0xbe3dfd75	-0.18553717
119	0xbe3c823b	-0.18409054
120	0x3e2a2d6f	0.16618894
121	0x3ce5a8c2	0.028034572
122	0xbd662726	-0.05618968
123	0x3d5acc56	0.053417526
124	0x3e850ea0	0.2598772
125	0xbe91ed48	-0.28501344
126	0x3d33b4c0	0.04387355
127	0xbbcebb08	-0.006308917
128	0x3e3313da	0.17488042
129	0x3e8ace35	0.27110448
130	0x3e37240f	0.17884849
131	0x3cc9ca9f	0.02463275
132	0xbe00012d	-0.12500449
133	0x3e6df7df	0.23239087
134	0xbe3913e8	-0.18074
135	0x3e3449d4	0.17606288
136	0x3df50a50	0.119648576
137	0xbd742481	-0.059605125
138	0x3d26b8e6	0.040703677
139	0xbe31c69b	-0.17360918
140	0x3da0def2	0.078550234
141	0xbe2c3786	-0.16818056
142	0x3e7772b6	0.24164852
143	0x3dc13393	0.09433665
144	0x3e152f8c	0.14568919
145	0xbd2c5742	-0.042075403
146	0x3d9ae679	0.075634904
147	0x3e4dc2c3	0.20093827
148	0x3e6560e0	0.22400236
149	0x3e60077e	0.21877858
150	0xbe7fa83c	-0.2496652
151	0xbe2304a4	-0.15919739
152	0xbda17633	-0.07883873
153	0xbd8a16b2	-0.0674261
154	0xbdb481d2	-0.08813824
155	0xbb59d146	-0.003323631
156	0xbe7a25aa	-0.2442843
157	0xbe263504	-0.16231161
158	0x3e2c42b5	0.16822322
159	0xbe16d368	-0.14729083
160	0x3d8d99b4	0.06914082
161	0xbe671ce4	-0.22569615
162	0x3ddb45c4	0.10706666
163	0x3e1f4e03	0.15557103
164	0xbe521d62	-0.20519021
165	0xbe083856	-0.1330274
166	0x3d922b75	0.07137195
167	0x3e6489d8	0.22318208
168	0xbde8f166	-0.11374168
169	0xbb91adf0	-0.004445784
170	0xbe0469c5	-0.12930973
171	0xbdc3b4f0	-0.095559955
172	0xbe1a70be	-0.1508207
173	0xbe349e4d	-0.17638512
174	0xbd042414	-0.03226097
175	0x3cfb4c87	0.03067614
176	0x3e425928	0.18979323
177	0x3d10ba15	0.03533371
178	0x3de16182	0.11004926
179	0x3dde65a7	0.108592324
180	0xbe79003f	-0.243165
181	0xbdeab50b	-0.114603125
182	0xbe1dacd9	-0.15397967
183	0xbddf01c8	-0.108890116
184	0xbd0406ab	-0.03223292
185	0x3e3495eb	0.17635314
186	0x3de3b9ee	0.11119448
187	0xbdc4b5de	-0.09605001
188	0x3e823c0c	0.25436437
189	0x3db39bb3	0.08769932
190	0xbd13f9c9	-0.036126886
191	0x3cf8c678	0.030368075
192	0x3da636e9	0.08115942
193	0x3e5e5844	0.21713358
194	0x3e3b42b6	0.18287167
195	0x3e126a77	0.14298426
196	0x3e14711f	0.14496277
197	0x3dad1913	0.08452048
198	0xbd992b6b	-0.074789844
199	0xbdb4d56a	-0.08829768
200	0xbd5c1ddf	-0.053739425
201	0xbe41a0d9	-0.18909015
202	0xbdfee699	-0.12446327
203	0xbe0e7a08	-0.13913739
204	0xbcba15e1	-0.02271551
205	0xbe2510f7	-0.16119753
206	0xbe14ddd2	-0.14537743
207	0xbe08a3f1	-0.13343789
208	0x3d2177f1	0.039421026
209	0x3b5424fd	0.003237068
210	0x3e4f775c	0.20260376
211	0x3dcc94e8	0.09989339
212	0xbe6d5fab	-0.23181026
213	0x3dbf8a45	0.09352545
214	0xbe5612bc	-0.20905584
215	0xbe0a3ab9	-0.13498963
216	0x3e6af816	0.229462
217	0xbe5f9647	-0.2183467
218	0x3df73d9b	0.12072297
219	0xbdd930f8	-0.10605043
220	0x3e689974	0.22714788
221	0xbe87ea25	-0.26545826
222	0x3ad0b202	0.0015922191
223	0x3d3c9983	0.046044838
224	0xbc8b3926	-0.016995024
225	0xbcfcd7f1	-0.030864688
226	0x3e088ddc	0.13335365
227	0xbe6540a9	-0.22387947
228	0x3e57ce06	0.21074685
229	0xbcd944bf	-0.026522039
230	0xbce6babb	-0.028165212
231	0x3df0c1d7	0.11755722
232	0xbddaf4ea	-0.10691245
233	0x3c3f22ae	0.011665983
234	0xbd0c0b96	-0.034190737
235	0xbe832c6d	-0.25619832
236	0x3e20d472	0.15706041
237	0x3e4530cb	0.19256894
238	0xbdcb6d53	-0.09932961
239	0x3e164e22	0.14678243
240	0xbe967ea4	-0.29393494
241	0xbe9b03ed	-0.30276433
242	0xbe81fa57	-0.25386307
243	0xbe3076cb	-0.17232816
244	0x3dd3c868	0.10340959
245	0xbe5872dd	-0.21137567
246	0xbdc1c7f8	-0.09461969
247	0x3c9a28c8	0.018818274
248	0x3e02f409	0.12788405
249	0xbe91e5cd	-0.28495637
250	0xbd31901a	-0.043350317
251	0x3dd79020	0.105255365
252	0x3e22fff9	0.15917958
253	0xbcd21d34	-0.02564869
254	0xbd5f3943	-0.05449797
255	0xbd7f6082	-0.062347896

attentions2.attn.weight f4 [1, 8]
0	0x3f28fc85	0.66010314
1	0x3e0ae43f	0.13563631
2	0xbedb6d65	-0.428569
3	0x3ea9ff3d	0.33202544
4	0xbed73d8f	-0.42039153
5	0xbe182a44	-0.14859873
6	0x3eb9f504	0.36319745
7	0x3f0459fa	0.51699793

attentions3.linear.weight f4 [16, 16]
0	0x3dba4731	0.0909561
1	0xbe23d4a8	-0.1599909
2	0x3e783c45	0.24241741
3	0xbd33b70a	-0.04387573
4	0x3e826712	0.2546926
5	0xbdfc33d5	-0.12314574
6	0xbe5e01d8	-0.21680391
7	0xbcbaafaa	-0.022788841
8	0xbdbfd006	-0.09365849
9	0x3e5aa82a	0.21353212
10	0x3d4efc3e	0.050533526
11	0xbe00babb	-0.12571232
12	0x3e8ff389	0.2811549
13	0x3e29b08d	0.16571255
14	0x3d69acbf	0.05704951
15	0xbe926c12	-0.28598076
16	0xbde2d92d	-0.11076579
17	0x3de59377	0.11209767
18	0x3d922e56	0.07137744
19	0x3df30fad	0.11868224
20	0xbd76b631	-0.060232345
21	0x3dfd9690	0.12382233
22	0x3e228060	0.15869284
23	0x3d5973ec	0.053089067
24	0x3d90e746	0.07075362
25	0x3dffe796	0.124953434
26	0x3e8047bf	0.25054738
27	0xbd041946	-0.032250665
28	0xbe1682ad	-0.14698286
29	0x3d49337c	0.049121365
30	0x3deca957	0.115557365
31	0xbe77eb3a	-0.24210826
32	0x3e0c0484	0.13673598
33	0xbe0a6149	-0.13513674
34	0x3e0943cf	0.13404773
35	0x3c977913	0.01849035
36	0x3dbf5fc7	0.0934444
37	0x3d045b7f	0.03231382
38	0x3d57d6ef	0.05269521
39	0x3e47c132	0.19507292
40	0x3e86ea22	0.26350504
41	0x3e68b07f	0.22723578
42	0xbe5150f0	-0.20441031
43	0x3e7a7578	0.24458873
44	0xbde67cb7	-0.11254256
45	0x3cc6309b	0.024193099
46	0xbdb247ad	-0.08705077
47	0xbdadbbb9	-0.08483071
48	0xbe43e143	-0.191289
49	0xbdc6c569	-0.09705622
50	0x3e48c4ac	0.19606274
51	0xbcebb8c0	-0.02877462
52	0x3dfe8414	0.12427536
53	0x3d81e58d	0.063426115
54	0x3e8fe353	0.28103122
55	0x3d8a81f9	0.067630716
56	0xbb1c075e	-0.0023808102
57	0x3dd83c1d	0.10558341
58	0x3e102d33	0.14079742
59	0xbc9c68ff	-0.019093035
60	0xbcc7c184	-0.024384268
61	0xbd7e97e1	-0.06215656
62	0xbe89925f	-0.26869485
63	0xbc863871	-0.016384335
64	0x3e026b2d	0.12736197
65	0x3e33ead8	0.17570055
66	0x3e0d1654	0.13778049
67	0xbd5b714c	-0.053574845
68	0xbda90bc7	-0.082541995
69	0x3e4b356b	0.19844596
70	0x3dbede5b	0.09319755
71	0x3dc0a323	0.09406116
72	0x3e4fe772	0.20303133
73	0x3e5cf775	0.21578772
74	0xbe2f5f0d	-0.17126103
75	0x3e24a3d6	0.16078123
76	0xbd8870c4	-0.06662133
77	0xbd073531	-0.03300971
78	0xbddb9fe2	-0.107238546
79	0x3db770b6	0.08957045
80	0x3e63ea01	0.22257234
81	0x3dee2cb6	0.11629622
82	0xbe0924ff	-0.13393019
83	0x3df86660	0.121289015
84	0x3d0b1a33	0.033960532
85	0x3d3a3b44	0.045466676
86	0x3dad6864	0.084671766
87	0x3cd5b350	0.02608648
88	0xbe3e94d4	-0.18611461
89	0x3cd86c66	0.026418876
90	0xbe459f76	-0.19299111
91	0x3ddaea06	0.10689168
92	0x3e063816	0.13107333
93	0xbd73487f	-0.05939531
94	0xbe4dde7c	-0.20104402
95	0x3dcf28f0	0.1011523
96	0x3dafc1c9	0.085818835
97	0x3da5d415	0.08097092
98	0x3d806220	0.06268716
99	0x3dff828c	0.12476072
100	0xbe83b83f	-0.25726506
101	0x3cac55e0	0.021037042
102	0x3dabcae7	0.0838831
103	0xbe500f1c	-0.20318264
104	0xbd861000	-0.065460205
105	0xbdd78988	-0.10524279
106	0x3e69f53a	0.22847453
107	0xbdb4b31f	-0.08823227
108	0xbe0341fc	-0.1281814
109	0x3cd752e3	0.02628464
110	0x3ddec0e4	0.10876635
111	0x3e243318	0.16035116
112	0x3d0313dd	0.032001365
113	0x3da11c78	0.07866758
114	0xbdcfb6dd	-0.101423
115	0x3ddc725c	0.10764
116	0xbe5b032f	-0.21387933
117	0x3e0b8a9f	0.13627099
118	0x3de580a0	0.11206174
119	0x3e2a367a	0.16622344
120	0x3c41f1af	0.011837407
121	0xbe3378a4	-0.1752649
122	0xbe80ac71	-0.25131562
123	0x3c8c0dad	0.017096365
124	0x3d7451e7	0.05964842
125	0xbe825540	-0.25455666
126	0xbd95b953	-0.073107384
127	0x3e124c2d	0.14286871
128	0xbd6fbb68	-0.058528334
129	0xbddfca55	-0.10927264
130	0xbe4b29cf	-0.19840167
131	0xbe8e7af9	-0.27828196
132	0x3e69b974	0.22824651
133	0x3e466020	0.19372606
134	0xbe4cdf6d	-0.20007105
135	0xbe217e39	-0.15770806
136	0xbd61f3f9	-0.05516431
137	0x3e53aaed	0.20670672
138	0x3e6fba1e	0.23410842
139	0xbb9a6d5c	-0.0047127437
140	0xbd431e6c	-0.047636434
141	0x3cdeece3	0.027212566
142	0x3de25f1e	0.110532984
143	0x3e3c0a4d	0.18363304
144	0xbe36f384	-0.17866331
145	0xbe4070b1	-0.18792988
146	0x3e396f96	0.18108973
147	0xbe034329	-0.12818588
148	0xbded9c74	-0.11602107
149	0xbe395796	-0.18099818
150	0xbd29f662	-0.041494735
151	0xbd1c0a52	-0.03809578
152	0xbe686b8c	-0.22697276
153	0xbe2f2115	-0.17102464
154	0xbd7dc49d	-0.061955083
155	0xbe1b7f55	-0.15185292
156	0xbdaeebf2	-0.08541097
157	0x3d564e91	0.05232102
158	0x3d55ba95	0.05217989
159	0xbe0f6f19	-0.14007224
160	0xbe43c851	-0.19119383
161	0x3e9576c6	0.2919218
162	0x3d8449d7	0.06459396
163	0x3e0806d5	0.13283856
164	0x3d4c0ddc	0.049817905
165	0x3e19f139	0.15033425
166	0xbd88656d	-0.066599704
167	0xbd7f524e	-0.06233435
168	0x3d8ce543	0.06879666
169	0x3d3b02cf	0.045656975
170	0xbe14a3a2	-0.14515546
171	0xbe8f5027	-0.2799084
172	0xbe804e12	-0.25059563
173	0x3d98ae52	0.07455124
174	0xbda0076d	-0.07813916
175	0x3e534b40	0.20634174
176	0x3e4067b2	0.18789557
177	0x3cb578ee	0.02215239
178	0xbde8cf7b	-0.11367699
179	0x3e0868a8	0.13321173
180	0x3d88a366	0.06671791
181	0xbd0c03dc	-0.034183368
182	0x3e292820	0.16519213
183	0xbd0ff2db	-0.035143714
184	0x3e44b03a	0.1920785
185	0xbe0fe42a	-0.14051881
186	0xbda08b8b	-0.07839116
187	0x3e738749	0.23782076
188	0x3d7aef55	0.0612634
189	0x3d3e0c0c	0.046398208
190	0x3d0e4cee	0.034741335
191	0x3c8dd09b	0.017311385
192	0x3c80e449	0.015733855
193	0x3e0e8cff	0.13920973
194	0xbe1d320e	-0.15351126
195	0xbe43af1e	-0.1910977
196	0x3e0210e9	0.12701763
197	0xbe5e68b7	-0.21719633
198	0x3e49bb5d	0.1970038
199	0x3e321878	0.17392147
200	0xbd4849ae	-0.04889839
201	0xbdc9f367	-0.098608784
202	0x3e27e82a	0.16397157
203	0xbd3a28da	-0.045449115
204	0xbdfdaf6f	-0.12386977
205	0x3e3c34ff	0.18379591
206	0xbdfecc28	-0.124412835
207	0xbe467de3	-0.1938396
208	0xbe0a042e	-0.13478157
209	0x3dc102e4	0.094243795
210	0x3bebf2a9	0.007200558
211	0xbdcf1eba	-0.101132825
212	0x3bd684a8	0.0065465756
213	0xbe39e4ec	-0.18153733
214	0xbddf42ad	-0.10901389
215	0x3e4ae413	0.19813566
216	0x3e3d3f51	0.18481185
217	0x3bfab976	0.007651503
218	0x3bc2edfc	0.00594878
219	0x3c731029	0.014835396
220	0x3e8a4cca	0.2701171
221	0xbe42380a	-0.1896669
222	0x3ce58f8d	0.028022552
223	0xbdfc5e7b	-0.12322708
224	0x3d1b883f	0.03797173
225	0xbe01abe4	-0.12663227
226	0x3daf1774	0.08549395
227	0x3ca4e12e	0.020126905
228	0x3e36d6ab	0.17855327
229	0xbda550e6	-0.08072071
230	0xbcdafeb5	-0.026732782
231	0xbdcc0f0e	-0.09963809
232	0xbc14752b	-0.009061138
233	0xbcc75dcd	-0.02433672
234	0x3dfd95e4	0.12382105
235	0x3e2387ed	0.1596982
236	0x3d00a634	0.031408504
237	0xbc33afe1	-0.010967226
238	0xbdd31257	-0.103062324
239	0xbe72402a	-0.23657289
240	0xbd056219	-0.032564256
241	0x3e0d87f9	0.138214
242	0x3e55dd30	0.20885158
243	0x3db8acc4	0.090173274
244	0x3e1ee5cc	0.15517348
245	0x3d0bc55b	0.03412376
246	0x3d923e56	0.07140796
247	0xbc82149f	-0.015878974
248	0xbd53439e	-0.051578157
249	0xbddd6389	-0.108100004
250	0xba768a6e	-0.0009404783
251	0xbe838884	-0.2569009
252	0xbe697414	-0.22798187
253	0xbd609612	-0.05483062
254	0x3e0349b6	0.12821087
255	0xbcdf52ba	-0.027261127

attentions3.attn.weight f4 [1, 8]
0	0xbe42777c	-0.18990892
1	0xbd0d1c7c	-0.034450993
2	0xbdf4e6f0	-0.1195811
3	0x3de6bd72	0.112666026
4	0xbcf9263c	-0.03041374
5	0xbe2784ac	-0.16359204
6	0xbeec9b58	-0.46212268
7	0x3e39ba55	0.18137486

output_layer.linear.weight f4 [5, 16]
0	0x3e68bf5e	0.22729251
1	0xbcd8390a	-0.026394386
2	0x3e941334	0.289209
3	0xbd14ed12	-0.0363589
4	0xbd6ced0b	-0.05784325
5	0xbd7d4c07	-0.061840083
6	0x3e136a79	0.14396085
7	0xbe78f4ea	-0.24312177
8	0x3cdf394d	0.027249003
9	0xbdd138c0	-0.10215902
10	0xbe587581	-0.21138574
11	0xbdd9435f	-0.10608553
12	0x3de6ae13	0.11263671
13	0x3e71166b	0.23543708
14	0x3e54ce49	0.20781817
15	0x3d758d80	0.059949398
16	0xbe00d613	-0.12581663
17	0x3dbe8f38	0.093046606
18	0xbe8edb86	-0.27901858
19	0x3e317aa5	0.17331941
20	0x3dcac1a8	0.09900218
21	0x3d963bcf	0.07335626
22	0x3e913238	0.28358626
23	0x3da39fb5	0.07989446
24	0xbe3897e2	-0.18026689
25	0xbe226b74	-0.15861303
26	0x3e63107e	0.2217426
27	0xbd4f1515	-0.050557215
28	0xbe0b4c64	-0.1360336
29	0x3c1eb8c4	0.009687606
30	0x3e4bfcdb	0.19920675
31	0xbd44c9c8	-0.048043996
32	0xbe02c2fc	-0.12769693
33	0xbe0de6bc	-0.1385755
34	0x3e176690	0.14785218
35	0x3dde80f7	0.10864442
36	0xbd166ea5	-0.036726613
37	0xbe327930	-0.17429042
38	0xbe018d2c	-0.12651509
39	0xbdac5dc8	-0.08416325
40	0x3d2bfe3a	0.041990496
41	0xbd28c4b6	-0.041203223
42	0xbd69f42d	-0.05711763
43	0x3e05b947	0.13058959
44	0xbd01a416	-0.031650625
45	0xbc178316	-0.009247562
46	0xbdc766a1	-0.09736372
47	0x3e4f66da	0.20254079
48	0xbe234947	-0.15945922
49	0xbdd42a04	-0.10359576
50	0xbe5a4522	-0.21315435
51	0xbe3616fe	-0.17782208
52	0xbe1cbb33	-0.15305786
53	0x3d97eef4	0.074186236
54	0x3e465e8b	0.19372003
55	0xbe5f26c6	-0.21792135
56	0xbd674ffb	-0.05647276
57	0xbd3d6c79	-0.046246026
58	0xbe03519b	-0.12824099
59	0xbdb6f39b	-0.08933183
60	0x3bfa4f3c	0.00763884
61	0xbda0985f	-0.078415625
62	0xbe6bc19d	-0.23023076
63	0x3e6271a9	0.2211367
64	0x3df628ba	0.12019487
65	0x3cd828af	0.026386587
66	0x3dad37eb	0.08457931
67	0x3dcb5b14	0.09929481
68	0xbdcb9276	-0.099400446
69	0x3d4067dd	0.04697405
70	0xbe3eec3a	-0.18644801
71	0xbd15c6da	-0.036566593
72	0x3e2ec319	0.17066611
73	0xbd9fc69e	-0.07801555
74	0xbe0a29e9	-0.1349255
75	0x3c3a2ce6	0.011363244
76	0xbdfc9797	-0.12333601
77	0xbd96fe71	-0.073727496
78	0xbd0e70ba	-0.034775473
79	0xbe60a400	-0.21937561

output_layer.attn.weight f4 [1, 10]
0	0xbc405b30	-0.011740491
1	0xbe036bde	-0.12834117
2	0xbd95ccfc	-0.07314488
3	0xbec1d254	-0.3785578
4	0xbe69151e	-0.22761962
5	0x3e1c8856	0.15286383
6	0x3e73f02a	0.23822084
7	0x3d6a2b1d	0.057170022
8	0xbc83950e	-0.016062286
9	0xbd17b0e7	-0.03703394

fc1.weight f4 [128, 125]
0	0xbd9816f1	-0.07426251
1	0xbd81d85e	-0.06340097
2	0xbceeb3ce	-0.029138472
3	0xbd7a6010	-0.06112677
4	0x3d915077	0.070954256
5	0x3d85a967	0.065264516
6	0xbda5192a	-0.0806144
7	0xbd961a9e	-0.073292956
8	0xbd2f9aba	-0.042872168
9	0xbd822b80	-0.06355953
10	0x3db6aaaf	0.08919274
11	0xbd3f7de6	-0.046750925
12	0xbd359a46	-0.04433658
13	0x3d83558a	0.064128
14	0x3d82e32a	0.06390984
15	0xbca5dd33	-0.020247078
16	0xbd925b39	-0.071463056
17	0xbbd8c6f5	-0.0066155144
18	0xba8a84ae	-0.0010568106
19	0xbba4010d	-0.005005008
20	0x3d1c96f1	0.038229886
21	0xbdbd49ce	-0.09242593
22	0xbd61d8ff	-0.055138584
23	0xbbd9e38a	-0.006649439
24	0x3daa9b30	0.08330381
25	0xbc15bf58	-0.009139858
26	0xbd80279d	-0.06257556
27	0xbd5ef39b	-0.05443154
28	0xbb2c4a00	-0.0026289225
29	0xbda133e8	-0.078712285
30	0xbd7d8539	-0.06189463
31	0x3d236155	0.039887745
32	0xbd4a586a	-0.049400724
33	0xbd4bb671	-0.049734537
34	0x3d61398a	0.054986514
35	0x3d4a47d3	0.049384903
36	0x3d1a96a9	0.037741337
37	0xbc45d9c4	-0.012075845
38	0xbd8a4559	-0.06751508
39	0x3dc0fe13	0.09423461
40	0x3d2e3247	0.042528417
41	0xba7e6ed2	-0.00097058446
42	0x3c5da89a	0.013528967
43	0x3d2e6e9d	0.042585958
44	0x3d401974	0.046899274
45	0x3d98c34d	0.07459126
46	0x3c9d76b6	0.019221645
47	0xbd151e8f	-0.036406096
48	0xbd7fe2c1	-0.06247211
49	0x3b88a34c	0.004169857
50	0x3da0083f	0.07814073
51	0x3d9b1cb5	0.07573835
52	0x3db21d1c	0.086969584
53	0xbd4a2384	-0.049350277
54	0x3db15221	0.08658243
55	0x3c5e0ffa	0.013553614
56	0xbd52357f	-0.05132055
57	0xbcd2c993	-0.025730884
58	0x3cbeccce	0.023291018
59	0xbd8dcf3a	-0.06924291
60	0xbd9ab3dc	-0.07553837
61	0x3cce60da	0.025192667
62	0xbd4c35e6	-0.04985609
63	0xbd5f4392	-0.0545078
64	0x3c791505	0.015202765
65	0x3d5cb040	0.053879023
66	0x390fe9d7	0.00013724655
67	0xbd0e7eee	-0.03478902
68	0xbc452a5e	-0.012034027
69	0xbc9a7ef2	-0.01885936
70	0x3d60f2cc	0.05491905
71	0xbd96b336	-0.073584005
72	0x3c30f7ca	0.010801265
73	0x3cc15c4d	0.023603583
74	0xbc6e77ae	-0.014554901
75	0xbba01787	-0.004885617
76	0xbcdd27cb	-0.026996514
77	0x3daa8649	0.08326394
78	0x3d7404da	0.05957494
79	0x3db470f2	0.08810605
80	0x3d88000b	0.06640633
81	0xbc7c875a	-0.01541313
82	0x3d652729	0.05594555
83	0x3d21616d	0.039399553
84	0xbc867bb5	-0.01641641
85	0xbd8c74f6	-0.06858246
86	0xbca6948e	-0.020334508
87	0xbd8eb970	-0.06968963
88	0xbbf013f0	-0.0073265955
89	0xbd119022	-0.035537846
90	0xbc5fa1cd	-0.013649416
91	0x3d1cd821	0.038292054
92	0xbce547f4	-0.027988411
93	0x3d1d00cd	0.03833084
94	0x3d092a26	0.03348746
95	0xbd1de438	-0.038547724
96	0xbdb8a3cd	-0.090156175
97	0x3da7581b	0.08171102
98	0x3d6cccc6	0.057812475
99	0x3ce80542	0.02832282
100	0x3dd01556	0.101603195
101	0x3ab839cb	0.001405531
102	0x3d6dff2d	0.058104683
103	0xbd160a9f	-0.036631223
104	0x3c085081	0.008319975
105	0xbd7886d4	-0.060675457
106	0xbd9db214	-0.07699981
107	0x3c8dc66d	0.01730653
108	0x3d81340b	0.063087545
109	0x3d34d0d1	0.044144455
110	0x3d2bc12e	0.041932277
111	0x3d00a3d0	0.031406224
112	0x3c868a24	0.016423292
113	0x3d04849c	0.03235303
114	0x3d26cadf	0.040720817
115	0xbd12561f	-0.035726663
116	0x3cf56c58	0.029958889
117	0x3d47f072	0.04881329
118	0xbdb8b347	-0.090185694
119	0xbd2ff7da	-0.04296098
120	0x3c065751	0.008199529
121	0x3c6d2242	0.0144735
122	0xbd283cd0	-0.04107362
123	0x3d697966	0.05700054
124	0xbc85f264	-0.016350932
125	0xbd9352e5	-0.07193545
126	0xbd4d775a	-0.05016265
127	0x3cfbe873	0.030750489
128	0x3cbf17c4	0.023326762
129	0xbd3f8a3c	-0.04676269
130	0x3d933034	0.071869284
131	0xbd9ffb54	-0.07811609
132	0x3c8132ca	0.015771288
133	0x3d8d844b	0.069099985
134	0xbc88487b	-0.016636124
135	0x3cd4f33e	0.025994893
136	0x3d89298a	0.06697376
137	0xbd9983fa	-0.07495876
138	0xbd70d7e4	-0.05879964
139	0xbd2fbd59	-0.042905185
140	0xbd3f490c	-0.046700522
141	0xbc1ec9d5	-0.009691675
142	0xbd8567b0	-0.065139174
143	0xbca3a765	-0.01997728
144	0x3da7404e	0.08166562
145	0x3d57d0ce	0.052689366
146	0xbd8d3077	-0.068940096
147	0xbca345e1	-0.019930782
148	0x3c9da39d	0.019243056
149	0x39c1a4f2	0.00036934722
150	0xbd0b0778	-0.03394267
151	0x3d53109c	0.05152951
152	0xbdbf2819	-0.0933382
153	0x3c6a95a3	0.014317903
154	0x3d1aa2a9	0.03775278
155	0x3ca6f8df	0.020382343
156	0xbd11bf91	-0.035583083
157	0x3c41b38c	0.0118225925
158	0x3d16d5ea	0.036825098
159	0x3d7fd73e	0.06246113
160	0x3d419582	0.047261722
161	0x3ce352de	0.027749475
162	0xbd622c03	-0.055217754
163	0x3cecde28	0.028914526
164	0xbd9783c5	-0.0739818
165	0x3d24b5b2	0.04021234
166	0xbc088db8	-0.00833457
167	0xbd966ea1	-0.073453195
168	0xbcfd2e53	-0.030905878
169	0x399efb75	0.00030323458
170	0xbcb3fcf3	-0.021971202
171	0x3b3db625	0.0028947678
172	0x3db10dd2	0.08645214
173	0x3d2f34ef	0.04277509
174	0x3d364e91	0.04450852
175	0xbd156e02	-0.036481865
176	0x3ccbc5ea	0.024874646
177	0x3d86dccc	0.065850824
178	0x3b2ca1d7	0.0026341581
179	0xbd3feff9	-0.046859715
180	0xbc7e72db	-0.015530313
181	0x3ca9226a	0.020646293
182	0xbd03ad3a	-0.032147624
183	0xbd077095	-0.03306635
184	0x3d04037e	0.032229893
185	0xbc477312	-0.012173431
186	0xbb5ec805	-0.0033993733
187	0x3d8ff0e6	0.070283696
188	0xbd60f92e	-0.054925136
189	0x3d5d6ec4	0.054060712
190	0x3dadf5ce	0.08494149
191	0x3c8b028a	0.016968984
192	0xbc6d34a2	-0.014477881
193	0xbc6ed233	-0.014576483
194	0xbc179619	-0.009252095
195	0xbd85ca61	-0.06532741
196	0xbd949759	-0.0725543
197	0xbcb8586f	-0.022503106
198	0xbd8cca47	-0.06874519
199	0x3d1d7e02	0.03845025
200	0xbd17404d	-0.036926556
201	0x3c460e1e	0.012088327
202	0xbd6bab26	-0.057536267
203	0xbda08971	-0.07838715
204	0x3aa3dcc1	0.0012501703
205	0x3d17f9df	0.03710353
206	0x3c11dc33	0.008902597
207	0x3dca2cd1	0.09871829
208	0x3d060084	0.032715335
209	0xbc86e479	-0.016466366
210	0x3d93dc1e	0.072197184
211	0x3c808fcd	0.01569357
212	0xbcd11c3a	-0.025526155
213	0xbd264518	-0.040593237
214	0xbd0d8392	-0.034549303
215	0xbd510901	-0.051033977
216	0xbb61d101	-0.0034456851
217	0xbd821878	-0.06352323
218	0xbdca062b	-0.09864458
219	0xbd55466d	-0.052069116
220	0xbd93f729	-0.072248764
221	0x3cb911a0	0.022591412
222	0xbdd9a1c4	-0.106265575
223	0xbd346352	-0.04404003
224	0xbd33ebf5	-0.043926198
225	0xbb3d87eb	-0.0028920125
226	0x3cdcc164	0.026947685
227	0x3d94a83b	0.0725865
228	0x3d503b99	0.050838087
229	0xbbcb718c	-0.006208604
230	0xbd420347	-0.047366407
231	0xbdd1eafd	-0.102498986
232	0x3cf4a14f	0.029862074
233	0xbd711f70	-0.05886787
234	0x3c9e8005	0.019348154
235	0xba72cac7	-0.00092617836
236	0xbda001d1	-0.078128465
237	0xbd79439a	-0.060855485
238	0x3d83b806	0.06431584
239	0x3db0df5d	0.08636353
240	0xbccb6c0f	-0.0248318
241	0xbdc754f1	-0.09732998
242	0xbdc84723	-0.09779193
243	0xbdd1618a	-0.10223682
244	0xbd5a89c3	-0.053354036
245	0x3d14004e	0.036133103
246	0x3c4916a4	0.012273464
247	0xbd26a13f	-0.04068112
248	0x3d959f0e	0.07305728
249	0x3b9abdef	0.004722349
250	0x3cafb2c0	0.02144754
251	0xbdcf1487	-0.10111337
252	0xbd1092b1	-0.035296146
253	0x3c861977	0.016369564
254	0x3d9685c4	0.073497325
255	0x3bd78592	0.006577202

fc1.bias f4 [128]
0	0xbd579afd	-0.052638043
1	0xbd6ac3a3	-0.05731548
2	0xbd9c1ed5	-0.07623068
3	0x3d0e6c09	0.034771
4	0xbd7ae8cc	-0.06125717
5	0x3d37939a	0.0448185
6	0x3d76897c	0.06018971
7	0xbca6eca2	-0.020376507
8	0xbdad9bcf	-0.08476984
9	0xbd569746	-0.05239036
10	0xbd081325	-0.033221383
11	0x3caf0741	0.021365764
12	0x3d1fd400	0.03902054
13	0xbcea5b9c	-0.028608136
14	0xbc0f0619	-0.008729481
15	0xbd21fd4a	-0.039548196
16	0xbd84d878	-0.06486601
17	0xbd294c21	-0.041332368
18	0x3da60715	0.081068195
19	0x3deaee13	0.1147119
20	0x3d08f347	0.033435132
21	0x3d39e1d2	0.045381375
22	0x3d501dbb	0.050809603
23	0x3d315997	0.04329833
24	0x3d6d8b57	0.057994213
25	0xbdccf668	-0.10007936
26	0x3c9eb6c4	0.019374259
27	0x3ca62671	0.020282002
28	0x3cab39cc	0.020901583
29	0x3d43bc6c	0.047787115
30	0x3d8ea4f8	0.06965059
31	0x3dbe4f73	0.092924975
32	0xbd90caaa	-0.07069905
33	0x3dc1c0b3	0.094605826
34	0xbcc40e18	-0.023932502
35	0xbd33b254	-0.04387124
36	0x3d3c1520	0.045918584
37	0x3d9113a3	0.070838235
38	0xbe09c5b1	-0.1345432
39	0x3cf7e410	0.030260116
40	0x3a895d91	0.0010480155
41	0xbd17d0d2	-0.03706438
42	0xbc06780d	-0.008207333
43	0x3de1a437	0.110176496
44	0x3e05707a	0.13031188
45	0xbdb579cd	-0.08861122
46	0xbdb04187	-0.08606248
47	0xbdac9bd0	-0.084281564
48	0x3d87b9a9	0.06627209
49	0x3c9ebe1d	0.019377762
50	0xbdaff93f	-0.08592462
51	0x3e0f0d5b	0.13969938
52	0xbd10799d	-0.03527223
53	0x3dd3a4da	0.10334177
54	0xbd8a629e	-0.06757091
55	0xbd9f857e	-0.077891335
56	0xbd5c06f8	-0.053717583
57	0xbd8c2dbd	-0.068446614
58	0xbc8ad202	-0.016945843
59	0xbd9d8679	-0.07691664
60	0xbd464e9a	-0.048414804
61	0x3b632536	0.003465963
62	0xbdbaa348	-0.09113175
63	0x3d57ddff	0.052701946
64	0xbce5c2b8	-0.02804695
65	0x3ce34765	0.027744005
66	0x3da80fb8	0.08206123
67	0xbc507e49	-0.012725421
68	0xbd1a6617	-0.037695017
69	0xbd846079	-0.06463713
70	0x3ce30444	0.027711995
71	0xbd3a1259	-0.045427654
72	0xbcd02df2	-0.025412533
73	0xbd4cdb08	-0.050013572
74	0xbd695ccb	-0.05697326
75	0xbce5bab9	-0.028043138
76	0xbdcbbd5c	-0.09948227
77	0xbd9cd885	-0.07658485
78	0xbce4a3c1	-0.027910115
79	0xbdaa7b8a	-0.083243445
80	0x3d92fadf	0.07176756
81	0x3de84dd0	0.113429666
82	0xbd9ba2be	-0.075994
83	0x3d06121e	0.03273212
84	0x3dab214e	0.08355962
85	0x3d07446e	0.033024244
86	0x3de3bbdd	0.111198165
87	0xbd982fea	-0.07431014
88	0x3bba1c3d	0.005679636
89	0xbd46c446	-0.048527025
90	0x3dc670c4	0.09689477
91	0xbda588d7	-0.08082741
92	0x3c96727a	0.018365134
93	0xba45912e	-0.0007536587
94	0xbb002d86	-0.0019558384
95	0x3d9ea622	0.07746531
96	0x3de78f20	0.11306596
97	0xbdaa7291	-0.08322633
98	0xbde738aa	-0.11290105
99	0xbc5004b0	-0.01269643
100	0xbd0fab80	-0.035075665
101	0x3db6a010	0.08917248
102	0x3cb2ff76	0.021850329
103	0xbca31b75	-0.019910553
104	0x3d3a4394	0.045474604
105	0xbccfeb4d	-0.025380755
106	0xbc53dc3a	-0.012930924
107	0x3dac4abe	0.084126934
108	0xbd4b249b	-0.049595457
109	0x3d1d8c92	0.038464136
110	0xbd77a652	-0.06046135
111	0xbc5baeec	-0.013408404
112	0x3dae2f7e	0.08505152
113	0x3d847ddf	0.064693205
114	0x3d07ffbe	0.03320288
115	0xbce5fa1a	-0.02807336
116	0x3cc0463d	0.023470992
117	0xbdebcca3	-0.11513641
118	0xbdafc26a	-0.085820034
119	0x3dc6f6fb	0.097150765
120	0xbd3fe201	-0.046846393
121	0xbd8aac3b	-0.067711316
122	0xbda3a3e3	-0.07990243
123	0xbd3c991e	-0.04604446
124	0xbd674635	-0.05646344
125	0x3b98291b	0.004643572
126	0xbd8530f2	-0.06503476
127	0xbd72f9e6	-0.059320353

fc2.weight f4 [5, 128]
0	0xbc24a13e	-0.010048209
1	0x3cbc292e	0.022968855
2	0x3d0b0824	0.03394331
3	0x3c911eae	0.017714825
4	0x3d28efbd	0.041244257
5	0xbc268a87	-0.010164863
6	0xbde69c70	-0.11260307
7	0x3d6b7d75	0.057492692
8	0x3d3885f6	0.04504963
9	0xbc01c9b8	-0.007921629
10	0x3b184e86	0.0023240163
11	0xbd3ec702	-0.046576507
12	0x3dbe5bd7	0.09294861
13	0xbb7e640e	-0.0038816961
14	0xbd99dc11	-0.075126775
15	0x3d472fee	0.048629694
16	0x3dab3ae9	0.083608456
17	0x3a3d9e82	0.00072333973
18	0x3dd62b3e	0.104574665
19	0xbe196f93	-0.14983968
20	0x3e002cf5	0.1251715
21	0xbbbc0155	-0.0057374635
22	0xbd321f88	-0.0434871
23	0x3d03f1b5	0.03221293
24	0xbe6f42f5	-0.23365386
25	0xbc9bf711	-0.019038709
26	0xbd23b9b3	-0.03997202
27	0x3d7dc955	0.061959583
28	0xbd040507	-0.032231357
29	0xbce37949	-0.027767794
30	0x3d6f6ee1	0.05845535
31	0xbdf95ded	-0.12176118
32	0x3d70835a	0.058719017
33	0xbbc57ed1	-0.0060270806
34	0xbba4f490	-0.005034037
35	0x3cb20e40	0.02173531
36	0x3d8a3a88	0.06749445
37	0xbe4b2040	-0.19836521
38	0x3d4281fa	0.047487237
39	0xbd10211c	-0.035187826
40	0x3cfbb43f	0.030725596
41	0x3d0a4bb2	0.033763595
42	0xb98ca67c	-0.0002682692
43	0x3d019582	0.031636722
44	0x3d42b51b	0.047535997
45	0x3d18fed2	0.03735239
46	0xbd8111a4	-0.06302193
47	0xbd4c8068	-0.049927145
48	0x3da6f3c0	0.081519604
49	0x3e0c3442	0.1369181
50	0xbd2cd8cc	-0.04219894
51	0x3d700a0d	0.058603335
52	0xbdaabce1	-0.08336807
53	0x3da08ff8	0.0783996
54	0xbd0aa3a5	-0.03384747
55	0xb9d36b66	-0.00040325074
56	0x3d24ece6	0.040264986
57	0xbba4cdd4	-0.0050294194
58	0x3c8fe987	0.01756741
59	0xbd173a8e	-0.036921076
60	0xbb0873f9	-0.0020821078
61	0x3d193a4c	0.03740911
62	0x3d063f90	0.03277546
63	0x3df081ca	0.11743505
64	0x3d85e031	0.06536902
65	0xbd1c8267	-0.0382103
66	0x3dda3358	0.10654324
67	0xbd9f4658	-0.07777089
68	0xbacd56d6	-0.0015666138
69	0xbd219241	-0.03944612
70	0x3d1fdba7	0.039027836
71	0x3d8f688e	0.07002364
72	0xbc5d35eb	-0.013501625
73	0xbd3f545c	-0.04671131
74	0x3c636cbc	0.013880905
75	0x3cafc4c5	0.021456132
76	0xbddd4792	-0.108046666
77	0xbd776f36	-0.060408793
78	0xbd3ae7b3	-0.04563112
79	0x3da6b4ef	0.08139979
80	0xbe13e8f4	-0.14444333
81	0xbd65e6ca	-0.0561283
82	0x3da4f149	0.08053834
83	0x3d6bba1f	0.057550546
84	0x3da621e4	0.08111933
85	0x3cffedd8	0.031241342
86	0x3dbc0909	0.09181411
87	0xbcb60968	-0.022221282
88	0x3dd63935	0.1046013
89	0xbd050ff0	-0.032485902
90	0x3dbab3cd	0.091163255
91	0xbd5e73ac	-0.054309532
92	0x3d295220	0.041338086
93	0x3dda8da1	0.10671545
94	0xbc48c58e	-0.012254132
95	0xbd42363f	-0.047415014
96	0x3dc2624e	0.094914064
97	0x3db4ff93	0.088378094
98	0x3d5e315b	0.054246288
99	0xbd814eab	-0.06313833
100	0x3d455e7f	0.04818582
101	0x3dc3b644	0.09556249
102	0x3d8c6c73	0.068566225
103	0xbd70091e	-0.058602445
104	0x3db1b6a6	0.086774155
105	0x3dae3716	0.085066006
106	0x3c8f6053	0.017501986
107	0x3e0b0d2b	0.13579242
108	0xbdb396cc	-0.087689966
109	0xbcc730be	-0.024315234
110	0xbd63d882	-0.0556264
111	0x3c27fc9a	0.010253096
112	0x3df47cc5	0.119378604
113	0x3d413df5	0.047178227
114	0xbc661aad	-0.014044446
115	0x3961523c	0.00021488307
116	0x3d49d226	0.04927268
117	0x3cc7357c	0.024317496
118	0x3d79cf81	0.060988907
119	0x3df629e6	0.1201971
120	0x3cc4f975	0.024044732
121	0x3d0759c8	0.033044606
122	0xb9f18400	-0.0004606545
123	0x3d14b358	0.036303848
124	0xbd1aa071	-0.037750665
125	0xbc0bf471	-0.008542166
126	0xbd7f633f	-0.062350508
127	0x3d442ce1	0.047894362
128	0x3d2edd98	0.042691797
129	0x3d59e0ef	0.05319303
130	0x3c959718	0.018260524
131	0xbe51c1c3	-0.2048407
132	0x3c762bf5	0.015025129
133	0x3d551997	0.052026358
134	0x3c262c1d	0.010142353
135	0x3d31556f	0.043294366
136	0x3bf12ad0	0.00735984
137	0xbe5a9597	-0.21346126
138	0x3d17d2bc	0.037066206
139	0xbd78b09e	-0.06071531
140	0x3d1eefff	0.038803097
141	0xbd46bc33	-0.048519325
142	0x3d8774c1	0.06614066
143	0xbdab0ceb	-0.08352073
144	0xbd0e3bfd	-0.034725178
145	0x3c0becef	0.008540376
146	0x3c422ef2	0.011852013
147	0xbcee79d1	-0.029110821
148	0x3d82d948	0.06389099
149	0xbd19d6d9	-0.03755841
150	0xbc8e962e	-0.017405596
151	0xbe02afae	-0.12762329
152	0xbca3786b	-0.01995488
153	0xbc7172b6	-0.014736822
154	0x3dc21d18	0.094782054
155	0x3da06e81	0.07833577
156	0xbd77bd18	-0.06048307
157	0xbd5b0ce1	-0.05347908
158	0x3d33fafa	0.04394052
159	0x3dd489a6	0.10377817
160	0xbd8da050	-0.06915343
161	0x3db74e02	0.08950426
162	0x3bfd9be0	0.007739529
163	0x3ca13f10	0.01968339
164	0x3deb00ea	0.11474784
165	0xbbdfc353	-0.0068287044
166	0x3d6417d4	0.055686787
167	0xbe163fd9	-0.14672793
168	0x3cd3d21c	0.025857024
169	0x3d291562	0.041280158
170	0x3c7e5b97	0.015524766
171	0x3d262f11	0.04057223
172	0x3d3c40ac	0.045960113
173	0xbce0b10a	-0.027428169
174	0x3d98fdfb	0.07470318
175	0x3d119b84	0.035548702
176	0x3cff40e2	0.031158868
177	0x3dce3180	0.10068035
178	0x3cdbdcdc	0.026838712
179	0x3d1e3858	0.038627952
180	0x3dbf6307	0.0934506
181	0x3c4c48e8	0.012468554
182	0xbda18dc1	-0.078883655
183	0x3e0839a5	0.1330324
184	0x3d59c6de	0.05316817
185	0xbc36321b	-0.0111203445
186	0x3d20ad34	0.03922768
187	0x3d728f37	0.05921861
188	0xbd816bb1	-0.06319369
189	0xbd496d01	-0.04917622
190	0xbdaf2e72	-0.085537806
191	0xbd66001a	-0.05615244
192	0x3d922593	0.07136073
193	0xbddbfe17	-0.10741823
194	0x3d89def2	0.067319766
195	0x3d4fbb4c	0.05071573
196	0xbc2d6968	-0.010584213
197	0x3da0d663	0.07853391
198	0xbd0eb287	-0.034838226
199	0xbdb03c52	-0.08605255
200	0xbcc159f4	-0.023602463
201	0x3d02c23c	0.031923518
202	0xbcf1d677	-0.02952121
203	0x3c4b31f2	0.012402045
204	0x3d31bab6	0.043390952
205	0xbdb273a9	-0.08713467
206	0x3c731afb	0.014837976
207	0xbda021ca	-0.07818945
208	0xbde858cd	-0.113450624
209	0xbb8c613c	-0.004284052
210	0x3c0ef2c9	0.008724877
211	0x3d1e9ccd	0.038723756
212	0x3c4e2d38	0.012584023
213	0x3aa7a9e6	0.0012791723
214	0x3dbb5138	0.091463506
215	0xbda5926b	-0.08084568
216	0xbc96c47c	-0.018404238
217	0xbd2339e6	-0.039850138
218	0x3dc34749	0.09535081
219	0x3ca8e838	0.020618543
220	0xbd435493	-0.047688078
221	0xbdbe749b	-0.092995845
222	0xbd92cbac	-0.071677536
223	0x3d9708df	0.07374739
224	0x3d6e4ccb	0.058178704
225	0x3d7e1e62	0.062040694
226	0x3d7507b5	0.059821803
227	0xbd2ca120	-0.04214585
228	0xbda9b10f	-0.08285724
229	0x3d4f0f6d	0.05055182
230	0xbd484e2d	-0.04890268
231	0xbd5dca47	-0.054147985
232	0x3dc63f19	0.09680004
233	0x3da18608	0.078868926
234	0xbddb494f	-0.10707342
235	0x3da9b57a	0.08286567
236	0xbd812b01	-0.063070305
237	0xbc92c962	-0.017918292
238	0xbcf87cda	-0.030332971
239	0xbe197a75	-0.1498812
240	0xbcd4e589	-0.025988357
241	0x3d32ba44	0.043634668
242	0xbc592fc4	-0.013256017
243	0x3be64cc8	0.007028196
244	0x3ccd4245	0.025056014
245	0xbd4f99fe	-0.050683968
246	0x3cab3633	0.020899868
247	0x3cc2568a	0.023722906
248	0x3cc0be4c	0.02352824
249	0xbc895690	-0.016764909
250	0x3d5089ba	0.050912596
251	0x3d826c61	0.06368328
252	0x3dc7d6a8	0.09757739
253	0x3da273a0	0.0793221
254	0x3d8833d3	0.0665051
255	0x3cebd9c9	0.028790371

fc2.bias f4 [5]
0	0xb7b08de0	-2.10469e-05
1	0xbd6059c5	-0.05477311
2	0x3c8fb3f2	0.01754186
3	0xbd36085a	-0.04444156
4	0xbe012864	-0.12613064
