saved_weights/Grid_10_1-/166/actor.pth (torch, 265637 bytes, 12 tensors)

attentions1.linear.weight f4 [16, 1]
000000 14 c0 52 3f 4c 7d 70 3f b5 c8 14 3f c2 55 23 bd
       0.8232434 0.9394119 0.58118755 -0.039876707
000010 f7 42 79 3f 6a 08 a4 3d ad 5f 50 be 0e a3 5c 3d
       0.97367805 0.08009417 -0.20348997 0.05386644
000020 27 50 23 bf fd 4d 57 bd fb 4e 16 bc 2b 3e 1c 3f
       -0.6379418 -0.05256461 -0.009174104 0.6103236
000030 04 b0 a8 3e c5 3e 5e 3f 42 75 66 bf 70 2f 22 3f
       0.3294679 0.8681453 -0.9002267 0.63353634

attentions1.attn.weight f4 [1, 8]
000000 91 88 49 3e 2b a0 7b 3d 56 37 01 be 85 9b ad bc
       0.19681002 0.061432045 -0.12618765 -0.021192322
000010 64 1e a5 3e f6 e4 10 3e 43 ff 17 3e bf 54 83 bd
       0.3224975 0.14149842 0.14843468 -0.064126484

attentions2.linear.weight f4 [16, 16]
000000 ac a9 5d be 69 8a 90 3e 63 90 98 3d 8d 92 81 be
       -0.21646756 0.282306 0.074494146 -0.25307122
000010 ef a5 7f 3e e9 8d 24 be ad c0 c5 bd 77 2e 1e 3e
       0.24965642 -0.1606976 -0.096558906 0.15447412
000020 e4 85 da bd a9 21 12 be 6e a8 9f bc da da 86 bd
       -0.10670069 -0.14270653 -0.019489493 -0.065847114
000030 e6 4e b1 3d 3e dc 7c 3d 98 7d 32 be f0 89 05 bb
       0.08657627 0.061733477 -0.17430723 -0.0020376407
000040 a0 07 db 3c b5 27 4b bd 65 80 88 3e d0 e9 89 3d
       0.026737034 -0.049598414 0.26660457 0.06734049
000050 cd 68 4c 3e 33 7d 11 bc 59 58 4b 3e 8e c4 5f bd
       0.19961853 -0.0088799475 0.1985792 -0.05463081
000060 fe ea 2d 3e 33 8e 28 bd 14 00 40 3d 52 d3 4e 3e
       0.16984174 -0.041151237 0.046875075 0.201978
000070 42 15 5a bd e6 e7 03 3e 92 c7 1b 3e 12 d6 77 3e
       -0.05324293 0.12881431 0.15212849 0.24202755
000080 b5 a7 e2 3c 8f 51 90 bc 92 ab ea 3d b2 e8 ba bc
       0.02766786 -0.017617015 0.11458506 -0.022816036
000090 b2 6b fb bd 6a d7 44 3e e5 18 5e bc a6 15 3a 3e
       -0.122764006 0.19222799 -0.01355574 0.1817232
0000a0 f6 39 d1 bd 75 4b d7 3d 56 d8 1d 3d 61 b4 92 3c
       -0.10216133 0.10512439 0.038536392 0.017908277
0000b0 2d a2 c2 bb 94 08 01 bd 9f 62 95 bd e2 b7 95 3d
       -0.005939743 -0.03150232 -0.07294201 0.073104635
0000c0 86 5d d2 bd bd 02 04 bd a6 b6 10 be 63 53 70 be
       -0.102717444 -0.032229174 -0.14132175 -0.2346931
0000d0 47 a0 b2 3d 03 04 41 be e0 61 c4 bc a8 21 fe 3c
       0.08721977 -0.18849187 -0.023972452 0.031021908
0000e0 4c 87 30 be f6 46 56 be de ea 7a bd ad 2b f0 bd
       -0.17239112 -0.20925507 -0.061259143 -0.117270805
0000f0 07 a9 af 3d 3a ed 81 be ff fe 50 bd 1e e9 1a be
       0.08577161 -0.25376302 -0.051024433 -0.1512799
000100 0e b4 95 3d 06 29 2f 3e 00 e6 0a bd 96 b3 f7 bd
       0.07309733 0.17105493 -0.03391075 -0.120948
000110 17 15 28 3d e4 6b 5a be 45 15 c6 3c 2c c7 04 be
       0.041035738 -0.2133022 0.024180064 -0.12966603
000120 50 92 0b be 77 a1 3a be 68 18 32 be 9a 7a 2d 3e
       -0.13630033 -0.18225656 -0.17392123 0.169413
000130 3e 69 81 bd 2c 54 06 be 97 50 4d be 45 34 de bc
       -0.063189015 -0.13118047 -0.20050274 -0.027124533
000140 c8 34 67 3d b5 1f 6e 3e c2 74 86 bc 96 4b 24 3e
       0.05644682 0.23254283 -0.016413096 0.16044459
000150 24 83 85 be 6f 15 14 3d 9b 23 a7 3c f0 dc 59 be
       -0.26076615 0.036153253 0.02040272 -0.21275687
000160 a3 55 3e 3e 43 4d 62 be f9 14 0b 3e 8c 40 39 be
       0.18587355 -0.22099786 0.13582219 -0.18091029
000170 cf 4a 3d be 01 52 0f be a4 d1 9a 3d cb b3 3a 3e
       -0.18485568 -0.13996126 0.07559517 0.18232648
000180 9f 0f 29 3e ed af 81 3e ed 3b 82 3e ee 4f bc 3c
       0.16509865 0.25329533 0.25436345 0.022987332
000190 15 e0 44 be 29 25 39 be 07 0c 87 be a6 08 8a 3e
       -0.19226106 -0.18080582 -0.26376364 0.26959723
0001a0 f8 36 65 be 65 17 19 3e 87 9d 0d 3e a1 2e 20 bd
       -0.2238425 0.1495033 0.13829623 -0.03910697
0001b0 f3 7d ed 3b e5 ad 03 3b 97 f7 e5 bd 2a d9 1d be
       0.0072476803 0.0020092663 -0.11228865 -0.15414873
0001c0 99 95 64 be 65 17 75 3e 62 18 8b 3d e6 5d 59 be
       -0.22322692 0.23934706 0.0679176 -0.21227226
0001d0 e5 94 1c 3e 74 48 5c 3e 8c 07 6d be 1d c7 e6 3d
       0.15291174 0.21512014 -0.2314741 0.112684466
0001e0 b9 5e b4 bc 2a 9c eb bd b3 10 1d be 24 1e 73 3e
       -0.022017824 -0.11504395 -0.15338401 0.23741966
0001f0 9c 34 49 be d3 bc 0d bd e3 eb fa 3d 8e a2 63 3d
       -0.19648975 -0.034603905 0.12252023 0.055574946
000200 2a 3e 5e 3e e1 00 0a 3e 28 92 51 be 73 2d c3 bc
       0.21703401 0.13476898 -0.2046591 -0.023825383
000210 0f 0d 3f 3e 06 b9 ce ba 81 17 48 be 8b ea 62 be
       0.18657325 -0.0015771694 -0.19540216 -0.22159784
000220 e3 80 b1 bd 96 fd 4f 3e be de 49 be 63 5d 15 3e
       -0.08667161 0.20311579 -0.19713876 0.14586405
000230 9a 98 54 3e 0a cd 42 be 57 fd 78 bd 4b 46 2b be
       0.20761338 -0.19023529 -0.06078848 -0.16726033
000240 58 fc 2a be 7c d6 53 bd d2 f8 e9 bd 8c 9c 43 3d
       -0.16697824 -0.05171822 -0.11424412 0.047756717
000250 e2 c8 1b 3d 03 b4 cc bc 8b c1 5a be c8 ab 0e 3e
       0.038033374 -0.02498818 -0.21362893 0.13932717
000260 78 05 68 3e f7 41 36 3e 40 58 21 be a2 2e 14 be
       0.22658336 0.17798601 -0.15756321 -0.14470914
000270 42 73 76 3e d3 eb 00 bd 01 c7 5a bd 5f c7 82 3e
       0.24067405 -0.0314749 -0.05341244 0.25542733
000280 68 c6 69 be 9b e2 57 3e 48 d9 03 be 82 e1 51 be
       -0.22829592 0.21082537 -0.12875855 -0.2049618
000290 20 84 ac bd 8f bc 69 3e 04 af 30 3e 7b 75 63 3e
       -0.08423638 0.22825836 0.17254263 0.22212784
0002a0 44 14 42 3e 12 3b a1 3d 0f 38 c2 3d bc b0 9f bd
       0.18953043 0.07872595 0.094833486 -0.07797381
0002b0 1a e0 4e be 33 7f 39 3e c9 78 01 3e 04 5b 0c 3e
       -0.20202675 0.18114929 0.12643732 0.13706595
0002c0 e1 9a 63 bd e8 df 89 be 76 3e 10 3e 05 03 57 be
       -0.055567626 -0.2692864 0.14086327 -0.20997246
0002d0 8d 61 0d bd 5e b2 aa 3d 89 90 e0 bd 17 d4 52 be
       -0.03451686 0.08334802 -0.10965068 -0.20588718
0002e0 77 0e df 3c 53 cb 34 3e e2 15 6e be c9 13 96 be
       0.027228577 0.17655687 -0.23250535 -0.2931197
0002f0 33 cb ba 3c bc c9 2d 3e 81 03 35 3e 51 f9 2c 3e
       0.022801971 0.16971487 0.17677118 0.16891982
000300 21 5f 8c be 10 71 d6 3d e8 32 eb 3c 13 ba ed 3c
       -0.27416328 0.10470784 0.028710797 0.029019391
000310 10 10 1c 3c 93 3b 80 be 7e 52 84 3e 6f 3c 82 be
       0.009525314 -0.25045452 0.25844187 -0.25436732
000320 fc 0b 02 be d8 41 d5 bb 7b f4 fb 3d 60 17 bc bc
       -0.12699884 -0.0065080933 0.1230249 -0.022960365
000330 fc 8d d3 3c 8d 8f 34 bd c1 fd 8a 3d f6 39 af bd
       0.02582454 -0.044082213 0.06786681 -0.08555977
000340 c7 14 2a be c0 55 6d 3d 00 6f 1a 3c 9f 75 37 be
       -0.16609488 0.057943106 0.0094258785 -0.17915963
000350 4d b4 b4 bd a7 fc b8 3d 4c 58 a7 bd 00 e7 92 3d
       -0.08823452 0.090325646 -0.08171138 0.07172966
000360 9b 04 67 3e de c0 73 3e e0 c2 4d 3e 57 c8 04 bc
       0.2256035 0.23804042 0.2009387 -0.008104405
000370 09 f6 1e be a5 6d b0 bd 35 73 b9 3d a1 b1 58 be
       -0.15523542 -0.08614663 0.09055177 -0.2116151
000380 dd 2b d0 bd ca 41 88 be ae 51 4c 3e 36 99 ae 3d
       -0.10164616 -0.26612693 0.19953033 0.085253164
000390 5a f0 f0 bd fa 52 f2 bd fc 60 8e 3c 5d fa 94 3d
       -0.117645934 -0.11832233 0.01738023 0.072743155
0003a0 17 fd d8 3c 05 52 38 3e 17 7a 54 be 9b 97 5e be
       0.02648787 0.18000038 -0.20749699 -0.2173752
0003b0 64 18 91 be 46 32 8c be 0e 36 21 be 73 52 02 be
       -0.2833892 -0.27382106 -0.15743276 -0.12726764
0003c0 23 dc 79 3e bb ed 19 3d 0d ce 63 bd 11 b1 01 bc
       0.24400382 0.037580233 -0.055616427 -0.007915751
0003d0 e5 38 46 bd 0a a6 7c 3c a8 a5 87 be b4 04 97 bd
       -0.048394103 0.015420446 -0.26493573 -0.07373944
0003e0 8c 19 0e 3e 77 98 39 3d e0 e6 f6 3d 5f 80 58 be
       0.13876933 0.045311417 0.12055755 -0.2114272
0003f0 08 cb 4a 3e e1 0e 37 bc f3 c7 dd 3c 81 bc 22 3e
       0.19804013 -0.011172981 0.027072882 0.15892221

attentions2.attn.weight f4 [1, 8]
000000 14 54 21 be 30 3e 17 3e 03 c5 76 be 46 1a 8e 3e
       -0.1575473 0.14769816 -0.24098592 0.2775442
000010 f9 4c fb 3d 62 0b 84 be 0a bd 63 3e 2a 01 6c 3d
       0.12270541 -0.25789934 0.22240081 0.057618298

attentions3.linear.weight f4 [16, 16]
000000 34 2d 3a be c7 f9 c6 3d 4b ba b8 bd fc 22 d2 3d
       -0.18181306 0.0971561 -0.090199076 0.10260579
000010 a0 a0 67 3c f2 d5 b6 bd 2c a8 75 be 44 50 94 bc
       0.014137417 -0.089275256 -0.23989934 -0.01810468
000020 16 a0 87 be 4d 6a b9 3c 33 16 35 3e 12 b1 1a 3d
       -0.26489323 0.022633696 0.1768425 0.037766524
000030 23 5c ea bd d6 7d 03 3e c6 44 fc 3d 9d ff 6c 3c
       -0.11443355 0.12840971 0.12317805 0.01446524
000040 f7 ce 48 3d ae af 51 be 5b 41 20 3e 69 ad 7f be
       0.049025502 -0.20477173 0.15649931 -0.24968494
000050 4b 0b 7c 3d 82 d2 6b be ea c7 65 3e 00 7c 95 3d
       0.061534207 -0.23029521 0.22439542 0.07299042
000060 10 07 ad bd a7 12 39 3e f2 2b 89 bc d7 c8 01 bd
       -0.08448613 0.18073522 -0.016744588 -0.031685676
000070 9f ee 2a be f9 3e 9c 3c 3c b1 29 be 1f a1 d7 3d
       -0.16692589 0.019072996 -0.16571516 0.10528778
000080 24 b1 07 3e e1 d9 62 be eb d6 35 3e 91 5f 0b be
       0.13251168 -0.22153427 0.17757766 -0.13610674
000090 78 83 85 be 2f 3e 10 bc 9a 75 e6 3d 15 9d 17 bd
       -0.26076865 -0.008803888 0.112528995 -0.03701504
0000a0 0f 58 47 be bd 8c 51 3d 1b b4 24 3e d7 6a 2a be
       -0.19467185 0.05115961 0.1608433 -0.16642319
0000b0 6d 77 12 3e b7 3f 4d bc 46 9e c2 3d e0 9e 02 be
       0.1430337 -0.012527398 0.095028445 -0.12755919
0000c0 a6 fe 0e be b3 51 97 ba 28 39 8b 39 e7 5b 49 be
       -0.13964328 -0.0011544734 0.0002655473 -0.19663964
0000d0 e3 90 81 3e 93 e1 fc bc a6 05 68 3e 9a 6d 95 bd
       0.25305852 -0.03086928 0.22658405 -0.072962955
0000e0 39 f5 4b 3d d4 ec 31 3e 23 de 01 3e 1e 37 2e 3e
       0.04979441 0.17375499 0.12682395 0.17013213
0000f0 0e f7 3d be e2 3a 80 bd 41 c8 32 be 51 3a 0a be
       -0.18551275 -0.06261231 -0.17459203 -0.13498808
000100 36 46 8f be 2b e1 86 3d c2 cb f3 3d 65 8c 01 be
       -0.27983254 0.06585916 0.11904098 -0.12651213
000110 bc 4d 33 be 80 55 71 bd 68 2e 86 be ee 18 1b 3d
       -0.17510122 -0.05891943 -0.2620728 0.03786557
000120 b2 38 65 be 32 70 4d 3d f7 0e 7e 3e 1f a5 06 3e
       -0.22384909 0.050155826 0.24810396 0.13148926
000130 64 23 93 bd 01 8f 84 3e 02 d0 77 3e 11 7b 03 be
       -0.071844846 0.25890353 0.24200442 -0.12839915
000140 22 09 bc bc bb 0d 63 3e f4 53 00 be e5 dc 6b be
       -0.022953574 0.22173207 -0.12532026 -0.23033483
000150 f1 32 2d 3d c9 3b 8a 3c 37 50 47 be 68 13 70 bd
       0.04228491 0.01687421 -0.19464193 -0.058612257
000160 8f f0 dc 3d 21 3a dd bd 43 67 36 3e db 46 14 be
       0.107880704 -0.10802103 0.17812829 -0.14480154
000170 95 36 1a bd 76 9f 84 bd c8 80 78 3e 36 f1 5f be
       -0.03764971 -0.06475727 0.24267876 -0.21869358
000180 4f 39 38 3d 0b 12 5d be 78 a4 59 be 41 36 02 be
       0.04497653 -0.21588914 -0.21254146 -0.12716009
000190 7d 8f b3 bd e4 89 b9 3d 9d e6 96 3d e6 a6 f6 3c
       -0.087676026 0.09059504 0.07368205 0.03010888
0001a0 3a 9e 1e bd ff 2f ea 3c 23 08 89 bd 0c 0f ff bd
       -0.038725115 0.02858734 -0.06691005 -0.12454042
0001b0 1c 90 04 be 74 76 0f 3e 61 2b 73 3e 22 9d 5b be
       -0.12945598 0.1401003 0.23747016 -0.2144666
0001c0 80 71 e9 bc f0 f6 4c bd 1d 88 f4 3d 52 ef 45 3e
       -0.028496504 -0.050040185 0.11940024 0.19329575
0001d0 31 0a 25 be f5 07 e8 3d d7 0d 8b be 72 3c 29 be
       -0.16117169 0.11329643 -0.27158996 -0.16526964
0001e0 d9 62 87 be c9 01 ee bd e8 b1 ee 3d 7f 0d 0c 3e
       -0.26442602 -0.11621434 0.11655027 0.13677023
0001f0 2c f8 d5 3d 08 35 3f bc ba e5 0d 3e e2 02 05 be
       0.10447726 -0.0116703585 0.13857165 -0.12989381
000200 16 c5 d6 3d b3 17 8b 3d 1d b3 14 3e e0 4c d0 3c
       0.1048681 0.0679163 0.14521451 0.025427282
000210 b9 39 33 be d5 95 d5 3c 86 9d 65 3e fc f6 79 be
       -0.17502488 0.026072422 0.22423372 -0.24410623
000220 89 0e 8b 3c ff b0 2f 3e df 82 99 3d 2a 84 0e 3e
       0.016974704 0.17157362 0.07495665 0.13917604
000230 34 7c 2a 3e 00 fd c6 3d e7 75 43 3d 13 ef 20 be
       0.16648942 0.09716225 0.047719862 -0.157162
000240 c8 01 04 3e ec f9 a1 3d 42 df 2e 3e 77 3b 4e 3e
       0.12891304 0.07908997 0.17077354 0.20139872
000250 6f 1b 73 3e f6 63 ce bd ce a4 13 be 34 5d e4 bd
       0.23740934 -0.1007766 -0.14418337 -0.111505896
000260 34 9a c2 3d 83 42 47 be 61 50 85 3e 6b 23 65 be
       0.09502068 -0.19458966 0.26037887 -0.22376792
000270 36 d2 3a 3e c5 ba 49 be e2 64 18 3d 88 23 38 3e
       0.18244252 -0.19700153 0.037205584 0.17982304
000280 c0 0f 4c be f0 b6 43 be 34 35 cd 3b c1 7a ad bd
       -0.19927883 -0.19112754 0.006262446 -0.08470679
000290 2c 8c 35 bd 90 39 5a be 7c 5f 91 be ff 78 1e be
       -0.04432313 -0.21311021 -0.2839316 -0.15475844
0002a0 56 5a bc bd 5e 5f b9 bd e3 39 1f be 7c f3 61 3e
       -0.09196918 -0.09051393 -0.15549426 0.22065538
0002b0 ab 54 7b 3e 9c 12 2a 3e 05 00 82 3e c5 48 64 be
       0.24544017 0.16608661 0.2539064 -0.22293384
0002c0 98 90 4b 3e 24 ef 15 3e f7 18 61 be d9 c6 e3 3c
       0.19879377 0.14642006 -0.2198218 0.027804779
0002d0 32 97 b1 bc 71 3c 2d 3e 2a 25 35 3e 8f 3f 05 be
       -0.02167854 0.16917588 0.17689958 -0.13012527
0002e0 9a 03 0d 3e d9 23 4a be ae 6a 46 3e 1f e8 27 3e
       0.13770905 -0.19740237 0.19376633 0.16397141
0002f0 81 d9 6a 3d b2 1c 50 3e e4 e6 05 3e 51 d5 8f bc
       0.057336334 0.20323446 0.13076359 -0.017557772
000300 9d 0f 72 3e fc 98 88 3e 6c fd 27 3c 81 f0 0b 3e
       0.23638768 0.26679218 0.010253292 0.13665964
000310 77 aa b4 3d fc bd b6 3c 7e b0 c6 bc fe 7d a8 3d
       0.08821576 0.022307388 -0.02425408 0.08227156
000320 20 03 fe bd 33 42 94 be 30 dc cc 3d 47 e4 c2 3d
       -0.1240294 -0.28956756 0.10002935 0.09516197
000330 a8 bd b3 3b 9c ef df 3b 9c f9 4a be 99 63 83 3d
       0.0054852553 0.0068339836 -0.19821781 0.06415481
000340 86 c3 5d be 01 30 2e be ad 87 7c bd ad 06 85 3e
       -0.21656618 -0.170105 -0.061652828 0.25981656
000350 70 c1 0a 3d 10 37 d3 bd af 06 41 bc 3b 58 22 be
       0.033875883 -0.10313237 -0.011781379 -0.1585397
000360 da 5a d0 3d 57 1e 5a 3d 62 56 51 3c b9 d4 d3 bd
       0.101735786 0.05325159 0.012776943 -0.10343308
000370 aa 19 2e 3e d6 bc 15 3e 67 e8 c5 3b 84 74 20 3c
       0.17001978 0.14622816 0.0060396674 0.0097934045
000380 86 42 0e be a6 29 71 3e 37 bd 43 3e 37 1c 15 3e
       -0.13892564 0.23551044 0.19115148 0.14561544
000390 2f a4 87 3e 0c a3 77 be 3a 82 a6 bd 71 3e b1 bd
       0.2649245 -0.24183291 -0.081303075 -0.08654488
0003a0 4c 08 7f 3e 02 d4 66 be 61 bd bb 3d e7 d2 19 3e
       0.24905509 -0.22541812 0.091669805 0.15021859
0003b0 8a 11 6d be 4e ff 07 be d0 e3 11 be a8 ae da 3d
       -0.23151222 -0.13280985 -0.1424706 0.10677844
0003c0 c8 be db bd 99 25 49 3e e2 7c 82 3d 86 26 5d 3e
       -0.10729748 0.19643249 0.06371476 0.21596727
0003d0 b1 82 83 be 47 f8 fa bd a5 c5 28 be 69 47 ff 3d
       -0.25685647 -0.122543864 -0.16481645 0.12464792
0003e0 33 5f ff bc d4 88 56 3e 46 cc 46 3d f2 87 32 3e
       -0.031173324 0.20950633 0.048534654 0.17434672
0003f0 36 3e c0 bd 8b b7 16 bd 59 db 66 3e 0a 36 5f 3e
       -0.09386866 -0.036796134 0.22544612 0.21797958

attentions3.attn.weight f4 [1, 8]
000000 95 59 46 bd e0 ad 93 3e 54 87 31 be f1 f0 65 be
       -0.048425276 0.28843594 -0.1733678 -0.22455193
000010 6d 76 00 be cd 2e a6 3e 8e 86 34 bd bc 28 79 be
       -0.12545176 0.3245758 -0.044073634 -0.24331945

output_layer.linear.weight f4 [5, 16]
000000 7a fc 6f 3e d3 25 51 be 2f e8 af 3d 06 7e 4d bd
       0.23436156 -0.20424585 0.085892074 -0.050169013
000010 55 32 81 3e f6 16 43 be 6a 83 6d 3c 87 2b 20 be
       0.25233713 -0.19051728 0.014496664 -0.15641604
000020 5d 2a 2d be 60 f3 82 3d be c6 2b 3e c8 8f 16 3e
       -0.16910692 0.06394076 0.16775033 0.14703286
000030 8e a9 3c 3d 64 88 4b 3e 30 f9 ba bd f8 3d 70 3e
       0.046060137 0.19876248 -0.0912956 0.23461139
000040 ae 44 63 bd 13 50 8b 3d 2c 72 a5 3d 23 4b 37 3e
       -0.05548542 0.06802382 0.08078417 0.17899756
000050 92 0f 41 be 93 3f 94 bd d2 9e d0 bd 96 17 81 be
       -0.18853596 -0.07238688 -0.101865426 -0.25213307
000060 b7 25 2f bc 4c a1 c8 3d 4d 9d 5f 3d 3a 4c 52 bd
       -0.010690144 0.0979639 0.054593373 -0.051342227
000070 8e cb 87 bc c6 0d 7f be 36 a1 15 3e 99 ae 86 3c
       -0.016576555 -0.24907598 0.14612278 0.016440677
000080 60 5e 01 3d fe a4 11 3e ff 4e 68 bd 79 5a ec 3d
       0.031584144 0.14223096 -0.05671596 0.11540694
000090 84 ad c9 bd 65 a1 d7 bd f1 17 3a be fc 52 99 be
       -0.098475486 -0.105288304 -0.18173195 -0.29946125
0000a0 78 fd 11 3e d5 4a b4 3d fa 6b 7a 3d 4a 11 51 3e
       0.14256847 0.088033356 0.06113813 0.20416752
0000b0 b5 d4 09 3e 6d a9 8a be 60 94 70 3e 80 f9 8d 3d
       0.13460048 -0.27082387 0.234941 0.06932354
0000c0 5c d9 9e 3d 45 e2 0d 3e c9 d6 84 3e 24 4d 43 3e
       0.07756302 0.13855846 0.25945118 0.19072396
0000d0 2c e6 b1 3d 46 63 86 3e b9 a9 94 bd 1e 12 b8 3d
       0.0868648 0.26247615 -0.072589345 0.089878306
0000e0 79 e0 3c 3e 7b 67 f1 bc 9e e8 2e 3e 30 3e 7e 3b
       0.18445005 -0.029468289 0.17080924 0.003879439
0000f0 cf f8 d6 3d 88 a5 82 3e 11 45 57 be 9b f4 da bc
       0.10496675 0.25516915 -0.2102244 -0.026727965
000100 97 53 8e 3d 41 b2 a1 bd 96 c1 42 be 8e 4d 62 bc
       0.06949537 -0.07895327 -0.1901916 -0.013812436
000110 84 bc 86 bd 3b 27 15 be 3a f8 a5 bd fb 58 9e 3d
       -0.06578925 -0.14565746 -0.08103986 0.077318154
000120 d3 19 5f 3e 95 6e 7e 3d 7f 59 86 3e 01 b7 8b bd
       0.21787195 0.062117178 0.26240155 -0.068220146
000130 0e 10 4a be 2a ab 16 be ca a9 63 bc c0 56 37 3e
       -0.19732687 -0.14713731 -0.013895461 0.17904186

output_layer.attn.weight f4 [1, 10]
000000 d0 b2 f6 3d f3 29 93 bd 5a 5f 92 3e 0f 89 88 be
       0.120458245 -0.071857356 0.28588372 -0.26667067
000010 e0 3d 91 be 01 5e fe bd 92 3a 97 be c4 92 39 3d
       -0.2836752 -0.124202736 -0.29536873 0.045305982
000020 ec 94 5d be 6f b6 12 be
       -0.2163884 -0.14327405

fc1.weight f4 [128, 500]
000000 2e 16 22 3a 00 47 14 bd 4c 24 e5 bc af 35 e2 3c
       0.00061831146 -0.036200523 -0.02797141 0.027613489
000010 3f af 93 bb 40 c1 7e 3d 2c 6a 92 ba f6 7f f4 3c
       -0.004506975 0.062196016 -0.0011170558 0.029846173
000020 3f 20 ce 3c 0d 6a d4 3c d5 0f 75 3d 7b 25 1d bd
       0.02516186 0.025929475 0.05982955 -0.038365822
000030 ac 0e eb 3c b8 61 37 3d 62 a7 37 bc b3 16 6c 3d
       0.02869352 0.044770926 -0.011209341 0.057638835
000040 60 f5 5a 3b 62 60 68 3b 24 d3 4c 3d 5d 96 13 3d
       0.0033410415 0.003545784 0.050006047 0.03603207
000050 3b 11 a1 bc 1e 91 c3 bc da fb 1a bd 80 96 e0 ba
       -0.019661536 -0.023872908 -0.03783784 -0.0017134696
000060 97 f0 34 bd 8b f2 2a 3d 22 b6 f8 3c a3 f4 92 bc
       -0.044174757 0.041735213 0.030360285 -0.017938918
000070 00 59 11 ba 8b 1e 0a 3d f3 f7 04 3b b3 a4 2a bd
       -0.0005544573 0.033720534 0.002028939 -0.041660976
000080 9b 46 9d bc 4c 71 2a 3d c1 58 65 bb 4b c2 d5 3c
       -0.019198706 0.041611955 -0.0034995528 0.026093623
000090 05 0c 0b 3b 2f 23 b0 bc 4e 61 24 3d fc 25 e1 3c
       0.002121688 -0.021501152 0.04013186 0.027483933
0000a0 d0 26 ec 3c 84 2c 90 3c 3b c3 f3 3b 74 07 3b 3d
       0.028827101 0.017599352 0.007439045 0.045661405
0000b0 93 fc 68 bc 2c 56 3a 3c d6 b6 61 3b aa bd ba bb
       -0.014220375 0.011373084 0.0034441254 -0.0056988792
0000c0 82 f7 cd 3b 8c f4 ef 3c 28 8c be bb 01 e2 18 bd
       0.0062856087 0.029291414 -0.005815048 -0.03732491
0000d0 49 31 ff 3c fe 8c 52 bc c3 6c 43 3d 7c 53 27 3d
       0.03115143 -0.012850998 0.047711145 0.0408511
0000e0 88 9c d5 bb 5c 19 51 3d 54 92 6d 3d 38 ec f6 3b
       -0.006518904 0.051049575 0.058000877 0.0075354837
0000f0 00 15 ec 3c e8 59 7d bd a5 ba 90 bc 71 10 1e 3d
       0.028818607 -0.06185332 -0.017667124 0.0385899
000100 f8 56 69 ba b3 f2 33 3d ec 10 0a 3c 07 b4 70 3d
       -0.0008901204 0.043932628 0.008426886 0.058765437
000110 32 ea 37 3c af bf 49 bc 87 e9 5f 3d f6 71 6c bd
       0.01122527 -0.012313767 0.05466607 -0.05772587
000120 f2 f3 13 3d 01 f0 e3 3c 8e 5d 49 3c 8d 11 c6 3c
       0.036121316 0.027824404 0.012290372 0.02417829
000130 38 01 9a 3c c7 a1 7e bc 34 e2 02 3d f6 b5 12 3d
       0.01879941 -0.0155415 0.031954005 0.035818063
000140 56 31 26 3d 5b a7 3d bd 7e d3 a4 3c 8a d8 38 3d
       0.040574394 -0.04630218 0.020120379 0.045128383
000150 ed 44 8b 3c 03 a9 1c bb 7f 1d 41 bc b5 0c b7 bc
       0.01700064 -0.002390445 -0.011786818 -0.022344926
000160 90 1f 87 3d 00 3c 80 bb 6b 82 77 3c 7e 29 2c 3c
       0.06597817 -0.0039134026 0.015106778 0.010507939
000170 42 24 9b bc 4b 16 6a 3d b1 07 47 bc 31 51 ab bc
       -0.018938188 0.057150166 -0.01214783 -0.020912739
000180 aa 63 dd bc b5 89 0c 3d 0c a1 27 3c 95 52 4b bb
       -0.027025063 0.034311015 0.010231268 -0.0031024565
000190 49 86 03 3c fd 6b 1d bc 54 79 1b 3b 83 43 a3 bc
       0.008027622 -0.009608266 0.002372344 -0.019929653
0001a0 b3 7f 1e 3d 26 0b d7 3c 65 1d 11 bd 9d ff 10 bc
       0.038696002 0.026250433 -0.035428423 -0.008850005
0001b0 33 5f 43 3b 86 05 d8 39 c7 95 57 3d 0a 40 44 bd
       0.0029811382 0.00041202846 0.052633073 -0.047912635
0001c0 1a df 8b bb e7 a2 e7 3c b7 e7 b9 bc dc 63 00 3c
       -0.004268539 0.02827592 -0.022693498 0.007836308
0001d0 72 ff 12 bd 32 ce 80 bc 38 83 71 3d 02 1b 92 bb
       -0.035888143 -0.015723322 0.05896303 -0.004458786
0001e0 98 d0 12 3d 59 fd b6 bc 04 3b 18 bc 05 6a 84 bc
       0.03584346 -0.022337602 -0.009291414 -0.016163835
0001f0 01 93 7d 3d 4a 33 24 3c aa 2b 09 3c f1 bb 70 3d
       0.061907772 0.010021994 0.008372227 0.058772985
000200 3a e9 8d 3b 80 17 7c 3d c0 f9 73 3d bd d8 b9 3c
       0.0043307813 0.06154585 0.059564352 0.022686357
000210 a3 b7 60 3d 7c d9 ba 3c 7c 83 46 3d dc 04 35 bc
       0.05486263 0.022808783 0.048465237 -0.011048522
000220 6e 19 12 bd 31 5b 61 3d f5 e0 7b 3c a2 27 a5 bc
       -0.035668783 0.055018608 0.015373458 -0.0201605
000230 f4 da 5b 3d dd c9 55 bd b6 d3 b7 bc f5 3e 61 3d
       0.053675607 -0.052194465 -0.022439819 0.05499168
000240 1e 05 20 3d 8b af 02 3d 67 95 42 bd b5 6e ae 3a
       0.03906738 0.031905692 -0.047505762 0.001330814
000250 2a db 67 3d 0e 6f e4 3c 6b 65 00 3d cf e7 d7 bb
       0.056605496 0.027884986 0.03134672 -0.006588913
000260 f5 f0 3e 3c fb e1 2a bc 30 55 42 3d b3 03 9d bc
       0.011654128 -0.0104298545 0.047444522 -0.019166803
000270 14 d5 8c 3b 40 64 09 3b cd e8 a9 bb d7 56 ae 3b
       0.004297862 0.0020964295 -0.0051852227 0.0053204107
000280 4b 5a 41 bc c7 ae 12 bd c4 11 70 3c 76 74 1b 3c
       -0.011801313 -0.035811212 0.014652673 0.009488216
000290 b8 38 1f 3c d8 0d 3c 3c e2 15 c2 3c 79 d1 1c bc
       0.009718113 0.01147791 0.023692075 -0.009571427
0002a0 6f 8c bb 3c 78 7e f0 3b d8 fa 85 3d 11 56 61 bd
       0.022894112 0.007339295 0.06541985 -0.05501372
0002b0 44 27 23 3d 65 1a 54 3d 98 89 55 3d 87 72 a1 3c
       0.03983237 0.051782984 0.052133173 0.019707931
0002c0 98 e1 8b bc 7b 67 4b 3d 4d b4 36 3c 48 70 2f 3d
       -0.017075345 0.049659234 0.0111513855 0.04283169
0002d0 56 45 07 3c 42 3b a9 3b 1e 87 38 3c 5a 9a 7a 3d
       0.008256277 0.005164535 0.011262683 0.061182357
0002e0 80 00 93 bc 8f 30 6d 3d 40 b5 b9 3c 50 1c 37 3d
       -0.017944574 0.057907637 0.022669435 0.044704735
0002f0 f8 51 ea ba 2f 43 88 bb 60 77 38 3d a4 f4 68 bd
       -0.0017877212 -0.0041583995 0.04503572 -0.056873932
000300 0b 51 5b bc ed 3f 8f 3c 52 ef 24 bc 15 3a 42 3d
       -0.013386021 0.017486537 -0.010066824 0.047418673
000310 d0 23 94 bc b1 ad 6e 3c b2 bf 1d 3b d0 28 2d 3d
       -0.018083483 0.014567778 0.0024070558 0.04227525
000320 bc d7 8d bb 9d c5 9b 3a df 0a 01 bd 9c 84 dc 3c
       -0.004328696 0.0011884455 -0.031504508 0.026918702
000330 b0 07 47 3d aa 36 98 3c 3e 31 09 bd f9 6b 29 3d
       0.048591316 0.018580753 -0.033494227 0.041362736
000340 19 29 a5 bc 81 c9 98 3b eb 18 b3 3c 86 f5 3e bd
       -0.020161198 0.004662693 0.021862468 -0.04662087
000350 b0 ef 99 bc 9d 00 9a bc e2 34 67 bc e9 aa 29 3d
       -0.01879105 -0.01879912 -0.014111729 0.04142276
000360 61 19 aa 3c 65 da 8a bb 65 84 2a 3d 99 a3 8a 3c
       0.020764055 -0.0042374604 0.041630168 0.016923713
000370 de db 21 3d e7 43 13 bd be e5 31 bc 5c 00 2d 3d
       0.039516322 -0.03595343 -0.010857997 0.04223667
000380 fa 83 30 bc 21 00 95 bb 3d 16 bd bb c6 da 88 bb
       -0.010773653 -0.0045471345 -0.0057704733 -0.0041764705
000390 73 24 7c 3d 00 d1 92 bc ec 15 d0 3c 7d b2 03 3c
       0.0615582 -0.017921925 0.025401078 0.00803816
0003a0 e0 62 ea ba 86 30 97 bc ce 65 5d 3d 77 a9 6c 3d
       -0.001788225 -0.018455755 0.054052167 0.0577788
0003b0 d8 cb 05 bd 2f ac 40 ba c3 5b 0b bc 2d 4d b2 3c
       -0.032665104 -0.0007349876 -0.008505764 0.021765316
0003c0 0a 64 59 3d 52 2d 4b bd c0 72 27 3b c6 4f 70 3c
       0.05307392 -0.049603768 0.0025550574 0.014667457
0003d0 ad 55 3e 3d da c2 d5 3b c5 04 8e bb bc 8d 39 3d
       0.046468426 0.0065234723 -0.0043340647 0.045301184
0003e0 2e 85 a7 bc 4d 32 02 3d 9c 74 05 3c 48 89 4e bd
       -0.020449247 0.03178625 0.008145478 -0.05042389
0003f0 aa 9b 46 3d 60 01 0d bc 31 5e 85 3b 2f ac 7b 3a
       0.048488297 -0.008606285 0.0040700664 0.00096005475

fc1.bias f4 [128]
000000 0f 63 40 bd 09 60 6a 3c 92 5a 9e 3d d2 f5 3b bd
       -0.04696947 0.014305123 0.07732119 -0.04588873
000010 f5 6c 23 3b d1 30 12 bd 4a e6 e4 3c 42 5e d8 3c
       0.002493677 -0.035691086 0.027941842 0.026412133
000020 27 b9 37 3d 54 91 e8 3c 63 e3 40 3d 55 fe 62 bd
       0.04485431 0.02838961 0.047091853 -0.05541833
000030 55 c7 55 bd bc e2 ca bc af b6 28 bd 67 d7 32 bd
       -0.05219205 -0.024766319 -0.041189846 -0.043662455
000040 19 8e 8e bd d5 1d 50 bd c5 90 a8 3c 96 78 8a bd
       -0.06960697 -0.0508097 0.020576844 -0.06761281
000050 a7 3a 81 bd 88 93 58 bd ee c5 5c bd 8e f2 30 bd
       -0.06310015 -0.05287507 -0.053899698 -0.04320007
000060 c0 be ec 3c 63 cb a2 3d c2 f1 8d bc 26 0e 6b 3d
       0.02889955 0.07948949 -0.017327193 0.05738654
000070 26 76 a7 3d 96 d4 d0 bc d7 16 5d bd 28 82 70 bd
       0.08176832 -0.025491994 -0.05397686 -0.058717877
000080 33 fe 2b 3c 84 a7 ff 3c f0 bb 59 bd dd ca f4 bc
       0.010497618 0.031207807 -0.053157747 -0.029881889
000090 f7 21 0a 3e d5 95 18 bd 03 3d 01 3d 3e 3b a2 bd
       0.13489519 -0.037252266 0.031552326 -0.07921456
0000a0 de 9f c9 3c 0a c1 56 bd f1 40 27 bd 54 36 75 3b
       0.024612363 -0.05243019 -0.040833417 0.0037416415
0000b0 b7 08 f6 bc 51 25 22 3b a0 b3 a0 3c 37 d3 a3 bc
       -0.030033452 0.002474148 0.019616902 -0.019998176
0000c0 dd 8d 85 3d cd 13 0b 3d fe b0 33 3d ec e0 60 3d
       0.06521199 0.03395443 0.043869965 0.054902002
0000d0 95 04 48 3d 12 f5 4d 3d ef 38 9b 3c 00 8b f8 3b
       0.048832495 0.050282545 0.018948046 0.0075849295
0000e0 2e 64 b0 3b bb a5 d1 bc aa 7f 4d bd f6 82 08 bd
       0.005383036 -0.025591722 -0.050170578 -0.03332802
0000f0 bb 58 e5 bc f5 5a 38 bc a5 46 1a 3d 1a 85 5a bd
       -0.027996412 -0.011252155 0.037665028 -0.05334959
000100 6c 90 37 bd d3 c0 19 3d f9 f0 df bb cd 0d c8 3b
       -0.044815466 0.037537407 -0.006834146 0.006105161
000110 1a fd 69 bd d2 66 95 bd 3b e3 71 3b 5d 5f c4 3d
       -0.057126142 -0.07295002 0.0036909122 0.095885016
000120 f8 c5 06 bb 88 d0 ea bc 38 d3 de bc 12 b7 3a 3d
       -0.0020564776 -0.028663889 -0.027200326 0.045584746
000130 67 ef 26 bc 96 e5 91 3d 5a db ce 3d bc 3c b3 bc
       -0.010188914 0.07123868 0.10100432 -0.021879546
000140 8e 5b 1c bd ff 59 13 bd b7 fa ff bc ec 2c 84 bb
       -0.03817325 -0.0359745 -0.03124748 -0.0040336754
000150 b5 c1 59 3d 29 8e 87 3d 92 f8 ba bc a5 be 07 bd
       0.05316325 0.06618912 -0.022823606 -0.033140797
000160 10 8f 55 bd 1a 50 c7 bb 88 82 dd 3c 2e 52 bb 3b
       -0.05213839 -0.006082547 0.027039781 0.0057165837
000170 2a 02 92 bd a1 c8 9f 3d f3 7f b1 bd 91 94 88 3c
       -0.07129319 0.07801939 -0.086669825 0.016672404
000180 0c ed 88 bb 16 38 01 bd ae d8 73 3d 85 83 de bc
       -0.004178649 -0.03154763 0.059532814 -0.027162323
000190 50 ba b8 ba 73 c0 82 3d 26 51 99 bd 37 b0 85 3d
       -0.0014093611 0.06384363 -0.07486181 0.06527751
0001a0 ad 00 32 bd 10 35 48 3c f7 d8 35 bd ed 09 27 bd
       -0.043457676 0.012219682 -0.044396367 -0.04078095
0001b0 25 b8 63 bd 1f 55 7f 3d 5c 0d 9e bc 28 36 cb bc
       -0.055595536 0.062337037 -0.01929348 -0.024806097
0001c0 02 86 2c bc c8 ed 5f 3b cb 3f dc bc 0c 3c 15 3d
       -0.010529997 0.0034168828 -0.026885888 0.03643422
0001d0 46 48 37 3d fa 02 2e bd 95 75 cf 3c 48 49 74 bd
       0.04474666 -0.042483307 0.025324622 -0.0596402
0001e0 d5 37 4f 3d 0a 75 42 3d ae b0 8c bd f1 76 0e 3d
       0.050590355 0.0474749 -0.068696365 0.0347814
0001f0 d3 c5 7b bc 46 f6 6f bd 04 84 94 bc c4 33 94 3c
       -0.015366989 -0.058584474 -0.018129356 0.01809109

fc2.weight f4 [5, 128]
000000 a6 37 3f 3d ac 0d cd 39 c5 4c 9f 3d 09 38 a3 3d
       0.04668393 0.00039110833 0.077783145 0.07969672
000010 dd 00 f2 bc 68 24 e3 3c 22 1f 1a bd ba 9c d3 3d
       -0.029541427 0.02772732 -0.037627347 0.103326276
000020 5a 04 96 3d 09 78 7d bd cf 6f df 3d ad 5e 99 3c
       0.07325049 -0.061882053 0.10909998 0.018721903
000030 d7 fb 8e bc d0 df 09 3e e3 d9 96 3d f1 77 04 3d
       -0.017454071 0.13464284 0.07365777 0.032340948
000040 21 ff 59 3c 06 91 18 3d 45 df a2 3d 71 59 08 bd
       0.013305456 0.03724768 0.079527415 -0.033288423
000050 96 4b 98 bd af 93 01 bd c2 c5 08 be fc bf c5 bd
       -0.07436292 -0.031634983 -0.13356689 -0.09655759
000060 21 d3 80 bc 0e 11 7a 3d 18 fb f0 bd 0e 8a a3 3d
       -0.015725674 0.06105142 -0.11766642 0.07985316
000070 9f f1 1e 3c 3e 6a 8e 3b f0 7d 84 bc 48 38 04 bd
       0.009701162 0.004346161 -0.016173333 -0.032280236
000080 93 ab 9d bd 22 4b 9a 3c 19 50 01 b9 57 5a 86 3d
       -0.07698741 0.018834654 -0.00012332237 0.065602
000090 9c 08 9e 3d 1b 7f 5e bd 0a 1e c1 3d 89 b4 18 be
       0.07716486 -0.054320436 0.094295576 -0.14912619
0000a0 99 d3 af bd 7c 17 36 bd be 0d cf bd 2c 0c 5b bd
       -0.08585281 -0.04445599 -0.10110043 -0.053478405
0000b0 42 fe d9 bc 21 8f f8 3d 0d 3b 0a bd 1c 25 10 be
       -0.026610497 0.12136675 -0.03374772 -0.14076656
0000c0 27 00 21 3d 0f 80 6f 3e 8a 98 42 bb 81 e7 a8 3d
       0.039306786 0.23388694 -0.002969297 0.08247281
0000d0 79 16 eb 3d 90 f3 c3 3d 43 c3 a7 3c 5d 1f ae bc
       0.11478896 0.0956794 0.02047885 -0.02125519
0000e0 07 88 c4 3d f1 6f 3a be 05 eb 34 3c 7f 61 87 3d
       0.09596258 -0.18206765 0.011042361 0.06610393
0000f0 24 d3 6d bd 9b d1 9e bd 7f f7 27 3d 5e aa 0a bc
       -0.058062688 -0.07754823 0.041007515 -0.00846347
000100 d7 98 1a 3d 30 09 2b be c7 43 89 bd 5a 9e b9 3d
       0.037743416 -0.16702724 -0.067023806 0.09063406
000110 83 10 3c 3d 97 66 97 bd ba 12 78 bb 6a 7b 52 3c
       0.045914184 -0.07392614 -0.0037852959 0.012846807
000120 fd e9 0a be 18 9f 16 3d 02 90 d4 bd 8d 4d 75 3d
       -0.13565822 0.036772817 -0.1037903 0.05988841
000130 7b c9 07 bd e9 37 a2 3d 14 2b cd 3d 7a e9 5c bd
       -0.03315113 0.0792082 0.10017982 -0.053933598
000140 24 4c 9e bc 16 93 d9 bc 0b e1 2d bd 0e 2e ab 3d
       -0.019323416 -0.026559394 -0.042450946 0.083583936
000150 d9 eb 13 bd 02 07 be 3d a1 00 72 bd 5f dc 5a bc
       -0.036113594 0.092786804 -0.05908263 -0.013358205
000160 58 4c 88 3d b0 1c cd 3c b0 cd 17 be 80 d5 3c 3d
       0.066551864 0.025038093 -0.14824557 0.046102047
000170 95 0e ce bd 07 aa 10 bc 12 ef e5 bc b7 3e 40 bc
       -0.10061375 -0.0088296 -0.0280681 -0.011733702
000180 86 18 42 3d ba 7e 20 bd f9 c9 9f 3d dc a6 c8 bc
       0.04738667 -0.039183356 0.07802195 -0.024493627
000190 e8 20 de 3d 77 bf 8a 3d d0 35 81 bd 75 8d 05 3d
       0.1084612 0.067748 -0.06309092 0.032605607
0001a0 32 67 54 bd 64 7a 8b 3b 90 ce d8 3b 52 9d 95 bc
       -0.051856227 0.0042565335 0.006616421 -0.018263493
0001b0 ef 31 54 bd 6f 67 be 3d f1 94 10 3d 3c 28 55 bd
       -0.051805433 0.09297072 0.03529829 -0.052040324
0001c0 52 69 a3 3d fd 9b 01 3d a2 1b 2f 3d 00 49 8c 3d
       0.07979073 0.031642903 0.042750962 0.06849861
0001d0 82 85 40 be 67 bc 2b bd f2 20 f7 bd 7b ac fa bd
       -0.18800929 -0.04192772 -0.12066831 -0.12239929
0001e0 64 7c 8a 3d d5 6e 11 be 5d 15 2a 3d e8 51 91 3d
       0.06762007 -0.14202435 0.04152428 0.070957005
0001f0 b7 e4 6b 3d 48 02 74 bd 49 6a 82 bc 5e 65 06 bd
       0.057591166 -0.059572488 -0.015919821 -0.032811515
000200 f3 c8 9b bc e0 4f f3 bd 8d a1 92 3d 4c db 99 3b
       -0.019016718 -0.11880469 0.071597196 0.0046953317
000210 a1 27 7d 3c d2 b9 c8 bd 20 6d 09 be 78 67 94 bc
       0.015451343 -0.098010674 -0.13420534 -0.018115744
000220 94 36 57 3b ab fa 21 3d 41 94 99 3d 77 be f6 b9
       0.0032838928 0.039545696 0.0749898 -0.00047062684
000230 6c 8a 68 bd cd 68 06 be 04 cf 9f 3c e7 40 e0 3c
       -0.056772634 -0.13125916 0.019507892 0.027374698
000240 5d 32 38 3d 05 3c af bd a1 5c 38 bd 7c df 64 3d
       0.044969905 -0.0855637 -0.045010213 0.055877194
000250 52 4c 87 3c 34 8d 6f bd 6a 49 39 3e 15 a6 06 bd
       0.016515885 -0.05848427 0.18094411 -0.032873232
000260 8b 81 b5 3d b1 d3 dd 3d 2b 75 eb 3d ff 99 2b be
       0.08862599 0.108313926 0.114969574 -0.16757964
000270 ad 20 94 3d 90 b1 0b 3d 81 9e 81 bc 33 60 6c bd
       0.07232795 0.034104884 -0.01582265 -0.05770893
000280 0e 8f b6 bb 2b 6e 4f bd 1a cd 89 bd a5 ce 48 bc
       -0.0055712527 -0.050642174 -0.06728573 -0.012256299
000290 4f 74 bb 3d 5d 8a 50 bd e1 56 a6 3b 0b 16 08 3e
       0.091530435 -0.050913204 0.0050762747 0.13289659
0002a0 94 29 be 3d 1e 6a 99 3d 13 43 e0 bb df f7 05 bd
       0.09285274 0.07490943 -0.0068439334 -0.03270709
0002b0 70 fa c5 3c 7b a3 be bd ad b7 c6 bd d1 b4 d8 3d
       0.02416727 -0.09308525 -0.09703002 0.10581363
0002c0 8e 96 9b bd d0 01 8e bd 75 e6 b1 bd b7 f1 8e 3c
       -0.075970754 -0.069339395 -0.08686534 0.017449243
0002d0 d7 ad 62 3d 82 9f 50 bd f2 a6 25 3e 67 af 62 3d
       0.055341568 -0.05093337 0.16176966 0.055343058
0002e0 1b d6 a8 bd 3d 2c 82 3d 03 42 9c bd 1e 31 81 3b
       -0.082439624 0.06356094 -0.07629778 0.003942623
0002f0 c2 af 1f 3d 5e 1c e1 3d 67 dc d2 3d bf 6c 94 bd
       0.038985975 0.10991739 0.10295945 -0.07247304
000300 fe a1 01 bd c4 2a a4 3c 3b 98 b3 bd 72 21 66 bd
       -0.03164863 0.020039923 -0.0876927 -0.05618424
000310 80 3c 61 bd 51 eb 53 bd 62 34 88 bd 5d d1 e5 3d
       -0.054989338 -0.051738087 -0.06650616 0.112215735
000320 8b 4d 4d 3d 26 47 b7 3c a4 16 d7 3d 2c 2c af bd
       0.05012278 0.022372793 0.10502365 -0.08553347
000330 a5 c5 85 bc 88 19 ad bc 9d 39 d5 3d c2 47 8c bd
       -0.016329596 -0.021130338 0.104113795 -0.06849624
000340 69 a4 9e 3d f0 1c 70 3d 61 2a b1 bc a5 bc 2d 3c
       0.077462025 0.058621347 -0.021626653 0.010604058
000350 61 23 cf 3d 53 bc 40 be 91 b5 38 bd 11 3b b8 bb
       0.1011417 -0.1882184 -0.04509503 -0.0056222756
000360 20 2a d6 3c a0 67 d3 bd 4f d6 4b bc 64 38 ac bd
       0.026143134 -0.10322499 -0.012441232 -0.08409193
000370 83 65 4c bd 54 8f b2 3d 2d a3 8f bd e5 75 16 be
       -0.049901497 0.08718744 -0.07013545 -0.1469341
000380 af dd 5c bc 62 33 d7 bc 60 13 d6 3d 4e 62 02 3d
       -0.013480588 -0.026269618 0.10452914 0.031832032
000390 f5 ab 30 bd 64 40 b5 3b a1 ef c7 3d 2c 90 b1 bb
       -0.04313274 0.0055313576 0.097625025 -0.005418798
0003a0 a2 25 3d 3d 3f 46 7f bd 89 ee b3 3d 3c a0 68 bd
       0.046178468 -0.06232285 0.08785731 -0.056793436
0003b0 16 0e aa bc 74 d0 1a bd 56 97 95 bd d6 bc 5a 3d
       -0.02075867 -0.037796453 -0.07304256 0.053402744
0003c0 dd 60 7f bd 60 53 df bd a3 e6 be bc 34 40 51 bd
       -0.062348235 -0.109045744 -0.023303336 -0.05108662
0003d0 bd 91 30 bc 08 d7 35 bd 92 37 db 3d 3e 4e 4a bd
       -0.010776934 -0.044394523 0.107039586 -0.049391024
0003e0 72 db e7 3c 58 c5 3d 3e 1e 9a 17 be 9a d5 af bd
       0.028302882 0.18532312 -0.14804885 -0.08585663
0003f0 58 6b ee 3c b2 cf e8 3d 6e c5 18 bd d8 8a 32 3d
       0.02910392 0.1136774 -0.03729766 0.043589443

fc2.bias f4 [5]
000000 a8 95 2d bd 78 41 b0 bc e9 a6 1d bd 46 67 26 3d
       -0.04237905 -0.021515593 -0.038489256 0.040625833
000010 a7 44 42 be
       -0.18971501
