saved_weights/Grid_10_1-/44/actor.pth (torch, 265637 bytes, 12 tensors)

attentions1.linear.weight f4 [16, 1]
00000000: 0b4e 543f 758f 723f 6d80 1b3f 835e efbc
00000010: ce65 7c3f 2cb8 543e 09bf 5bbe cf7b bc3d
00000020: 95b8 27bf 4c4a a4bd 0cb8 d63c ff14 223f
00000030: 9d47 ae3e 3d65 613f 2d9c 6cbf ebf8 2f3f
0.82931584 0.9475015 0.6074284 -0.029219871 0.9859284 0.20773381 -0.21459593 0.09203302
-0.65516025 -0.080219835 0.026210807 0.6331329 0.34039012 0.880451 -0.92425805 0.68739194

attentions1.attn.weight f4 [1, 8]
00000000: 7efc 493e 1490 7d3d 530d 01be ef3e adbc
00000010: fe7d a63e 8c67 143e a64e 0c3e 4bae 53bd
0.19725224 0.06190498 -0.12602739 -0.021148173 0.32518 0.14492625 0.13701877 -0.05167989

attentions2.linear.weight f4 [16, 16]
00000000: 3645 5ebe 8a38 903e e712 983d a913 88be
00000010: fd39 803e f68c 21be 3423 ccbd f7e1 273e
00000020: 190a e7bd 5b8b 21be a298 a7bc 1624 71bd
00000030: 1563 bf3d c733 8a3d 2ea9 37be 2ac4 6b3b
00000040: 9b80 cab9 323b 9dbd 9163 763e e3ed b43d
00000050: ed33 333e e17c 8ebc bfb3 643e 24a9 95bd
00000060: 2556 453e 66c4 94bc 0f43 2a3d 190f 383e
00000070: 57ea 99bd 03ea da3d d784 333e ef2e 633e
00000080: bb1a 123d 9a7b 1dbc ffaf fb3d bd8a 18bd
00000090: 3da1 eabd 08a6 4f3e 98db bbbc f324 493e
000000a0: 9b24 e2bd e86a b53d 122e 403d 8bb2 e23c
000000b0: a99c 963b 6cba b1bc 6da2 a5bd 0e73 aa3d
000000c0: 3734 f5bd a39e 49bd 3936 22be d6ca 52be
000000d0: 62b5 8f3d 6d81 50be 91c5 a6bb 8251 e63b
000000e0: 9177 1dbe 64f3 39be cea3 8dbd b59c 0cbe
000000f0: 711a 853d 7b06 8cbe fb00 07bd 31aa 2ebe
00000100: 6450 903d 556f 2c3e e704 14bd 1318 05be
00000110: d2e4 233d f83d 58be c0db bb3c c53c fabd
00000120: 655d 10be 894e 48be fdb5 32be cf0e 333e
00000130: 87d2 6dbd c32a 02be a9f0 50be b8b0 bcbc
00000140: fb6f b03d 6747 863e 4926 4d3c 7b9f 063e
00000150: 5ccf 6cbe 6885 563d a8c2 28bc 0411 3ebe
00000160: 3625 1b3e c669 83be 37f0 193e 3120 17be
00000170: 76b5 1cbe 1422 debd bb1c 2c3d ba33 593e
00000180: 5887 243e 3acf 7e3e 1c32 803e 048a 753c
00000190: 990a 48be 1d56 38be faa1 86be 0a37 8d3e
000001a0: 27e2 66be 26ad 0d3e 7cdb 0b3e 9e6a 15bd
000001b0: c023 233c dfa7 6a3b a854 e7bd 7e2b 1cbe
000001c0: 09a2 54be 5883 823e bf28 ab3d 28bd 74be
000001d0: 7eae 2d3e 2f1b 6b3e 273a 80be 0746 0b3e
000001e0: dc54 36bd ce16 15be dfaa 12be 7863 853e
000001f0: 842a 32be 7211 57bc 0554 cf3d 67b4 9c3d
00000200: 382d 5c3e 0fe9 073e 683a 53be 679d 06bd
00000210: 969f 3e3e 8ef0 9c3a ee0c 4abe bb92 5abe
00000220: 5492 bcbd f881 413e 5d02 49be c490 1b3e
00000230: c170 5a3e 4c0b 3ebe 3357 85bd 697a 26be
00000240: d77c 32be 05c5 71bd 5867 f9bd d33c 893d
00000250: ffd8 ee3c a373 09bd a645 4fbe 7d0f fc3d
00000260: 20fe 773e 8153 4e3e 5081 26be 5ca2 24be
00000270: a1d0 663e 755d 3bbd 6e57 20bd 4f56 773e
00000280: 06d1 84be b008 383e 9878 23be 93a6 2abe
00000290: 2013 edbd 964a 503e e798 523e 0406 403e
000002a0: 4b25 663e 6042 f53d 3971 9e3d 1f3e e9bd
000002b0: bb41 73be bce7 153e f996 243e 853c d33d
000002c0: 9eb3 a4bd 2794 96be c402 ee3d e5cc 2dbe
000002d0: 0d95 73bd 3995 863d f843 a9bd b2d0 70be
000002e0: 9147 673d 697a 593e fbdc 73be e959 a5be
000002f0: 57aa dfbb a17f 103e 65f8 513e 11f6 103e
00000300: 32ed 8cbe 6d49 d43d e8e2 df3c 962b 2e3d
00000310: 4b1d e73b da28 82be 95ce 863e c088 87be
00000320: a7f5 f2bd 4357 233c f080 fc3d 9d5b 02bd
00000330: 4581 8d3c 3631 53bd f602 9a3d d72b bebd
00000340: 3cfa 29be 95e6 6d3d 8386 173c b948 2abe
00000350: c114 b7bd c68d b43d e131 a0bd 2983 803d
00000360: 5cb8 6d3e ed78 813e bfb7 503e 8e24 7bbc
00000370: 383e 26be 04b7 bcbd 83d5 c43d 8399 5ebe
00000380: 2437 babd b3bd 82be 41d8 563e a9ba b53d
00000390: e08d debd 6e20 e7bd cddf 313c 3c31 963d
000003a0: 4604 c53c e042 3d3e 48a9 49be 275a 5cbe
000003b0: 18e1 8fbe eb6a 8abe ceae 24be 6a74 fdbd
000003c0: 728d 703e 6e14 e93c 0b31 83bd a577 10bc
000003d0: d927 63bd 1a7d 743c e31d 85be 77bf 93bd
000003e0: 13ea 0e3e e2b7 1e3d 8610 f63d 8bff 58be
000003f0: 5abd 493e aaa8 56bc 86f7 ec3c a728 213e
-0.2170609 0.28168136 0.0742548 -0.265775 0.25044242 -0.15776429 -0.09967652 0.16394792
-0.11281223 -0.15775816 -0.020458523 -0.058872305 0.0934507 0.06748157 -0.1793563 0.0035975077
-0.0003862426 -0.07677306 0.24061419 0.08834436 0.17500277 -0.017393531 0.22334193 -0.07307652
0.19271143 -0.018160056 0.04156786 0.1797451 -0.075154 0.106891654 0.17531143 0.22185872
0.035670023 -0.009611988 0.12289428 -0.037241686 -0.11456535 0.2027818 -0.022931859 0.19643001
-0.11042138 0.088582814 0.046918936 0.027673027 0.004596312 -0.021695338 -0.08087621 0.08322726
-0.1197285 -0.049223553 -0.15840997 -0.20585188 0.07017018 -0.20361872 -0.0050894697 0.0070287595
-0.15377642 -0.18159252 -0.06916009 -0.13731654 0.06499184 -0.27348694 -0.03295992 -0.1705711
0.07046583 0.16839345 -0.036137488 -0.12997465 0.040013142 -0.21117389 0.022931933 -0.12218622
-0.14098127 -0.19561209 -0.17452236 0.17486118 -0.058062103 -0.12711625 -0.20404305 -0.023033485
0.086151086 0.2622635 0.012521335 0.13146774 -0.23125976 0.05237332 -0.010300316 -0.18561178
0.15150914 -0.25666636 0.15033041 -0.14758374 -0.15303597 -0.10846344 0.042019587 0.21211138
0.16067255 0.24883738 0.2503823 0.014986519 -0.19535293 -0.180016 -0.26295453 0.27581054
-0.22547208 0.13835582 0.13657945 -0.03647863 0.009957254 0.0035805625 -0.11295444 -0.15250966
-0.20764937 0.25490832 0.08357381 -0.23900282 0.16961095 0.22959588 -0.25044367 0.13600932
-0.044514522 -0.1455948 -0.14322995 0.2605245 -0.17399031 -0.013126718 0.10123447 0.076515965
0.21501625 0.13272499 -0.20627749 -0.032864954 0.18615565 0.0011973546 -0.19731495 -0.21345036
-0.092075974 0.18897235 -0.19629808 0.15191942 0.21332075 -0.18558997 -0.065107726 -0.16257633
-0.17430435 -0.059025783 -0.121779144 0.067010544 0.029156206 -0.033557545 -0.20241413 0.12307642
0.24218035 0.20149042 -0.16260266 -0.1607756 0.22540523 -0.045743424 -0.03914588 0.24154018
-0.25940722 0.17972064 -0.15963972 -0.16665106 -0.115759134 0.20340952 0.2056614 0.18752295
0.22475164 0.11975551 0.07736439 -0.11388802 -0.23755543 0.14639181 0.16073216 0.103142776
-0.08042072 -0.29409906 0.11621621 -0.16972692 -0.059468318 0.06571431 -0.08264917 -0.23517111
0.056464735 0.21238102 -0.23814766 -0.32295159 -0.006825726 0.14111187 0.20504911 0.14156367
-0.27524716 0.10365567 0.027329877 0.042522036 0.0070530525 -0.25421792 0.26329485 -0.2647152
-0.11863261 0.009969535 0.123292804 -0.03182565 0.017273555 -0.051560603 0.07520096 -0.092857055
-0.16599363 0.05808123 0.009248379 -0.16629304 -0.08939505 0.08816104 -0.07822014 0.06275017
0.23214859 0.25287572 0.20382594 -0.01532854 -0.16234672 -0.09214595 0.09611037 -0.21738248
-0.090925485 -0.25535354 0.20980932 0.08873493 -0.10866904 -0.11285482 0.010856581 0.073336095
0.02404989 0.18482542 -0.19693482 -0.21518765 -0.2810142 -0.27034697 -0.16082308 -0.1237572
0.23491457 0.028452124 -0.064058386 -0.008817588 -0.055457924 0.014922405 -0.25999364 -0.072142534
0.1395648 0.038749583 0.1201487 -0.21191232 0.19701138 -0.013101736 0.028926622 0.15738164

attentions2.attn.weight f4 [1, 8]
00000000: 3953 0bbe 3ca8 673e 039c 5fbe 9cdd 933e
00000010: 722b 083e 4bf3 75be 953d 893e 1501 853d
-0.13605966 0.2262277 -0.21836857 0.28880012 0.13297823 -0.2401859 0.26804796 0.06494347

attentions3.linear.weight f4 [16, 16]
00000000: 31f9 44be 0697 c83d 3205 ffbd d4a8 eb3d
00000010: c534 75ba 0432 ccbd c78e 7ebe 0edc ffbc
00000020: cd4f 8dbe acef 253d 4a9f 443e 5e06 4c3d
00000030: bae0 c9bd 58b6 0f3e 1ae9 043e 47d2 d9ba
00000040: 0f5f 5e3d ffbd 53be 50be 3d3e 9619 84be
00000050: fe02 8e3d c79f 5cbe 806a 693e 6c70 a83d
00000060: 5618 a2bd 12eb 2c3e 6c63 dbbc 6767 23bd
00000070: 4b34 35be 3220 693c 6e46 2abe 4cc1 ed3d
00000080: 4885 233e c80a 56be 6a9c 473e dcfd 26be
00000090: 9598 6bbe a42b 053d afb0 133e a041 1ebc
000000a0: 6757 28be c557 733c 6492 0b3e 4efd 4bbe
000000b0: c33c e93d 5954 17bd fd01 903d 7832 bcbd
000000c0: 0f03 42be 9f8a 08bd c8a8 17bd aff6 18be
000000d0: f935 4c3e d438 44bd 5698 353e a92c f4bd
000000e0: 005b 20b9 760b 683e 3a2d 333e bb5c 643e
000000f0: aa94 0abe c5cf 14bc adc3 fcbd 7761 3abe
00000100: 9c33 90be 96a5 953d 5721 bc3d 6bfe f9bd
00000110: ea93 38be 2363 8dbd a5f9 85be 93ac 053d
00000120: a525 67be 023f 6f3d b6ce 823e a150 0a3e
00000130: 0f08 85bd 3ff7 853e 6183 753e f827 0abe
00000140: c720 033d 13c5 883e 02c5 9fbd be45 91be
00000150: 6f32 d13d 2ebe 613d 4287 0bbe bf44 8cbb
00000160: 4009 2a3e 5b17 2ebe 12ab 023e b2d0 4ebe
00000170: 5308 c2bd 565d f1bd 5bef 423e 1d8d 1cbe
00000180: 510a ac3d 4a97 44be 74fb 35be 2aa8 28be
00000190: 0ffc 30bd 2dfc d33d 153e e73d 492d 8a3d
000001a0: 3f7a da3a 5317 82bc e816 d7bd 2dc0 28be
000001b0: 831c 2fbe e90e c93d bb62 4b3e 1b60 30be
000001c0: 3789 febb 4332 e5bc 6c44 d63d dcd8 353e
000001d0: 66f8 10be ec2f ea3d 3ae4 7dbe 327c 1abe
000001e0: 5acc 78be 889c 06be e02c d43d c22f ef3d
000001f0: cbfb b63d fb0f 04bd f37b e83d 40db e9bd
00000200: 4639 b03d 44b5 853d 7cff d73d 20b0 393d
00000210: 69b1 4cbe 2a5d d83c 1b63 543e 191e 87be
00000220: 2641 25bb f7fb 4a3e 593f c83d e1c5 233e
00000230: c963 433e a899 f43d 00f6 823d f5a8 38be
00000240: 78fa 943d 4bc8 0d3d 2aa5 f33d c024 833e
00000250: 3537 343e 1007 0ebe 7826 50be ebd9 2abe
00000260: 4c83 123d d5ab 06be d090 a03e 5fab 29be
00000270: a9ea 763e 98ec 10be 4f82 ba3d 6cd7 e83d
00000280: 9e61 51be 7541 3dbe 8f3c dfbc 1b89 9ebd
00000290: 21ed 5fbd 8863 5cbe 2ae3 92be 387d 26be
000002a0: e604 c8bd 9ca6 9ebd 0da2 14be c45e 683e
000002b0: e15e 833e 3c92 313e abb1 823e eb6c 6fbe
000002c0: 0de3 1a3e b38d e23d 011f 88be 3e08 983d
000002d0: 1687 98bd 0e75 143e 450e 033e 4258 35be
000002e0: 22cf b33d 5c91 13be fbd7 753e 5cd4 593e
000002f0: 37bf dc3d 2fda 803e 20ef 343e 1a6f 95bd
00000300: c0d5 393e c478 753e eace 9bbc 6c85 423e
00000310: ab3a 013d 1f57 61bd 3691 a6bd 5dd3 f33c
00000320: f106 39be 3e50 6abe 2760 223e e982 223e
00000330: 9fe1 773d 5792 813d f1a8 11be c3a1 193c
00000340: 6525 57be 77b7 20be 2065 acbd f098 833e
00000350: 3a98 1b3d f89a e1bd c143 26bb 5149 20be
00000360: 20af de3d 69c0 573d 66f1 573c c978 dcbd
00000370: 1cc9 2c3e 2f09 103e ef2f 93bb 079b 4a3c
00000380: 15c4 11be 1d8f 663e 351a 5c3e 301b 153e
00000390: 5d35 873e 327a 72be 7d07 b3bd 75e0 afbd
000003a0: e619 7b3e dc6e 69be 73e1 b53d 4700 1b3e
000003b0: ffcf 6ebe 9172 05be 7233 0abe 5fff db3d
000003c0: b8d0 fabd b7b4 453e b386 cf3c 116b 6e3e
000003d0: f2dc 8dbe 4f71 09be 39ec 36be e04b db3d
000003e0: 00d1 41bd 234f 6e3e 0b7a 8a3d 619e 433e
000003f0: 51ec 95bd 2d28 a7bc eb44 723e cca0 483e
-0.19235684 0.097944304 -0.12452163 0.11506811 -0.00093538716 -0.09970477 -0.24859153 -0.03123286
-0.27599946 0.040511772 0.19201389 0.04981076 -0.09857316 0.14034402 0.12979546 -0.0016618454
0.054289874 -0.20677947 0.1852963 -0.2580077 0.069341645 -0.21545325 0.22794533 0.08224568
-0.07914798 0.16886547 -0.026780806 -0.039893534 -0.1769573 0.014228867 -0.1662843 0.11609134
0.15968812 -0.2090255 0.19493261 -0.16307777 -0.23007424 0.032512322 0.14422868 -0.009659201
-0.16439591 0.014852469 0.13630062 -0.19920847 0.113885425 -0.036945675 0.07031629 -0.09189314
-0.1894648 -0.033335324 -0.037026197 -0.14937852 0.19942464 -0.047905758 0.17733893 -0.11922581
-0.00015292689 0.22660622 0.17497721 0.22300999 -0.13533273 -0.009082739 -0.1234201 -0.18201242
-0.28164375 0.07306974 0.091860466 -0.122067295 -0.18025175 -0.069036745 -0.26167026 0.032635283
-0.22572954 0.0584097 0.25548333 0.1350732 -0.06495678 0.26165196 0.23975898 -0.1349181
0.03201368 0.26712856 -0.07801248 -0.28373522 0.102146976 0.05511301 -0.13625816 -0.004280656
0.16605091 -0.17001097 0.1276057 -0.20196798 -0.09474244 -0.117853805 0.1903662 -0.15288205
0.08400405 -0.19198337 -0.17771703 -0.164704 -0.04320913 0.10350833 0.11291138 0.06746919
0.0016668512 -0.015880262 -0.10502416 -0.16479559 -0.1710072 0.09817297 0.19861881 -0.17224161
-0.007767822 -0.027978068 0.10462269 0.17758507 -0.14157256 0.114349216 -0.24794093 -0.15086439
-0.24296704 -0.1314565 0.10360122 0.11679031 0.089347444 -0.032241803 0.113517664 -0.11418772
0.08604674 0.06528714 0.10546777 0.04533398 -0.19989552 0.026411612 0.2074093 -0.2639015
-0.0025215833 0.1982268 0.097777076 0.15993454 0.19081034 0.1194337 0.06394577 -0.18033202
0.072743356 0.034614842 0.11896737 0.25613976 0.17599185 -0.13869882 -0.20327175 -0.16684692
0.035769746 -0.13151486 0.31360483 -0.16569279 0.24112953 -0.14152753 0.09106886 0.113692135
-0.20447394 -0.18482001 -0.027250556 -0.077409945 -0.054669503 -0.21522343 -0.28688937 -0.16258705
-0.09766559 -0.07746622 -0.14514942 0.226924 0.25658324 0.1734094 0.25526175 -0.23381393
0.15125675 0.11062183 -0.26586154 0.07423447 -0.074476406 0.14497778 0.12798412 -0.17709449
0.08779742 -0.14410919 0.24008171 0.21272415 0.10778659 0.2516646 0.17669344 -0.072965816
0.18147945 0.2397185 -0.019019563 0.18996209 0.03155009 -0.055014726 -0.081331655 0.029763872
-0.18069054 -0.22882172 0.15856992 0.15870251 0.060517903 0.0632674 -0.14224602 0.009376946
-0.21010359 -0.15694986 -0.084177256 0.2570262 0.03798697 -0.11015886 -0.0025369974 -0.15652968
0.10873246 0.05267373 0.0131801125 -0.107652254 0.16873592 0.14066003 -0.004491798 0.012366063
-0.14234956 0.22515531 0.21494372 0.14561152 0.264079 -0.23679426 -0.08741663 -0.08587734
0.24521598 -0.22796196 0.08880892 0.15136825 -0.23321532 -0.13031985 -0.13496187 0.107420675
-0.12246841 0.19307218 0.025332784 0.2328303 -0.2770763 -0.1342213 -0.1786355 0.107078314
-0.04731846 0.23272376 0.06761559 0.19103386 -0.073204644 -0.0204049 0.23659103 0.19592589

attentions3.attn.weight f4 [1, 8]
00000000: cda8 f6bc e5e4 893e 9bde 17be 8ac3 7abe
00000010: c4be 10be efd0 8a3e a267 40bd cb0d 89be
-0.030109787 0.26932445 -0.14831011 -0.24488655 -0.14135271 0.2711253 -0.046973832 -0.26768336

output_layer.linear.weight f4 [5, 16]
00000000: 1184 7d3e a983 65be 74b1 653d e923 99bc
00000010: b6c6 853e b406 65be 330d 99bc dab1 16be
00000020: 72da 13be 422a c83d 9f0e 353e fec7 343e
00000030: 59f4 693d cf86 5c3e 3e0e efbd 07c7 7f3e
00000040: cfc1 85bd 1012 ac3d 11ec db3d 8edc 183e
00000050: 38d2 46be 8e69 32bd 7e49 93bd 73ee 83be
00000060: 1d3e 01bd 2160 883d 62ed 483d a883 9fbd
00000070: 5445 18bd 8426 86be 1984 2a3e 3892 9c3b
00000080: 500f 9e3d c59c d63d 9ae7 87bd 8018 d83d
00000090: e744 4bbd e2ec f0bd 036e 4bbe 5153 81be
000000a0: 3a17 403e e0e7 b13d 93b1 e03d 5d12 6c3e
000000b0: 5622 823d eedf 6ebe f8ab 543e 5b5f ef3d
000000c0: a942 ae3d 8211 fe3d 5c22 6c3e ac83 603e
000000d0: aabb b83d cd20 713e 0ff7 cdbd b5ee bd3d
000000e0: f7c1 503e 24c6 84ba 71d0 313e 9b6b f53c
000000f0: 9721 fc3d a643 883e 020d 6cbe b547 8cbc
00000100: 4800 9a3d a4b1 bfbd 8257 63be f717 033c
00000110: 2999 84bd 9dc5 30be 0bec d9bd 77a4 a13d
00000120: 22c4 713e 24af b73d ebc2 863e 88fc 39bd
00000130: 1ba5 45be 263b 0cbe 8548 26bd 5d37 3f3e
0.2475741 -0.22413506 0.056077436 -0.018693881 0.26128167 -0.22365838 -0.018683052 -0.14716282
-0.14438799 0.09773685 0.17681359 0.17654416 0.057117794 0.215358 -0.11672638 0.24978267
-0.06531107 0.08401883 0.107383855 0.14927885 -0.1941613 -0.043557696 -0.07191752 -0.2576786
-0.031553376 0.0665896 0.04905451 -0.07788783 -0.03717549 -0.2620126 0.16651954 0.004778173
0.077177644 0.1047912 -0.06635971 0.10551548 -0.049626257 -0.11763932 -0.19866185 -0.25258878
0.1875886 0.08686805 0.109713696 0.2305388 0.06354205 -0.2332761 0.20768726 0.116881095
0.08508808 0.12405683 0.23059982 0.21925229 0.09020169 0.23547669 -0.10056888 0.092740454
0.20386492 -0.0010129851 0.1736467 0.029958537 0.12311094 0.26614112 -0.23051837 -0.017124036
0.07519585 -0.09360054 -0.2220135 0.008001319 -0.064745255 -0.17262883 -0.10640725 0.07892697
0.23609975 0.08968952 0.26320586 -0.04540685 -0.19301264 -0.13694438 -0.040596504 0.18673463

output_layer.attn.weight f4 [1, 10]
00000000: c54d 183e 80bc c3bd d413 a43e 7eaf 77be
00000010: e6c0 81be a649 18be 2809 8cbe b0ab e63b
00000020: 0a4f 76be b8cc 33be
0.14873417 -0.09557438 0.32046378 -0.24188039 -0.25342482 -0.14871845 -0.27350736 0.0070395097
-0.24053589 -0.17558563

fc1.weight f4 [128, 500]
00000000: 73ce 91bc 344d 91bc 29fd 29bd 0c20 193c
00000010: bb50 babc 9f43 2e3d de2c 973c 3c0c 783c
00000020: 1040 bc3b 882d d73b 4328 203d 027c 90bc
00000030: 948c 623c 46fd c63c 1b91 01bd c240 dc3c
00000040: 11bb 013d 5898 05bc c205 b53c 2023 013c
00000050: 3b11 a1bc 1e91 c3bc dafb 1abd 8096 e0ba
00000060: 97f0 34bd 8bf2 2a3d 22b6 f83c a3f4 92bc
00000070: 0059 11ba 8b1e 0a3d fc55 9cbc bcde aabc
00000080: b6cd 12bd 8ac5 aa3c e133 c7bc e054 993b
00000090: c610 c03c ce36 29bd 2a2e 9a3c c8bb c93b
000000a0: 689e f03b 57ed 1f3d dc8a 59bc ca6c c63c
000000b0: 4318 12bd 80dc 25bc c212 cc3c aed3 d9bc
000000c0: f8a8 78bc ec2a 003c b0a8 bcbc c78b a4bc
000000d0: 94a5 8d3c 6dbb f5bc 12b1 fa3c 6eb4 b43c
000000e0: 804c 4a3c 6d5f 143d 3d00 213d 94f6 35bc
000000f0: ec3c 053c 8e89 28bd 030c 0dbd d2ed 933c
00000100: a3e6 aebc 6a53 b13c fab8 fb3c 715e 2b3d
00000110: 3497 31bc 2e86 0cbd 7edb a63c 38cb d2bc
00000120: ae5d b23c b00e 76bb def0 9fbc e8f3 b13b
00000130: ebca 123d 241d bbbc 84bb 763c 5afc 983c
00000140: ee8e a03c 8fcf d2bc a8fb 8f3b 529d c93c
00000150: 60a4 6abb 1b15 c3bc f481 1c3c 812e 2dbd
00000160: 83e3 363d d8e5 cebc 98e2 d0bb dbdc 023d
00000170: 2e56 22bd 594a 123d 2c96 09bd aeb6 2dbd
00000180: e00a b6bb b486 5b3c 4c0e 38bc 254e c9bc
00000190: 0004 16bc e891 fa3b 90c5 39bc 40d8 17bd
000001a0: 4eee b03c 04b0 133c 9896 94bc 6220 bbbc
000001b0: 3ecb 68bc 9c0a 89bc 3147 093d 561e ebbc
000001c0: e4ea 9dbc 7098 173c 8ca1 2abd c89e 59bc
000001d0: 7a50 71bc 5c67 06bd f79c 1b3d 65cc cfbc
000001e0: 5090 583c 805a 9139 ffdb d7bc 50ed 1dbd
000001f0: cd18 223d ef17 c6bc 8b5f 253d ef60 343d
00000200: 6e02 dfbc 0eea f33c 370e 1e3d 7d2f 313d
00000210: b960 203d e0eb 153b 3e69 e43c 89d5 04bd
00000220: 22f4 6bbc 6f85 113d 6094 c0bb 8bb2 29bd
00000230: 51e6 033d 720b fcbc 5c3f 30bd 5582 093d
00000240: ce7e 903c 18a8 2a3c 8167 d5bc d187 9fbc
00000250: 51ff 0f3d 60a5 d23b f2a2 853c 4c15 0b3c
00000260: 8096 0bba a0ba d0bc e7d2 043d 0c53 14bd
00000270: 7689 af3c 68fa 37bc e9c9 b5bc d89d 3ebc
00000280: 243f edbc a619 98bc a05a b93a c840 f9bb
00000290: 981a f0bb 388a fcbb cb13 303d 7f0d c5bc
000002a0: 0069 7a3b bc54 3fbc b3cc 363d a20c 0cbd
000002b0: 82df c33c aa63 ff3c 8d4f 013d c070 c8ba
000002c0: 2825 843b 5975 133d 74da 1ebc 2250 b43c
000002d0: 9e3a 9bbc e276 fe3c b071 47bb 77bf 113d
000002e0: c5e0 32bd 791c 163d 4d1a 333d 265c d93c
000002f0: 6ee7 babc 3894 cebc e267 c13c d185 11bd
00000300: 8fd2 08bd b016 7cbb 61ab 00bd da9a d43c
00000310: 2049 5a3b 3092 c1bb 61a3 9bbc 92e2 aa3c
00000320: ae32 a4bc 86ce 8a3c 915d 35bd 3884 373c
00000330: c3ce 063d 2809 823b aa58 9abc 869a f33c
00000340: 1471 0ebd 6c86 22bc 6088 8c3b 9a26 edbc
00000350: 2507 03bd 11a7 14bd 063c 01bd 1a76 c63c
00000360: 89ee 1b3d 185e 89bc 0617 c93c 00f0 e5b8
00000370: 9e8e a73c 3892 89bc 85ba c8bc ca35 bf3c
00000380: a6a5 f2bc 9ce7 c6bc 188f 623c 3771 8cbc
00000390: 41e7 2c3d 5a9a 18bd 40eb cd3b 069f d73c
000003a0: 1463 20bc b91b 15bd 079d 133d 393c 0c3d
000003b0: 5cad 22bc 0e2e 7fbc 60a1 febc 00ea 6aba
000003c0: bb52 023d 33e2 e9bc e838 7fbc 603d d0bb
000003d0: 4234 d03c cc5d 73bc 94aa 8a3c 5a22 d43c
000003e0: 75c4 2abd 9873 2c3c b851 cabb f64a 14bd
000003f0: c900 0c3d f378 bcbc 0850 29bc b504 98bc
-0.017798638 -0.017737009 -0.041501198 0.0093460195 -0.022743573 0.042544957 0.018454012 0.015139636
0.0057449415 0.006566707 0.039100897 -0.017637257 0.013827462 0.024290692 -0.031632524 0.026886348
0.03167254 -0.008153997 0.022097472 0.00788191 -0.019661536 -0.023872908 -0.03783784 -0.0017134696
-0.044174757 0.041735213 0.030360285 -0.017938918 -0.0005544573 0.033720534 -0.01908397 -0.020858161
-0.035840712 0.020846147 -0.02431673 0.0046793073 0.023445498 -0.04131203 0.01882084 0.0061564185
0.0073431022 0.039044704 -0.013277736 0.024221797 -0.03566767 -0.010123372 0.024911288 -0.026590195
-0.015177004 0.007822733 -0.023029655 -0.020086182 0.017290868 -0.029996598 0.030602012 0.022058692
0.012347341 0.036223818 0.039306868 -0.011106152 0.008132201 -0.041146807 -0.034435283 0.018057737
-0.02135021 0.02164622 0.030727852 0.041838113 -0.010839272 -0.03430765 0.020368334 -0.025731668
0.021773186 -0.0037545376 -0.019524034 0.005430687 0.03583805 -0.022841044 0.015059356 0.018675018
0.019599404 -0.025733737 0.0043940134 0.024611149 -0.0035803542 -0.023813775 0.009552468 -0.042280678
0.044650566 -0.025256082 -0.0063746683 0.031948905 -0.03963297 0.035715435 -0.03359048 -0.042410545
-0.0055554956 0.013398815 -0.011233877 -0.024573395 -0.009156227 0.007646788 -0.0113386065 -0.037071466
0.021598008 0.009014133 -0.018138215 -0.02284259 -0.014208613 -0.016728692 0.03351516 -0.028700989
-0.019277044 0.0092526525 -0.04165797 -0.013282485 -0.01472866 -0.032813415 0.03799149 -0.025366018
0.0132180005 0.00027723983 -0.02635002 -0.038556397 0.039574433 -0.024181334 0.04037432 0.044037756
-0.027222838 0.029774692 0.038587775 0.04325818 0.039154742 0.0022876188 0.027882215 -0.032430205
-0.0144014675 0.035527643 -0.0058770627 -0.041430037 0.03220207 -0.030767176 -0.043029174 0.03357156
0.01763859 0.010416053 -0.026050331 -0.019473942 0.035155598 0.0064284056 0.01631305 0.008488964
-0.00053248554 -0.025479615 0.032427695 -0.036212012 0.021427851 -0.011229135 -0.022191005 -0.011634313
-0.028960772 -0.018566918 0.0014141388 -0.0076065995 -0.007327389 -0.0077069066 0.042987626 -0.024054287
0.0038209558 -0.011677917 0.04462881 -0.034191735 0.023910288 0.031175453 0.031570006 -0.0015292391
0.0040327497 0.036000583 -0.009695638 0.022010867 -0.01894885 0.031062547 -0.0030432753 0.035582986
-0.04367139 0.036648247 0.043726254 0.026533198 -0.022815432 -0.02521716 0.023609105 -0.035528008
-0.03340393 -0.0038465671 -0.03141344 0.025952745 0.0033307746 -0.0059073195 -0.018998804 0.02085999
-0.020043697 0.016944181 -0.044278685 0.011200957 0.032912027 0.0039683767 -0.018841106 0.029736768
-0.03477581 -0.009919744 0.004288718 -0.02894907 -0.031989235 -0.03629214 -0.031551383 0.024226237
0.03806928 -0.0167685 0.024547111 -0.000109642744 0.020453747 -0.016793355 -0.024503002 0.023341078
-0.029620003 -0.024280362 0.0138280615 -0.017143829 0.04221273 -0.037256576 0.0062841475 0.026320945
-0.009789247 -0.03640339 0.036038425 0.03423712 -0.009929027 -0.015574945 -0.031082809 -0.00089612603
0.03181718 -0.028550243 -0.015577532 -0.0063549727 0.025415543 -0.014853906 0.016927041 0.025895286
-0.041691262 0.010525607 -0.0061742924 -0.0362043 0.034180436 -0.023006892 -0.010334022 -0.018556932

fc1.bias f4 [128]
00000000: cce0 6ebc 1026 713c cc61 313d 35f4 97bc
00000010: 042b 443b 18f2 11bd 15e7 773d 24b3 c53c
00000020: 64a4 c43c 4643 1e3c 74c9 7e3c fdef 62bd
00000030: 4bb6 55bd d6bf 89bd afb6 28bd ca6d 0dbd
00000040: 3e74 f4bc 2813 50bd b3d5 e63c c491 34bd
00000050: 7f55 80bd 4933 58bd 8ee1 6dbd cdab 30bd
00000060: fcd8 303c c324 4b3d 3358 f1bc d018 443d
00000070: 2f61 643d d3e8 98bc 7002 30bc 76fa 63bd
00000080: 58e8 debb f4ab 3e3d 1da9 59bd 7d59 edbc
00000090: 077d ad3d 4890 18bd 7592 fe3c 0fde 38bd
000000a0: 1adb 7b3b 7803 63bc 95d8 26bd febc d339
000000b0: b708 f6bc c8f7 adbc 6c9d 1b3d 0062 c3bc
000000c0: b3f6 c4bb 08b8 02bd a469 763a 83f7 553d
000000d0: ee30 043c 9f00 7d3d 52d2 bbbb 872f f2ba
000000e0: 6e01 2f3d d552 3abd 9d6d 4dbd 2377 08bd
000000f0: 7b49 e5bc d27f e23c 811e 163c 7776 5abd
00000100: 8f84 37bd 5ee4 3c3d 60c9 edbb 061e 653d
00000110: 5fe9 69bd 559f 62bd 54ad df3c 94d1 823d
00000120: 82ed 95bc d5b8 eabc f5e5 15bc 73ff 2a3d
00000130: 45e6 26bc 6ec1 813d 079f 4d3d df52 aabc
00000140: 8e5b 1cbd f445 13bd 85e2 ffbc 6181 57bd
00000150: 3a23 323a 7a86 3b3d 7abf b13a f106 06bd
00000160: 0b7e 55bd f97e 0ebd 19c2 8a3d a080 a7bc
00000170: 0280 0abd 51b3 c23c 429e 24bd dc02 363b
00000180: b38b 0f3d a232 01bd 7355 3b3d 8583 debc
00000190: 9930 0f3d 8382 653d 8e67 3fbd ca0f 493d
000001a0: 00f6 31bd 5695 79bc f7d8 35bd aa89 f1bc
000001b0: 7dab 63bd b6a8 353d ebee be3c 2836 cbbc
000001c0: 504f 3b3d ae3d e33c d591 4cbc cd2d 533d
000001d0: 2f75 433d c9fc 2dbd 147a d53c 3b5c 52bc
000001e0: 5050 c93c b946 203d 39c0 1fbd 3459 873d
000001f0: 7eaa debb c979 6bbd 957f 94bc fb51 883c
-0.014579963 0.014718547 0.043306157 -0.018549064 0.0029932866 -0.03563127 0.06052311 0.024133272
0.024004169 0.009659594 0.01555096 -0.055404652 -0.0521758 -0.06726043 -0.041189846 -0.03452853
-0.029840585 -0.05079952 0.028178072 -0.044084325 -0.06266307 -0.052783284 -0.058076434 -0.043132592
0.010793921 0.049595606 -0.029461002 0.047875226 0.055756744 -0.018665707 -0.010742769 -0.05565878
-0.0068026 0.046550706 -0.053139795 -0.028973335 0.08471113 -0.037246972 0.031075696 -0.045133647
0.0038430155 -0.0138558075 -0.040733892 0.00040385866 -0.030033452 -0.021236315 0.037991926 -0.023850441
-0.006010854 -0.031913787 0.0009399897 0.052238 0.008068306 0.06176817 -0.0057318592 -0.0018477299
0.042725973 -0.04548915 -0.050153363 -0.033316743 -0.02798914 0.02764884 0.009162546 -0.053335633
-0.044804152 0.046116225 -0.007256672 0.055936836 -0.057107326 -0.055327732 0.027304329 0.0638763
-0.01830173 -0.028652588 -0.009149064 0.04174752 -0.0101867365 0.06335722 0.05020049 -0.02079147
-0.03817325 -0.035955384 -0.031235943 -0.05261362 0.00067954103 0.045782544 0.0013561093 -0.032721464
-0.052122157 -0.03478906 0.067753024 -0.020447075 -0.033813484 0.023767145 -0.04018999 0.00277727
0.035045337 -0.031542428 0.045735788 -0.027162323 0.034958456 0.05603267 -0.046729617 0.049087323
-0.043447495 -0.015233358 -0.044396367 -0.029484589 -0.055583466 0.04435035 0.023307284 -0.024806097
0.045729935 0.027739372 -0.012485941 0.05155735 0.047719177 -0.042477403 0.026059188 -0.012839372
0.024574429 0.039129946 -0.039001677 0.06608811 -0.0067952266 -0.05748919 -0.018127242 0.016640654

fc2.weight f4 [5, 128]
00000000: 1046 983c 08fa 42bc 641f 933d e666 c23d
00000010: 3927 efbc 2a56 e33c 93a9 17bd 013e e63d
00000020: 90de 943d 549a 95bd eecf a43d 1b77 993c
00000030: 5b0d 8fbc 628b 573d e3d9 963d 3747 bd3c
00000040: aadf 653d 999b 183d 2e61 823d e872 1bbc
00000050: 1272 98bd 80a3 01bd cc49 a3bd b9ae c5bd
00000060: 50f1 93bc dcd3 613d 22af 98bd b0a4 b53d
00000070: c444 e43b 0925 db3c 68ff 9bbd b380 06bd
00000080: cbce 92bd fc90 a7bb b5b5 f7b8 b18d 863d
00000090: 7199 8f3d 5784 5ebd 227c b43d ff0e a1bd
000000a0: ca97 dabd ab3d f6bc e7f0 cebd 144d 80bb
000000b0: 42fe d9bc 2cc1 b43d 013b fbbc ff13 e4bd
000000c0: 3ffd 0bbd 8744 1c3e 38a9 b2bd 0ecc 4f3d
000000d0: 48fd e33d 1cde 633d f927 383d 54eb 3cbd
000000e0: c5c0 b73d e59b ebbd 1b12 353c 5460 873d
000000f0: 74cf 6dbd 4d6a 8ebd 0b0a 033d f6dd 0abc
00000100: dea0 1a3d 2434 41be eeff bebd d4e5 b33d
00000110: 6424 3c3d 29a6 5cbd e3ed a3bc 3369 7bbb
00000120: fb28 bcbd c893 163d 65ca bfbd 4885 c13c
00000130: 22ca 07bd 13d0 c23d 32ee bc3d b8f1 62bd
00000140: 244c 9ebc b1ba d9bc 2de1 2dbd 1dfa 473d
00000150: d225 45bd 0ba3 ce3d c5bf 83bd b668 60bc
00000160: 3947 883d aee7 8d3c 5a0b 12be b456 c33b
00000170: cda4 d3bd 35d0 693c 390c 9fbd d7b7 85bd
00000180: 95ef a03d 6781 20bd 56bd a43d dca6 c8bc
00000190: 8e40 c63d a0d0 923d ae5f 98bb 9237 963c
000001a0: ab71 54bd 3d09 5c3c 90ce d83b 3440 90bc
000001b0: e23c 54bd 35db ba3d 239a 5b3d 3c28 55bd
000001c0: fb97 963d 2afd 7b3d f8c1 a03d 146f 913d
000001d0: 6071 27be b4b6 2bbd 4f06 94bd ffdc 02be
000001e0: c851 a43d 797e dbbd 5620 a93d 910f aa3d
000001f0: f0c2 a63d 6258 75bd 0b66 82bc f6ac 02bd
00000200: 7805 08bc 02c0 b7bd 8a83 8e3b c743 ee3c
00000210: c068 403d eac1 c8bd 2a84 1fbe 7d93 c9bd
00000220: 5bca 74bd 6f56 2dbc 95e3 a03d 6d23 f0b9
00000230: 079c 68bd 8d6b cdbd 04cf 9f3c f5c5 943c
00000240: 6e5d 383d c536 afbd 7d92 84bd 5e51 243d
00000250: 7018 863c 28dc 6fbd 32b5 333e ee88 06bd
00000260: 17b5 fd3c 882f a43d dbeb cc3d 1ec1 18be
00000270: 5b48 4b3c 3836 3f3d b7c8 91bb d7ad 6ebd
00000280: 19f3 03bc 92d6 a3bd 70d1 89bd 306a 48bc
00000290: a641 1d3d 008f 50bd 79c8 0abd f89b 943d
000002a0: 69a0 e43c 27d9 b43d 8978 e0bb d383 80bd
000002b0: 70fa c53c 0d21 a7bd 75a7 e1bd 6a5e c83d
000002c0: a83d 32bd d3b6 cd3c bd8e 5abd 3616 cd3b
000002d0: a341 cabb 6b6a 8cbd 5b27 e53d 4495 893c
000002e0: ff37 dbbd 3aa3 013c 4b3d 9cbd 1623 813b
000002f0: 3eb5 1f3d f506 d03d 4f2e 923d 4a73 94bd
00000300: b69a 01bd bd36 cfbc f00c 43bd 36b7 9dbd
00000310: a629 61bd 9b12 f0bc d8d6 5cbd 6576 903d
00000320: b034 163d dd5a b73c 2cad cd3d f4cd bfbd
00000330: 26c1 85bc 2e9d b9bd b637 333d c382 8abd
00000340: 69a4 9e3d bb30 703d 4915 b1bc 2bae 563d
00000350: e86a b23d 978e 1cbe 2a9d 80bc 76df bdbb
00000360: 0210 d63c 7928 65bd 7fcf 39bd 6523 d2bd
00000370: dddf 5bbd ae77 a33d bd65 aa3c 2585 d8bd
00000380: e55f 95bd 533d d7bc 6405 e33c 4e62 023d
00000390: 2d64 94bd b51c 62bd 3ad3 7c3d c986 8abd
000003a0: 3630 3d3d 0e0b a4bd 89ee b33d 81c0 76bd
000003b0: 57f1 a9bc ceeb eabd 981f 02be d6bc 5a3d
000003c0: 27a5 acbd 49b5 14be 8871 5abc ad70 b5bd
000003d0: e142 acbc c3db 35bd b616 cb3d 9fe2 52bd
000003e0: c4f6 7abc 2e0d 283e 03fc 25bd fb30 f7bd
000003f0: 391c d6bc e0d3 e83d 91c7 18bd dad0 22bc
0.018588096 -0.011900432 0.07183722 0.094922826 -0.029193508 0.027751047 -0.037026953 0.11242295
0.07269013 -0.073048264 0.08047472 0.018733552 -0.017462423 0.05262316 0.07365777 0.023105247
0.056121506 0.037257764 0.06366192 -0.009487845 -0.07443632 -0.031650066 -0.0797306 -0.09652466
-0.018059403 0.055133685 -0.07455279 0.08869302 0.0069662053 0.026751058 -0.07617074 -0.03283758
-0.07168349 -0.005113719 -0.000118117234 0.06569994 0.070116885 -0.054325428 0.08812739 -0.078641884
-0.10673483 -0.030058702 -0.10104542 -0.0039154384 -0.026610497 0.08825907 -0.030667784 -0.111366265
-0.03417706 0.15260516 -0.08723682 0.05073171 0.11132294 0.055631742 0.044959996 -0.046122864
0.08972315 -0.11504344 0.01105168 0.0661017 -0.05805917 -0.06953869 0.031992 -0.008475771
0.03775107 -0.18867546 -0.093261585 0.087840706 0.045933142 -0.0538694 -0.020010894 -0.0038362264
-0.09187504 0.03676203 -0.093647756 0.023623124 -0.033151753 0.09512343 0.0922512 -0.055406302
-0.019323416 -0.02657828 -0.042451072 0.04882251 -0.04813177 0.10089692 -0.064330615 -0.01369684
0.0665421 0.017322388 -0.14262143 0.0059612636 -0.10334168 0.014270832 -0.07766003 -0.06529205
0.07858197 -0.039185908 0.080439255 -0.024493627 0.096802816 0.07168698 -0.004650078 0.018337045
-0.051866215 0.013429937 0.006616421 -0.01760874 -0.051815875 0.09123842 0.053613793 -0.052040324
0.07353207 0.061520733 0.078494966 0.071012646 -0.16351843 -0.041922286 -0.07227766 -0.12779616
0.08023411 -0.10717482 0.08258121 0.0830375 0.0814265 -0.05989874 -0.015917799 -0.03190323
-0.008302085 -0.089721695 0.004349177 0.029085053 0.046974897 -0.09802611 -0.1557776 -0.09842584
-0.059763294 -0.010579689 0.07855908 -0.0004580276 -0.056789424 -0.10030279 0.019507892 0.0181608
0.045010976 -0.08555368 -0.06473253 0.04011666 0.016369075 -0.058559567 0.1754959 -0.03284543
0.03097014 0.08016878 0.10005923 -0.14917418 0.012407388 0.046682566 -0.004448976 -0.058271255
-0.0080535645 -0.079999104 -0.067294 -0.012232348 0.038392685 -0.050917625 -0.033882592 0.07256311
0.02790852 0.08830481 -0.0068503064 -0.062751435 0.02416727 -0.08160601 -0.11018268 0.09783633
-0.04351583 0.025111591 -0.053358782 0.0062587513 -0.0061723753 -0.06856235 0.11189147 0.016794808
-0.1070404 0.007912451 -0.07628878 0.00394095 0.038991205 0.10157577 0.07137739 -0.07248552
-0.031641684 -0.025294656 -0.04761976 -0.0770096 -0.05497136 -0.029305747 -0.05391583 0.07053832
0.03667134 0.022382194 0.100427955 -0.09365454 -0.016327452 -0.09063183 0.043754302 -0.06763222
0.077462025 0.058640223 -0.021616595 0.052412193 0.08711797 -0.15288769 -0.015699942 -0.005794461
0.02613068 -0.0559468 -0.0453639 -0.10260657 -0.05368029 0.079818115 0.020800466 -0.1057227
-0.07293681 -0.026274359 0.027712531 0.031832032 -0.072456695 -0.05520316 0.06172488 -0.067639895
0.046188556 -0.08009921 0.08785731 -0.06024218 -0.020744963 -0.114707574 -0.12707365 0.053402744
-0.08429938 -0.1452228 -0.013332732 -0.08859382 -0.021027984 -0.044399034 0.09916441 -0.051485654
-0.015317623 0.16411278 -0.04052354 -0.12069889 -0.026136504 0.11368537 -0.037299696 -0.009937489

fc2.bias f4 [5]
00000000: 859a 54bd ab10 7bbd 4d51 4fbd 02d7 e13c
00000010: cad4 fcbd
-0.051905174 -0.061295193 -0.050614644 0.027568344 -0.12345274
