saved_weights/Grid_10_1-/44/critic.pth (torch, 32435 bytes, 11 tensors)

attentions1.linear.weight f4 [16, 1]
-1.0299047 0.119644634 0.0037300498 -0.9205242 -1.0155247 0.86102074 -0.93810594 -0.50624776
0.23058265 -0.277395 -0.25172192 -0.96908057 -0.41191295 0.37993282 -0.5886556 -0.89520746
00000000: ebd3 83bf 3f08 f53d da73 743b 79a7 6bbf
00000010: b7fc 81bf db6b 5c3f b627 70bf 7499 01bf
00000020: dc1d 6c3e b806 8ebe b2e1 80be aa15 78bf
00000030: 41e6 d2be 8e86 c23e 22b2 16bf 512c 65bf

attentions1.attn.weight f4 [1, 8]
-0.33201677 -0.02121584 -0.08739857 0.20365284 0.101966985 -0.07401143 0.03547881 0.12874241
00000000: 1afe a9be d7cc adbc 05fe b2bd 5f8a 503e
00000010: 11d4 d03d 4e93 97bd 3b52 113d 0dd5 033e

attentions2.linear.weight f4 [16, 16]
0.23536918 -0.09749276 -0.0025506255 0.0097162835 0.09976058 0.014554959 -0.027952138 0.15045269
-0.20349492 -0.14229651 0.12382408 0.11096461 -0.001028021 -0.15871817 0.00028811954 0.23867872
-0.25859946 -0.13145937 0.17027763 -0.13667445 0.18914522 0.041709475 -0.24533968 0.17057313
-0.056929942 0.06516228 -0.23755802 -0.25928965 -0.23311323 -0.05304976 0.14808798 0.1019342
-0.27203605 0.0023216275 0.19716011 -0.18183146 -0.12223267 0.14420615 0.046479367 0.050259266
-0.21089897 -0.10643812 0.071653046 0.05846765 -0.1875383 -0.04829523 0.023110503 0.030651959
-0.113060325 -0.061018813 -0.085851625 -0.13444561 -0.067250974 -0.20214461 0.1592515 -0.14361224
0.2377169 0.1279364 -0.13382226 -0.2542533 0.19834632 0.2581274 0.16414729 -0.16189726
0.10568202 0.20306998 -0.19645198 0.12490102 0.20702985 -0.06264346 -0.09354074 -0.018071605
0.07548068 -0.0867301 0.09643543 0.19589786 0.11603537 -0.13551217 0.2596309 0.16883232
-0.07219663 0.19863375 0.0471169 -0.09641082 -0.013859689 0.18459655 -0.21626236 -0.019497192
0.018529195 -0.10766413 0.024420604 -0.014497079 0.035763316 0.20361648 -0.2736612 -0.008863356
-0.017581984 0.11459253 0.12838295 -0.16838244 0.20607089 0.18474011 -0.13559486 0.2230106
-0.21374509 -0.09225583 0.118508354 0.17538816 0.2379244 -0.007600937 -0.06788455 0.27418205
0.18559866 -0.18252599 -0.22859544 0.14658092 -0.06681176 -0.038702358 -0.060641862 0.054871663
-0.22189467 -0.095227346 0.05406229 -0.14055213 0.02413776 0.19497302 -0.092434414 0.013658941
-0.106909856 -0.13055792 -0.1608686 -0.16468965 -0.06786362 0.24467565 -0.12611149 0.12122051
0.06112178 0.12933172 0.18641971 0.073166914 -0.24733637 0.11129807 -0.12342287 0.054539766
0.20327279 0.13124302 0.08100102 -0.020174626 -0.10756061 -0.0074099978 -0.25798035 0.1897483
0.0989337 -0.14803176 -0.14727964 -0.013174709 -0.23950581 0.02723683 -0.26763198 -0.21386747
-0.07992935 -0.20642872 -0.010096606 -0.28341222 -0.2514915 -0.20675597 -0.07462711 0.18269521
-0.04301893 0.13078424 -0.07480779 0.107058346 0.0145696215 0.10379105 -0.0077412343 0.053771302
-0.07314856 0.104402095 0.18553121 -0.05965598 0.11747866 0.089456126 -0.021428125 -0.07145732
-0.049457967 -0.03481291 0.060802937 0.25373852 -0.0107679805 -0.1195659 -0.023320515 -0.039589938
0.18322577 0.19568373 0.18852633 0.14665338 0.073750906 -0.12682569 0.11353798 -0.18678407
-0.10315361 -0.18727809 -0.18212514 0.10722321 0.1898939 0.038900793 -0.0031400037 -0.19128938
0.11294725 -0.14952044 -0.17253174 -0.23261042 -0.23845823 0.12286383 -0.03626222 0.1318389
0.009258901 -0.12467628 -0.10916638 -0.03762082 -0.062257748 0.18695337 -0.068002455 -0.05732785
0.23813596 -0.11976026 -0.16691814 0.094793 0.13552411 -0.16951515 -0.10491162 -0.10969862
0.16161707 0.100050755 0.1754808 0.16461347 0.12570721 -0.1375448 -0.17320023 0.023623852
0.119171865 0.09770958 0.024467437 -0.07420577 0.16106197 -0.16353115 0.16611323 -0.15096483
-0.13652337 -0.20895007 -0.22622709 0.088894635 -0.21082102 0.16791654 -0.08406996 -0.02802941
00000000: 9e04 713e 49aa c7bd 6528 27bb 0c31 1f3c
00000010: 464f cc3d ec77 6e3c e2fb e4bc 4510 1a3e
00000020: f960 50be 2db6 11be 7b97 fd3d 6a41 e33d
00000030: a9be 86ba 0487 22be c00e 9739 3268 743e
00000040: 2667 84be 499d 06be 425d 2e3e 63f4 0bbe
00000050: 49af 413e 8ed7 2a3d 533a 7bbe b9aa 2e3e
00000060: 5f2f 69bd cd73 853d 6942 73be 9dc1 84be
00000070: 3cb5 6ebe b54a 59bd 60a4 173e e1c2 d03d
00000080: 4f48 8bbe 7226 183b 57e4 493e 0732 3abe
00000090: 1f55 fabd c7aa 133e 2661 3e3d a9dc 4d3d
000000a0: e6f5 57be 3bfc d9bd d5be 923d c67b 6f3d
000000b0: 0a0a 40be 38d1 45bd 3d52 bd3c d119 fb3c
000000c0: 2c8c e7bd ddee 79bd fad2 afbd 1cac 09be
000000d0: e1ba 89bd fffe 4ebe d312 233e 160f 13be
000000e0: 0f6c 733e c201 033e b408 09be 7d2d 82be
000000f0: 4c1b 4b3e 4629 843e 3a16 283e 65c8 25be
00000100: d16f d83d 94f1 4f3e b52a 49be 1bcc ff3d
00000110: a2ff 533e 374b 80bd 4a92 bfbd e70a 94bc
00000120: 9d95 9a3d 8d9f b1bd f07f c53d 7399 483e
00000130: f4a3 ed3d b4c3 0abe 57ee 843e 61e2 2c3e
00000140: d4db 93bd a566 4b3e a7fd 403d 0973 c5bd
00000150: c013 63bc e106 3d3e e173 5dbe 93b8 9fbc
00000160: 8aca 973c 037f dcbd b80d c83c 2885 6dbc
00000170: 8e7c 123d d780 503e 521d 8cbe 9c37 11bc
00000180: 1808 90bc 7daf ea3d d276 033e 726c 2cbe
00000190: 3f04 533e 832c 3d3e 61d9 0abe e45c 643e
000001a0: fedf 5abe a0f0 bcbd 82b4 f23d f498 333e
000001b0: 74a2 733e 4811 f9bb 0e07 8bbd 9761 8c3e
000001c0: 930d 3e3e 18e8 3abe ec14 6abe 4f19 163e
000001d0: 9bd4 88bd 5d86 1ebd 9a63 78bd 1cc1 603d
000001e0: 5b38 63be 8e06 c3bd 6b70 5d3d e6ec 0fbe
000001f0: 8dbc c53c 02a7 473e 414e bdbd c0c9 5f3c
00000200: 8ef3 dabd fab0 05be bdba 24be 67a4 28be
00000210: 15fc 8abd 418c 7a3e 5f23 01be 7542 f83d
00000220: d55a 7a3d 896f 043e cfe4 3e3e 89d8 953d
00000230: bf45 7dbe 3ef0 e33d 21c5 fcbd 1765 5f3d
00000240: be26 503e 9264 063e dde3 a53d 4245 a5bc
00000250: bd48 dcbd 91cf f2bb 0016 84be 614d 423e
00000260: c09d ca3d a395 17be 79d0 16be bcda 57bc
00000270: 0341 75be c61f df3c 0f07 89be 1300 5bbe
00000280: 00b2 a3bd 0d62 53be 3c6c 25bc 681b 91be
00000290: 7ec3 80be d6b7 53be 19d6 98bd 7414 3b3e
000002a0: 9e34 30bd 4eec 053e d434 99bd 6841 db3d
000002b0: 6cb5 6e3c 6790 d43d 2eaa fdbb 4c3f 5c3d
000002c0: eace 95bd c4d0 d53d e5fb 3d3e d459 74bd
000002d0: a798 f03d c634 b73d 098a afbc 3758 92bd
000002e0: 7094 4abd fb97 0ebd 800c 793d 04ea 813e
000002f0: 2f6c 30bc f7de f4bd aa0a bfbc 0f29 22bd
00000300: 899f 3b3e 5161 483e 0c0d 413e 4e2c 163e
00000310: b70a 973d 98de 01be 9a86 e83d 5344 3fbe
00000320: 3342 d3bd d4c5 3fbe 037f 3abe d897 db3d
00000330: 8c73 423e 7056 1f3d 85c8 4dbb 5de1 43be
00000340: e350 e73d e31b 19be 29ac 30be 6d31 6ebe
00000350: 652e 74be 08a0 fb3d b287 14bd c700 073e
00000360: a5b2 173c 4756 ffbd 9f92 dfbd 4a18 1abd
00000370: fb01 7fbd b470 3f3e df44 8bbd 9cd0 6abd
00000380: ead9 733e de44 f5bd 97ec 2abe d522 c23d
00000390: d5c6 0a3e 6195 2dbe e7db d6bd aca9 e0bd
000003a0: f27e 253e 69e7 cc3d 3db1 333e 6f90 283e
000003b0: 64b9 003e 8bd8 0cbe 675b 31be cf86 c13c
000003c0: 6110 f43d f61b c83d ef6f c83c 32f9 97bd
000003d0: 6eed 243e b674 27be 9619 2a3e 8696 1abe
000003e0: c8cc 0bbe 02f7 55be 13a8 67be 640e b63d
000003f0: 77e1 57be 50f2 2b3e df2c acbd ef9d e5bc

attentions2.attn.weight f4 [1, 8]
-0.09303656 0.002338412 0.20672329 0.09502085 -0.24324942 -0.043949846 -0.2561909 -0.20862189
00000000: f489 bebd 0b40 193b 45af 533e 4b9a c23d
00000010: 6016 79be c104 34bd 742b 83be faa0 55be

attentions3.linear.weight f4 [16, 16]
0.12744948 -0.058558766 0.0604754 0.23233531 -0.018894002 0.15716454 -0.051580366 0.07379308
-0.25564238 -0.018557949 0.14050448 0.001272656 -0.09961628 -0.14428231 0.22725311 -0.08269699
0.03103046 0.007442722 0.13268483 0.16313936 -0.10134009 -0.28170934 -0.015872942 -0.14379084
-0.07559411 -0.222151 -0.19334681 -0.093812056 0.25016862 -0.04731053 -0.10800546 0.17929682
-0.24598001 0.11193833 -0.20703763 -0.106187165 -0.22145054 -0.014425989 0.22586183 -0.07258232
-0.14877568 0.060248896 0.043561127 -0.18347566 0.030714216 0.11457361 -0.049498193 -0.06613621
0.28268853 0.119369276 -0.0434755 -0.0076785223 0.14163585 -0.19027996 0.08106138 0.089784525
0.1351786 -0.21148843 0.056257833 -0.1100242 -0.010982493 0.032202817 0.1724227 0.15094219
-0.1006018 -0.15888147 -0.1256629 -0.072597586 0.1615537 0.05774269 -0.021475507 -0.13999115
-0.0122109465 -0.18547073 -0.17196025 0.0606752 0.07422521 0.020484062 0.043608047 0.16568696
0.018099496 0.09748462 0.26043564 0.05627137 0.16744283 -0.14289878 -0.037688192 -0.23489851
0.020165704 0.16858286 -0.09430001 -0.10745378 0.10777265 -0.0546327 -0.08276111 -0.16352867
0.164336 -0.02647813 -0.2760794 -0.21848652 -0.20065759 -0.094079114 0.12689577 0.14446549
0.12654817 0.20200045 0.16453877 -0.0745679 0.21039945 -0.27630207 -0.04837865 -0.13526669
0.16011718 -0.24290825 -0.05418344 -0.17921677 0.18693313 -0.28980955 0.15277486 -0.19022205
-0.2329362 0.17754644 -0.16186629 -0.11183648 0.16501933 0.056925036 0.10674391 -0.14417988
-0.28466377 -0.12716018 0.11356542 0.050888423 -0.15894243 0.272928 -0.040774286 0.11438865
0.07012389 0.25635576 0.06612138 -0.06648862 -0.10069719 -0.05515344 -0.26504833 -0.030172734
0.07962712 -0.21753567 -0.052359782 -0.14807199 0.029630134 -0.2532074 0.2231499 0.08414059
-0.14389491 -0.1155624 -0.059966855 0.13599308 -0.19324514 -0.25350463 -0.15620515 0.11560431
-0.20486385 0.045932125 0.03528423 -0.15420836 0.057957016 -0.06595876 0.19246158 -0.0016385
-0.20990731 0.15870905 0.19113751 -0.27306414 -0.070213795 0.039516512 0.1547875 -0.1495798
0.20561661 -0.24220547 0.118393645 -0.008068265 0.256143 0.1711124 -0.03204977 -0.07641059
-0.23438251 0.15919201 -0.20428312 0.11425383 -0.0849419 -0.12582308 0.098327845 0.1493618
-0.06962029 0.20303641 -0.13397597 0.16859646 -0.1263785 0.2669241 -0.12116584 -0.08628979
0.104293115 0.013570092 0.20409739 -0.00780423 0.067045756 -0.008206795 -0.17823954 0.21404056
0.030231355 -0.0072821397 -0.20297606 0.08956725 0.1814392 0.13886312 -0.07381003 -0.08392092
0.17522134 0.1684703 0.061102934 -0.13630556 0.24529578 -0.1683404 0.16291505 0.09020243
0.07986503 0.15531053 0.171412 0.2108006 0.081049405 0.21138287 -0.026176337 -0.25686735
0.1139267 0.23715939 -0.26117048 -0.138593 -0.15783708 0.051583417 -0.031151952 0.21630059
0.08909139 0.1662645 -0.09280256 0.0667887 -0.079721026 0.14103682 -0.1440978 -0.2126565
0.11655232 -0.0016314271 0.1666413 0.02629122 -0.006885647 0.25491112 0.10073116 0.15227272
00000000: 1e82 023e 51db 6fbd 0eb5 773d 4fe9 6d3e
00000010: 98c7 9abc beef 203e ef45 53bd d420 973d
00000020: 8fe3 82be d706 98bc 68e0 0f3e 40cf a63a
00000030: 9f03 ccbd bebe 13be 0ab5 683e 0a5d a9bd
00000040: 9733 fe3c 14e2 f33b 88de 073e 010e 273e
00000050: 658b cfbd 353c 90be f907 82bc e83d 13be
00000060: 16d1 9abd 8d7b 63be b5fc 45be 8920 c0bd
00000070: 1a16 803e b0c8 41bd f731 ddbd 9699 373e
00000080: 2fe2 7bbe ec3f e53d ac01 54be a878 d9bd
00000090: eec3 62be fc5a 6cbc 5348 673e 0aa6 94bd
000000a0: a758 18be 8cc7 763d 276d 323d 0be1 3bbe
000000b0: 619c fb3c 92a5 ea3d 9ebe 4abd 6c72 87bd
000000c0: 8dbc 903e e177 f43d 5e13 32bd 1d9c fbbb
000000d0: fd08 113e c0d8 42be 8203 a63d f3e0 b73d
000000e0: 426c 0a3e 6c90 58be 9d6e 663d 5e54 e1bd
000000f0: eaef 33bc 1ae7 033d 948f 303e 9790 1a3e
00000100: 5108 cebd d3b1 22be c6ad 00be 0bae 94bd
00000110: 556e 253e 9983 6c3d 67ed afbc d759 0fbe
00000120: 6c10 48bc 0aec 3dbe 5916 30be 8f86 783d
00000130: 6303 983d 31ce a73c 5a9e 323d d8a9 293e
00000140: 6545 943c 04a6 c73d d257 853e cf7c 663d
00000150: 2276 2b3e 0f54 12be ef5e 1abd 3c89 70be
00000160: 8c32 a53c fca0 2c3e 5d20 c1bd ba10 dcbd
00000170: e8b7 dc3d 8ac6 5fbd a87e a9bd 0f74 27be
00000180: b247 283e aae8 d8bc 475a 8dbe eeba 5fbe
00000190: 2f79 4dbe 8dac c0bd f7f0 013e c3ee 133e
000001a0: d895 013e 35d9 4e3e da7c 283e 0eb7 98bd
000001b0: f472 573e 7777 8dbe b128 46bd 5a83 0abe
000001c0: c2f5 233e f1bc 78be 74ef 5dbd 9a84 37be
000001d0: 666b 3f3e eb61 94be 0371 1c3e 92c9 42be
000001e0: d486 6ebe bcce 353e 47c0 25be 860a e5bd
000001f0: d4fa 283e 3a2a 693d 8d9c da3d e4a3 13be
00000200: 73bf 91be 4736 02be fd94 e83d 6170 503d
00000210: cec1 22be 38bd 8b3e f002 27bd 9944 ea3d
00000220: 1d9d 8f3d 1041 833e a56a 873d 302b 88bd
00000230: 543a cebd 93e8 61bd 6ab4 87be cf2c f7bc
00000240: 8b13 a33d acc1 5ebe 3677 56bd 2fa0 17be
00000250: e5ba f23c 66a4 81be 6881 643e e751 ac3d
00000260: 3059 13be fbab ecbd ce9f 75bd c541 0b3e
00000270: 0ee2 45be 5ccb 81be 3ef4 1fbe f4c1 ec3d
00000280: d4c7 51be 5323 3c3d 3286 103d cce8 1dbe
00000290: 5664 6d3d 6315 87bd a614 453e f0c2 d6ba
000002a0: f1f1 56be a084 223e 8db9 433e 10cf 8bbe
000002b0: 40cc 8fbd 11dc 213d 9d80 1e3e 722b 19be
000002c0: 298d 523e b604 78be 5e78 f23d c230 04bc
000002d0: 2d25 833e 1738 2f3e 9f46 03bd 287d 9cbd
000002e0: f801 70be 3b03 233e 982f 51be e9fd e93d
000002f0: 05f6 adbd c4d7 00be 1c60 c93d 4df2 183e
00000300: 1595 8ebd c7e8 4f3e ff30 09be 8da4 2c3e
00000310: 5e69 01be 47aa 883e cc25 f8bd b4b8 b0bd
00000320: a197 d53d 1755 5e3c e8fe 503e a0ba ffbb
00000330: 494f 893d cb75 06bc 6d84 36be 732d 5b3e
00000340: bfa7 f73c 049f eebb f5d8 4fbe 096f b73d
00000350: 33cb 393e 2232 0e3e b729 97bd bbde abbd
00000360: 396d 333e 7a83 2c3e 1247 7a3d af93 0bbe
00000370: d12e 7b3e 6d61 2cbe 34d3 263e 0dbc b83d
00000380: 4790 a33d b909 1f3e a186 2f3e 1ddc 573e
00000390: 3bfd a53d c074 583e c26f d6bc 1e84 83be
000003a0: 6752 e93d e9d9 723e 23b8 85be 53eb 0dbe
000003b0: 0ba0 21be 2249 533d 6132 ffbc e77d 5d3e
000003c0: 8c75 b63d 3e41 2a3e 450f bebd 84c8 883d
000003d0: c744 a3bd f56b 103e 608e 13be a0c2 59be
000003e0: fcb2 ee3d 9cd5 d5ba 04a4 2a3e af60 d73c
000003f0: fea0 e1bb b683 823e 234c ce3d 61ed 1b3e

attentions3.attn.weight f4 [1, 8]
-0.16555156 0.019557025 -0.08273278 -0.07474073 -0.14949168 -0.037452362 -0.06709343 -0.04607139
00000000: 5986 29be 0e36 a03c ce6f a9bd ab11 99bd
00000010: 5914 19be a667 19bd 4868 89bd 5bb5 3cbd

output_layer.linear.weight f4 [1, 16]
0.06922806 0.09118324 -0.02973853 0.06849044 0.077193305 -0.1387836 0.1697801 0.16244675
-0.24785799 0.25962335 0.049770597 0.14777912 -0.0578962 0.06813166 -0.072074056 -0.02818001
00000000: 71c7 8d3d 47be ba3d 389e f3bc b744 8c3d
00000010: 8617 9e3d 4a1d 0ebe d6da 2d3e 7158 263e
00000020: 7cce 7dbe 5aed 843e 41dc 4b3d 6953 173e
00000030: 9124 6dbd 9d88 8b3d 909b 93bd c4d9 e6bc

output_layer.attn.weight f4 [1, 2]
-0.3768085 -0.37182572
00000000: 0bed c0be f15f bebe

fc1.weight f4 [64, 100]
0.06958325 0.080603756 0.03642882 0.044198573 -0.039811157 -0.13198486 0.005823875 -0.014413779
-0.022825597 0.027751941 0.1277862 0.11777486 0.10198451 -0.07293677 -0.02360825 -0.025933411
-0.17393269 -0.050322704 -0.08672414 -0.09398862 0.03468753 0.14057335 0.017962024 0.014730783
-0.03907621 -0.048225485 -0.06729835 -0.111531906 -0.09882398 -0.04368905 0.0011718615 0.1460455
-0.07257141 0.080186486 -0.08158499 -0.12690294 -0.053668234 0.055004045 -0.03445914 0.027652344
0.11377221 0.09706899 0.020006917 -0.037270147 -0.04175219 -0.034434926 -0.07733765 -0.04653352
-0.013366726 0.11868927 0.09348774 0.10115251 -0.0920598 -0.13388409 -0.058825966 0.017437339
-0.029314322 0.083181225 -0.03917165 -0.023609905 -0.06650676 -0.077627994 -0.110100284 0.031765997
-0.12529184 -0.038603347 -0.09836259 0.0075412714 0.051602107 -0.041644324 0.044179074 -0.08592979
0.03189279 -0.119870745 -0.13540606 0.0013711576 -0.0011954071 -0.00824893 -0.06171744 0.062174223
0.072094575 -0.11318261 -0.112694316 0.076005474 0.0112797 0.034061298 -0.022512956 -0.010887003
0.10252298 0.13162182 -0.013636468 -0.040313795 0.04128434 -0.008778368 0.06958105 -0.08485229
0.029130755 0.09924745 0.12959518 -0.011710397 -0.17433521 -0.07360397 -0.099076614 -0.12264314
-0.083862364 -0.032100536 -0.036675785 0.010713155 0.13837409 0.11790672 -0.07908514 -0.09478787
-0.09520473 -0.08241625 -0.02643279 0.10748653 0.10668081 0.061247695 0.052075915 0.019231042
0.0069209333 -0.020212427 -0.0087931035 -0.06874943 -0.013324221 0.058747333 0.097539805 0.061660375
0.0793776 0.033500887 -0.0092875045 0.07007872 0.024005543 -0.110215925 0.0014630915 -0.032887124
-0.092160106 0.08987255 0.009999972 -0.010229917 0.09623748 0.04900726 0.14059618 0.031574193
-0.115506105 -0.031574793 -0.07177444 0.012163519 -0.025177138 -0.09001442 0.01924427 0.016702903
0.03273725 0.018962279 -0.06032042 -0.08582504 -0.117874235 -0.059487503 -0.026212731 0.05952051
0.021388676 -0.021138908 0.1229717 0.13088296 0.0023801378 -0.0070540467 -0.031322118 0.032549545
0.048422627 0.025281528 0.0731234 0.03927638 0.0076589948 0.008100615 0.040900048 -0.008441503
-0.1015359 -0.07322529 -0.07696332 -0.023849579 -0.047417287 0.10590218 0.12231213 -0.08195064
-0.083616786 -0.11628937 0.021982735 -0.07036625 -0.099030584 0.019718299 -0.05502599 -0.0016793781
-0.06290513 0.06355252 -0.02049608 -0.060205158 -0.0130064795 -0.14910775 -0.0731622 -0.055590242
-0.057712033 -0.025964256 -0.012781199 -0.09781811 -0.08705628 -0.032276493 0.074754976 0.09440649
0.070771515 -0.042117413 -0.1123853 -0.10752322 0.05995597 -0.016995167 0.06320928 -0.009259613
-0.06872745 -0.014207116 0.12811692 -0.02713577 -0.08853465 -0.09651404 -0.040992714 0.09452428
-0.06300793 -0.023343846 -0.072751805 0.12861739 0.01059487 0.007727964 -0.0024479653 0.057389945
0.06617778 0.09599116 0.077380374 0.0052495752 0.016140874 0.06428317 0.00049904326 0.07341726
-0.024598088 0.020162135 0.03702675 0.16077949 0.077961445 -0.04494457 0.011218 -0.045923807
0.042813662 0.0719618 0.1403573 0.062366877 -0.015476049 0.18469366 0.10222616 0.09944092
00000000: aa81 8e3d 9513 a53d 6336 153d 9009 353d
00000010: 0611 23bd 0a27 07be 34d6 be3b c527 6cbc
00000020: bffc babc 0a58 e33c 63da 023e f233 f13d
00000030: 41dd d03d e05f 95bd 1766 c1bc 4e72 d4bc
00000040: 691b 32be 2e1f 4ebd 6d9c b1bd 1b7d c0bd
00000050: 8314 0e3d 76f2 0f3e 1825 933c 6259 713c
00000060: 600e 20bd 1688 45bd b8d3 89bd d76a e4bd
00000070: 3a64 cabd 4af3 32bd 2699 993a f48c 153e
00000080: 52a0 94bd d038 a43d 0816 a7bd d8f2 01be
00000090: 39d3 5bbd ec4b 613d 0725 0dbd 2b87 e23c
000000a0: 6801 e93d 1bcc c63d 8ce5 a33c 95a8 18bd
000000b0: 5804 2bbd a30b 0dbd 3463 9ebd ef99 3ebd
000000c0: 1d00 5bbc 5c13 f33d 8076 bf3d 0c29 cf3d
000000d0: d989 bcbd e918 09be 7ff3 70bd c0d8 8e3c
000000e0: 9724 f0bc eb5a aa3d 7472 20bd 8f69 c1bc
000000f0: b234 88bd 6dfb 9ebd 427c e1bd 101d 023d
00000100: 814c 00be 8b1e 1ebd 5372 c9bd c51c f73b
00000110: bb5c 533d 3d93 2abd 1ef5 343d f5fb afbd
00000120: 04a2 023d cb7e f5bd e3a7 0abe 6ab8 b33a
00000130: 35af 9cba 8526 07bc 6dcb 7cbd 66aa 7e3d
00000140: 52a6 933d 49cc e7bd 47cc e6bd c2a8 9b3d
00000150: 7ece 383c dc83 0b3d 176d b8bc 665f 32bc
00000160: 91f7 d13d dfc7 063e 7e6b 5fbc 1420 25bd
00000170: c519 293d 25d3 0fbc 8280 8e3d 0ac7 adbd
00000180: 9fa3 ee3c 3f42 cb3d 99b4 043e f7dc 3fbc
00000190: ee84 32be aebd 96bd aee8 cabd 542c fbbd
000001a0: 08c0 abbd da7b 03bd 5939 16bd 3b86 2f3c
000001b0: f0b1 0d3e 1479 f13d 64f7 a1bd 2520 c2bd
000001c0: b3fa c2bd dac9 a8bd 9489 d8bc e621 dc3d
000001d0: 787b da3d ddde 7a3d 8e4d 553d 6b8a 9d3c
000001e0: ffc8 e23b 8894 a5bc f310 10bc 80cc 8cbd
000001f0: d54d 5abc 0ba1 703d f3c2 c73d 978f 7c3d
00000200: b990 a23d 3a38 093d 9e2a 18bc 6f85 8f3d
00000210: 46a7 c43c e3b8 e1bd 34c5 bf3a a6b4 06bd
00000220: 70be bcbd 190f b83d ecd6 233c 629b 27bc
00000230: 2818 c53d d6bb 483d 72f8 0f3e f153 013d
00000240: 778e ecbd 9254 01bd 7afe 92bd 7f49 473c
00000250: 4940 cebc 7b59 b8bd 29a6 9d3c 87d4 883c
00000260: 7f17 063d c856 9b3c 8b12 77bd 0ac5 afbd
00000270: 0c68 f1bd 2ba9 73bd 15bc d6bc c7cb 733d
00000280: 4e37 af3c 812b adbc 96d8 fb3d 2f06 063e
00000290: 16fc 1b3b a225 e7bb 9f4b 00bd ac52 053d
000002a0: ce56 463d 351b cf3c b9c1 953d 45e0 203d
000002b0: 4ef8 fa3b 71b8 043c cf86 273d 3b4e 0abc
000002c0: 0ef2 cfbd 24f7 95bd f29e 9dbd 3160 c3bc
000002d0: a138 42bd 3ee3 d83d c87e fa3d bdd5 a7bd
000002e0: 473f abbd 1f29 eebd 2315 b43c 2e1c 90bd
000002f0: 8cd0 cabd 4588 a13c ef62 61bd 941e dcba
00000300: 68d4 80bd d327 823d 65e7 a7bc af99 76bd
00000310: 2119 55bc b4af 18be 10d6 95bd 98b2 63bd
00000320: 7463 6cbd feb2 d4bc 3c68 51bc dc54 c8bd
00000330: 904a b2bd 5b34 04bd 2319 993d 3158 c13d
00000340: a8f0 903d 4f83 2cbd 442a e6bd 2235 dcbd
00000350: 6494 753d 7339 8bbc de73 813d a2b5 17bc
00000360: fac0 8cbd f7c4 68bc 1531 033e d64b debc
00000370: a851 b5bd 27a9 c5bd fae7 27bd f295 c13d
00000380: 4d0a 81bd 983b bfbc e6fe 94bd 47b4 033e
00000390: 1b96 2d3c dc3a fd3b 0b6e 20bb b811 6b3d
000003a0: 3788 873d 0397 c43d 9a79 9e3d a104 ac3b
000003b0: de39 843c e5a6 833d 3ad2 023a ca5b 963d
000003c0: ee81 c9bc 102b a53c 5da9 173d 61a3 243e
000003d0: 40aa 9f3d cc17 38bd b4cb 373c 9a1a 3cbd
000003e0: 615d 2f3d b560 933d d3b9 0f3e 6974 7f3d
000003f0: 418f 7dbc 5620 3d3e f35b d13d aea7 cb3d

fc1.bias f4 [64]
0.13565604 -0.011942998 -0.03878534 0.03498959 0.059501454 -0.041187875 0.08725781 -0.11032139
0.050999228 0.031724956 0.13586989 -0.0059189512 0.034490637 -0.03377885 -0.0024673399 -0.04908067
-0.048731185 -0.006093329 -0.027254306 -0.027158244 -0.00054533035 -0.0383308 -0.0073487125 0.013047177
-0.097817875 0.018702958 0.041495625 0.077558026 0.0031776857 -0.010185071 -0.073874295 0.04559564
-0.013388805 -0.06649148 -0.046178393 0.041609973 -0.018173836 -0.05597634 0.04651767 0.057237875
0.026569676 -0.092080384 0.03619407 -0.087743685 0.052318297 0.007139802 0.027982086 -0.0730326
-0.030750057 -0.00094352034 -0.052842278 0.0041055013 -0.09651641 0.030055769 -0.022515953 -0.09876279
-0.07815407 -0.039728504 0.058881298 -0.009962058 0.12915039 0.05817905 0.033150293 0.1370643
00000000: 6be9 0a3e 90ac 43bc 60dd 1ebd 3f51 0f3d
00000010: ccb7 733d 9eb4 28bd 39b4 b23d 2ef0 e1bd
00000020: 91e4 503d 07f2 013d 7a21 0b3e c3f3 c1bb
00000030: 0e46 0d3d b15b 0abd 18b3 21bb d008 49bd
00000040: 5a9a 47bd 8caa c7bb 6c44 dfbc f77a debc
00000050: 80f4 0eba c200 1dbd 78cd f0bb d4c3 553c
00000060: bd54 c8bd f236 993c 51f7 293d bed6 9e3d
00000070: b840 503b 49df 26bc 684b 97bd 7ec2 3a3d
00000080: b85c 5bbc af2c 88bd 8e25 3dbd 386f 2a3d
00000090: 4ce1 94bc 7247 65bd 5089 3e3d 4372 6a3d
000000a0: a6a8 d93c a494 bcbd 3c40 143d f6b2 b3bd
000000b0: b64b 563d 00f5 e93b b03a e53c 1e92 95bd
000000c0: 8be7 fbbc 9456 77ba 2571 58bd 7187 863b
000000d0: 65aa c5bd 8437 f63c 6073 b8bc 2544 cabd
000000e0: 3e0f a0bd 5bba 22bd 842d 713d e637 23bc
000000f0: 0040 043e 284d 6e3d 9ac8 073d 955a 0c3e

fc2.weight f4 [1, 64]
0.09059187 -0.10118552 -0.07733059 0.047711734 -0.11119384 -0.060537457 0.11008794 -0.02181551
-0.09145311 0.16075923 0.08718329 -0.03295111 -0.0200827 -0.081607044 0.06920429 -0.06810552
0.061086424 0.112728775 0.04990953 0.2093456 -0.1398094 0.007202768 0.15868591 0.06675042
-0.07590686 -0.023512654 0.13368031 0.08955574 -0.037009776 0.17301409 0.14490598 0.03716112
0.10861336 0.07119964 0.008993627 -0.044653375 0.10739371 0.13550523 -0.0748301 0.09861438
-0.04710008 -0.0056935046 -0.051995624 -0.0382067 0.15590861 0.05710757 0.13972358 0.11260098
-0.080221035 -0.033296127 -0.09776124 -0.086475566 -0.02556307 -0.117095284 -0.13657413 -0.096113935
-0.07428793 -0.08693874 0.04505328 -0.039973956 0.051963307 -0.070464335 0.06802078 0.15544787
00000000: 3b88 b93d 5b3a cfbd 805f 9ebd 616d 433d
00000010: 99b9 e3bd 20f6 77bd c975 e13d 71b6 b2bc
00000020: c54b bbbd 119e 243e 278d b23d bef7 06bd
00000030: 7984 a4bc 9821 a7bd fbba 8d3d e87a 8bbd
00000040: c235 7a3d 58de e63d ef6d 4c3d b15e 563e
00000050: 322a 0fbe 3305 ec3b 8f7e 223e 72b4 883d
00000060: 0e75 9bbd 9c9d c0bc 7ee3 083e 0069 b73d
00000070: 9097 17bd 9b2a 313e 3c62 143e 4236 183d
00000080: ae70 de3d 1ed1 913d 015a 133c 75e6 36bd
00000090: 3cf1 db3d e2c1 0a3e 8640 99bd 56f6 c93d
000000a0: 03ec 40bd 9490 babb 5df9 54bd a17e 1cbd
000000b0: 82a6 1f3e a1e9 693d b313 0f3e 589b e63d
000000c0: ed4a a4bd 8561 08bd 0c37 c8bd 1a1a b1bd
000000d0: a569 d1bc a7cf efbd 17da 0bbe 62d7 c4bd
000000e0: 4524 98bd f00c b2bd ca89 383d bbbb 23bd
000000f0: 7ad7 543d 9b4f 90bd 7b4e 8b3d ba2d 1f3e
