saved_weights/LunarLander-v2/415/actor.pth (torch, 14255 bytes, 10 tensors)

attentions1.linear.weight f4 [32, 1]
000000 0a 28 93 be 24 62 f6 3d b7 93 54 3f c8 06 9c bd
       -0.28741485 0.120304376 0.83037895 -0.07618481
000010 ea 83 02 bf 2f 95 7e 3f e3 79 79 3e af 6e ba be
       -0.50982535 0.99446386 0.24362902 -0.3641257
000020 6d 88 32 3f aa 3b 79 3f 50 a4 e2 be 6e ee 32 3f
       0.6973942 0.97356665 -0.44265985 0.69895065
000030 64 c0 ad 3e 9a ed 43 3f 41 ba 4a 3f 41 d3 80 3f
       0.33935845 0.76534426 0.7919045 1.006447
000040 56 a5 54 bf a7 69 5c bf de 4e 1f 3f d1 eb 64 bf
       -0.8306478 -0.8609871 0.62229717 -0.8942233
000050 ad 4c 06 3f 77 ea 79 3e 49 15 9b 3e d9 25 19 3f
       0.5246075 0.24405847 0.30289677 0.59823376
000060 5b f3 3c bf 91 ec 79 bf be 79 d1 be 64 62 42 3f
       -0.7380883 -0.97626597 -0.40913194 0.7593138
000070 da 4c 50 3f 4c 36 99 3e cd 79 6e 3e ce 1c 7c 3e
       0.81367266 0.29924238 0.23288651 0.24620363

attentions1.attn.weight f4 [1, 64]
000000 b4 d7 ad 3d d7 2c ac bd 4e c4 56 3d 4c ef a5 bb
       0.08488408 -0.0840699 0.052433304 -0.005063927
000010 38 63 de bc 23 ac bd 3d 8d 53 1e bd 34 6c e0 3d
       -0.02714692 0.09261348 -0.0386539 0.10958138
000020 d3 53 61 3d 50 9f 2a 3c 82 a7 95 bd 83 26 cf bd
       0.05501158 0.01041396 -0.0730734 -0.101147674
000030 58 01 fc bd f2 24 f8 bd 96 8d 08 be 35 d7 8b bd
       -0.12304944 -0.12116422 -0.13335261 -0.06828157
000040 22 31 e5 3c 12 7a 15 3d c7 30 77 bd b9 53 83 bd
       0.02797753 0.03649337 -0.060349252 -0.06412453
000050 e2 58 f4 bd e0 8e aa bd 71 8b e1 bd 64 ed 54 3d
       -0.119310156 -0.083280325 -0.110129245 0.051984206
000060 83 85 6c bd 85 bd d4 3d 78 21 91 bd 55 f8 df bd
       -0.057744514 0.103877105 -0.07086462 -0.109360375
000070 38 d2 36 bc 6d 2e 95 3d 14 21 87 bd 59 23 bf 3d
       -0.0111585185 0.07284246 -0.06598106 0.09332914
000080 4e 48 b2 3c aa 18 a7 3d c1 9d 88 bd 35 5d 27 be
       0.021762993 0.08159001 -0.06670714 -0.1634415
000090 ff 5d 08 3d 99 7f e0 3d 30 1d ec 3d 94 1e ab 3c
       0.033292767 0.10961837 0.115290046 0.020888604
0000a0 e3 b8 1b bc 96 00 70 3d 41 ee c3 bd 1a c1 e5 3d
       -0.00950453 0.05859431 -0.09566928 0.11218472
0000b0 70 c5 15 b8 24 46 64 bd e8 85 ab bc 13 0e 82 3b
       -3.5708246e-05 -0.055730954 -0.020937875 0.003968963
0000c0 2e c0 d0 3c f8 ad 8e bd 34 6a 2f 3d 49 75 d4 bb
       0.025482263 -0.06966776 0.042825893 -0.006483708
0000d0 0d 57 6b 3c 59 7d ea 3c 2e 05 94 3c f1 0e 2c 3d
       0.014364016 0.028624224 0.018068876 0.042006437
0000e0 50 77 0f bc f3 37 5b bd 72 82 6a bc 94 91 15 3e
       -0.008756474 -0.053520154 -0.014313327 0.14606315
0000f0 3b a2 c8 bc 0f e1 7e bc d5 4f 71 bc 65 21 ab bd
       -0.02449142 -0.015556588 -0.014728506 -0.08355979

attentions2.linear.weight f4 [32, 32]
000000 9f 33 aa 3d c2 2a 0d 3e fc 5a 87 3d 05 84 06 3c
       0.08310627 0.13785842 0.06609151 0.008210187
000010 81 54 70 3d 3c 54 2f 3e 0e 6c 07 bb c7 0c 26 be
       0.05867434 0.17121977 -0.002066377 -0.16215812
000020 40 f0 07 3d a4 70 86 3d 60 45 aa bd bf 96 80 3c
       0.033188105 0.06564453 -0.083140135 0.015696881
000030 31 e2 cc bd 89 e5 a1 3d 8e 74 e3 bd d7 5e 02 3e
       -0.1000408 0.079051085 -0.111062154 0.12731491
000040 7c 55 15 be f5 69 34 be d6 3b 99 bc 56 4b 8b bd
       -0.14583391 -0.17618544 -0.01870529 -0.068014786
000050 3a b4 7e 3d 51 20 73 bd 8c 9a 60 3c 6c d8 cf bd
       0.062183596 -0.05935699 0.013708722 -0.10148701
000060 a3 8a bf bd 4c 7c bb 3d 9f cb a0 bc ad 17 b1 3d
       -0.09352615 0.09154567 -0.019628344 0.08647094
000070 a0 02 e0 3d f8 17 2c bd a0 f8 30 3e 00 f1 f0 3d
       0.10938001 -0.042015046 0.17282343 0.11764717
000080 c7 5c 36 3d 94 ba 07 be ac 7e 43 be d5 ec 08 3e
       0.044522073 -0.13254768 -0.1909129 0.13371594
000090 81 0b bf bd dd 7f 54 bd 16 d1 83 3d 37 e1 9c bd
       -0.09328366 -0.051879752 0.06436364 -0.07660144
0000a0 c5 12 0b be 47 b4 6b bc 7a d6 11 3e 37 1f e4 3b
       -0.13581379 -0.014386243 0.14241973 0.006961729
0000b0 8e 32 4f bd 1d 3a 68 3d a0 7d f7 bd 31 63 36 be
       -0.050585322 0.056696046 -0.12084508 -0.17811276
0000c0 94 43 46 3e f5 d2 3c 3e 60 52 4c be 1f 83 d7 3d
       0.19361717 0.18439849 -0.19953299 0.10523056
0000d0 b6 fc d4 bc a3 36 00 3e eb a3 05 be 75 b7 93 bd
       -0.025999408 0.12520842 -0.13050811 -0.07212726
0000e0 a8 df b5 3d ae 21 50 3e 51 73 ee bd bc d0 a3 3d
       0.0888055 0.20325348 -0.116430886 0.07998797
0000f0 ba de d9 3b 3e a5 17 be 19 d1 90 bd 93 3f c2 bc
       0.0066488655 -0.14809129 -0.07071132 -0.023711955
000100 88 a2 4e 3d fa d0 54 bc 30 91 76 3d bf f0 0d be
       0.05044797 -0.012989277 0.060197055 -0.13861369
000110 b4 e4 22 be 86 4b 8b bd 06 28 6c bd d8 b6 80 3d
       -0.15907556 -0.06801514 -0.057655357 0.06284875
000120 bb 74 c4 3d b9 5d 1d 3e 92 ad bd bd e8 b2 b8 bd
       0.09592577 0.15367784 -0.092616215 -0.09018499
000130 8c eb 8c bc 6a dc 97 bc ac 8c 0d 3e a3 76 32 3d
       -0.017202161 -0.018537719 0.13823193 0.043570172
000140 63 d3 2c bd f0 14 ff bc 92 eb f3 3d af fa 4d bd
       -0.04219378 -0.031137913 0.11910166 -0.0502879
000150 ca b4 c2 bd f1 24 17 3d a1 1f 13 be 69 57 e7 3d
       -0.09507139 0.036900464 -0.14367534 0.11295969
000160 39 c5 16 be ae 13 29 be 1e 91 14 3e 02 1f 68 3d
       -0.14723672 -0.16511413 0.14508483 0.056670196
000170 1c 28 b3 bd 72 22 02 3e 65 d2 b1 3d ae e9 a6 3c
       -0.08747885 0.12708452 0.08682708 0.020375099
000180 6e f2 cd 3d e7 a0 9b 3c 70 7e 7f bd 2e ae 9c bd
       0.100560054 0.018997623 -0.06237644 -0.0765041
000190 43 92 12 3e c9 57 08 3e 54 d2 bb bd 80 92 e0 3d
       0.14313607 0.13314737 -0.09170976 0.10965443
0001a0 c3 22 03 bd 3b 36 c6 bd ab ca c9 3c ef 33 1c be
       -0.032015573 -0.096783124 0.024632772 -0.15254186
0001b0 f6 55 3f 3b be 98 c2 3d 21 df 1a bd 25 6b 86 3d
       0.0029195524 0.095017895 -0.03781045 0.06563405
0001c0 71 1c 8d 3d 3c ff 8d bd 92 c2 b5 bd 2c 21 0f 3e
       0.068901904 -0.06933448 -0.08875002 0.13977498
0001d0 15 eb f8 3b c7 da 2e 3e e9 86 c7 bd f0 44 24 be
       0.0075963833 0.17075644 -0.09742529 -0.16041923
0001e0 82 23 13 be 03 44 07 3e 02 e4 15 be 63 96 f6 bc
       -0.14369014 0.13209538 -0.1463776 -0.030101007
0001f0 35 f0 be 3d fb 9b 08 bd 82 0a 2d bd b7 7c 02 be
       0.093231596 -0.03335188 -0.04224635 -0.12742887
000200 b5 f5 00 3e 4f 24 68 bd 45 15 0a 3e 9b ce 06 be
       0.1259373 -0.05667525 0.13484676 -0.13164751
000210 7e aa 1d 3e 52 6d d5 3c 25 9a 10 3d a2 96 c5 bd
       0.15397069 0.026053105 0.035303254 -0.096478716
000220 3f ed 9d bd cc 16 61 bd 25 89 20 bd f8 b3 00 be
       -0.07711267 -0.05495338 -0.03919329 -0.12568653
000230 50 6f 02 3e 0f 0d ae bd b0 74 fc bd 49 84 07 bd
       0.12737775 -0.084985845 -0.12326944 -0.03308514
000240 83 22 b1 3d bf 8f 13 3d b4 f0 bb bd da 0d 39 3e
       0.08649161 0.03602576 -0.0917677 0.1807169
000250 e6 3a 58 3d ea 7d 8c bd d6 62 2e 3d a5 42 21 be
       0.052790545 -0.06859954 0.042574726 -0.15748079
000260 f3 0b be bd 91 6d 4c bd cb 8d 97 bd 39 d2 d5 bc
       -0.09279623 -0.04990918 -0.07400092 -0.026101219
000270 31 71 22 3c c3 b7 52 3d 3c 43 2e be 64 f0 02 3e
       0.009914682 0.05144478 -0.17017835 0.12787014
000280 90 f5 95 3d 80 78 8b bc b3 91 ff 3d 07 ce f4 3d
       0.07322228 -0.017025232 0.12478962 0.11953359
000290 11 76 af bd 71 97 b7 3d 75 61 56 3d 14 69 47 bd
       -0.08567441 0.08964432 0.052339036 -0.048684195
0002a0 81 0d d9 bd 30 8a df bd 84 4a 01 be dd df 03 3e
       -0.10598279 -0.10915029 -0.12626082 0.12878366
0002b0 26 09 1a 3e d0 45 fa 3d 0c 00 13 be 35 01 2a be
       0.15042552 0.12220347 -0.14355487 -0.16602023
0002c0 9e 30 88 bd 24 7c 99 3d 5f 24 06 3e 9f b8 07 be
       -0.06649898 0.07494381 0.13099812 -0.13254021
0002d0 c6 af 9a bd ef db a4 bd 3d 0e ae bd fb 3f 38 bd
       -0.075530574 -0.080497615 -0.084988095 -0.04498289
0002e0 01 fb 10 3e a8 2d d3 3d be 9f 49 bd b2 cb 73 bd
       0.1415825 0.103114426 -0.049224608 -0.05952043
0002f0 dc 04 8b 3d f3 05 98 3c e8 25 18 be 7e 0d 0e 3e
       0.06788036 0.018557524 -0.1485821 0.13872334
000300 7c d1 34 bd 8a 92 d7 3d 20 fc 13 be 5e 94 f3 3d
       -0.044145092 0.10525997 -0.14451647 0.11893533
000310 54 ae 0b 3e 35 40 dd ba 52 72 41 be 9c f8 b8 bc
       0.1364072 -0.0016880097 -0.18891266 -0.022579484
000320 8f e1 16 3e 5a 79 43 bd 46 6b 9b bd 9f 53 20 be
       0.14734481 -0.04772315 -0.0758882 -0.15656899
000330 53 2c 03 be 55 fb f9 bd 63 9c d9 3d 3e b0 be 3d
       -0.12809877 -0.12206141 0.106255315 0.09310959
000340 d6 c1 11 3c fa 1f 18 3e 3c 69 46 be 96 a7 39 3e
       0.008896312 0.14855948 -0.19376081 0.18130335
000350 44 c2 c0 bc cb 5e 07 be 67 19 fa b9 f6 ad 01 3e
       -0.023530133 -0.13219754 -0.00047702642 0.12664017
000360 01 a1 a8 3c 51 a1 f2 bc 8e 51 14 bd 80 42 12 be
       0.020584585 -0.029617937 -0.03621059 -0.1428318
000370 c0 ad 1b 3d f9 47 17 3d d5 68 8a 3d 92 b5 37 be
       0.038007498 0.036933873 0.067582764 -0.17940357
000380 c1 31 86 3d 5a ad 05 be 3c ff 9d bd f3 87 8f bc
       0.065524586 -0.1305441 -0.07714698 -0.01752088
000390 6c d8 84 bd d8 e3 4a bc a7 46 11 bd be 0f 9c 3d
       -0.06486592 -0.012383424 -0.03546777 0.0762019
0003a0 11 78 22 3e f7 0a 36 3d 1f dd 92 3a 31 6a d9 bd
       0.15866114 0.04444405 0.0011204815 -0.106159575
0003b0 d2 ac 0c bd 95 dd 68 3d c9 fc 05 be 43 2c 26 bd
       -0.0343445 0.056851942 -0.13084711 -0.040569555
0003c0 33 bd 0f 3e 01 07 a3 3d bc 82 88 bd 33 f5 2b 3e
       0.14037018 0.0796032 -0.066655606 0.16792755
0003d0 38 1e 97 bd 34 fe c9 3d 05 fa 85 bd 9b e2 ef bd
       -0.07378811 0.098629385 -0.06541828 -0.117131434
0003e0 19 95 c4 bd cf a4 b9 bd d1 4f b4 bd 8a 11 45 bd
       -0.095987506 -0.09064638 -0.08804286 -0.04811243
0003f0 c3 ce e4 bc 2a e4 06 be 48 94 d8 bd c4 5e 36 be
       -0.027930623 -0.13172975 -0.105751574 -0.17809588

attentions2.attn.weight f4 [1, 64]
000000 16 40 41 3d ea 89 8d 3d 57 7c f3 3d 29 64 bb 3d
       0.047180258 0.06911071 0.1188895 0.091499634
000010 b3 65 e8 3d b6 96 7e bd 43 6e 67 3d 6a a0 ae 3d
       0.113475226 -0.062155448 0.05650164 0.0852669
000020 c9 b4 42 3c 13 96 f2 bb c5 f3 d4 3d 1b 93 f6 bc
       0.011883923 -0.007403144 0.10398058 -0.030099442
000030 d8 b9 8c bc 51 8d 47 bc f1 4d 83 bd 8f d4 0a 3b
       -0.017178461 -0.012179689 -0.064113505 0.0021183824
000040 1b 25 ac 3d 07 1e 8b bc bb 84 93 3d 8f e1 dc bd
       0.08405515 -0.016982092 0.07203051 -0.107852094
000050 c1 fa 38 bd cc 7a f1 bb d5 d4 33 bd 31 31 41 3d
       -0.045161013 -0.007369375 -0.043904144 0.047166053
000060 3f bf 36 3d 62 a2 06 3c ca f2 f3 bc 31 13 ed bd
       0.04461598 0.008217426 -0.029778857 -0.11575926
000070 7a b2 89 bc 60 eb 3d bd da e4 e6 bd 24 1b d4 bd
       -0.016808737 -0.04636705 -0.11274119 -0.10356739
000080 01 9e 01 3e fa f7 0a be 76 fb 83 3d 73 a9 e4 3c
       0.1265793 -0.13571158 0.06444447 0.027912831
000090 41 f5 d7 3c 8e 1b d1 3d 67 4b 09 bd 55 54 44 bd
       0.026362063 0.10210334 -0.033519175 -0.047931988
0000a0 52 ac d6 3d 1e 32 77 3d 85 00 ba 3c b0 19 48 3d
       0.10482086 0.06035053 0.022705326 0.048852623
0000b0 f1 15 80 bc f4 ab 2a bc 2f f6 23 bd ea b6 36 3d
       -0.015635462 -0.010416973 -0.0400297 0.044608034
0000c0 80 15 04 3e 3d f3 a8 3c 5e 85 00 b8 01 d2 a5 bd
       0.12898827 0.020623798 -3.0641786e-05 -0.08096696
0000d0 92 ab e7 bd ed df e5 bd 41 a6 90 bd 8c ff b2 bd
       -0.11312021 -0.11224351 -0.070629604 -0.08740148
0000e0 a5 89 85 3d 55 4d f4 3d 2d d7 19 3c 1f 60 bc bd
       0.06520394 0.119288124 0.009389681 -0.09198021
0000f0 be 91 fb bc b4 d3 aa bb 38 a0 3a 39 b2 4b 8b 3b
       -0.030709144 -0.0052132253 0.00017798028 0.004250967

attentions3.linear.weight f4 [32, 32]
000000 2f da 0d 3e 05 e3 4d bd a2 36 e2 3d e8 20 a2 bd
       0.13852762 -0.05026533 0.11045577 -0.079164326
000010 7f 06 10 3e cc ca 12 be c6 19 01 be fe 44 b3 3d
       0.14064978 -0.14335173 -0.12607488 0.087533936
000020 c0 30 8f 3c d8 7c e5 bc fa b6 9c bb ed cb d6 3d
       0.0174793 -0.028013632 -0.0047825547 0.104881145
000030 3c db 46 3b d7 0a 34 bd a4 04 bf bc 2b 1f 55 3c
       0.0030343076 -0.04395565 -0.023317643 0.013007919
000040 78 4f 44 3e 8a 0f 31 3e ac 19 3b be 1d 70 57 bd
       0.1917094 0.17291084 -0.18271512 -0.052597154
000050 ea f4 07 be f3 0d b6 bd 4a e2 ed bd 59 34 1a be
       -0.13277021 -0.08889379 -0.11615427 -0.15059032
000060 8b 24 03 3d 78 0d 72 bc 1c 75 5c 3d c2 1a c7 3d
       0.032017272 -0.014773719 0.05382262 0.097219005
000070 42 4d 93 bd f9 7d e2 3d 1e e3 84 3d 83 15 42 be
       -0.0719247 0.110591836 0.06488632 -0.18953519
000080 63 6c a9 3d 12 f9 31 3e fe 76 e8 3c 02 72 58 3d
       0.08272626 0.17380169 0.028377052 0.0528431
000090 a1 13 0a be bc 3e 24 3c 6d d1 ca 3d 78 29 f3 bc
       -0.1348405 0.010024723 0.09903226 -0.02968286
0000a0 73 ff 8e 3d 52 8a 0e be c4 9a 50 3d cc b8 09 be
       0.06982317 -0.13919953 0.050928846 -0.134494
0000b0 ab 49 1f be 0d 86 c4 bb fb 44 d9 bd 35 d5 0b 3d
       -0.15555446 -0.0059974254 -0.1060886 0.034138877
0000c0 4f 63 95 bd 92 b2 1c be 3e fc 52 bd 4e 90 cc 3b
       -0.07294332 -0.15302494 -0.05151009 0.0062427884
0000d0 b5 41 c6 bd a2 ec 7a bd 5e 1d fa bc f6 35 00 3c
       -0.09680501 -0.061260827 -0.030531581 0.007825365
0000e0 ba 24 e1 3d ec db ad bc 51 a6 7c 3c 61 7b fe bd
       0.10993333 -0.021223031 0.015420512 -0.124258764
0000f0 a8 b6 ac 3c 44 6e 0a 3d 9f 77 1b 3e 28 02 39 3d
       0.021083191 0.033796564 0.1518235 0.045168072
000100 a5 80 3d 3d 43 09 b6 3d 19 64 36 3e e6 eb c8 bd
       0.046265263 0.08888485 0.17811622 -0.09810619
000110 dd d2 27 3c f6 07 0a be 45 2a 28 be 95 d7 a2 3d
       0.010243145 -0.134796 -0.16422375 0.07951275
000120 33 5a d7 bc c6 1e bf bd 0c 41 db 3d 38 92 3a 3d
       -0.026288128 -0.093320414 0.10705766 0.0455496
000130 7b 64 6b bd e6 7e e4 bd c7 6c 12 3e a2 ed 1f bd
       -0.057468873 -0.111570165 0.14299308 -0.039044984
000140 af 69 8f bc ab 81 e7 3d 86 4b 07 3e 4a 01 2f 3e
       -0.017506449 0.11304029 0.13212404 0.17090335
000150 05 ce 26 bd d0 f3 1f be 89 9e 01 3d e3 41 1d 3e
       -0.04072382 -0.15620351 0.03164533 0.15357165
000160 34 e7 7f bc 87 2d 15 3e dc b6 8f bd d9 f5 b7 bd
       -0.015619088 0.14568149 -0.070172995 -0.089824386
000170 c9 63 db 3d 6b 39 cc bd 71 94 3b bd 52 e9 3a 3d
       0.10712392 -0.09971889 -0.04579586 0.045632668
000180 74 c8 3c be 95 cd 63 bd b8 11 0e be 41 04 2c 3d
       -0.18435842 -0.05561598 -0.13873947 0.041996244
000190 e0 c7 04 3e 47 66 21 3d 71 e3 95 3d ef 15 2a bc
       0.12966871 0.03940418 0.07318772 -0.010381206
0001a0 c9 3b 53 bd d0 e6 ff bd 7d 03 19 3e 4a 9e 13 be
       -0.051570687 -0.12495196 0.14942737 -0.14415851
0001b0 81 a2 df bd ce 17 12 3e e5 53 5c bd 6a 78 08 3e
       -0.10919667 0.14266893 -0.053790946 0.13327184
0001c0 f2 a9 64 bd ba c7 a2 3b 8d 93 e6 bd 1b 90 68 bd
       -0.055826135 0.004967657 -0.11258612 -0.056778055
0001d0 4d 04 31 3e c7 41 42 3d b9 eb ff bc 9c 36 f4 bd
       0.17286797 0.04742601 -0.031240331 -0.119244784
0001e0 7f 18 10 be b1 ce 00 be e5 35 6f bd 7f e9 2a 3d
       -0.14071845 -0.12578847 -0.058401007 0.041726585
0001f0 5d fa f4 bd b2 d7 3a be 66 ae 9f 3d cc 69 db bd
       -0.119618155 -0.18246344 0.07796936 -0.107135385
000200 aa 50 c5 3d 9f ac a0 bd 38 dc 7c 3c 41 1e f5 3c
       0.09634526 -0.07845425 0.015433364 0.029921653
000210 32 91 08 3e d6 0f 6d ba 88 72 37 3e 92 01 56 3d
       0.13336638 -0.0009043192 0.17914784 0.05224759
000220 0e 13 a6 3d 2e 48 8b bd 49 1a 30 3b 41 5d 0b bd
       0.08109103 -0.068008766 0.0026871136 -0.03402448
000230 b1 45 77 bd b3 17 45 3d 40 93 7e bc 6e 95 35 3e
       -0.060369197 0.048118304 -0.015538037 0.17732784
000240 5f 60 4b be 91 66 08 3d 7c fb 39 3e 4b 28 1b be
       -0.19860981 0.03330094 0.1816234 -0.1515209
000250 64 8d 35 bd 62 17 2c 3e 32 fa 50 3d e9 b3 92 3d
       -0.044324294 0.16805795 0.051019855 0.071632214
000260 f4 91 02 3e 1a f7 c1 3d 00 eb b8 3d 85 8e 49 bd
       0.12750989 0.09470959 0.09029198 -0.049208183
000270 3b 4b a1 bc a4 b2 00 be fb fa 4a 3c 95 b2 fd 3d
       -0.019689193 -0.12568146 0.01238894 0.123875774
000280 55 d8 db 3d 6d fa 9e 3d 8d dd 8f 3d 29 30 8a bd
       0.107346214 0.07762609 0.07024679 -0.06747467
000290 20 38 14 3e 06 fd ee 3d 1e d0 30 be e4 45 30 be
       0.14474535 0.11669354 -0.1726689 -0.17214161
0002a0 d2 59 e4 bd b9 99 93 bb f5 62 e4 bd fe 30 90 3d
       -0.11149944 -0.004504409 -0.11151687 0.070405945
0002b0 2a 86 53 bc 09 ff 83 3d bb 23 0e be ac e6 47 be
       -0.012910405 0.064451285 -0.13880818 -0.19521588
0002c0 75 3a d1 3c 36 4d a8 3c 62 26 07 3e 08 07 4a 3d
       0.02554057 0.02054463 0.13198236 0.04932311
0002d0 d1 1c 0c 3d b3 7a a8 3d c6 23 fa 3d 91 a1 fe 3b
       0.03420717 0.08226528 0.122138545 0.007770725
0002e0 3c 2e e6 3d 6b d4 10 be f3 f6 13 3e 96 5a 88 bd
       0.11239287 -0.14143531 0.14449672 -0.06657903
0002f0 84 fa 14 3e 2a 4a 3e 3d af 41 47 be a5 38 15 3d
       0.14548689 0.046457447 -0.1945865 0.036430974
000300 9b ac 08 be 58 66 1f 3e 77 54 a2 bd 48 e5 04 be
       -0.13347094 0.15566385 -0.07926267 -0.12978089
000310 c1 49 19 be 48 e7 08 3e 85 08 bf bd 11 20 cf 3d
       -0.14969541 0.13369477 -0.09327797 0.10113538
000320 c0 fd 16 be ec bc 99 bd 29 19 18 be ed 5e f4 3d
       -0.14745235 -0.07506737 -0.14853348 0.11932168
000330 47 7f ea 3d 00 25 ff 3d 4a c6 66 3d 29 57 0d bd
       0.114500575 0.12458229 0.056341447 -0.03450695
000340 69 61 c6 bd ee 8e c9 3d 72 4f c0 bd ce 55 f2 3d
       -0.09686548 0.09841715 -0.09390153 0.11832772
000350 08 8f fd 3d 43 71 1f 3e 08 39 5b bd a5 71 14 3e
       0.12380797 0.1557055 -0.053521186 0.14496477
000360 19 60 9c 3c 81 22 00 3e db 86 09 3e e8 d3 1d 3e
       0.019088792 0.12513162 0.1343035 0.15412867
000370 ad 74 07 3d 7d 25 3e be f2 b7 a8 3d 3b e7 51 3d
       0.033070255 -0.18568988 0.0823821 0.05124591
000380 67 77 ab 3d 8f 93 b1 bd a2 f9 3f bd 34 3e 79 bb
       0.083723836 -0.08670723 -0.046868928 -0.003803146
000390 1a ce f0 bd 52 51 d1 bc a9 8f 43 be 4b 27 21 3e
       -0.11758061 -0.025551472 -0.19097771 0.15737645
0003a0 45 73 b1 3d 4c 81 c4 bd 05 bd b5 3d 12 a7 82 bd
       0.08664564 -0.09594974 0.08873943 -0.063795224
0003b0 a2 22 1c 3d ba a7 72 bc 88 fd 2b be 94 7b c5 bd
       0.038118966 -0.014810497 -0.16795933 -0.09642711
0003c0 e7 9f bd bb 89 1a 97 3d 11 a4 40 bd b1 03 62 3d
       -0.005786884 0.07378108 -0.047031466 0.0551793
0003d0 0c 82 36 be 55 77 cd 3d e0 79 43 be 5a 4f e6 bd
       -0.17823046 0.100325264 -0.1908946 -0.11245604
0003e0 0d c9 c9 bd ad ae 28 3d b1 be 11 be e3 e8 e8 3d
       -0.098528005 0.04118221 -0.14232899 0.113725446
0003f0 1e 3a 57 3c d3 a1 85 bd 3d 0c 3b be 25 b8 96 3d
       0.013136415 -0.06525006 -0.18266387 0.073593415

attentions3.attn.weight f4 [1, 64]
000000 3f d6 f7 3d a3 13 51 bd e3 8a d6 3d 3c 6e ea 3d
       0.12101411 -0.051044118 0.10475709 0.11446807
000010 4c ae 24 bd 9d 61 07 3d 2d d9 c7 bd 7f 15 dc 3d
       -0.040205285 0.033052076 -0.0975822 0.107462876
000020 2a 02 b7 bc 2d b9 af 3d ea 33 c4 3d be 2e f6 bd
       -0.0223399 0.08580241 0.09580214 -0.12020634
000030 7a c7 99 bb 5f 24 dd bd bf f8 a8 bd 47 80 f2 bd
       -0.004692969 -0.10797953 -0.082505696 -0.11840873
000040 58 71 c0 3d bd 77 20 bd 7c c3 b5 3d 3d ce 3c 3d
       0.093966186 -0.03917669 0.08875176 0.04609512
000050 22 f7 7a 3d 50 66 d6 3c da 10 c4 bd 40 01 a8 bc
       0.06127084 0.026171833 -0.09573527 -0.020508409
000060 ac f1 da bd 11 dc 97 3d 69 5c 06 bd a2 b8 a1 bb
       -0.106906265 0.07415021 -0.032802973 -0.00493534
000070 c2 5e af 3c 07 3b fc bc 9e ba 04 be 65 26 2f 3d
       0.021407489 -0.030789865 -0.12961814 0.042761225
000080 0f ef ac bd d4 ac ab bc 82 1a ed 3d e8 42 df bd
       -0.08444034 -0.020956434 0.115773216 -0.10901433
000090 44 34 c8 ba 44 b5 5b bc 27 33 da 3d 0f d2 96 3c
       -0.0015274365 -0.013409916 0.10654288 0.01841071
0000a0 e9 e3 0a 3e 9e 01 b4 bc 12 db 5c bd 50 3f 52 ba
       0.13563503 -0.021973427 -0.05391986 -0.00080202986
0000b0 77 da 70 bc 0c 4d f4 ba de 41 25 3d fb 66 88 3d
       -0.014700524 -0.0018638684 0.04034602 0.06660267
0000c0 c9 8f ab 3d 82 b0 9a bd a7 6b 91 bd 6b 31 83 3d
       0.08377034 -0.075531974 -0.07100611 0.0640591
0000d0 8d 86 e9 bd 39 25 c4 3d c9 f2 32 3c 11 b4 36 bd
       -0.11402617 0.09577412 0.010922142 -0.04460532
0000e0 29 d1 8a bd 81 15 b0 3d 75 eb 3c bd af 5e b2 bd
       -0.067781754 0.085978515 -0.046122987 -0.08709466
0000f0 3e eb 1d bd f3 32 bd 3d 00 48 bc bd 5a 7c f6 bb
       -0.038554423 0.092382334 -0.091934204 -0.007522148

output_layer.linear.weight f4 [5, 32]
000000 a5 5a 87 3d 75 9c 35 3c c2 86 7c 3d 06 4b ef bc
       0.06609086 0.011084666 0.061651953 -0.029210579
000010 8c d5 d6 bd c1 8e 48 3e d4 64 14 be fd c3 8a bc
       -0.104899496 0.19585706 -0.14491588 -0.016939158
000020 06 70 cd 3d 25 4e 92 3c 91 1d b0 bd 45 2f 1a bd
       0.100311324 0.017859528 -0.08599389 -0.037642736
000030 17 3f ca ba 26 f9 0c be 95 1d ac 3d 93 46 35 3e
       -0.0015430179 -0.13766918 0.0840408 0.17702703
000040 f8 52 ac bc c8 6f 23 be af b9 34 3e 45 29 39 be
       -0.021035656 -0.1596061 0.17648958 -0.1808215
000050 26 71 3b be 7a 7f 17 3e 5d 81 38 3d f2 5f 27 be
       -0.18304881 0.14794722 0.045045245 -0.16345194
000060 80 3e a5 bd 13 b5 ed bd 25 34 16 3e a4 21 c9 bc
       -0.080685616 -0.11606803 0.14668329 -0.024552174
000070 8c 4b ca 3d bf 08 16 be 2c 67 35 be 9e e8 d2 bc
       0.09877691 -0.14651774 -0.17715138 -0.025745686
000080 ca 1c b3 bd 06 00 d6 bc 5a b7 ae 3c 0c 11 3d bb
       -0.087457255 -0.026123058 0.021327663 -0.0028849272
000090 8d 39 d5 3d bc 10 93 3c fb 70 46 3d 2b 4c 94 bd
       0.104113676 0.017952316 0.04844759 -0.072410904
0000a0 5a 0d 04 be 58 a0 0c be c0 33 d2 3c ea e5 d7 bd
       -0.12895718 -0.13733041 0.025659442 -0.105418995
0000b0 4c 89 83 bd b9 06 b1 3d 19 94 fc bb 9c 5b 86 bd
       -0.06422672 0.0864386 -0.0077080843 -0.06560442
0000c0 fa 9f d0 bc 7b 2e 1b 3e b8 1f 02 3e da ca d2 3d
       -0.025466908 0.1515445 0.12707412 0.10292597
0000d0 de 5b 73 3b 5b 6e 39 be ef 06 0e be 3e cc ba bd
       0.0037133615 -0.18108504 -0.13869832 -0.09120987
0000e0 70 41 6f 3d e1 72 16 be 70 cd a2 bd ef 41 9f 3c
       0.058412015 -0.1469226 -0.0794934 0.01944062
0000f0 e1 6c 52 3e 95 e2 bd bc 54 08 c0 3c 09 77 a5 3d
       0.20549347 -0.023179332 0.023441471 0.08079345
000100 68 61 e2 bd be d2 de 3d af 75 2a be a1 e0 2c 3e
       -0.11053735 0.1088004 -0.16646455 0.16882564
000110 4f a4 1b bd ed 2d 28 be 25 c3 35 bd 56 86 f4 3d
       -0.037998494 -0.1642377 -0.044375557 0.11939685
000120 72 5a 53 3d d3 11 c8 3c 92 dc e1 bd 7d 38 04 3e
       0.051599927 0.024422562 -0.110283986 0.12912174
000130 92 11 b0 3d a4 fe 48 be e2 83 28 bb 08 a4 9b 3b
       0.08597101 -0.19628388 -0.0025713374 0.0047497787
000140 25 0c d4 3d 3f 33 38 be 53 3b 41 bd 46 de a3 3c
       0.10353879 -0.17988299 -0.047175717 0.02000345
000150 7e 5c 8c 3d ef 54 0c bd c1 5b 08 3e 5a 5f e7 3d
       0.06853579 -0.034260686 0.13316251 0.11297484
000160 25 a7 ae bd 49 bd 41 be 12 4b 8f bc 60 2e 25 3d
       -0.08527974 -0.18919863 -0.017491851 0.04032743
000170 55 f3 34 3e 1b 51 0a be 29 9d 10 3e 53 c5 6d 3d
       0.17670949 -0.13507502 0.14122452 0.05804951
000180 33 1e b1 bd 32 fa 85 bd ba 76 8f 3d f2 40 d6 3d
       -0.08648338 -0.065418616 0.07005067 0.10461606
000190 14 08 8c 3d fc f0 82 3d d7 15 29 be b4 93 10 3e
       0.06837478 0.0639362 -0.16512237 0.14118844
0001a0 8c 9e c8 3d 80 a6 12 3e 90 1f b3 3d b7 aa 24 be
       0.097958654 0.14321327 0.087462544 -0.16080748
0001b0 85 89 26 3e 30 d9 1a be d6 88 1f 3e 29 43 4a 3c
       0.16263397 -0.15121913 0.15579543 0.012345114
0001c0 b8 0d 31 3e f9 2d 8d bd 3b 36 1f 3e c4 21 11 3d
       0.1729039 -0.06893534 0.15548031 0.035432592
0001d0 43 f2 e1 3d 1b fc d4 3d 55 74 c5 3d cf c5 dc bd
       0.11032536 0.10399648 0.09641329 -0.107799165
0001e0 ac 97 72 bd 2a 28 6f 3d 97 d6 37 3d d2 27 94 3d
       -0.059226677 0.058387913 0.044882383 0.072341576
0001f0 d9 48 35 bd 01 ce c1 3d eb 9c 29 3e a2 11 23 be
       -0.044258926 0.0946312 0.16563766 -0.15924695
000200 2e 0a 0c bd b3 9b 9d 3c 5a cd e9 3d aa b5 19 be
       -0.034189396 0.019239282 0.11416121 -0.15010706
000210 13 82 83 bd 77 ad 02 bd e2 ba 15 be 9f 6f 3f 3e
       -0.06421294 -0.03190371 -0.14622071 0.18694924
000220 30 5d 8c bd be 88 e4 3d cc a6 80 3b 26 27 13 3e
       -0.068537116 0.11158894 0.0039261337 0.14370403
000230 dd f5 e9 bd a0 20 90 bc 6f b8 f1 3d 42 df 62 3c
       -0.11423848 -0.017593682 0.11802756 0.013847174
000240 fc cf 4a be 05 47 0f bc 1a 30 cf 3d 1b e9 17 be
       -0.19805902 -0.00874496 0.101165965 -0.14835016
000250 d6 ab 51 be 6b 12 f9 bd ed 5c b6 3c d7 f2 17 3e
       -0.20475706 -0.12161716 0.022261107 0.1483873
000260 ba a7 90 bd 21 0d f2 3d a5 4a 00 3e f7 f0 08 3e
       -0.07063241 0.118189104 0.12528475 0.13373171
000270 f8 66 84 3d 6c 7d 4f be fb 4b ca bd 65 b2 2a be
       0.06464952 -0.20262688 -0.098777734 -0.16669615

output_layer.attn.weight f4 [1, 10]
000000 c0 cb f0 bc 1c 6b 52 be bc 30 93 3c ad b3 2c be
       -0.02939403 -0.20548671 0.017967574 -0.16865416
000010 a0 13 76 be f6 ea 43 be fa 80 18 3e 50 99 10 be
       -0.24030924 -0.19132599 0.1489295 -0.14120984
000020 3a df 85 bd 7c a9 8e bd
       -0.06536718 -0.0696592

fc1.weight f4 [5, 45]
000000 4b 6c e3 bc 2c 00 0c bd 45 df 57 3c 8b e7 e8 bc
       -0.027761599 -0.03417985 0.01317579 -0.02843072
000010 3d d7 c7 3c ed c5 d3 3d 91 0e f5 3d 02 11 af bd
       0.024394626 0.10340486 0.11965669 -0.08548166
000020 92 76 99 bb 93 d6 2b 3d aa 47 f4 bd 92 ab eb 3d
       -0.004683324 0.04195268 -0.11927731 0.11507334
000030 aa b6 24 be f5 2a 0d be 54 b7 93 3d 34 5f 03 3e
       -0.16085306 -0.13785918 0.072127014 0.12829286
000040 32 fd 6f 3d eb 36 29 3b e7 0d 93 3d 7f 64 1a 3e
       0.058591075 0.0025820087 0.07180386 0.15077399
000050 d7 f7 dd bd c5 9e c8 bd 1d 3d d7 bd 01 32 95 3c
       -0.10838287 -0.09795908 -0.10509703 0.01821232
000060 85 6f f0 bb 08 8a c7 bd 16 2d 9b 3d 5e a3 de bd
       -0.007337513 -0.09743124 0.07576959 -0.108710036
000070 28 c0 05 be 17 24 33 3c 2e ba f0 3d 56 fa de 3d
       -0.13061583 0.010933897 0.11754261 0.108875915
000080 0d 25 83 bc e7 2e 7d 3c 05 64 b5 bd 71 a4 08 bd
       -0.016008878 0.015453077 -0.08856968 -0.03335995
000090 2c dc c3 bd f1 47 17 be 59 7a e5 3d 44 2c c0 3d
       -0.09563479 -0.14773537 0.112049766 0.09383443
0000a0 a8 9b 66 3c 90 14 17 3c ce e7 0f 3c a4 ed 2c 3d
       0.014075197 0.009221211 0.008783294 0.04221882
0000b0 46 a4 b3 bd b2 37 15 3c a7 4b 9e bd 8e 21 84 bc
       -0.08771567 0.009107517 -0.07729273 -0.016129281
0000c0 95 b1 8d 3d e3 1b c8 3d 3c 7a 1b 3e 7b 00 c0 3c
       0.06918637 0.09770944 0.15183347 0.02343773
0000d0 56 34 e5 bd 27 46 e7 bd 6c ca 1e 3e 91 f0 97 bd
       -0.11191623 -0.112926774 0.15506905 -0.07418931
0000e0 2b c5 c6 3d 39 4c cc bd 0a 68 ff 3d 91 56 15 3e
       0.097055756 -0.09975476 0.12471016 0.14583804
0000f0 06 73 d4 3d 0b 75 81 3d be 12 db 3a bd 27 97 bd
       0.103735015 0.06321152 0.001671396 -0.07380626
000100 c3 db 01 3e 04 7d b9 bd c8 b9 f9 bd 95 de fa bc
       0.12681489 -0.09057048 -0.12193638 -0.030623714
000110 c8 a9 99 3d 67 8e a2 3d 0a 32 af 3d ca 63 ac 3d
       0.07503086 0.07937317 0.08554466 0.08417471
000120 64 28 ba bd 0f d1 06 be 36 4b 80 bd 31 36 ff bd
       -0.09089735 -0.13165687 -0.06264345 -0.12461508
000130 b9 59 ce 3c 7c 2e 53 bb 77 a7 6d bd b6 3c ad 3c
       0.025189267 -0.0032223752 -0.058021035 0.021147113
000140 33 13 ee bd 36 94 1b 3d 06 9d 03 3d 88 cc 9d bd
       -0.11624756 0.03798314 0.03213217 -0.07705027
000150 d2 e2 fb 3d 3f 67 fc 3c 18 cc f0 3d bd 31 b7 3d
       0.12299122 0.03081095 0.11757678 0.08945034
000160 b0 db 0f be 96 fc 9b bd ba e5 bb bd 9d 1f 9e 3c
       -0.14048648 -0.07616536 -0.09174676 0.019302184
000170 77 ce 21 be 72 14 0c bd 98 fe fc 3d 35 b8 f7 bd
       -0.15801416 -0.034199186 0.123532474 -0.120956816
000180 21 8e 86 bd 25 60 23 bb 96 2b 09 3e f5 de 47 bc
       -0.06570078 -0.0024929133 0.13395533 -0.012199153
000190 54 5d 1f bd 3f 2f fa 3d 6e f3 41 3d 99 48 db 3d
       -0.038907364 0.12216043 0.047351293 0.10707206
0001a0 6e ef 14 3d 5c 24 54 3d 7e b9 70 3d 98 1b da bd
       0.03636115 0.051792488 0.05877065 -0.10649794
0001b0 fd 75 d7 3d c4 64 a7 3d 27 b4 22 bd 5c b9 df 3d
       0.10520551 0.081735164 -0.039722588 0.10924026
0001c0 79 f8 00 3e 9b 78 ef 3d 0b 76 8f ba 79 46 fd 3d
       0.12594785 0.116929255 -0.0010945214 0.12366957
0001d0 2b 5a 87 3d 9a 8c 2e bd 38 a3 85 bd 55 4e 7c 3c
       0.06608995 -0.042614557 -0.06525272 0.015399535
0001e0 6f 1a f1 bc dc 2c f0 bd 13 ef 70 bd 3b e7 ec bb
       -0.02943155 -0.11727306 -0.05882175 -0.0072297133
0001f0 29 e7 60 bd 4a fa f4 3d fe 40 fb 3c e5 a5 a4 bd
       -0.05490795 0.11961801 0.03067064 -0.08039454
000200 22 bb d6 3d c3 2e 98 3d 8c 85 1b 3e 89 03 c3 bc
       0.104849115 0.07430794 0.15187663 -0.023805397
000210 7b 22 05 3e 50 eb 98 bd d1 f7 92 bd 73 da 63 bc
       0.13001435 -0.07466757 -0.071761735 -0.013907063
000220 64 55 a8 bb 71 bb 7e 3d e9 98 e7 bc 3a b7 61 bd
       -0.0051371325 0.062190477 -0.028271155 -0.05510638
000230 c2 f3 37 3d 60 ee f9 bd 8b d2 e1 3d 07 c5 11 3e
       0.0449102 -0.122036695 0.11026486 0.14235316
000240 1e db ac 3d 04 a8 1f 3e 66 d3 c1 bd 2e 2c 99 3d
       0.08440231 0.15591437 -0.09464149 0.0747913
000250 8b 95 d7 3d 48 ed f0 3d ce 9d ca bc 71 0a 9c bd
       0.1052657 0.11764008 -0.02473345 -0.07619179
000260 bf ce 71 3b 44 3f 14 be e3 b1 a0 bd 32 72 c3 bd
       0.0036896912 -0.14477259 -0.07846429 -0.095432654
000270 f6 c8 68 bc df ff 9a 3d 7e 0c ed 3d 56 6b 82 3d
       -0.014208069 0.07568335 0.11574648 0.06368129
000280 31 61 0e 3d 63 08 b8 bd 0f e5 f4 b9 af 8a 07 bd
       0.034760658 -0.08985975 -0.0004670997 -0.033091243
000290 41 95 6e 3d e3 a8 c4 3c 01 05 f2 3d 0a 0c c0 3d
       0.05824781 0.024006313 0.11817361 0.09377296
0002a0 29 ff e9 3d 8a 9c 60 3d e2 c8 3d 3d 6c c0 89 ba
       0.11425621 0.054836787 0.046334155 -0.0010509617
0002b0 e5 10 36 3d 4c 6a 0c 3e ee 5f 16 3e b6 e5 73 3d
       0.044449706 0.13712424 0.14685032 0.05954524
0002c0 7c 31 00 3e f4 69 9c 3c 8c 97 15 bd 8e c9 bb bc
       0.12518877 0.019093491 -0.03652148 -0.022923257
0002d0 d0 26 90 bd 16 d3 0d 3e 1d dc 25 3e 16 35 1e bd
       -0.07038653 0.13850054 0.16197248 -0.038624845
0002e0 95 e8 6a bd 71 23 9f bd 58 7d ed 3d 8e 98 1c 3d
       -0.057350714 -0.07770432 0.11596173 0.038231425
0002f0 c3 26 bb 3c 3b 19 f2 3d 44 35 6e 3d 49 8a ca b9
       0.022845631 0.118212186 0.058156267 -0.00038631473
000300 dc f8 f4 ba 28 6a 51 3d e0 31 93 bc 2d 24 58 bd
       -0.0018689889 0.05112663 -0.017968118 -0.052768875
000310 a6 31 95 3d 0d 64 ad bd ea 6e fa 3d 11 56 93 bc
       0.0728486 -0.08466349 0.122281864 -0.017985376
000320 d4 a7 18 be f1 2b bd 3d 7a 3f 15 3e 11 23 b4 3d
       -0.14907771 0.09236897 0.14574996 0.08795751
000330 4d 82 23 be 1a 9d 17 be 06 3f f6 3d 23 6a f2 3d
       -0.15967675 -0.14806023 0.120237395 0.1183665
000340 f1 6b cf bd 14 7d 8a 3d d5 92 65 3b e3 fe 29 3e
       -0.1012801 0.06762138 0.0035030146 0.16601138
000350 3d f9 0a 3d bb 5f 1a 3d a0 b3 24 be 35 36 f9 bc
       0.0339291 0.037688952 -0.16084146 -0.030421356
000360 31 4b 3f 3d 51 42 96 3d 8b dd 8d bd 12 f6 00 be
       0.046702567 0.073368676 -0.069270216 -0.12593868
000370 cd 2a bb bc 15 cf 8e bd e4 b0 bf 3c ef be 9e bd
       -0.022847557 -0.069730915 0.023399778 -0.077512614
000380 23 c8 1d be
       -0.15408377

fc1.bias f4 [5]
000000 9f 23 37 bc 23 60 10 bd 28 f9 10 3e a2 e0 9a 3b
       -0.011177926 -0.035247933 0.14157546 0.0047264853
000010 6a 8a ff 3d
       0.12477572
