saved_weights/Grid_10_1-/499/critic.pth (torch, 32435 bytes, 11 tensors)

attentions1.linear.weight f4 [16, 1]
0	0xbf8a7a69	-1.0818607
1	0xbd0aaeba	-0.03385804
2	0xbe1972c5	-0.14985187
3	0xbf72393e	-0.94618595
4	0xbf87f511	-1.0621663
5	0x3f5fd2a3	0.8743078
6	0xbf76aaf3	-0.963546
7	0xbea7d8d4	-0.32782614
8	0x3e57a656	0.21059546
9	0xbde47980	-0.11155987
10	0xbe8667cd	-0.2625107
11	0xbf803712	-1.0016806
12	0xbedf1a23	-0.43574628
13	0x3ed32957	0.41242477
14	0xbf1b511d	-0.60670644
15	0xbf6f0461	-0.93366057

attentions1.attn.weight f4 [1, 8]
0	0xbebabe6d	-0.36473408
1	0xbc55f01a	-0.013057733
2	0xbda4d28d	-0.08047972
3	0x3e305edc	0.17223686
4	0x3e30e082	0.17273143
5	0xbe16f9e5	-0.14743765
6	0x3de82856	0.113358185
7	0x3e4d8784	0.20071226

attentions2.linear.weight f4 [16, 16]
0	0x3e99f0db	0.3006657
1	0xbdfe826d	-0.124272205
2	0x3e33444b	0.1750652
3	0x3d969728	0.073530495
4	0x3e29dcfd	0.16588207
5	0xbd366f18	-0.04453954
6	0x3d1792c6	0.03700521
7	0x3e560609	0.2090074
8	0xbe7bd27b	-0.2459201
9	0xbddef39d	-0.10886309
10	0x3e2e90ac	0.17047375
11	0x3e2f4151	0.1711476
12	0x3d5e821d	0.054323304
13	0xbe581879	-0.21103086
14	0x3d6db9fb	0.058038693
15	0x3e99eb24	0.3006221
16	0xbe9dd4f1	-0.30826524
17	0xbde65d46	-0.11248259
18	0x3b91a72f	0.0044449787
19	0xbe3d692e	-0.18497154
20	0x3e0e496e	0.13895199
21	0x3daeb46a	0.08530505
22	0xbe96c340	-0.2944584
23	0x3e0229af	0.12711214
24	0xbce2fce1	-0.027708473
25	0x3d30d262	0.043169387
26	0xbe8a8fa1	-0.27062705
27	0xbe9bf72d	-0.30462018
28	0xbe8c43b9	-0.27395418
29	0xbc761d3d	-0.015021619
30	0x3dd73314	0.10507789
31	0x3d619bfe	0.055080406
32	0xbea852d5	-0.32875696
33	0x3cb571a4	0.022148915
34	0x3c9c76fd	0.019099707
35	0xbe72d2a1	-0.23713161
36	0xbe37a802	-0.17935184
37	0x3e473722	0.19454625
38	0xbc1bfcb3	-0.009520697
39	0x3a04a445	0.00050598785
40	0xbe33771c	-0.17525905
41	0xbe08d214	-0.13361388
42	0x3d0294ea	0.031880297
43	0x3bc38693	0.00596697
44	0xbe70fe6b	-0.23534553
45	0xbb5979a4	-0.0033184076
46	0xbcdcb1f5	-0.026940325
47	0xbcbf6c6e	-0.023367133
48	0xbe28447d	-0.16432376
49	0xbd255f29	-0.040373955
50	0xbe81ee88	-0.25377297
51	0xbe3cc2f5	-0.18433745
52	0xbdf3c57a	-0.119029
53	0xbe20a7f0	-0.15689063
54	0x3dde5027	0.108551316
55	0xbe413090	-0.18866181
56	0x3e896da0	0.2684145
57	0x3dd6f154	0.104952484
58	0xbe2c6c7a	-0.16838256
59	0xbe9a304a	-0.30114967
60	0x3e1f9f0f	0.1558802
61	0x3e987c50	0.29782343
62	0x3df4c5b8	0.11951774
63	0xbe576dbd	-0.21037956
64	0x3e0de5f5	0.13857253
65	0x3e405a5e	0.18784472
66	0xbd4db147	-0.050217893
67	0x3e204dd1	0.15654685
68	0x3e7670f8	0.24066532
69	0xbdb8e809	-0.09028632
70	0xbd795c97	-0.060879316
71	0x3c26b300	0.010174513
72	0x3d7bc894	0.061470583
73	0xbda0a7f2	-0.07844533
74	0x3de8baaf	0.11363732
75	0x3e65927a	0.22419158
76	0x3e100aab	0.1406657
77	0xbe214eb0	-0.15752673
78	0x3e92879c	0.28619087
79	0x3e4ba92d	0.19888754
80	0xbe04389f	-0.12912224
81	0x3e5f85b8	0.21828353
82	0xbe06bd49	-0.13158144
83	0xbe1b98c0	-0.15194988
84	0xbd920898	-0.071305454
85	0x3e71577a	0.23568526
86	0xbe8b93c1	-0.27261165
87	0xbd8ef533	-0.06980362
88	0x3d5ead21	0.054364327
89	0xbe0a1131	-0.1348312
90	0xbc7cf903	-0.015440228
91	0xbd892ffc	-0.066986054
92	0xbc49076e	-0.012269838
93	0x3e7efdca	0.249015
94	0xbea5d84a	-0.32391578
95	0xbd81001d	-0.0629885
96	0x3c878ae3	0.016545719
97	0x3dc753c9	0.097327776
98	0x3e8df50d	0.2772602
99	0xbe0aacd8	-0.13542497
100	0x3e767bb5	0.24070628
101	0x3e1f5251	0.15558745
102	0xbdd0a571	-0.101878054
103	0x3e816d20	0.25278568
104	0xbe6b7b7b	-0.22996323
105	0xbda62527	-0.08112555
106	0x3e0d1d63	0.13780741
107	0x3e526a13	0.20548277
108	0x3e87570e	0.26433605
109	0xbd018f87	-0.03163102
110	0xbd221259	-0.03956828
111	0x3e9c96a4	0.3058368
112	0x3d878ec7	0.066190295
113	0xbe0a6e69	-0.1351868
114	0xbeaef9a2	-0.3417483
115	0x3ce44927	0.027866913
116	0xbe3ffb1b	-0.18748133
117	0x3da73182	0.0816374
118	0xbe3900cc	-0.1806671
119	0xbd678be7	-0.056529906
120	0xbdef546b	-0.11686023
121	0xbe330e6f	-0.17485975
122	0xbd5ba2a6	-0.05362191
123	0xbe82f2e5	-0.2557594
124	0xbdb937ee	-0.09043871
125	0x3e9ea995	0.30988756
126	0xbe550854	-0.20803958
127	0xbdd48276	-0.10376446
128	0xbe222212	-0.1583331
129	0xbde3bb3a	-0.11119695
130	0xbea8ace3	-0.32944402
131	0xbe5be7ae	-0.21475098
132	0xbdf57623	-0.119854234
133	0x3e949fa9	0.2902806
134	0xbe3546fc	-0.1770286
135	0x3d9bb624	0.076031
136	0x3dbc715a	0.092013076
137	0x3dd9d5d5	0.10636488
138	0x3e1b4fce	0.15167162
139	0x3cd68114	0.026184596
140	0xbe947992	-0.28999
141	0x3e1ae380	0.15125847
142	0xbe2c3f39	-0.16820993
143	0x3bc2d32c	0.005945584
144	0x3e28e732	0.16494444
145	0x3e132a3b	0.14371578
146	0xbda11d6e	-0.078669414
147	0xbd6a9607	-0.057271983
148	0xbe15ed0d	-0.14641209
149	0x3cd34683	0.025790459
150	0xbe977adb	-0.2958592
151	0x3e20958a	0.15682045
152	0x3df33524	0.1187537
153	0xbe24acfc	-0.16081613
154	0xbe2ea06d	-0.17053385
155	0xbd41f116	-0.047349058
156	0xbe8a4077	-0.27002308
157	0x3d6304a2	0.05542434
158	0xbe999c17	-0.300019
159	0xbe7fa0e7	-0.24963723
160	0xbdd4d746	-0.10392623
161	0xbe4c9b6f	-0.19981168
162	0xbe127ec7	-0.14306174
163	0xbe9ccb62	-0.3062392
164	0xbe8d5610	-0.27604723
165	0xbe40a4d8	-0.18812883
166	0xbdc9416f	-0.098269336
167	0x3e273637	0.16329275
168	0xbd135f6a	-0.035979666
169	0x3e02eecc	0.12786406
170	0xbdadf36d	-0.084936954
171	0x3db22b54	0.086996704
172	0xbaecc069	-0.0018062714
173	0x3df0d080	0.11758518
174	0xbcd396bf	-0.025828717
175	0x3d04df86	0.03243973
176	0xbdc6bedd	-0.09704373
177	0x3e0296a6	0.1275278
178	0x3e5862f5	0.21131499
179	0xbdac032b	-0.08399042
180	0x3dbed423	0.093178056
181	0x3df02b74	0.11727038
182	0xbd3c96ac	-0.04604213
183	0xbdc387f5	-0.09547416
184	0xbcab980d	-0.020946527
185	0xbd6cbd71	-0.057797853
186	0x3d0a33b6	0.03374072
187	0x3e6b2384	0.22962767
188	0xbd171150	-0.036881745
189	0xbdbc5076	-0.09195034
190	0xbd482c3b	-0.048870306
191	0xbd82c565	-0.06385306
192	0x3e432016	0.19055209
193	0x3e45172d	0.19247122
194	0x3e9cbefd	0.30614462
195	0x3e1cadb9	0.15300645
196	0x3da6dbda	0.08147402
197	0xbe04e18a	-0.12976661
198	0x3df6cae5	0.12050418
199	0xbe3ae725	-0.18252237
200	0xbdc58049	-0.09643609
201	0xbe497aab	-0.196757
202	0xbe3f023a	-0.18653193
203	0x3de3a08f	0.111146085
204	0x3e43b9b4	0.19113809
205	0x3d22c007	0.039733913
206	0xb9feffd6	-0.00048637268
207	0xbe3e6ca0	-0.18596125
208	0x3d91c10c	0.07116899
209	0xbe08ce73	-0.13360004
210	0xbea9bd6e	-0.33152336
211	0xbe8bd503	-0.27310953
212	0xbe8fb832	-0.28070217
213	0x3e22de96	0.15905222
214	0xbd9eb89e	-0.07750057
215	0x3dc3cdf7	0.09560769
216	0x3d02a248	0.031893045
217	0xbe1042ec	-0.14088029
218	0xbe0a95af	-0.13533662
219	0xbd9a3325	-0.07529286
220	0xbdc444db	-0.09583446
221	0x3e5f310a	0.2179605
222	0xbdd42e0b	-0.103603445
223	0xbdc5a675	-0.0965089
224	0x3e8b3501	0.27188876
225	0xbe083b2c	-0.13303822
226	0xbc90034e	-0.0175797
227	0x3e0264b7	0.12733732
228	0x3e2dd66e	0.1697633
229	0xbe4ac174	-0.19800359
230	0xbd92adcc	-0.071620554
231	0xbda596cf	-0.08085405
232	0x3e15658c	0.14589518
233	0x3de19b1c	0.11015913
234	0x3e471c61	0.1944442
235	0x3e4702c7	0.19434653
236	0x3e1b5a60	0.15171194
237	0xbe24f503	-0.1610909
238	0xbe14cf02	-0.14532092
239	0x3d60cabf	0.054880854
240	0x3ddd3dee	0.10802828
241	0x3de21177	0.110384874
242	0x3dbd2253	0.092350625
243	0xbdb0197f	-0.08598613
244	0x3e198513	0.1499217
245	0xbe181364	-0.14851147
246	0x3e1e355b	0.15450041
247	0xbe272419	-0.16322364
248	0xbdef6ad2	-0.11690296
249	0xbe672a0f	-0.22574638
250	0xbe79fb94	-0.24412376
251	0x3d9bdfd8	0.07611054
252	0xbe675202	-0.22589877
253	0x3e3d2035	0.18469317
254	0xbdc916b9	-0.09818787
255	0xbd256258	-0.04037699

attentions2.attn.weight f4 [1, 8]
0	0xbd06cf59	-0.032912586
1	0x3c4d3b27	0.01252631
2	0x3e84c2f1	0.25929978
3	0x3e1df2e7	0.15424691
4	0xbe490931	-0.19632412
5	0xbdbd3ce5	-0.0924013
6	0xbe440bab	-0.19145076
7	0xbd8343d1	-0.06409419

attentions3.linear.weight f4 [16, 16]
0	0x3e22fcd2	0.15916756
1	0xbda2ebaa	-0.079551056
2	0x3d1e0ecb	0.038588326
3	0x3e5d3058	0.21600473
4	0x3ba072b7	0.0048964876
5	0x3e0adeda	0.13561574
6	0xbd38de82	-0.045134075
7	0xbd360c2c	-0.0444452
8	0xbe8fb9c6	-0.2807142
9	0xbd12d297	-0.035845365
10	0x3e1331ca	0.14374462
11	0xbd0a6ab6	-0.033793174
12	0xbdc523df	-0.096259825
13	0xbe26ae37	-0.16277395
14	0x3e7ba619	0.2457508
15	0xbdcdd57b	-0.10050484
16	0x3d9f054c	0.07764682
17	0xbcdd41dd	-0.027008945
18	0x3dc71e8b	0.097226225
19	0x3e0960d2	0.1341584
20	0xbd82bf87	-0.06384187
21	0xbea22ed0	-0.3167634
22	0x3ada48d2	0.0016653782
23	0xbe8dc129	-0.27686432
24	0xbdeb2a04	-0.11482623
25	0xbe810e36	-0.25206155
26	0xbe4ca48f	-0.19984649
27	0xbe035a9f	-0.12827538
28	0x3e8740e5	0.26416698
29	0xbda1a708	-0.07893187
30	0xbd9d10c8	-0.076692164
31	0x3e2bb19f	0.16766976
32	0xbe7bc195	-0.24585564
33	0x3dd74931	0.10512007
34	0xbe5a22bd	-0.21302314
35	0xbdec45b1	-0.1153673
36	0xbe5d238a	-0.21595588
37	0xbcb43623	-0.02199847
38	0x3e76fb6f	0.24119352
39	0xbb2b7686	-0.0026163175
40	0xbe1d533b	-0.15363781
41	0x3d525384	0.051349178
42	0x3cc2262e	0.023699846
43	0xbe18ba0d	-0.14914723
44	0x3d4402d2	0.047854252
45	0x3dd7a095	0.105286755
46	0xbd28f834	-0.04125233
47	0xbd1c8145	-0.03820922
48	0x3ea91134	0.33020937
49	0x3dabf3ab	0.08396085
50	0xbda3d858	-0.08000249
51	0xbd1a1e77	-0.03762671
52	0x3e380abe	0.17972848
53	0xbe677375	-0.22602637
54	0x3dcb7423	0.09934261
55	0xbd33ed4e	-0.043927483
56	0x3dc2658d	0.094920255
57	0xbe77ef85	-0.24212463
58	0x3d464a05	0.048410434
59	0xbe12ec52	-0.14347962
60	0x3b774572	0.0037730602
61	0xb92c302e	-0.00016421147
62	0x3e514e93	0.2044013
63	0x3e0fea4d	0.14054222
64	0xbd6ef482	-0.05833865
65	0xbe41a7c6	-0.18911657
66	0xbe20aea6	-0.15691623
67	0xbdc7d998	-0.097582996
68	0x3e47c980	0.1951046
69	0x3cdb3a39	0.026761161
70	0xbbecb325	-0.007223504
71	0xbe89e04d	-0.2692894
72	0xbd40b733	-0.047049712
73	0xbe586a2c	-0.21134251
74	0xbe339a00	-0.17539215
75	0x3cd4d444	0.025980122
76	0x3dae209c	0.085023135
77	0xbbea1054	-0.0071430597
78	0x3d91ba65	0.0711563
79	0x3e1be75c	0.15224975
80	0xbcc410b7	-0.023933752
81	0x3e03449b	0.1281914
82	0x3e957027	0.29187128
83	0x3da82875	0.082108416
84	0x3e092700	0.13393784
85	0xbde469c2	-0.11152984
86	0xbd57a85d	-0.052650798
87	0xbdd3b95e	-0.1033809
88	0x3d626e35	0.055280883
89	0x3e47d1ab	0.19513576
90	0xbdba085a	-0.09083624
91	0xbd902a8b	-0.070393644
92	0x3dc644a9	0.09681065
93	0xbcd96ac3	-0.026540166
94	0xbde1f936	-0.11033861
95	0xbe17a139	-0.14807595
96	0x3e65ab7b	0.22428696
97	0xbd95aa24	-0.073078424
98	0xbea5b3c1	-0.32363704
99	0xbe84a922	-0.25910288
100	0xbe1a2a41	-0.15055181
101	0xbe110123	-0.1416059
102	0x3e1eae7c	0.15496248
103	0xbba22bcd	-0.004949069
104	0x3d98d80d	0.074630834
105	0x3e2462b7	0.16053282
106	0x3e1941c3	0.14966492
107	0xbde32792	-0.11091532
108	0x3e6fc067	0.2341324
109	0xbea3dbaa	-0.32003528
110	0xbbae6b9b	-0.005322886
111	0xbe1258f9	-0.14291753
112	0x3e68fb08	0.22752011
113	0xbe979c47	-0.29611418
114	0xbdde281e	-0.108474955
115	0xbe6790bb	-0.22613804
116	0x3e79bb99	0.24387969
117	0xbeafea5c	-0.3435849
118	0x3e3f3476	0.18672356
119	0xbeaf202d	-0.34204236
120	0xbe954872	-0.29156834
121	0x3e05239c	0.13001865
122	0xbe3b113f	-0.18268298
123	0xbe15cc07	-0.14628612
124	0x3e474307	0.19459163
125	0x3be431e6	0.006963956
126	0x3e200a82	0.15629008
127	0xbe16d2d0	-0.14728856
128	0xbeb24ad8	-0.34822726
129	0xbd9d19fa	-0.0767097
130	0x3e28fa8a	0.16501823
131	0x3dc2f25e	0.09518884
132	0xbe594ca5	-0.21220644
133	0x3ea61217	0.32435676
134	0xbd9289bc	-0.07155177
135	0x3e8bf4e2	0.27335268
136	0x3e015317	0.12629353
137	0x3e9a600a	0.30151397
138	0x3daada93	0.08342471
139	0xbce7526f	-0.02823755
140	0xbe01efed	-0.1268918
141	0xbbfaaaf7	-0.007649775
142	0xbe9f5347	-0.31118223
143	0xbcbd2ad5	-0.023091713
144	0x3e1e3332	0.15449217
145	0xbe8e58df	-0.27802178
146	0xbde9311e	-0.113863215
147	0xbe4edd56	-0.2020162
148	0x3dbfb9e6	0.09361629
149	0xbea0e978	-0.31428123
150	0x3e86c1eb	0.26319823
151	0xbd9afcd3	-0.07567754
152	0xbe57231c	-0.21009487
153	0xbe2e379d	-0.17013402
154	0xbdb0061d	-0.08594916
155	0x3dcec0f4	0.10095397
156	0xbe21bf63	-0.15795664
157	0xbe9f07bc	-0.31060588
158	0xbdccafd6	-0.099944755
159	0x3debc319	0.11511821
160	0xbe5aeb93	-0.21378927
161	0x3d79afa9	0.06095854
162	0x3d4bd69a	0.049765207
163	0xbe0cb0d2	-0.13739327
164	0x3d3badde	0.04582011
165	0xbd508196	-0.050904833
166	0x3e2ff41a	0.17182961
167	0xbd33d271	-0.043901864
168	0xbe489458	-0.19587839
169	0x3e326029	0.17419495
170	0x3e5e09a0	0.21683359
171	0xbe9d2864	-0.30694878
172	0xbdbceb3c	-0.09224555
173	0x3d65caf6	0.05610176
174	0x3e0fc19a	0.14038697
175	0xbe3834d1	-0.17988898
176	0x3e89a161	0.26880935
177	0xbe9576c1	-0.29192165
178	0x3d8a8b70	0.06764877
179	0xbd53926b	-0.051653307
180	0x3e9e40cf	0.3090882
181	0x3df7572a	0.12077172
182	0xbac11b4f	-0.001473287
183	0xbe68949c	-0.2271294
184	0xbe943aa8	-0.28951
185	0x3deb39eb	0.11485656
186	0xbe635887	-0.22201739
187	0x3da1b657	0.07896107
188	0xbd704ac3	-0.05866505
189	0xbe3085ce	-0.17238542
190	0x3e139e52	0.14415863
191	0x3e135a5f	0.14389943
192	0xbdd418d2	-0.103562966
193	0x3e67c41d	0.22633405
194	0xbde06ff3	-0.109588526
195	0x3e3f706a	0.18695226
196	0xbe1b378c	-0.15157908
197	0x3e94c51c	0.29056633
198	0xbe03934c	-0.12849158
199	0x3d2567bb	0.04038213
200	0x3e07562c	0.13216466
201	0x3d05f7c4	0.03270699
202	0x3e4f114c	0.20221442
203	0x3ce62b0c	0.028096698
204	0x3d80bce1	0.06286026
205	0x3c495a10	0.012289539
206	0xbe4adffe	-0.19812009
207	0x3e6cbf1a	0.23119774
208	0x3d83db88	0.06438357
209	0xbcfb0217	-0.030640645
210	0xbe68bef8	-0.22729099
211	0x3d91886c	0.071060985
212	0x3e5453fa	0.2073516
213	0x3debb916	0.11509912
214	0xbd8674f3	-0.06565275
215	0xbe504abd	-0.2034101
216	0x3e172ea3	0.14763884
217	0x3e18874c	0.14895362
218	0x3d7fa4cd	0.062413026
219	0xbe2e6831	-0.17031933
220	0x3e803eb9	0.25047854
221	0xbe418daa	-0.18901697
222	0x3e3be33f	0.18348406
223	0x3d97b01d	0.07406638
224	0x3d2e2cb6	0.04252311
225	0x3e3a0e8b	0.1816961
226	0x3e4b933d	0.19880386
227	0x3e6dc0a7	0.23218022
228	0x3d56e9aa	0.052468933
229	0x3e73f2bf	0.23823069
230	0xbd1555a2	-0.03645862
231	0xbe02a740	-0.12759113
232	0x3e146005	0.14489754
233	0x3e84c9ef	0.25935313
234	0xbe8586b1	-0.26079324
235	0xbdd1c3a2	-0.10242392
236	0xbe28b7cd	-0.16476364
237	0x3d9a04ad	0.07520423
238	0xbd5de536	-0.05417367
239	0x3e6e17fb	0.23251335
240	0x3db91ac3	0.090383075
241	0x3e21c77f	0.15798758
242	0xbdccff26	-0.10009603
243	0x3d63a7f6	0.055580102
244	0xbd950c9b	-0.07277795
245	0x3e0777eb	0.13229339
246	0xbe014122	-0.12622502
247	0xbe0c1b88	-0.13682377
248	0x3de2acfd	0.11068151
249	0xbc464192	-0.012100594
250	0x3e13e653	0.1444333
251	0x3d798f04	0.060927406
252	0x3c4abccb	0.012374113
253	0x3e7a1dee	0.2442548
254	0x3de244f7	0.1104831
255	0x3e3911e7	0.18073235

attentions3.attn.weight f4 [1, 8]
0	0xbe299097	-0.16559063
1	0x3c9fda7f	0.019513367
2	0xbda95785	-0.08268646
3	0xbd99274b	-0.07478198
4	0xbd9493e5	-0.07254771
5	0xbd3c823e	-0.046022646
6	0xbd342d0c	-0.043988273
7	0xbcc82962	-0.024433795

output_layer.linear.weight f4 [1, 16]
0	0x3d88ed1f	0.06685852
1	0x3de2555a	0.11051436
2	0xbc832635	-0.01600943
3	0x3dce190d	0.10063372
4	0x3dcb3539	0.09922261
5	0xbdbff6fc	-0.093732804
6	0x3e415734	0.18880922
7	0x3e5cb060	0.21551657
8	0xbe95606b	-0.29175124
9	0x3e99e841	0.30060008
10	0xb9d23569	-0.00040094115
11	0x3e3d54e4	0.18489414
12	0xbdb3d9b8	-0.08781761
13	0x3d94bd3f	0.07262658
14	0xbdb98cda	-0.090600684
15	0xbcf3c80a	-0.029758472

output_layer.attn.weight f4 [1, 2]
0	0xbec042aa	-0.3755086
1	0xbec3cc52	-0.38241822

fc1.weight f4 [64, 100]
0	0x3dcb7ffc	0.099365205
1	0x3de73f00	0.11291313
2	0x3d9ba2e1	0.07599426
3	0x3dbd9c76	0.09258358
4	0x3c5df319	0.0135467285
5	0xbd6a831e	-0.05725395
6	0x3dd48d82	0.10378553
7	0x3dc0177d	0.0937948
8	0x3da52acc	0.080648035
9	0x3df42fc2	0.119231716
10	0x3e1e92f6	0.15485749
11	0x3e16a423	0.1471105
12	0x3e0ee6f4	0.13955289
13	0xbcfaadc1	-0.03060043
14	0x3d0e1a3d	0.03469299
15	0x3d47c839	0.04877493
16	0xbd9741c4	-0.07385591
17	0x3d6b3c55	0.057430584
18	0x3c12ab61	0.008951993
19	0xbb8c2539	-0.004276898
20	0x3d61ec96	0.055157267
21	0x3e269de4	0.16271168
22	0x3d238846	0.039924882
23	0x3d762b99	0.06010017
24	0x3c351c02	0.011054041
25	0x3cf884d1	0.03033677
26	0x3cb618c8	0.022228613
27	0xbcc5b658	-0.0241348
28	0xbc8c8029	-0.017150955
29	0x3cc3077d	0.023807282
30	0x3c558e75	0.013034453
31	0x3e1a565f	0.1507201
32	0xbd84f54b	-0.064920984
33	0x3dc8b868	0.09800798
34	0xbc80ab19	-0.015706586
35	0xbd8a42ca	-0.0675102
36	0xbbcb0180	-0.006195247
37	0x3db6da1d	0.089283206
38	0xbc730c43	-0.014834466
39	0x3d606cc7	0.05479124
40	0x3dfac90e	0.122453794
41	0x3dcaeaec	0.09908089
42	0x3bbbfcfa	0.0057369443
43	0xbcd22c89	-0.025656002
44	0xbc091cf6	-0.008368721
45	0x3cfbadda	0.030722547
46	0xbd63d211	-0.055620257
47	0xbd764c9e	-0.06013166
48	0xbd07df36	-0.033171855
49	0x3dcbf286	0.09958367
50	0x3dfa7c19	0.12230701
51	0x3df29f72	0.11846818
52	0xbdacb56a	-0.084330395
53	0xbe0c9aaa	-0.13730875
54	0xbd1083af	-0.035281833
55	0x3d434241	0.047670607
56	0xbcc9b018	-0.0246201
57	0x3d1471bb	0.036241274
58	0xbda36090	-0.07977402
59	0xbd4f26b1	-0.05057401
60	0xbc9b1870	-0.018932551
61	0xbcec2ecc	-0.028830908
62	0xbd9a7be1	-0.07543159
63	0x3d52b1e7	0.051439192
64	0xbdf53963	-0.11973836
65	0xbcda9f14	-0.026687182
66	0xbe161682	-0.14657024
67	0xbd78412e	-0.060609035
68	0x3b72300b	0.0036954905
69	0xbd816c3c	-0.06319472
70	0x3ddbc0d0	0.107301354
71	0xbcb2a756	-0.021808308
72	0x3dc95e89	0.09832484
73	0xbd90eb6c	-0.07076153
74	0xbde60dc9	-0.11233098
75	0xbc72ff82	-0.014831426
76	0xbd254ecb	-0.040358346
77	0xbda4a966	-0.08040123
78	0xbdca4761	-0.09876896
79	0x3d7a425e	0.06109845
80	0x3e11276a	0.14175192
81	0xbd2db040	-0.042404413
82	0xbd18ebf8	-0.037334412
83	0x3e1e5081	0.15460397
84	0x3d2b36a7	0.041800167
85	0x3d09c6c0	0.03363681
86	0xbd3a0022	-0.045410283
87	0xbcf7368f	-0.030177383
88	0x3de16576	0.1100568
89	0x3e2b9b54	0.16758472
90	0x3d65e44f	0.056125935
91	0x3d024ff6	0.031814538
92	0x3de6edeb	0.11275848
93	0x3d9b71b9	0.0759005
94	0x3de9cb0f	0.114156835
95	0xbda83be6	-0.0821455
96	0x3ce18333	0.027528381
97	0x3dcce529	0.10004646
98	0x3e24e624	0.16103417
99	0x3d33f8db	0.0439385
100	0xbe26316c	-0.1622979
101	0xbd004399	-0.031314466
102	0xbd2b6b94	-0.04185064
103	0xbd87efb0	-0.06637514
104	0xbd7fc8ef	-0.062447485
105	0xbd340515	-0.04395016
106	0xbcbe0321	-0.023194851
107	0x3d611fc9	0.054961953
108	0x3e506bbf	0.20353602
109	0x3e4506f5	0.19240935
110	0xbd90a0dd	-0.07061932
111	0xbd95588f	-0.07292282
112	0xbcda1737	-0.026622398
113	0xbc90e5dc	-0.01768773
114	0x3aa50188	0.0012588957
115	0x3e04ecae	0.12980911
116	0x3e08ced2	0.13360146
117	0x3e030583	0.12795071
118	0x3e0aa024	0.13537651
119	0x3ddb0865	0.106949605
120	0xbb6f6279	-0.00365272
121	0x3b384125	0.0028115
122	0x3cbba4d7	0.02290575
123	0xbc1c15dc	-0.009526696
124	0x3d51f422	0.051258214
125	0x3e0357c7	0.12826453
126	0x3e63b656	0.22237524
127	0x3e335f11	0.17516734
128	0x3e3ca986	0.18424043
129	0x3e16703d	0.14691253
130	0xbb8641b2	-0.004097187
131	0x3d234ef0	0.039870203
132	0x3d25ddd6	0.040494762
133	0xbd776481	-0.060398582
134	0x3dabfed3	0.08398213
135	0x3df3afef	0.11898791
136	0x3dcebf0b	0.10095032
137	0x3e65fffa	0.22460929
138	0x3df8d427	0.1214984
139	0x3da440db	0.08020183
140	0x3d9eaf47	0.07748275
141	0x3d9409a7	0.072284035
142	0x3e399dd7	0.18126617
143	0x3dd77922	0.10521151
144	0x3b9661fe	0.0045893183
145	0x3dd72ced	0.10506616
146	0x3dcb5c1e	0.09929679
147	0x3e09b8e1	0.13449432
148	0x3d659116	0.056046568
149	0xbbc2ffcb	-0.005950903
150	0x3d1380a7	0.036011364
151	0x3d50f6e2	0.051016696
152	0x3db71476	0.089394495
153	0x3ddf178b	0.10893162
154	0x3d343f40	0.044005632
155	0x3d9134e2	0.07090165
156	0x3ce885c5	0.028384099
157	0x3d30e8dd	0.043190826
158	0x3d70902c	0.058731243
159	0x3deff94c	0.117174715
160	0x3d3b6e6e	0.04575961
161	0x3be7139f	0.0070518996
162	0x3e35773f	0.1772127
163	0x3e436751	0.19082381
164	0x3df12637	0.11774867
165	0x3dc4a5a8	0.09601909
166	0x3dc684f5	0.09693328
167	0x3e088624	0.1333242
168	0x3dc6d237	0.09708064
169	0x3d5e89ea	0.054330744
170	0x3de03f0a	0.10949524
171	0x3da90b36	0.082540914
172	0x3d4f7f14	0.0506583
173	0x3da71ded	0.08160005
174	0x3de8164f	0.1133238
175	0x3d6d04e0	0.057865977
176	0xbd2c978b	-0.04213671
177	0xbce57ccf	-0.028013615
178	0xbda5bbc1	-0.08092452
179	0xbd56177b	-0.052268486
180	0x3c065c8d	0.008200777
181	0x3e2121b1	0.15735509
182	0x3e3c4295	0.18384774
183	0xbc9f37d8	-0.019435808
184	0xbd05a163	-0.032624613
185	0xbdc3534b	-0.09537371
186	0x3d1eecac	0.038799927
187	0xbda0c324	-0.0784972
188	0xbe0f5fa4	-0.14001328
189	0xbd1ee8c5	-0.038796205
190	0x3bab13a3	0.0052208467
191	0x3d843052	0.06454529
192	0xbbbdc378	-0.005791124
193	0x3e09faf3	0.13474636
194	0xbb6d14e7	-0.003617579
195	0xbd5c8b0e	-0.05384355
196	0xbca366fa	-0.019946564
197	0xbe2afbaf	-0.16697572
198	0xbdfc156b	-0.12308773
199	0xbdf1b537	-0.11802142
200	0xbd8c66b2	-0.06855525
201	0xbcb15fd4	-0.02165214
202	0x3c41a728	0.011819638
203	0xbd4346e5	-0.047675032
204	0xbd5b1121	-0.053483132
205	0xbc9173c5	-0.017755399
206	0x3c954580	0.018221617
207	0xbc420971	-0.011843071
208	0xbd59e966	-0.0532011
209	0xbe31231d	-0.17298551
210	0xbe141e25	-0.14464624
211	0xbdded56d	-0.108805515
212	0x3dad7d44	0.08471158
213	0x3d0d91a9	0.03456274
214	0x3df781b6	0.12085287
215	0x3b8275b5	0.003981317
216	0xbdf838e6	-0.121202275
217	0xbdd08b42	-0.10182811
218	0x3ca599ae	0.020214882
219	0xbe07d239	-0.13263787
220	0xbdd7e902	-0.105424896
221	0xbdc196c1	-0.09452582
222	0x3c6d729a	0.014492655
223	0x3e195fc5	0.1497794
224	0xbd05aa1d	-0.032632936
225	0xbc2225c0	-0.009896696
226	0xbe00b4dd	-0.12568994
227	0x3d98d6b6	0.07462828
228	0xbd132f56	-0.035933815
229	0xbc5a2dfa	-0.013316626
230	0xba2f7008	-0.0006692414
231	0x3de10421	0.10987116
232	0x3d868067	0.065674596
233	0x3db40250	0.087895036
234	0x3d8ca35e	0.06867097
235	0xbc92e4b6	-0.017931323
236	0x3d2bb6dd	0.04192244
237	0x3d9f3503	0.07773783
238	0x3d36f23d	0.04466461
239	0x3e0d0ff3	0.13775615
240	0xbcf0ff06	-0.02941848
241	0xbd49ccee	-0.0492677
242	0x3c94b3b5	0.018152097
243	0x3d8239a7	0.063586526
244	0xbc84daa1	-0.016217532
245	0xbcad5add	-0.021161491
246	0x3cf47ea5	0.029845545
247	0xbc90b45f	-0.017664133
248	0x3dbf03d0	0.09326899
249	0x3e01a6d4	0.12661296
250	0x3dc7ad71	0.09749878
251	0x3d6a3f61	0.05718935
252	0xbda52c40	-0.08065081
253	0x3e0ee5da	0.13954869
254	0xbb57c39f	-0.0032922996
255	0x3d44e7e3	0.048072707

fc1.bias f4 [64]
0	0x3d4f9bbf	0.05068564
1	0xbd63764f	-0.05553275
2	0xbc64861d	-0.013947991
3	0x3d1b9413	0.03798301
4	0x3e073529	0.13203873
5	0xbd28cae5	-0.04120912
6	0x3d2e1bc8	0.042506963
7	0xbde23ac6	-0.110463664
8	0x3cfea3a9	0.031083899
9	0x3ce591b3	0.028023576
10	0x3d886248	0.06659371
11	0xbc8860ae	-0.016647663
12	0xbc4dad63	-0.012553546
13	0xbdcfd1e1	-0.10147453
14	0xbc94e77b	-0.018176785
15	0xbe087865	-0.13327177
16	0xbd742262	-0.059603103
17	0xbcd6fce4	-0.026243635
18	0xbd86b509	-0.065774985
19	0x3b1d9e3a	0.002405061
20	0x3e06ceee	0.13164875
21	0xbd34042d	-0.043949295
22	0xbc9985be	-0.018740531
23	0x3bd09877	0.0063658315
24	0xbe03836d	-0.12843104
25	0xbd6554f4	-0.05598922
26	0x3cf2c1a4	0.02963335
27	0x3d5ad357	0.053424206
28	0xbda6f647	-0.081524424
29	0xbce4e037	-0.027938945
30	0xbd68a874	-0.056801274
31	0xbc99974d	-0.018748904
32	0x3c21e37d	0.009880898
33	0xbd8498c5	-0.06474451
34	0xbd3e0812	-0.046394415
35	0x3dc00374	0.09375659
36	0xbca118e9	-0.019665198
37	0xbd56308b	-0.052292388
38	0x3c1410cf	0.009037211
39	0x3ccf6221	0.025315346
40	0xbba6d5fb	-0.0050914264
41	0xbdbcbf00	-0.09216118
42	0xbb9d6898	-0.0048037283
43	0xbdb3c872	-0.08778466
44	0x3db39a30	0.08769643
45	0xbd679578	-0.05653903
46	0x3d2dac51	0.04240066
47	0xbd85ac2f	-0.06526982
48	0xbda41c53	-0.08013215
49	0xbd6b07a0	-0.05738032
50	0xbe1d8801	-0.15383913
51	0x3d9f6e8c	0.07784757
52	0xbdc5cf38	-0.096586645
53	0xbbcb0991	-0.0061962088
54	0x3dd4d155	0.103914894
55	0xbdfab36c	-0.12241253
56	0xbda045e3	-0.0782583
57	0xbd22cf1a	-0.03974829
58	0xbb470e47	-0.00303735
59	0x3d507cdf	0.050900336
60	0x3e3cf169	0.18451466
61	0x3df52fd7	0.11972015
62	0x3c438ee8	0.011935927
63	0x3dbd947d	0.092568375

fc2.weight f4 [1, 64]
0	0x3c25fbd0	0.010130838
1	0x3daad3d3	0.083411835
2	0xbcd5b04c	-0.026085041
3	0x3dee75dd	0.116435744
4	0xbe088311	-0.13331248
5	0xbd77dfe5	-0.060516257
6	0x3dff132c	0.124548286
7	0xbcb1b131	-0.021690937
8	0x3d7a6760	0.061133742
9	0x3e558ade	0.20853755
10	0xbc247471	-0.010037527
11	0x3dfa1a31	0.12212027
12	0x3daf6504	0.08564189
13	0x3d87322d	0.06601367
14	0x3dc14fff	0.09439086
15	0x3d460cf8	0.04835221
16	0x3e0ef44a	0.13960376
17	0x3e1780e3	0.1479526
18	0x3dcab6bd	0.09898136
19	0x3ea50257	0.32228348
20	0xbe80a7b3	-0.25127944
21	0x3b92d490	0.004480906
22	0x3e45f4c5	0.19331653
23	0x3e01c787	0.1267377
24	0xbd45b825	-0.048271317
25	0x3dd01e36	0.10162012
26	0x3e8c1e3f	0.27366826
27	0x3e319cfd	0.17345043
28	0x3dae0792	0.08497538
29	0x3e748140	0.2387743
30	0x3e903400	0.28164673
31	0x3ddf7c54	0.109123856
32	0x3e07074b	0.13186376
33	0x3dd47d04	0.10375407
34	0x3c106750	0.008813694
35	0xbda021b1	-0.07818926
36	0x3e58086b	0.21096961
37	0x3e68ab02	0.22721484
38	0x3db92b42	0.09041454
39	0x3da88551	0.08228553
40	0xbd0d4063	-0.034485232
41	0xbbbc5f3c	-0.0057486575
42	0x3d8168a2	0.06318785
43	0xbd1c52d7	-0.03816494
44	0x3e9fe825	0.312318
45	0xbbb6352c	-0.005560538
46	0x3e6369f7	0.22208391
47	0x3e6ed03f	0.23321627
48	0x3c7fe0b9	0.015617543
49	0x3de456a7	0.1114934
50	0x3d16182b	0.036644142
51	0xbde78b7c	-0.113059014
52	0xbcd0e33c	-0.025498979
53	0x3d43d525	0.047810692
54	0xbe7d0b08	-0.2471124
55	0xbd946eb4	-0.072476774
56	0xbd97f0d7	-0.074189834
57	0xbdb2036f	-0.08692061
58	0x3b938c65	0.0045028203
59	0xbdbb8c77	-0.09157651
60	0xbdd87a55	-0.10570208
61	0xbd86e980	-0.06587505
62	0x3e674e44	0.2258845
63	0x3e279e8b	0.16369073
