saved_weights/LunarLander-v2/28/critic.pth (torch, 9139 bytes, 11 tensors)

attentions1.linear.weight f4 [16, 1]
00000000: 1155 c5be ac90 f7be 29cd 13bf b6e0 5d3d
00000010: 7724 043d 6802 d8be 61f0 3b3e d632 183f
00000020: 73c2 223f 01b7 7e3f f726 e43c f306 83bf
00000030: c64f c03e 771f 813f 5dab 7dbf fbce 703f
-0.38541463 -0.48352563 -0.57734925 0.05416938 0.032261338 -0.42189336 0.18353416 0.5945257
0.63577956 0.9949799 0.027850611 -1.0236496 0.37560862 1.0087727 -0.99089605 0.9406583

attentions1.attn.weight f4 [1, 8]
00000000: 2c65 cfbd b32a 81be 0793 5c3e f95b ac3e
00000010: fa30 a83e 9367 8abd 5748 883e 203a 7b3a
-0.10126719 -0.2522789 0.21540461 0.3366392 0.32849866 -0.067580365 0.2661769 0.00095835514

attentions2.linear.weight f4 [16, 16]
00000000: 82dd 8e3d 85a8 8cbe 2a33 e93d 9993 f9bd
00000010: eec5 0abe 781c 79be c295 8f3e 0a93 773e
00000020: 8760 403e 2835 683b 3cb0 673e 6b28 0f3e
00000030: 08bf 12be 068a 013e cada e1bb b4e7 e43d
00000040: 4ae3 bb3d e531 d23d 90bb 49be d959 f1bc
00000050: 48d9 40be 13a6 b83d f9f6 a53d 2093 7b3e
00000060: 5fe1 01be b775 29be 8369 ccbd ebce 163e
00000070: 34d5 463e a294 47bd 03b3 663d dd74 37bd
00000080: bee6 5fbd 321c 183d 68f1 613e 8a5c a63d
00000090: 7c8b c2ba e7ec 86be de40 803e 5f96 2bbe
000000a0: 6316 95bb f53a 213e a255 873e 3344 a03d
000000b0: 7c06 18be 41f9 893c 2b22 b1bd 41d4 003e
000000c0: 3a97 e83d 2921 ed3b b6ce 5e3d dc41 f43d
000000d0: 1907 7a3d edca 8cbe 0a34 763e d72b 92bd
000000e0: b04a a3bd f3e9 273e a6f0 0abe 9f3c 87be
000000f0: 592b 623e 3d9e a6bd f742 8cbe 0fd6 7d3e
00000100: f8e1 0dbd 9ac4 f33d 6cd9 74bd aa32 e83d
00000110: 6cb8 353e 8be0 f2bb 01e1 3e3b 86d4 8cbe
00000120: 104f 303e 529a 9c3d 2954 463e fa87 86bd
00000130: ab6a 453e ceef 23be 70c7 503e a0f8 10be
00000140: 4ad0 b33d cf35 f4bc 4177 0dbe 00b0 133e
00000150: bac9 15be 5ce2 19be fa29 283e 09b1 f73d
00000160: b4e2 01be dd89 783e 7122 763c f700 06be
00000170: 0077 4ebb 54ee 0b3e cf14 60be 7da9 4bbe
00000180: fec5 4bbe 8353 673e 4001 453e c729 b0bd
00000190: 3741 c43d 5d83 36be 513b 43bd 9ef5 d9bd
000001a0: 9843 8abd 8d14 573e 4794 733e 1f2e 78bc
000001b0: 0c5d 7f3c a3b7 2a3d 37a2 57be e600 a03d
000001c0: c316 84bd 2086 65be 0355 d4bd 4192 433e
000001d0: 3da9 923e 8a42 1bbe 03ae 083e 019d 923e
000001e0: bdf8 733e e7b2 8f3e d496 893d 92e0 1bbd
000001f0: 52a7 7e3e 7de5 52be 74cf 21bd 3200 c7bc
00000200: c00a 703e c238 2ebe 7b68 06be 8152 f83d
00000210: e26d 013e a32c f4bc 4dd1 d4bc 017f 67bc
00000220: 3253 c03d 0a6a ad3d e0d3 c1bc 8076 bfbc
00000230: 337f 28be 2fd7 06be cc4f 7f3e 7994 0ebe
00000240: 1cff 56be d0aa 5a3d 2e94 90bd be2d e6bd
00000250: 3c6c 50bc 91c1 fd3d 54d2 7fbd eead 4dbe
00000260: bdd0 403e 1373 933c 826e f6bc d314 66be
00000270: 210f 4e3e 6fea 633d ff35 8fbe c045 9b3d
00000280: 8f41 e13d e64a 783c 4a76 323e 8adb ddbd
00000290: fc74 4e3e 2c5a 28be e2b0 f3bd 2ffc 3c3e
000002a0: d849 083d ba43 8dbe 5b15 03be 76d5 0c3d
000002b0: eb99 7fbd 658d 2f3e 4050 823e ffb8 b8bd
000002c0: 0bcc 2fbd 8f4d 343e a4fd 88bd 7f15 55be
000002d0: 42bc 45be 8cfd 4b3e f4d5 3bbe 6db1 be3d
000002e0: f2e3 acbd 9339 ab3c d2cf 363e be08 743c
000002f0: 102c 8cbd dfea bb3d 0a60 263e 9819 29be
00000300: c41d c5bd 2bc1 233d 2f31 47be 6e56 a43d
00000310: d91c 183e 3072 4fbd b91d be3d 530f 123d
00000320: 79fa c3bd 884f 20be e238 edbd 13bd d1bc
00000330: bea0 813d a1db 42be 1c78 6c3e a507 1fbe
00000340: a8b8 5c3d 1f3a fdbd 6883 8bbe 507d 2e3e
00000350: 351a 8e3e 7920 92be dbf6 7c3d b643 953e
00000360: 04a8 15be 2f6a 8a3e dcd1 2dbe 2553 9abd
00000370: d7a1 cf3d 556a 583e 4a6f 193e 6956 2b3d
00000380: 0ec5 59be 8cba 313e b345 af3d c567 48be
00000390: 01c3 e83d f37b b0bd 0b50 ebbd 116b 21be
000003a0: 4171 2bbd f08b 88bd ff56 b6bd 8800 2bbe
000003b0: 53b0 d7bd 1e98 1fbe 4be9 1cbd d75f 273e
000003c0: 2cf9 4ebe 3283 b1bd 1939 dbbd 069c a93d
000003d0: eba8 ba3d 948e e43b 17ce 21be 4d54 8bbe
000003e0: 9544 a13c 410d 063e a78a c53c 7273 953e
000003f0: 6c76 3f3e 37b9 cd3d c8f0 cd3d 3ffc 15be
0.06975843 -0.2747232 0.11386712 -0.12186355 -0.13552067 -0.24327266 0.28043944 0.24177185
0.18786822 0.0035432074 0.22625822 0.13980262 -0.14330685 0.12650308 -0.0068925368 0.11177006
0.09174211 0.10263423 -0.19700456 -0.029461788 -0.18832886 0.09016051 0.08103747 0.24567842
-0.12683628 -0.16548811 -0.09981062 0.1472737 0.19417268 -0.04872573 0.056323063 -0.044789184
-0.054663412 0.037136264 0.22064745 0.08123119 -0.0014842595 -0.26352617 0.2504949 -0.16756581
-0.004549788 0.15745147 0.2643252 0.07825508 -0.14846224 0.016842486 -0.08649095 0.12580968
0.11356969 0.007236619 0.054396354 0.11926624 0.061041925 -0.2749857 0.24043289 -0.07137268
-0.0797323 0.16397838 -0.13568363 -0.26413438 0.22086848 -0.0813565 -0.2739484 0.24788688
-0.03463933 0.11902733 -0.059777662 0.113377884 0.17746133 -0.0074120215 0.0029125812 -0.27505893
0.1721766 0.07646622 0.19368042 -0.06568904 0.19278972 -0.16009447 0.2038858 -0.14157343
0.08779962 -0.029810814 -0.13815023 0.14422607 -0.14627734 -0.15027755 0.16422263 0.12094314
-0.12684137 0.2427134 0.01502286 -0.13086306 -0.0031504035 0.13665134 -0.21882938 -0.19888873
-0.19899747 0.22590451 0.19238758 -0.086017184 0.09582751 -0.17823549 -0.04766399 -0.10642551
-0.06751174 0.21003933 0.23787032 -0.015147715 0.015586149 0.041679036 -0.21057974 0.07812671
-0.06449654 -0.22414446 -0.10367777 0.1909876 0.28644744 -0.15162101 0.1334763 0.2863541
0.23825355 0.2806618 0.06718221 -0.038055964 0.24868515 -0.20595355 -0.039504483 -0.024292085
0.23441601 -0.17013839 -0.13125794 0.12125111 0.12639573 -0.02980644 -0.025978709 -0.014129401
0.09390868 0.08467491 -0.0236606 -0.023371935 -0.16454773 -0.13168024 0.24932784 -0.13923825
-0.20995754 0.053385556 -0.07059513 -0.112391934 -0.012721118 0.123904355 -0.062456444 -0.2008588
0.18829627 0.017999208 -0.030081991 -0.22468881 0.20122959 0.055643495 -0.27970883 0.07581663
0.109988324 0.015154576 0.17427936 -0.108328894 0.20161813 -0.16440648 -0.11898972 0.18455575
0.033273548 -0.27590734 -0.12801115 0.03438326 -0.062402647 0.17143781 0.2545185 -0.0901966
-0.0429192 0.17607711 -0.06689003 -0.20808981 -0.19310096 0.19920939 -0.18343335 0.09311185
-0.084419146 0.020901477 0.17852715 0.014894662 -0.06844342 0.091756575 0.16247573 -0.1651367
-0.09624818 0.03997914 -0.19452356 0.08024298 0.14854755 -0.050646007 0.09283013 0.035659146
-0.09569258 -0.15655339 -0.11583115 -0.025602853 0.06329487 -0.19029094 0.23092693 -0.1553026
0.05388704 -0.12364601 -0.27248693 0.1703999 0.2775437 -0.285404 0.061758857 0.29153222
-0.14614874 0.27034137 -0.16974586 -0.0753539 0.101382904 0.21134312 0.1498386 0.041830454
-0.21266577 0.17356318 0.08558216 -0.19570835 0.11365319 -0.086173914 -0.11489876 -0.15763499
-0.041856054 -0.06667316 -0.08903312 -0.16699421 -0.10531678 -0.15585372 -0.038308423 0.16345154
-0.20212239 -0.08667602 -0.1070425 0.08281712 0.0911425 0.0069750044 -0.15801273 -0.27212754
0.019686023 0.13090993 0.024113966 0.2918964 0.18697518 0.100450926 0.10055691 -0.14647005

attentions2.attn.weight f4 [1, 8]
00000000: be81 9d3e 2afe 9d3e beb8 3f3e 9fcf 1ebe
00000010: 2bb6 483e 260b 8d3e 6053 19bc bfac 0f3e
0.30763048 0.30857974 0.18722817 -0.15508889 0.19600742 0.27547568 -0.009358257 0.14030741

attentions3.linear.weight f4 [16, 16]
00000000: 7ab2 3ebe 7b37 853c 192f 533e 8c71 5fbd
00000010: 4e65 cf3d 9401 86be aefc e33a 0bdf f33d
00000020: 6660 08be c158 523e 20e7 0a3e bc22 373e
00000030: e7af 443e 6ab6 4c3d 872a 3fbe e5b0 7ebe
00000040: 98c5 85bd d544 173e 8e5a 5fbe 1196 fa3d
00000050: fb31 0d3e 9119 6cbd 034f cebd 4e99 803e
00000060: 079f babd 3aba 1a3e 40f9 85be 7918 9cbd
00000070: f20a ecbd 47dd 4c3e 5659 1fbe 22e9 033d
00000080: 285a 24be 18c9 163e 3226 de3d 682e 053e
00000090: 12a0 203e 9de9 893e edc9 853e bd23 aa3c
000000a0: 7a8e 07bd c398 923e 0ea5 c6bc af4a 3d3e
000000b0: 56a0 4f3e 529b 913e 8540 3fbe 4176 a43d
000000c0: ae63 8b3e 43a1 5e3d a61f b53d 1f94 e63d
000000d0: 52ed 69bc 0d7a 543e a2ce 553e 1e60 dd3d
000000e0: 8f36 20be fdab 473e 7679 10be 125b 9ebd
000000f0: c053 64be 5670 e3bc da22 d33d 363d 1abe
00000100: 7b4d 083e fc98 68be 4948 ed3d 6547 25be
00000110: a7c9 69bd 8b98 8d3e 563e d3bb 5e71 4d3e
00000120: e28d 0abe af86 273e 51e8 633d 6c0f 16bd
00000130: 660b 623d c919 953e 34b1 abbb 22ca 6a3d
00000140: 24bc 81bd 05f4 2bbc 484f bdbd 97bd f6bc
00000150: cd97 193e 6aa6 213e 9905 2d3e cd55 5fbe
00000160: c434 0e3d 4080 8f3c a388 683e 3a1b 5f3e
00000170: bea9 f23d 8be7 8dbe 01b1 34bd 3147 ebbd
00000180: 7bc3 0a3e 110e 59bc 687c 353e 7f6a 9fbc
00000190: c349 b9bd 14f0 1dbe bcf2 be3d 8893 fcbd
000001a0: b172 07be da4d 653e b10a 86be f6a2 ff3b
000001b0: 9768 253e 1eb3 cfbc 8f95 61be 6a9d 8b3d
000001c0: 68df d33d 9d69 0ebe c20a a0bc 620f 913e
000001d0: 449d d63d 3fc0 c5bc 20b7 6c3d c9bd 1bbe
000001e0: ce98 04bd 355c 683e b531 493e 2863 3d3c
000001f0: 8f47 a0bd 8748 553e b7b3 0a3e 0c71 07bd
00000200: b978 61bd ecec e1bd 16e5 c73d b874 8abe
00000210: 1e05 aabd 6bc7 8ebd 233c 25bd 6295 313e
00000220: da57 153e 9c24 34be dfee a9bd 43b3 2abe
00000230: 0c45 923e 0fe5 bb3d bd36 1fbe 1d98 213e
00000240: 5d09 a33d 6b8d 3abe d19e 39be 1643 d03d
00000250: f6ff 83be b9b5 683e 2dd7 2ebe 1f8f 19bc
00000260: 5291 06be bc94 b2bd fa7d 47be a4af c93d
00000270: 6b32 543e acf1 2b3e d172 a2bd 9679 89bd
00000280: f008 723d e68b 1cbd 4e5a 4dbe 49f8 30be
00000290: 44cc ad3d bd25 d1bd 725c 103e 73b3 a83d
000002a0: 6dae 4dbe 7606 073e b6b5 63bd b05e c43d
000002b0: 010d ee3d 38ab 823d 107e 3b3e bdfd 203d
000002c0: aaeb 94be b0a4 873e da98 2c3e a076 88b7
000002d0: 9ec5 19be 03ed 753d 8e3b aebd 07fd 7fbe
000002e0: 6886 cbbd 0c03 87be 11ab 2e3e 66c4 ecbc
000002f0: b6fc 113e 694c cabd e8b2 49be 08ea 7cbe
00000300: 862f 6dbe 0eda 953d c60c f0bd 851b 73be
00000310: 340b 283e 501a 2d3d a629 563d 5974 c5bd
00000320: f06b 723e e64f 4e3d fdea 40bc dd97 89bb
00000330: d824 9d3d 6f28 8abe 5770 953d ce01 4abc
00000340: bb2d 863d bdac 393e 5d32 313d c0db 173e
00000350: 203b 813e fc8a d03b b65e 13be 6206 90be
00000360: d0ef cd3d 4efa c93d 48e0 073e ccaa ca3d
00000370: df03 483e 823e 5ebd e515 f23d 6e2a 2d3e
00000380: c573 323d 4382 1b3e d559 4f3e bd10 8e3d
00000390: 6893 57be 4c61 36be 90de 223e 6214 4a3e
000003a0: cd67 5d3e 4d86 51be 9d42 5ebe a42b 9a3d
000003b0: 1160 f3bd 2825 4cbe d5ca 10bd 14ee 8a3e
000003c0: 424f 68be 733f 3d3e e16d 603e 78cc 313d
000003d0: ca6a acbd f6b8 0d3e ce15 30be 6d16 e3bd
000003e0: b2b4 9e3d 6d67 c1bd d413 db3b ca4e 443e
000003f0: bf22 36bc 23e0 b9bd 5097 0ebe d423 cabd
-0.18622771 0.016261807 0.20623435 -0.054551646 0.10126744 -0.2617308 0.001739403 0.119077764
-0.13318023 0.2054167 0.1356473 0.17884344 0.19207726 0.04997865 -0.18668567 -0.24872167
-0.06531829 0.14772351 -0.21811888 0.12235654 0.13788597 -0.05764157 -0.10073664 0.25116962
-0.09112363 0.15110102 -0.26166725 -0.07621855 -0.11525525 0.20006286 -0.15561423 0.032204755
-0.16050017 0.14725149 0.10847129 0.13005984 0.15686062 0.26936045 0.2613062 0.020768994
-0.03309486 0.28632173 -0.024248626 0.18485521 0.20276007 0.28438812 -0.18676956 0.08030368
0.27224487 0.05435301 0.08843927 0.112587206 -0.014277773 0.20749684 0.20879605 0.108093485
-0.15645812 0.19499202 -0.14108834 -0.07732214 -0.22297573 -0.027763527 0.10309382 -0.15062413
0.13310806 -0.22714609 0.11586053 -0.16140516 -0.057077076 0.27655444 -0.00644664 0.20062777
-0.13530686 0.16359971 0.055641476 -0.0366358 0.05518665 0.29121235 -0.00523963 0.057321675
-0.06334713 -0.0104951905 -0.09243637 -0.0301197 0.14999314 0.15786138 0.16896667 -0.21810074
0.03471829 0.017517209 0.22708373 0.2178773 0.11848782 -0.27715716 -0.044114117 -0.11488188
0.13551132 -0.013247983 0.17723238 -0.019459961 -0.09047272 -0.15423614 0.09323642 -0.12332827
-0.13227345 0.2239298 -0.26180032 0.007801409 0.16153179 -0.025353964 -0.22029708 0.06817134
0.10345346 -0.13907476 -0.01953638 0.2833205 0.10479215 -0.024139522 0.05779183 -0.15209116
-0.03237229 0.22691424 0.19647868 0.011559285 -0.07826149 0.20828448 0.13545118 -0.033066794
-0.05504677 -0.110315174 0.097604915 -0.27042174 -0.08301757 -0.0697163 -0.040340554 0.17342141
0.14584294 -0.1759209 -0.08297514 -0.16669945 0.28568304 0.09174549 -0.15548225 0.15780683
0.0796077 -0.18218009 -0.1812699 0.101690456 -0.2578122 0.22725572 -0.1707427 -0.009372502
-0.13141373 -0.08719775 -0.1948165 0.09847954 0.20722358 0.16791409 -0.07932056 -0.06712644
0.059090555 -0.038219355 -0.2005398 -0.17282213 0.08486226 -0.10212276 0.14097765 0.08237352
-0.2008607 0.13186058 -0.055593215 0.09588373 0.11623574 0.06380314 0.18309808 0.039304484
-0.29086047 0.26492834 0.16855183 -1.6267702e-05 -0.15016791 0.060040485 -0.08507453 -0.24998866
-0.09937745 -0.26369512 0.17057444 -0.028902244 0.14256558 -0.09877855 -0.19697154 -0.24698651
-0.2316266 0.07316981 -0.11721186 -0.23740967 0.16410524 0.04226142 0.052285813 -0.09641332
0.23673987 0.050369166 -0.011774776 -0.0041990117 0.07673043 -0.26983973 0.07296818 -0.012329532
0.06551691 0.181323 0.04326092 0.14829922 0.2524042 0.0063642245 -0.14391598 -0.2812987
0.10055506 0.09862195 0.1326915 0.09895858 0.19532727 -0.05425883 0.11820582 0.16910717
0.043567438 0.1518641 0.20249112 0.06936786 -0.21052325 -0.17810553 0.15905213 0.19734338
0.21621628 -0.20461388 -0.21705098 0.07527855 -0.118835576 -0.19936049 -0.035349686 0.27134764
-0.22686484 0.18481235 0.21916915 0.043407887 -0.08418806 0.13840088 -0.17195818 -0.11088262
0.07749309 -0.09443555 0.0066857133 0.1917068 -0.011116683 -0.09075954 -0.13924909 -0.09870115

attentions3.attn.weight f4 [1, 8]
00000000: 2589 2abe 10a0 fe3c 4ceb 8b3e 5ef8 873e
00000010: 3361 8d3e 20af 723e cf98 b73e e0c5 47be
-0.16653879 0.031082183 0.27327955 0.26556677 0.2761322 0.23699617 0.3585877 -0.19509077

output_layer.linear.weight f4 [1, 16]
00000000: 55a9 0c3d a43c 5fbe fcba 88bd ca7f 81be
00000010: 7b01 7ebe 5505 363e 3f2a 40be 4df1 81be
00000020: 2c6d 0b3e 90d1 d1bd fc56 213e bdd4 d23d
00000030: 443a b13d cc49 603e 47dd afbd 90fa 2f3d
0.034341175 -0.21800476 -0.066762894 -0.25292808 -0.24805252 0.17775472 -0.18766116 -0.2537941
0.13615865 -0.10245049 0.15755838 0.10294483 0.086536914 0.21903151 -0.08587127 0.042963564

output_layer.attn.weight f4 [1, 2]
00000000: 0db2 6c3e 25ff 8abd
0.23114796 -0.06786946

fc1.weight f4 [64, 9]
00000000: 84ff 063e f1a7 90bd 214e a0bb 7971 cbbc
00000010: 5c22 403e 4686 80be e25f c73d 0d79 193e
00000020: 75f8 593e 1571 5dbe dafe 9cbe 1662 91be
00000030: 2def 463e a8a3 5fbd 1d6e 823e a058 c23d
00000040: 60c8 85be ebb7 083e 989c 7f3d c564 d23d
00000050: 2754 673e b93b 643e 64cf 96be b1c3 433e
00000060: 9889 a83d c3ef 863d d630 12be df60 50be
00000070: af40 523c 18d4 b63e d251 5bbb b078 8dbe
00000080: d4ba 9abd 803b d5bd b765 7fbe 2863 c63c
00000090: 6775 ffbd a396 8e3e 36da 193e 29b1 5fbe
000000a0: 682a 02bd 911c 863d 6158 04be 8cd2 98bd
000000b0: af37 78be 3e0c 453e fc89 fc3d 5847 403d
000000c0: 86a4 693e d0ca 8d3d 2ece 36be 9ad4 243e
000000d0: 387c 443d 56a5 8bbe cc1c 3bbe a924 653d
000000e0: 4b7d 8abe f15a 94bd 5ab0 a3be ba83 62be
000000f0: a5ae 5abe 57db 97be 1bbe 90be 8b5f 983e
00000100: 8b96 38be c4b2 a73d 8005 5a3b 1054 57be
00000110: ec4f e7bd 1e85 7bbe 6195 a63e ece6 933d
00000120: 8a88 353e 406b f7bd 6077 8ebe ccf6 a5bd
00000130: a004 52bd b4f4 a13d 3618 5c3e 92c9 343e
00000140: 9cf1 8bbd 1859 343e 1ee6 52be 83b2 4fbe
00000150: 226a cdbd 8cfd c9bd c239 55be 208f 0e3d
00000160: b3cc 893e f73b 263e 19c5 eb3d 51fb 503e
00000170: 1d58 8cbe d88a 1ebd 9d9c 43bb 7963 393e
00000180: d71d 8c3e 1678 5f3e b643 cc3d f6c8 5e3e
00000190: 5b69 70be 1ae7 1d3e 286b 36be 7acf 0f3e
000001a0: 03a4 55be 6613 47be d006 ebbc cb90 9f3e
000001b0: 5d46 97be 7a3f 7bbe 33c6 383e f3bc e7bd
000001c0: c588 843d d226 acbe 703e e83d 74ef 963e
000001d0: 4dc6 5f3e c131 50be 0ec5 b4bd 57fc bd3d
000001e0: 011a 66be f247 8b3d 9202 34ba ae02 d5bb
000001f0: 1641 0bbd 8511 84bc d1a7 18bd de2d a23e
00000200: eba4 023e 92ab 0e3d c4ad 82bd 202f 9cbe
00000210: 06ea 7ebd ce34 b7be d4f2 813e d4f6 58be
00000220: 55ca 4bbe 9052 39bc 688e a9be 2757 62be
00000230: 45fa 533d 9073 8bbe 6b2e bc3c be71 50bd
00000240: e00c 9dbd 574b afbe 68da b1be 5e0d 863e
00000250: 8610 be3d cce8 583d 97ab db3d e234 7c3e
00000260: a01d 24be de86 683e c0c3 6a3d de5c 2b3e
00000270: 68c3 18bd 5a05 713e 8b72 8ebe 1b0a 1bbe
00000280: 46cf 1ebe 6010 1ebd 269c 05be 254a 92be
00000290: fe29 5a3e f1ac aabe 933f e6bd c49f 98be
000002a0: e0e7 093e 9699 3d3e 31b2 153e 4fb1 a1be
000002b0: 030a 92bd 067a b6bc 71e8 0a3d b1c1 9d3e
000002c0: bf4b 9dbe ba8e 953e 9bff 233d dbf9 2c3e
000002d0: b50d 813e 40e9 98bb a0a2 4abd 92cd 553e
000002e0: c995 993e f647 f7bd 20b5 19be 72b3 0d3e
000002f0: f04a ac3c 7d68 90be c099 89bd 7d41 8b3e
00000300: e214 efbd bf1f 83be 8d36 9b3e ffe9 bdbe
00000310: a042 5b3e c03c 1dbe 60a5 183e aae9 7a3e
00000320: 0078 1c39 0804 0abe 124d 563e d06e c6bd
00000330: 9ba4 993e 83a4 67be 7bd2 5cbe b37c 953d
00000340: c899 51be fd45 f4bd 583c 6c3c 071d 33be
00000350: fdc6 a7bd f488 393e 39d9 343e 27e4 c1bd
00000360: 8dfe 953e 45ff 823e 2e96 553e fa5a 1a3e
00000370: ed51 893e 2cc6 ec3d 96eb 0e3e 0281 0e3e
00000380: 36ae 2d3e 2e0c e93d 5b44 563e 32c3 81bd
00000390: da0e fabd 9c13 c0bc ab9e 3b3e c318 2c3e
000003a0: 54e5 fdbd b540 47be 88cd 67be 2aa0 9e3e
000003b0: 9e1a ac3d 577f 40be f289 923e 3e41 4fbd
000003c0: 7183 16be ef27 893e 9cb4 3dbe f411 983e
000003d0: 6244 cf3d a809 4ebd c4cf 303d 93f5 153e
000003e0: a203 1cbe 41e5 b3be 8ff4 4b3e cbe8 93be
000003f0: 74a3 41be 5a20 41bb 2a53 b63e d0ce fdbd
0.13183409 -0.07063282 -0.004892126 -0.024834381 0.18763107 -0.25102443 0.09735085 0.14987583
0.21286185 -0.21625169 -0.30663186 -0.28395146 0.19427176 -0.054599434 0.25474635 0.0948956
-0.26129436 0.13351409 0.0624052 0.102731265 0.22590695 0.22288407 -0.294551 0.19117619
0.08229369 0.065887 -0.14276442 -0.20349453 0.012832805 0.3570869 -0.0033465517 -0.2763114
-0.07555166 -0.10411739 -0.24941145 0.024217203 -0.124735646 0.27849302 0.15024647 -0.21844925
-0.031778723 0.06548417 -0.12924339 -0.07462034 -0.24239992 0.19242951 0.12331006 0.04694304
0.22816667 0.06923449 -0.17852089 0.16096726 0.047970027 -0.2727458 -0.18272704 0.055943165
-0.27048716 -0.07243908 -0.31970483 -0.22120562 -0.21355684 -0.2965953 -0.2827004 0.29760394
-0.18026178 0.08188394 0.0033267438 -0.21028161 -0.11294541 -0.24562499 0.32535842 0.07221779
0.17727867 -0.12081003 -0.2782545 -0.081037134 -0.051273942 0.079080015 0.2149361 0.17655018
-0.06833193 0.17612112 -0.20595595 -0.2028294 -0.10030009 -0.09862813 -0.20822814 0.034804463
0.26913986 0.16233812 0.11512203 0.2040837 -0.27410975 -0.03870663 -0.0029847987 0.18104352
0.27366516 0.21823153 0.09973852 0.21756348 -0.2347769 0.1542019 -0.17814314 0.1404399
-0.20863347 -0.19440994 -0.028689772 0.31165156 -0.2954587 -0.24535933 0.18044357 -0.11315336
0.06471399 -0.33623368 0.11340034 0.29479563 0.2185299 -0.2033148 -0.08826648 0.09276646
-0.22470857 0.06800832 -0.0006866838 -0.0065005636 -0.033997618 -0.016121635 -0.037269417 0.3167562
0.12758224 0.03483159 -0.063807994 -0.30504704 -0.0622349 -0.35782474 0.25380576 -0.21187907
-0.19901402 -0.011311188 -0.3311646 -0.22103558 0.051752347 -0.27236605 0.022971353 -0.050889723
-0.07668471 -0.34237167 -0.34736943 0.26182073 0.09280495 0.052956387 0.107260875 0.24629548
-0.16026926 0.22707698 0.057315588 0.16734645 -0.03729573 0.23537198 -0.27821764 -0.15140574
-0.15508756 -0.038589835 -0.13047847 -0.28572193 0.21305081 -0.3333507 -0.112425946 -0.29809391
0.1346736 0.1851562 0.14618756 -0.31580588 -0.07130816 -0.022274982 0.03391308 0.30811837
-0.30721852 0.29210454 0.040038686 0.16892187 0.2520577 -0.0046664774 -0.049471498 0.208792
0.2999709 -0.12074272 -0.150105 0.13837984 0.021031827 -0.28204718 -0.067187786 0.271984
-0.11673905 -0.25610158 0.30315056 -0.37092587 0.21412134 -0.15355206 0.14906836 0.24503198
0.00014922023 -0.134781 0.20927837 -0.096891046 0.30008397 -0.2262135 -0.21564667 0.07299175
-0.20468819 -0.11927412 0.014418684 -0.17491542 -0.08192251 0.1811865 0.17660989 -0.09467345
0.2929577 0.2558538 0.2085807 0.15073767 0.26820317 0.11561236 0.13957056 0.139164
0.16960987 0.11379276 0.20924513 -0.06336059 -0.12209864 -0.02344685 0.18322246 0.16806321
-0.123972565 -0.19458278 -0.22636998 0.3098157 0.08403514 -0.18798576 0.2862087 -0.05059933
-0.14698578 0.2678828 -0.18525928 0.29701197 0.10120465 -0.050302178 0.04316689 0.1464446
-0.15235761 -0.35135844 0.1991751 -0.28888544 -0.18910009 -0.0029468746 0.35610324 -0.12392962

fc1.bias f4 [64]
00000000: 8027 693e 15d9 06be fff6 0fbc 8fe9 d5bd
00000010: 8ec9 6e3e 2ff1 a4be 1d1d 5e3e 2cec b1bd
00000020: ba23 8bbe c09e 8c3e 888b 003e f372 56be
00000030: 9e50 a53d 9d2f f53d ee0f b33d 6eb0 8abd
00000040: 5e4f 263e 13c6 2abe df44 3dbe ee4f b43e
00000050: 8888 9dbe 6d2c d93d 7b0d 25be ebf0 883e
00000060: c765 8cbe 61cf 5bbd 0db3 703e 20d5 a83d
00000070: 9ea6 073e 22b3 74be 6e8c 17bc ee74 1c3e
00000080: 758e 303e f5e3 253e a54c 953e 7da4 4e3e
00000090: fd55 8bbd 215d a3bd 73aa 9e3e b58f a43e
000000a0: 3853 0cbe 72e9 4c3e 7737 04be 5d9f b73e
000000b0: 8e69 4cbe 9ea4 a7be d3fb 7c3d 136b 82be
000000c0: 2815 5bbe f37b 3dbe 2089 33bc 38ed 713d
000000d0: 90af 283e a069 2bbd 9214 33be 83d8 01be
000000e0: f31f 243e f7d1 833e 36a3 b33d 8b4e 71be
000000f0: 26c6 e5bd c3c4 40be 4019 46bd 6c7a 823e
0.22768974 -0.13168748 -0.008786916 -0.104449384 0.23319075 -0.32215258 0.21690793 -0.08687624
-0.27175695 0.27464867 0.12553227 -0.20942287 0.08072017 0.11971972 0.08743273 -0.067719325
0.16241214 -0.16677122 -0.18483303 0.35217232 -0.30768228 0.10604177 -0.16118424 0.26746306
-0.274214 -0.05366457 0.23505802 0.08243775 0.13247153 -0.23896459 -0.00924979 0.1527898
0.17241843 0.1620024 0.29160038 0.20179935 -0.0680351 -0.07976747 0.30989417 0.3214089
-0.1370362 0.20010927 -0.12911783 0.35863772 -0.19962141 -0.3274278 0.061763596 -0.25472316
-0.21394789 -0.18504314 -0.010957986 0.05906412 0.16473222 -0.04184878 -0.17488316 -0.12680249
0.16027813 0.25746128 0.087713644 -0.23565118 -0.112194344 -0.18825059 -0.048363924 0.25484025

fc2.weight f4 [1, 64]
00000000: 5429 dfbc 3a64 55bd 634d a73d d996 013d
00000010: f4da 66bd c2ec e43d 1dad 193d b8c1 913d
00000020: 94ba 253d bf14 683d e4c2 8c3d 7607 abbd
00000030: 2300 f2bd bfb0 383d 9b1e 0c3d b45a f43d
00000040: 63ed 69bd 30d5 e2bc 4576 343d 0295 15be
00000050: f893 903c 03fd d93d 78bb 903d d10b c8bd
00000060: 023e b7bd c076 16bd 4fe0 0e3d fe83 bf3d
00000070: 9fd4 d13d 5194 b6bc 68fa 99bd e8f8 fd3d
00000080: 3765 c8bd 1142 733d 625a 09be 0aa4 0bbd
00000090: 50b3 023d 1eac c53c 1587 18be 3ed6 bdbd
000000a0: 6611 823d c867 c53c 7a5b 7cbd c522 88bd
000000b0: d8e8 d63d 3297 b4bd 3d66 2e3d e230 f0bd
000000c0: 42f5 fe3d 6ed9 843d e47b 61bc 97f8 9e3d
000000d0: 0ec8 18bd 302e 613d 9f6c 7d3d 4857 963d
000000e0: 38f7 083d a301 0cbd aa3f 3d3d 3c6f a7bd
000000f0: b5c8 14bd 689d 44bd 30f2 a5bd ec46 373d
-0.027241386 -0.052097537 0.08169057 0.031638 -0.056361154 0.111779705 0.03751861 0.07117027
0.040461138 0.05666041 0.0687311 -0.083510324 -0.11816432 0.045090433 0.034208875 0.11931363
-0.057111155 -0.027689546 0.044058103 -0.14607623 0.017648682 0.10643961 0.07067007 -0.09767879
-0.08947374 -0.036734343 0.034881886 0.093513474 0.102456324 -0.02228752 -0.07518464 0.12400991
-0.0978493 0.059389178 -0.13413385 -0.034091987 0.031909287 0.024129923 -0.1489528 -0.09269379
0.06350975 0.024097338 -0.061610676 -0.06647257 0.1049363 -0.08817901 0.04257797 -0.11728074
0.12449123 0.06486784 -0.013762448 0.077622585 -0.037300162 0.05497569 0.061871167 0.07340866
0.03343889 -0.03418125 0.046203293 -0.08175513 -0.03632422 -0.048001677 -0.08102834 0.04474537
