saved_weights/LunarLander-v2/1679/actor.pth (torch, 14255 bytes, 10 tensors)

attentions1.linear.weight f4 [32, 1]
00000000: 3d33 8dbe 00a5 0a3e 347c 583f 1c51 bdbd
00000010: e9b2 07bf 346c 813f 4ee1 843e 026b bdbe
00000020: 56a2 363f 4968 7d3f 38ea eabe 7618 373f
00000030: a8b1 b53e 6f37 413f b580 4e3f bdbe 823f
00000040: b541 59bf 6a7e 60bf aa2d 233f 556e 69bf
00000050: 6b31 0a3f 9d7b 853e f621 a33e 7213 1d3f
00000060: 0a42 41bf ec5d 7ebf 3ad1 dabe e458 463f
00000070: 4c59 543f 3506 a23e 57f7 7d3e 3725 823e
-0.27578154 0.13539505 0.8456452 -0.09243986 -0.5300737 1.0111146 0.25953144 -0.36995703
0.71341455 0.9898725 -0.4588182 0.715217 0.35487103 0.7547521 0.8066514 1.0214459
-0.84865886 -0.8769289 0.6374155 -0.9118398 0.53981656 0.26070872 0.31861848 0.61357796
-0.7549139 -0.99362063 -0.42737752 0.77479386 0.82948756 0.3164536 0.24801384 0.25419018

attentions1.attn.weight f4 [1, 64]
00000000: ea49 963d 261f 94bd e022 833d 3cc6 8abc
00000010: 34d7 1ebd bb6b d53d 1c16 ddbc d9b0 c83d
00000020: 036e 883d 664b b43c d077 adbd 8762 b7bd
00000030: 8b2b e4bd 8680 e0bd b85b f9bd 0b34 68bd
00000040: 311f 863c 4aee cb3c b5a6 47bd 1316 9bbd
00000050: 6b8f dcbd 09ab 92bd 8cad c9bd 573d 823d
00000060: e807 8ebd 47fd bc3d 2ff7 a8bd bd35 c8bd
00000070: d6be e639 170f ad3d 1a7b 5ebd e4f6 d63d
00000080: acb0 c53b 84d1 c83d 1db8 4fbd 2882 38be
00000090: 473b 8d3c 0ea1 003e c3a7 063e fc87 a23b
000000a0: 5710 d53b 90c4 983d 70d9 e4bd 504a 033e
000000b0: 27bf 833c 5c54 23bd c282 a1bb 0184 a33c
000000c0: 1136 1b3c f572 afbd 2512 713d 3938 b8bc
000000d0: 0517 f93c f6b7 373d 15c1 0b3d 89b0 6d3d
000000e0: cff0 cabc 6a61 8ebd 3b30 f9bc bff6 253e
000000f0: 0604 0bbc d85a 1b3a 6fca c03a 695b 8abd
0.07338317 -0.072325036 0.06403136 -0.016940229 -0.038779452 0.104209386 -0.026988082 0.09799356
0.06661608 0.022008609 -0.08470118 -0.089543395 -0.11141118 -0.10962014 -0.12175697 -0.056690257
0.016372295 0.024893899 -0.04874297 -0.0757257 -0.10769542 -0.071615286 -0.098475546 0.06359356
-0.06935102 0.09227996 -0.082502715 -0.09775875 0.00044011202 0.08450144 -0.054316618 0.104963094
0.006033024 0.09805587 -0.050712693 -0.180184 0.01724018 0.12561437 0.13149934 0.0049600583
0.006502192 0.07459366 -0.111742854 0.12821317 0.01608236 -0.039875373 -0.0049289176 0.019960405
0.00947334 -0.08566848 0.058855195 -0.022487747 0.030406484 0.044853173 0.034119684 0.058029685
-0.02477303 -0.06952174 -0.030418506 0.16207407 -0.008484846 0.00059263175 0.0014708767 -0.06755716

attentions2.linear.weight f4 [32, 32]
00000000: c7a5 8e3d 6be7 1b3e ca93 a33d a6b6 d4bb
00000010: 44cb 373d 3872 3d3e de92 443c 3c0d 34be
00000020: 5365 403d c8ae a23d 4ea6 c6bd cad9 f13c
00000030: dc55 b0bd 1dc2 bd3d a930 c7bd 8f7a 103e
00000040: b76a 23be 437d 42be aed2 9fbb 3672 a7bd
00000050: ddb2 9b3d 4d88 39bd 7d58 e13c 9794 b3bd
00000060: e3bd dbbd 315b 9f3d 384b 09bd fd5c cd3d
00000070: 3344 fc3d ccb2 e5bc 7459 3f3e 3393 063e
00000080: f7e1 6b3d 3ef3 15be c60b 51be ad8f 173e
00000090: 562b a3bd 315d 85bd a22f 503d 6c80 81bd
000000a0: 14a1 18be eb58 e2bc 75c9 1f3e dd1c cfbb
000000b0: 950c 83bd 8bca 323d b751 09be 99ef 43be
000000c0: 7d59 543e 56eb 4a3e d2ec 59be 46bf f33d
000000d0: 6df7 20bd a0b4 e43d 5537 13be 32de aebd
000000e0: eaf6 d13d b449 5e3e 3a84 d2bd 4ba9 883d
000000f0: 4b57 d8bb 5a69 25be c07d acbd 5753 17bd
00000100: bd39 143d c015 1d3b 9182 993d c4f6 1dbe
00000110: e9b6 31be 8a1c 5abd 6b80 2ebd 0950 463d
00000120: 3baf e23d 567d 2c3e 2585 dbbd e360 9abd
00000130: 6b58 15bb d2cf 81bb 09af 1c3e 08e6 6e3d
00000140: 5b31 67bd 41d0 39bd 791f 093e ed16 84bd
00000150: 255a a4bd 20c0 543d aefe 03be 78cd 023e
00000160: 506e 25be c691 37be 0198 053e 3456 923d
00000170: 76e5 94bd 7874 113e bd98 d03d 3fe2 0f3d
00000180: 5641 da3d 6090 513c 37a9 8bbd 9d36 8fbd
00000190: a657 193e 5861 023e 8320 c8bd 0379 ed3d
000001a0: 06e6 1abd e722 d2bd d89b ff3c 4f2f 22be
000001b0: a9b3 44bb b0ea b63d 5cba 32bd 4a0b 753d
000001c0: 6d8f 9b3d 91f0 7ebd e8bb c1bd 7971 163e
000001d0: 510c e43a d9c1 283e a65a d3bd 5837 2abe
000001e0: f508 0cbe 2cae 0e3e a532 0fbe cf2f 13bd
000001f0: 8402 b33d 69fa 20bd c386 45bd c075 08be
00000200: c3d1 0a3e 4e74 88bd 9461 003e 5666 f8bd
00000210: 1533 283e 47c5 873c fcb7 d13c 7536 b1bd
00000220: bc51 b1bd 4cf6 83bd a736 edbc 5c70 0abe
00000230: 1e35 f13d a72a c1bd 58f1 07be ab4c 2ebd
00000240: 040e c73d 028b 3f3d 4f6b cfbd 3919 443e
00000250: d639 313d 0e4f a0bd 019f 073d bdf7 2abe
00000260: 305c a8bd 75d9 1fbd eaa2 82bd 8dcb 11bd
00000270: 400c e139 b642 2b3d 032c 38be 0477 f23d
00000280: 3a81 a83d 916d d8bc 87b4 ed3d 1a9d 043e
00000290: 40f3 9abd 6bb4 a53d 2658 313d 437d 20bd
000002a0: bde0 eabd c56e f1bd b034 eebd 1bc9 f53d
000002b0: 9ded 103e 23ca e83d 4af4 1bbe 78ee 32be
000002c0: 3798 64bd cf7d af3d 924f fa3d b749 f9bd
000002d0: 7eae acbd b53f b7bd 99c8 bfbd 08f3 5bbd
000002e0: 01bf 1b3e 11a3 e93d 1b0f 21bd f6d1 8bbd
000002f0: da3d 723d 39b2 1d3c 805c 21be 2423 053e
00000300: a889 07bd 6582 be3d 44be 1fbe 73b3 063e
00000310: 696b 173e 83f5 57bc 8692 4dbe 929a 38bc
00000320: 1923 0b3e a08f 72bd 17c0 83bd ae23 2cbe
00000330: 0c22 0fbe e686 08be 2e0c c23d 1230 a73d
00000340: 407a a63c 81d1 233e 9f3a 52be 7f59 453e
00000350: 36b6 0fbd 9b70 13be 1954 43bc bdd6 eb3d
00000360: 6c32 033d c235 95bc 2cb2 c9bc 960c 1ebe
00000370: 3323 d93c 9882 ce3c 287e 643d 6e74 43be
00000380: 9189 983d a9f8 0ebe f97c afbd 4a1b 02bc
00000390: 472c 61bd d377 abbc 3a49 35bd 9c42 af3d
000003a0: 2dba 193e b604 133d 6d9f 323c f5fc eabd
000003b0: 3139 30bd de82 463d 9ac0 0ebe f524 49bd
000003c0: ec9b 1a3e 02e4 b83d 5216 9abd a4f8 363e
000003d0: e3b6 a8bd 0008 b83d cf72 97bd 9db2 00be
000003e0: 9f40 afbd 0044 a3bd 1c62 a0bd 7123 68bd
000003f0: 4972 15bd 18cf 0fbe 2888 eabd dc18 3fbe
0.06965213 0.15224998 0.07987173 -0.0064915 0.044871584 0.18500602 0.0119979065 -0.17583174
0.04697163 0.07943493 -0.09699689 0.029522795 -0.086101264 0.0926554 -0.09726078 0.14109252
-0.15958677 -0.18993096 -0.00487741 -0.08176081 0.07602475 -0.045296002 0.027508015 -0.08768576
-0.107295774 0.07781065 -0.033519 0.10027502 0.123176955 -0.028039359 0.18686467 0.1314209
0.057588544 -0.14643571 -0.20414647 0.14800902 -0.0796725 -0.065119155 0.050826676 -0.06323323
-0.14905196 -0.02763029 0.15604194 -0.0063205794 -0.06398884 0.04365019 -0.13410078 -0.19134368
0.20737262 0.19816336 -0.21281746 0.11901717 -0.039298464 0.11167264 -0.14376576 -0.08538474
0.10252173 0.21707803 -0.102791265 0.06672915 -0.006602203 -0.1615347 -0.084224224 -0.036944713
0.036187876 0.0023969263 0.07495607 -0.15426165 -0.17354931 -0.053249873 -0.042602938 0.04841617
0.11068579 0.16844687 -0.10718755 -0.07538011 -0.0022788297 -0.0039615417 0.15301146 0.058324844
-0.056443553 -0.045364622 0.13390912 -0.06449685 -0.08025006 0.051941037 -0.12890121 0.12773693
-0.16155362 -0.17926702 0.13046266 0.07145348 -0.07270329 0.14204586 0.101853825 0.035127874
0.10656993 0.012790769 -0.068193845 -0.069928385 0.14974841 0.12732446 -0.09771826 0.11595347
-0.037817024 -0.10260563 0.031202242 -0.1583836 -0.0030014312 0.08931482 -0.043634757 0.05982522
0.07595716 -0.06224114 -0.094596684 0.14691724 0.001739869 0.16480197 -0.10320024 -0.16622674
-0.13675292 0.13933629 -0.13984163 -0.035934266 0.08740714 -0.03930131 -0.048224222 -0.13326168
0.1355658 -0.06662808 0.12537223 -0.12128894 0.16425736 0.016573561 0.025600426 -0.08652965
-0.08658168 -0.06443462 -0.028956724 -0.13519424 0.117777094 -0.094319634 -0.13275659 -0.042553585
0.0971947 0.046763428 -0.10127889 0.19150247 0.043268047 -0.078275785 0.033110622 -0.16696067
-0.08220708 -0.039025743 -0.0637873 -0.03559451 0.0004292447 0.041811667 -0.17985539 0.11839107
0.08227773 -0.026419433 0.116066985 0.12950554 -0.075659275 0.080910526 0.043296956 -0.03918196
-0.11468647 -0.11788706 -0.11631143 0.120012484 0.14153142 0.113666795 -0.15229908 -0.17473781
-0.055809226 0.08568918 0.12222208 -0.12172263 -0.08431719 -0.08947698 -0.09364433 -0.05369857
0.15209581 0.114080556 -0.039321046 -0.06827156 0.059141017 0.009625011 -0.15757942 0.13001686
-0.033090264 0.093022145 -0.15599924 0.13154392 0.14787067 -0.013181093 -0.20075426 -0.011267321
0.13587607 -0.059219003 -0.064331226 -0.16810486 -0.13977832 -0.1333271 0.09474979 0.081634656
0.020321965 0.15997888 -0.20530175 0.19272421 -0.03508588 -0.14398424 -0.011921906 0.115155675
0.032030508 -0.01821411 -0.024621092 -0.15434489 0.026506042 0.025208756 0.055784374 -0.19087383
0.07448114 -0.13962044 -0.085687585 -0.0079410765 -0.054973867 -0.02093116 -0.044259287 0.085576266
0.15012427 0.035893165 0.010902268 -0.11474029 -0.043023292 0.04846465 -0.13940659 -0.04910751
0.15098542 0.09027864 -0.075237885 0.17868286 -0.08238008 0.08985901 -0.07394945 -0.12568136
-0.08557247 -0.07971954 -0.07831213 -0.056674425 -0.036485944 -0.14043844 -0.11451751 -0.18661827

attentions2.attn.weight f4 [1, 64]
00000000: 56a5 413d 9151 8d3d 369d f33d b85c bb3d
00000010: c155 e83d 43a6 7ebd 6b36 673d ea69 ae3d
00000020: 7a41 433c 51e0 f0bb c820 d53d 5039 f5bc
00000030: 7824 8dbc fdcb 47bc 0e6d 83bd d569 063b
00000040: ae35 ac3d c837 8abc 488d 933d f5cf dcbd
00000050: c26c 39bd 01af f2bb 8335 34bd f51b 413d
00000060: 900b 373d 66b2 063c 2d5f f3bc 11f9 ecbd
00000070: f77c 89bc 4ac3 3dbd c6ff e6bd d03b d4bd
00000080: 2350 0f3e b374 18be fbd6 9f3d 17c9 733c
00000090: 4aaf 4f3c 5611 b63d 7fa7 40bd 2020 7bbd
000000a0: 9153 ee3d c4fd 983d f998 133d 0139 7e3d
000000b0: e73c f5bc 099a d4bc 59b2 5cbd 6454 003d
000000c0: f374 133e d7a3 0d3d 706a 7d3c 8826 88bd
000000d0: 8fe3 01be faa8 00be 34a3 abbd 6124 d2bd
000000e0: 8a31 a13d cd41 083e 532b bc3c 20db 9cbd
000000f0: 0754 85bc 0506 0c3c acc6 59bc 4d7d 16bc
0.047276817 0.06900323 0.1189522 0.09148544 0.11344481 -0.06217028 0.05644838 0.08516295
0.011917466 -0.0073509593 0.10406643 -0.029934555 -0.017229304 -0.012194631 -0.06417285 0.0020509858
0.08408676 -0.016872302 0.07204682 -0.10781852 -0.045269735 -0.007406116 -0.043996345 0.047145803
0.04468876 0.008221244 -0.02970847 -0.11570943 -0.01678322 -0.04632882 -0.11279254 -0.10362971
0.13995413 -0.14888267 0.07804676 0.0148794865 0.0126760695 0.08890025 -0.047034737 -0.061309934
0.11637033 0.07470277 0.036034558 0.062066082 -0.029936267 -0.025952356 -0.053881023 0.03133048
0.14400081 0.034580078 0.015467271 -0.06647974 -0.12684463 -0.1256446 -0.08380738 -0.10260845
0.07870777 0.13306351 0.022969877 -0.07658982 -0.016275419 0.008546357 -0.013291996 -0.0091851475

attentions3.linear.weight f4 [32, 32]
00000000: 2976 1e3e 0faf 84bd 38f9 013e e7f2 bfbd
00000010: b038 fe3d 7b7b 1fbe 0726 11be 0586 933d
00000020: 6d64 f73c 7ab9 07bc 59d3 3b3c 1a7e f73d
00000030: 4e31 74bc 277b 78bd 6494 21bd 2f3f 0cbb
00000040: 6249 583e 6a53 433e 117c 29be 8809 08bd
00000050: a4d6 18be 4fa1 d5bd 65d5 05be 2c87 2abe
00000060: ebf5 453d f1d9 e33a 60f9 8f3d 42e6 ef3d
00000070: d178 5abd 5d59 033e 7d57 493d 2c11 52be
00000080: 62b4 8e3d faa2 3e3e d800 773c 46cd 833d
00000090: eb75 f8bd 39a4 953c d98f e53d a894 8abc
000000a0: 36fd 763d 8e62 1dbe 4ec8 1b3d 90d0 16be
000000b0: 23a2 10be 21c7 b73b 6113 bfbd 1a51 3f3d
000000c0: d962 b3bd a136 2bbe 068b 81bd d712 0ebc
000000d0: d16b aabd 28c8 45bd 6c4a 95bc ec87 983c
000000e0: 7e03 c63d 46cc 0dbd 1ec6 183b 4c61 0ebe
000000f0: c852 c93b fee8 a53c eed4 283e 9fd7 6d3d
00000100: c63f 723d eb10 9c3d 62ef 433e b308 e1bd
00000110: c333 5ebb bd05 13be b3a9 35be 1687 883d
00000120: d5d6 8bbc 130e a2bd 7d4b f53d 6922 6e3d
00000130: b056 93bd 3f91 febd 83ed 043e 1eef 53bd
00000140: 5d17 2bbb e521 023e e524 143e d52e 3e3e
00000150: 05d8 5ebd 986b 2dbe 5bb7 9b3c b9ca 113e
00000160: d39f 21bb ebd0 223e 3d48 6abd 287f 98bd
00000170: e258 fa3d 69d2 b0bd ff7c 71bd 7e8b 053d
00000180: 5ab8 47be 7c30 3ebd a141 19be 2a98 4f3d
00000190: c02e 103e 60fe 393d 99f4 aa3d fb08 bcb9
000001a0: f6d1 6fbd 2711 0ebe 3d25 0e3e 5944 1ebe
000001b0: 3514 c6bd 7bc4 1b3e 5565 32bd b467 123e
000001c0: 88a3 8dbd 5009 f4bb e3a8 fabd abaa 90bd
000001d0: 3378 3c3e e6c7 6b3d f8db b4bc 6955 e2bd
000001e0: d92d 1bbe 3ffd 0bbe 2faf 8dbd 13b8 e63c
000001f0: 3f2a 08be 8401 47be 8ce2 b43d 9186 c6bd
00000200: 44d5 ac3d 5bb7 88bd 22b8 4a3b cddd 273d
00000210: 898a 153e 4608 063c 4af7 433e 9666 833d
00000220: 07d4 943d 67f3 a6bd 8387 15bc 8424 3bbd
00000230: 8942 3fbd 3128 7b3d 907e 46bb d79d 413e
00000240: 9135 5abe 8d2a a53c f895 2c3e fb85 29be
00000250: 3887 01bd 2a85 383e 5c67 803d 3046 aa3d
00000260: ba19 ec3d 0c72 a83d 700b a03d fcc7 83bd
00000270: fcfb 0abd dd92 0dbe 9a3e c93c 9933 0b3e
00000280: 592c f53d 6507 833d 8934 aa3d 6ceb a2bd
00000290: 1f2b 063e 211d dd3d 889f 3ebe de9a 3dbe
000002a0: 282b d3bd c2fe 023c f2a0 cbbd f0d2 a83d
000002b0: c3b2 debc c672 513d 5901 1cbe fb3e 55be
000002c0: a6cd 223d b5f2 0a3d e8f0 133e 985a 813d
000002d0: 3d65 a73c fc7f 8c3d c953 de3d 6bbd 2ebb
000002e0: 9437 003e d88f 03be 8aaf 203e 80ed 52bd
000002f0: ad42 243e a632 713d 8cfe 54be 499d bd3c
00000300: 2208 13be 052f 2b3e 4129 b8bd ba01 f6bd
00000310: 5085 0dbe 036a 0f3e 69bb a7bd 914d e53d
00000320: d7f2 1cbe 82ab adbd 8514 22be 716c e03d
00000330: ca99 013e dd42 0a3e a24c 8a3d 40b7 c1bc
00000340: 4d68 debd cbda b23d be3a d4bd ba02 db3d
00000350: d5ac 0a3e 1b40 2b3e 047c 2cbd c376 1c3e
00000360: 55bb 0a3c 2614 ea3d b742 fe3d 3306 113e
00000370: e8b1 a63c 4440 48be e9be bf3d 6e4c 7f3d
00000380: 4d97 bb3d 7027 c3bd 0e5d 1ebd e5fa 37bc
00000390: 982a 01be 9192 fabc ea57 4cbe eab7 183e
000003a0: d3d3 bb3d 031d b5bd be5b c53d 90ff 65bd
000003b0: e03a ef3c 6444 b8bc e888 34be b365 d6bd
000003c0: 1a9f 433b fc45 a83d 7947 22bd d85a 823d
000003d0: a962 3fbe f1d0 bb3d 0032 4cbe 0047 f3bd
000003e0: 320b b9bd 7ef3 4a3d 80a4 09be 21a4 fb3d
000003f0: 265b b73c 861f 6cbd 2bb5 43be 4d99 853d
0.15474762 -0.06478702 0.12692726 -0.09372502 0.12413156 -0.15574448 -0.14174663 0.072032966
0.030199254 -0.008283967 0.011463963 0.12084599 -0.014904333 -0.060664322 -0.039448157 -0.0021399965
0.21121743 0.19074789 -0.16551234 -0.033212215 -0.14925629 -0.10431158 -0.13069685 -0.16653126
0.04833023 0.0017383677 0.070299864 0.1171384 -0.053337876 0.12827058 0.0491557 -0.20514363
0.06967999 0.18616858 0.015075885 0.06435637 -0.12131866 0.018266784 0.112090774 -0.016916588
0.060300075 -0.15369627 0.038032822 -0.14727998 -0.1412435 0.005608455 -0.09329868 0.046708204
-0.08759088 -0.16720058 -0.06325345 -0.008671484 -0.083213456 -0.048286587 -0.018223964 0.0186195
0.09668635 -0.03461864 0.0023311446 -0.13904303 0.0061439015 0.0202527 0.16487476 0.05806696
0.05914285 0.07620414 0.19134286 -0.10987987 -0.0033905364 -0.14357658 -0.17740516 0.066663906
-0.017070213 -0.07912841 0.11977289 0.058138285 -0.07194269 -0.12430047 0.12981229 -0.05174171
-0.0026106455 0.12708242 0.14467199 0.18572553 -0.05440523 -0.16935575 0.01900833 0.14237489
-0.0024661913 0.15900008 -0.057197798 -0.07446128 0.12223984 -0.086338826 -0.058957096 0.032603733
-0.19503918 -0.046432957 -0.14966442 0.050682224 0.14080334 0.045408607 0.083474346 -0.00035864845
-0.058549844 -0.1387373 0.13881393 -0.1545576 -0.09671823 0.1521167 -0.04355367 0.14297372
-0.06915957 -0.007447399 -0.12239244 -0.07063802 0.18405227 0.057563685 -0.022077546 -0.11051447
-0.15154208 -0.13670824 -0.06918179 0.028163945 -0.13297366 -0.19434172 0.08832273 -0.09693635
0.08439115 -0.06675597 0.0030932506 0.04098301 0.14603628 0.0081806835 0.19137302 0.06416051
0.072670035 -0.08151894 -0.009126547 -0.04568912 -0.046694312 0.061317626 -0.003028784 0.18907867
-0.21309496 0.020161891 0.16854084 -0.16555016 -0.031623095 0.18019548 0.06269714 0.083141685
0.115283445 0.08224878 0.078146815 -0.06434628 -0.033931717 -0.13825555 0.024565984 0.13593902
0.11971349 0.06397895 0.083108015 -0.079550594 0.13102387 0.107965715 -0.18615544 -0.18516108
-0.10310966 0.007995309 -0.09942807 0.08243358 -0.02718485 0.051134847 -0.15234889 -0.20824806
0.039746903 0.03392287 0.14447367 0.063161075 0.020434016 0.068603486 0.108558245 -0.0026663195
0.12521201 -0.12847841 0.15691963 -0.05149603 0.1604106 0.058886193 -0.20800227 0.023146288
-0.14358571 0.16717155 -0.089922436 -0.12012048 -0.13820386 0.14005284 -0.081900425 0.11196435
-0.15327011 -0.08479978 -0.1582814 0.109581836 0.12656322 0.13502069 0.06752898 -0.02364695
-0.108597375 0.08733138 -0.10362767 0.106938794 0.13542493 0.16723673 -0.042110458 0.15279679
0.008467515 0.11429624 0.124150686 0.14162521 0.020348504 -0.19555765 0.09362585 0.06232875
0.09159718 -0.095290065 -0.038662963 -0.0112292515 -0.12613904 -0.030587466 -0.19955412 0.14913908
0.09171262 -0.08843424 0.09636639 -0.056151927 0.029202878 -0.022493549 -0.1763035 -0.10468616
0.002984947 0.082164735 -0.039618943 0.06364983 -0.1868998 0.09170712 -0.19940948 -0.118787766
-0.090353385 0.04954862 -0.13441658 0.122871645 0.02238233 -0.05764725 -0.19112079 0.065233804

attentions3.attn.weight f4 [1, 64]
00000000: 7363 ef3d 5fcc 3cbd 1eb9 cd3d 60d3 f23d
00000010: 6694 11bd e4ee ea3c 3496 bebd 599c d33d
00000020: 46f8 e7bc 69e4 a63d c0e4 cc3d ccdb ffbd
00000030: cabb 90b9 74c1 e3bd 03fb b1bd a52a fbbd
00000040: 0d42 c83d 097d 0abd 8935 ad3d d7bb 4d3d
00000050: 9fb5 853d 8485 af3c ae25 bfbd fa49 cfbc
00000060: ae7e cdbd abad 8f3d 4139 17bd bc35 1fbc
00000070: f474 d03c 4630 dbbc 8321 00be 3223 403d
00000080: cc24 9fbd 0db0 e3bc 44a9 fb3d 29c0 edbd
00000090: 2be1 febb ecd1 c8bb e931 cd3d 0529 c53c
000000a0: f696 0f3e 019a 77bc 2f2e 78bd 2f37 ce3b
000000b0: 2635 b7bc 08a2 d53b 90bd 403d 5dcb 943d
000000c0: 7d56 9e3d 33f0 a4bd 02d1 86bd 817e 6d3d
000000d0: d1db f6bd 91bf d13d 7c04 733b 1427 19bd
000000e0: ac27 a1bd ac84 bd3d d7f3 20bd 4f77 a3bd
000000f0: dd9d 38bd 6b29 b03d 2255 c2bd d576 6ebc
0.1168889 -0.04609334 0.10045074 0.11856723 -0.035541914 0.028678365 -0.09305993 0.10332555
-0.028316628 0.081490345 0.10004568 -0.12493095 -0.00027605734 -0.11120883 -0.08690455 -0.12263993
0.09778223 -0.03381065 0.08457477 0.050227966 0.06528782 0.02142597 -0.09333359 -0.02530383
-0.10033928 0.070155464 -0.036919836 -0.009717401 0.025446393 -0.026756417 -0.12512784 0.046908565
-0.0777069 -0.027793908 0.12288144 -0.11608917 -0.007778307 -0.0061285403 0.10019285 0.024067411
0.14022431 -0.015112401 -0.06059092 0.0062931995 -0.02236421 0.00651956 0.04705578 0.07265351
0.0773134 -0.08053627 -0.06582834 0.05798197 -0.120536454 0.102416165 0.003708153 -0.037390783
-0.07868895 0.09253821 -0.039295044 -0.07981741 -0.045072425 0.0860165 -0.09488894 -0.014554699

output_layer.linear.weight f4 [5, 32]
00000000: 2182 973d c8da 853a b335 8f3d 4417 20bd
00000010: a541 eebd b8d0 503e 64f5 1ebe 3e88 ebbb
00000020: f162 e23d 760d d93c 0240 bfbd b90b edbc
00000030: 09d1 2bbc 4875 06be a3d5 bc3d be55 3e3e
00000040: 70da fcbc 1223 2fbe 2ca9 3f3e 1451 44be
00000050: bdf2 45be 6e26 213e 5bb9 1f3d 0b39 1dbe
00000060: 87d8 9fbd e8f3 dcbd 3b19 1e3e cc70 81bc
00000070: d131 b53d 4165 20be d116 48be 2717 12bd
00000080: 08c1 dabd b8d4 a7bb cb3f 213a ebea 6d3c
00000090: 0414 ff3d 64c7 48bb d8ec 8a3d 294a babd
000000a0: 61fd 18be c686 21be 2f4d 333d 237f 02be
000000b0: 22b9 30bd caa9 8a3d 458f e5bc b635 adbd
000000c0: 38a3 17bc e7fc 2f3e 6c80 dd3d 4337 f73d
000000d0: 2736 a83c e66c 4fbe c3b7 ffbd 2684 e8bd
000000e0: c11a 9c3d 94b5 29be 4cc1 cabd 0ca0 3bbb
000000f0: 0168 633e c38d b7bb 7127 2f3d 25a0 c83d
00000100: 3b20 ffbd f4b3 fd3d c1e0 39be c650 3a3e
00000110: a042 b8bc b0c1 37be c48c f2bc b1d7 d73d
00000120: f8b5 163d df94 193c 08d1 c5bd 9922 e73d
00000130: cd89 ce3d e2e7 54be 3700 90bc 1912 17bc
00000140: 1116 ed3d d200 28be 1c62 7cbd a4c9 093d
00000150: 4e96 a63d 7af7 4cbd 384a 113e c1a2 c73d
00000160: 5794 98bd 55c2 4fbe 931e 02bd bb94 c53c
00000170: e0bd 413e e02f f9bd 5195 1e3e e53b 913d
00000180: 5737 adbd ab58 8cbd df95 933d d8b5 cf3d
00000190: 0cff 843d efc5 863d bb13 2cbe 4a4c 133e
000001a0: 66b2 cb3d 60b9 143e 51e0 b03d 0fc5 22be
000001b0: 4cea 233e 1660 17be e750 213e 610c 6f3c
000001c0: 68a2 2d3e 59d0 91bd 7981 223e 0d14 023d
000001d0: 07d2 da3d fda9 d93d 28cd bf3d c652 d8bd
000001e0: e5ee 64bd 6c0f 783d 6efa 3e3d 61d3 973d
000001f0: 359b 43bd 362e bb3d ce48 223e 294c 26be
00000200: 44bf b4bc ff4b b33b d730 023e d6f8 25be
00000210: 499c a0bd 6462 9abc 315d 23be 0d4b 4c3e
00000220: 1ad4 61bd 6c54 ff3d 0e33 f5bb 037f 213e
00000230: fb6e 02be 14bd ebbb 3f07 063e d32f d63c
00000240: 5556 56be 216f bdbc a3fd e93d e1d7 24be
00000250: 24c6 5dbe b98b dcbd 013a 703c a14a 263e
00000260: a3d4 9fbd f443 053e b8c7 0c3e 4d40 173e
00000270: 8f2d 593d d3f9 5bbe 0115 e9bd 88c8 36be
0.07397867 0.0010212297 0.06992664 -0.039084688 -0.116336145 0.2039212 -0.15523297 -0.007187872
0.11054028 0.026495676 -0.093383804 -0.028936254 -0.01048685 -0.13130677 0.092204355 0.18587396
-0.030865878 -0.17103222 0.18716878 -0.19171554 -0.19330879 0.15737316 0.038995128 -0.15353791
-0.07804971 -0.10788709 0.15439312 -0.015800856 0.08847392 -0.15663625 -0.19539954 -0.03566661
-0.10681349 -0.0051217936 0.00061511685 0.014521341 0.124549896 -0.0030636424 0.067834556 -0.09096176
-0.14940406 -0.15774068 0.04377478 -0.12743811 -0.043145306 0.06770666 -0.028022418 -0.0845751
-0.009255223 0.17186318 0.1081551 0.12071087 0.020533634 -0.20256385 -0.12486222 -0.1135333
0.076222904 -0.16573173 -0.0990015 -0.002862933 0.22207643 -0.005601616 0.042762224 0.0979617
-0.12457319 0.12387839 -0.18152143 0.18194875 -0.022492707 -0.1794498 -0.029608138 0.10539187
0.036794633 0.009373873 -0.0965901 0.11285896 0.10084877 -0.20791581 -0.017578227 -0.009220623
0.115764745 -0.16406563 -0.061617002 0.033639565 0.08134137 -0.0500407 0.14188468 0.0974784
-0.074501686 -0.20288976 -0.03176744 0.024118772 0.18920088 -0.121673346 0.15486647 0.07091502
-0.08457821 -0.068528496 0.0720632 0.10142106 0.06493959 0.065807216 -0.16804402 0.1438457
0.09946136 0.1452384 0.08636535 -0.15895484 0.16007346 -0.14782748 0.15753518 0.014590354
0.16956484 -0.07119817 0.15869702 0.031757403 0.10684591 0.10628126 0.09365302 -0.10562663
-0.05589189 0.060561582 0.046625547 0.07413364 -0.04775544 0.091396734 0.15848085 -0.1623999
-0.022063859 0.005471706 0.12713943 -0.16208205 -0.07842309 -0.018845744 -0.15953518 0.19950505
-0.055133916 0.12467274 -0.007482893 0.15771107 -0.12737648 -0.0071941707 0.13088702 0.026145851
-0.2093137 -0.02312428 0.114253305 -0.16097976 -0.21657616 -0.107688375 0.014662267 0.16239406
-0.07804229 0.13014203 0.13748062 0.14770623 0.053021964 -0.21482019 -0.11380959 -0.17849934

output_layer.attn.weight f4 [1, 10]
00000000: fd15 f1bc 3268 52be 8739 933c bcb6 2cbe
00000010: a218 76be 0f77 3cbe 45a7 103e 23b1 18be
00000020: 0e92 70bd f541 7ebd
-0.02942943 -0.2054756 0.017971767 -0.16866583 -0.24032834 -0.18404792 0.14126308 -0.14911322
-0.05873304 -0.06207462

fc1.weight f4 [5, 45]
00000000: 19af c0bc df24 1cbd 4b1a 253c ace0 c9bc
00000010: 9924 e73c 4219 e53d acb8 e33d b4d1 bdbd
00000020: b79e a13b cc20 4c3d c510 d8bd 3cc3 ce3d
00000030: ad4e 31be 55d2 f7bd 6d55 ae3d 2cd0 063e
00000040: 3289 633d cbfd 4039 c6cc 973d 0783 1d3e
00000050: 88cb cbbd 31df dabd b5ef e6bd 708f e73c
00000060: 0fad 813a 098e abbd f6cf 7c3d faef f7bd
00000070: e5c3 e9bd 4ed3 c33c 900b f93d da32 d73d
00000080: b7c3 9cbc b7f8 983c 45b6 adbd c08c d0bc
00000090: e320 d4bd a559 1ebe a1ec f63d 4a77 cf3d
000000a0: 73b8 dc3c 7e3e 83bb eb2f 3bbb 39aa 6b3d
000000b0: 8395 9abd ac04 6e3b 9272 92bd fcb8 2bbc
000000c0: a34f 7e3d bc48 bd3d 2430 163e 27dd ec3c
000000d0: 3f7e dabd 63b2 f5bd 7bb7 193e 7247 9ebd
000000e0: 0e8e cd3d 9bb1 c5bd f8d5 f63d 0e49 123e
000000f0: b8a1 d33d 9425 823d 4caf 193b 07e3 97bd
00000100: b277 013e 8a96 b6bd c6e0 fcbd bfde 01bd
00000110: 5bfc 9d3d 814f a53d 61c5 b33d dc79 a73d
00000120: 5d3a bebd b6bc 03be 76d0 77bd 3bcf f2bd
00000130: 14e3 983c bb32 10bc 2959 4bbd 27f9 dc3c
00000140: 0903 debd a747 f23c 5a88 ca3c ba37 88bd
00000150: 7faf 053e 21a6 203d 7e6e de3d 4001 a73d
00000160: 7011 04be 5c7f 8bbd f999 9fbd 22b4 a13b
00000170: 6159 2fbe 481b 95bc d13f 0c3e 1822 e8bd
00000180: 5995 96bd 5c24 20bc 82e2 103e 3719 9abb
00000190: 300e 15bd 583f f53d 04ed 373d 8ea3 db3d
000001a0: 0cd8 1f3d f5cf 873d 1cd9 323d 19b5 f6bd
000001b0: 9a77 f93d 1e66 c43d a787 00bd 6a2a ce3d
000001c0: 498b f13d c432 003e 8da9 e93b ed2c 003e
000001d0: 9c8f 843d 94d8 34bd 1e7d 88bd 314f 8c3c
000001e0: 234f 80bc 2dbc 06be 4797 93bd ad41 073c
000001f0: 7fd4 29bd 8cf3 013e 8bd2 bd3c 8512 b3bd
00000200: 978d e43d e801 a73d eb94 1d3e 40ad d2bc
00000210: e810 033e 8c1f 9abd 6576 8ebd dbcc db39
00000220: c7ab a3bc f085 463d 9579 2ebc 45ca 29bd
00000230: 3d7d 693d 9ac2 09be 5223 ca3d f0de 203e
00000240: e275 c43d f0a3 283e a548 d4bd c240 883d
00000250: ad7e ed3d 65f5 003e d33d 90bc a3f2 aabd
00000260: 7fdc 59bb 7220 0cbe 74c1 92bd 6406 b9bd
00000270: cd76 9ebc 52d3 903d 6bf8 f73d fc55 8c3d
00000280: 9349 123d f3b3 b9bd e636 bdba b121 07bd
00000290: f324 723d ba2d cc3c 7d7a f03d 5ca1 bd3d
000002a0: 518e e83d 6a55 643d faeb 313d d996 0f3b
000002b0: 5222 403d 647f 063e 3f95 133e dd24 623d
000002c0: 040b 053e fb76 bc3c 4546 34bd 0e85 ddbc
000002d0: 706a b5bd 0610 213e 7929 363e ce36 75bd
000002e0: da4e 98bd 3157 c0bd 69d3 073e 291e 563d
000002f0: 86b4 923b 4410 d33d 1bc4 2d3d 2af4 803c
00000300: ff92 3e3c 3355 093d 92ba 05bd 6c73 90bd
00000310: b6de ba3d 69e8 8cbd be4c d13d 844f 0ebd
00000320: 2d8c 2abe 351b e23d b405 253e 1f27 8b3d
00000330: 2754 34be da43 26be ff2d 0a3e f105 063e
00000340: 5499 eebd b4c9 5d3d 3249 72bc 5a6c 3d3e
00000350: d5e4 4e3d e319 8e3c 6d7b 36be 7a71 3dbd
00000360: 7137 813d 4998 b33d 583a b0bd dc63 10be
00000370: 1828 1bbd 9423 5ebd 089f 163d 1053 bfbd
00000380: d15c 2cbe
-0.023520993 -0.0381211 0.0100770695 -0.024643265 0.028215693 0.11186458 0.11119208 -0.09268513
0.0049322504 0.049835965 -0.105500735 0.10095832 -0.17315169 -0.121006645 0.085123874 0.13165349
0.05555076 0.00018405092 0.07412104 0.15382014 -0.0995093 -0.10687102 -0.11276189 0.028266639
0.0009893494 -0.083767004 0.061721765 -0.12106319 -0.11414317 0.023904469 0.121604085 0.10507746
-0.019136293 0.018673284 -0.08482031 -0.02545774 -0.10357835 -0.15463884 0.12056852 0.101301745
0.026943421 -0.0040052524 -0.0028562497 0.057535384 -0.07548048 0.0036318703 -0.07150759 -0.010481115
0.062087666 0.092423886 0.14666802 0.028914047 -0.10668611 -0.11996915 0.15011398 -0.07728471
0.100368604 -0.09653016 0.1205253 0.1428568 0.1033358 0.06354824 0.0023450432 -0.07416349
0.12643316 -0.08915432 -0.1234756 -0.031706568 0.077141486 0.08071805 0.087778814 0.0817754
-0.09288476 -0.12864956 -0.06050154 -0.11855932 0.018662967 -0.008801158 -0.049645577 0.026974274
-0.10840423 0.029575182 0.02472322 -0.06651254 0.13055228 0.039220933 0.108609185 0.08154535
-0.12897277 -0.06811401 -0.0779304 0.0049348036 -0.17123939 -0.018201485 0.13696219 -0.11334628
-0.073527046 -0.009774294 0.14148906 -0.004702713 -0.036390483 0.119749725 0.04490377 0.10724555
0.039024398 0.066314615 0.043664083 -0.120462604 0.12181015 0.0958979 -0.03137937 0.100666836
0.11794145 0.12519366 0.0071308077 0.12517138 0.06472704 -0.044151857 -0.06664489 0.017127605
-0.015662735 -0.13157721 -0.07206588 0.008255404 -0.041462418 0.12690562 0.023171684 -0.08743767
0.111598186 0.081546605 0.15388839 -0.025717378 0.12799418 -0.07525548 -0.06956176 0.00041923564
-0.01997937 0.048467577 -0.010649105 -0.041452665 0.057004202 -0.13453141 0.09870018 0.15710044
0.09592797 0.16468787 -0.10365418 0.066529766 0.11596427 0.1259361 -0.017607605 -0.083470605
-0.0033242998 -0.13684252 -0.071658045 -0.09034422 -0.019343758 0.07071556 0.12107929 0.06852338
0.035714697 -0.09067526 -0.0014435917 -0.032991115 0.05911727 0.024924148 0.11742113 0.092592925
0.1135527 0.05574552 0.043437935 0.002190998 0.04690773 0.13134533 0.14412402 0.055210937
0.12992483 0.023005953 -0.044012327 -0.027040984 -0.08858192 0.15728769 0.17789258 -0.05986672
-0.07436915 -0.093916304 0.1326424 0.052274857 0.0044770865 0.10305837 0.04242335 0.015741426
0.011631726 0.033528518 -0.03264863 -0.07053265 0.0912451 -0.06880266 0.102197155 -0.0347438
-0.16655035 0.110403456 0.16115457 0.06794571 -0.17610227 -0.16236821 0.13494109 0.13088204
-0.11650339 0.054147437 -0.014787959 0.18498364 0.0505112 0.017346328 -0.1782052 -0.046250798
0.06309403 0.087692805 -0.08604878 -0.14100593 -0.037880033 -0.05423315 0.036772758 -0.09342015
-0.16832282

fc1.bias f4 [5]
00000000: 0698 f9bb f431 0dbd 6e45 163e 1f8f e13b
00000010: e5d6 f23d
-0.0076169996 -0.034471467 0.14674923 0.0068835164 0.11857394
