saved_weights/LunarLander-v2/1679/critic.pth (torch, 12859 bytes, 9 tensors)

attentions1.linear.weight f4 [32, 1]
0	0x3f29e202	0.66360486
1	0x3f77e990	0.96840763
2	0x3f511f68	0.8168855
3	0xbd4eb1fd	-0.05046271
4	0xbea5e235	-0.32399145
5	0xbf147c5e	-0.5800227
6	0x3f7de959	0.99184185
7	0xbe6fdbf3	-0.23423748
8	0x3df89ba5	0.12139062
9	0x3f5a4c0b	0.8527228
10	0x3f414c8e	0.7550744
11	0x3ebd5588	0.36979318
12	0xbf22e36a	-0.63628256
13	0x3e33a5ca	0.17543712
14	0x3f59f2dc	0.851362
15	0x3d0e53ca	0.034747876
16	0x3eab1ae6	0.3341896
17	0x3ede870f	0.43462417
18	0x3ea66eec	0.32506502
19	0x3e7b7b17	0.24558674
20	0xbdf9f663	-0.12205198
21	0x3f67d6e7	0.9056229
22	0xbe89301c	-0.26794517
23	0xbf1c2937	-0.6100039
24	0xbe65a103	-0.22424702
25	0x3ebbebca	0.3670333
26	0x3ef24b17	0.47322914
27	0xbf1f80ca	-0.6230589
28	0x3d673432	0.05644626
29	0x3f0a794d	0.5409134
30	0xbe99eb1a	-0.3006218
31	0xbeefabd5	-0.46810785

attentions1.attn.weight f4 [1, 64]
0	0xbd0f9090	-0.035049975
1	0xbd428d7e	-0.04749822
2	0xbd3abd04	-0.045590416
3	0x3d0b70e5	0.03404321
4	0x3cf8af00	0.030356884
5	0xbd841d37	-0.06450885
6	0x3d336c8f	0.0438047
7	0xbcff80ba	-0.031189311
8	0x3d03de01	0.03219414
9	0xbd4bcb32	-0.04975433
10	0xbd12760b	-0.035757106
11	0xbd28c677	-0.041204896
12	0x3d6fa55d	0.058507312
13	0xbd469648	-0.048483163
14	0xbc8687d2	-0.016422186
15	0x3dd82561	0.105540045
16	0xbd9650a7	-0.07339602
17	0xbd3157f7	-0.04329678
18	0xbdf963be	-0.121772274
19	0xbd887a7c	-0.06663987
20	0x3de65965	0.112475194
21	0xbde0f7e3	-0.10984781
22	0x3d37c39b	0.04486428
23	0x3de12fac	0.10995421
24	0xbd4adae3	-0.049525153
25	0xbd09d1ab	-0.03364722
26	0xbc1a14df	-0.00940439
27	0xbcd657ad	-0.026164854
28	0x3dc5d45a	0.096596435
29	0xbde22c7f	-0.11043643
30	0x3aa5b680	0.001264289
31	0x3dc00f6d	0.09377942
32	0x3c036f78	0.008022182
33	0x3da6537b	0.081213914
34	0x3e1f1e4e	0.15538904
35	0xbe17d5b8	-0.14827621
36	0xbd3abeed	-0.045592237
37	0xbe224d35	-0.15849765
38	0xbd18a212	-0.037263937
39	0xbd6a5430	-0.057209194
40	0xbcc3c26c	-0.023896419
41	0x3df789bf	0.1208682
42	0x3dfc09ea	0.123065785
43	0x3e197b57	0.14988457
44	0x3cc73a95	0.024319926
45	0x3d87ead6	0.06636588
46	0xbc686788	-0.01418484
47	0x3d609704	0.05483152
48	0x3e21cbb9	0.1580037
49	0x3d2d20a6	0.042267464
50	0x3e202410	0.15638757
51	0x3d90d88a	0.070725515
52	0x3d83406d	0.064087726
53	0x3daff91b	0.08592435
54	0xbd8120cd	-0.063050844
55	0xbe137ca6	-0.14403018
56	0xbdd748fb	-0.10511967
57	0x3e108738	0.14114082
58	0x3d396c39	0.045269225
59	0xbe2080d7	-0.15674148
60	0xbd0e4b2b	-0.034739655
61	0x3d0eb403	0.03483964
62	0x3c91504e	0.017738488
63	0xbab294a1	-0.0013624617

attentions2.linear.weight f4 [32, 32]
0	0x3deda1dd	0.116031386
1	0xbaf44c9f	-0.0018638558
2	0x3cfd179a	0.030895043
3	0x3d0ac5d4	0.03388007
4	0x3dcd6782	0.10029508
5	0xbc572472	-0.013131248
6	0xbde7f519	-0.113260455
7	0x3e12114d	0.14264412
8	0xbd61ae17	-0.055097666
9	0xbe22c415	-0.15895112
10	0x3d3505a2	0.044194825
11	0xbda22b04	-0.07918361
12	0x3db99dc2	0.09063293
13	0xbe45697d	-0.19278522
14	0xbd8dcede	-0.069242224
15	0x3cd782d6	0.026307505
16	0xbe1ccf9b	-0.1531357
17	0x3d7ec391	0.062198225
18	0x3dcd8329	0.100347824
19	0x3e1703ed	0.14747591
20	0x3d7e8581	0.062139038
21	0xbe21d9a6	-0.15805683
22	0xbe0ccfb3	-0.13751106
23	0xbc7783b5	-0.015107085
24	0xbc7f10a5	-0.015567933
25	0xbe0111a5	-0.12604387
26	0xbda78bac	-0.08180937
27	0x3e133f4f	0.14379619
28	0xbe3aa94f	-0.18228649
29	0xbde89f78	-0.11358541
30	0x3dea393d	0.114366986
31	0x3da690a2	0.08133055
32	0xbdfec272	-0.12439431
33	0xbdccb367	-0.09995156
34	0xbcdc492b	-0.026890358
35	0x3d85244b	0.06501063
36	0xbdb91ba9	-0.09038479
37	0xbc8c1503	-0.017099863
38	0xbd862cc9	-0.06551511
39	0x3e1d510f	0.15362953
40	0x3ddb1734	0.10697785
41	0xbe225e9d	-0.15856405
42	0xbc9ef371	-0.019403191
43	0xbd4cbab3	-0.049982738
44	0x3e2de61d	0.16982313
45	0xbe3389fd	-0.17533107
46	0x3c9dcb16	0.019261878
47	0x3bcd2ab2	0.006261193
48	0xbe20a4e4	-0.15687901
49	0xbdc5388d	-0.09629927
50	0x3d863bc1	0.06554366
51	0x3c87d826	0.01658256
52	0x3e2e2a3e	0.17008302
53	0xbdd1cfa9	-0.10244686
54	0x3d18031d	0.037112344
55	0x3cc09507	0.023508562
56	0x3df0c41b	0.11756154
57	0xbd4ab5c1	-0.04948974
58	0xbd2f4881	-0.042793754
59	0x3e1fe7d1	0.15615775
60	0x3d8f2042	0.069885746
61	0x3da9978a	0.08280857
62	0x3d5b61cd	0.053560067
63	0xba70aa88	-0.00091806846
64	0xbe49eadf	-0.19718502
65	0xbdcf970c	-0.10136232
66	0xbda2729a	-0.07932015
67	0x3d27adc5	0.040937204
68	0xbcdbb073	-0.026817536
69	0xbca5a33c	-0.020219438
70	0xbe40370f	-0.18771003
71	0x3d77a53d	0.060460318
72	0xbe015c81	-0.12632944
73	0x3dd990e9	0.106233425
74	0xbc233f32	-0.009963797
75	0xbd2d2b5c	-0.04227768
76	0x3d00ec5a	0.031475402
77	0xbe49971e	-0.19686553
78	0xbda907d9	-0.0825345
79	0xbd25e82f	-0.04050463
80	0x3de94167	0.11389428
81	0xbdba43ca	-0.09094961
82	0x3db5798c	0.08861074
83	0x3dc66507	0.09687238
84	0x3d16bce8	0.03680125
85	0xbe19d4de	-0.15022609
86	0xbd96c172	-0.073611155
87	0x3db30ec6	0.08743052
88	0x3e414d32	0.18877104
89	0xbe0c991f	-0.13730286
90	0xbe24e35f	-0.1610236
91	0x3d0d4c6f	0.03449672
92	0xbd995de3	-0.074886106
93	0xbd2061d1	-0.039155785
94	0x3dc904f6	0.09815399
95	0x3e1883d3	0.14894037
96	0x3d7dd622	0.06197179
97	0xbd2d0bcd	-0.042247582
98	0x3e195c16	0.14976534
99	0xbd8973b6	-0.06711523
100	0xbe024b0a	-0.12723938
101	0xbe3ae64b	-0.18251912
102	0xbc7da95d	-0.015482274
103	0x3dd23be2	0.10265328
104	0xbdac06e5	-0.083997525
105	0x3e14cd15	0.14531358
106	0x3e49c6ee	0.19704792
107	0x3dbf66e1	0.093457945
108	0xbd13eed5	-0.03611644
109	0xbe0895d0	-0.13338399
110	0xbd8a12c6	-0.06741862
111	0xbcfc92d6	-0.030831736
112	0x3b627b10	0.0034558214
113	0xbdff484d	-0.12464962
114	0xbdbf38e3	-0.09337022
115	0xbe0279c5	-0.12741764
116	0x3ddca064	0.107727796
117	0x3de617db	0.11235019
118	0xbe11db94	-0.14243919
119	0xbe21c019	-0.15795936
120	0xbe5274a7	-0.20552312
121	0xbc93d4d2	-0.018045817
122	0x3c370bef	0.011172279
123	0x3ce590d8	0.028023168
124	0x3e4af778	0.19820964
125	0x3d27b8fa	0.04094789
126	0xbe50e7b2	-0.20400885
127	0x3e10e953	0.14151506
128	0xbdd48fa1	-0.103789575
129	0xbe14d2f0	-0.14533591
130	0xbdbc9523	-0.09208133
131	0xbe00c30f	-0.12574409
132	0x3db6596d	0.08903775
133	0xbde472a8	-0.111546814
134	0xbc1d6221	-0.009605915
135	0xbe037594	-0.12837821
136	0x3beb59f2	0.007182353
137	0x3d209198	0.03920135
138	0xbdbea3eb	-0.093086086
139	0xbb7ad5b9	-0.0038274361
140	0x3d9b65cf	0.07587778
141	0xbe22de18	-0.15905035
142	0x3da4d225	0.080478944
143	0xbe0816b6	-0.13289914
144	0xbe157e90	-0.14599061
145	0x3d3754c4	0.044758573
146	0xbd51d189	-0.05122522
147	0xbe4cf4bd	-0.20015235
148	0xbd6e9b0c	-0.058253333
149	0x3dc3e0d7	0.09564369
150	0x3e488371	0.19581391
151	0xbcea7713	-0.028621232
152	0x3dd2b147	0.10287719
153	0x3dc95a11	0.09831632
154	0xbd730eca	-0.059340276
155	0x3da1c0c7	0.078980975
156	0x3cc52776	0.024066668
157	0xbcf2facf	-0.02966061
158	0x3e0fa8d3	0.14029245
159	0x3db12bac	0.08650908
160	0xbc11fc81	-0.008910299
161	0x3d1b6a9e	0.037943475
162	0x3c8016c7	0.015635861
163	0xbdd7861c	-0.10523626
164	0xbd606ab7	-0.05478927
165	0xbe234a03	-0.15946202
166	0x3e368689	0.17824759
167	0xbb762c28	-0.003756294
168	0xbdbbb82f	-0.091659896
169	0x3e43ed86	0.19133577
170	0xbe054406	-0.1301423
171	0x3de68f0b	0.11257752
172	0xbd77b9c0	-0.06047988
173	0x3e16aa7c	0.14713472
174	0x3d8ed539	0.06974263
175	0x3e4b84ec	0.19874924
176	0xbd667b01	-0.05626965
177	0xbc805a0a	-0.015667934
178	0x3d9a9d17	0.07549494
179	0x3e1ed77d	0.1551189
180	0xbe20e52b	-0.1571242
181	0xbd8408da	-0.06447001
182	0xbd5405b1	-0.05176324
183	0x3d9e6e47	0.077358775
184	0x3d5e55bd	0.054280985
185	0x3d653d59	0.05596671
186	0x3e1ae3ba	0.15125933
187	0xbe04cb25	-0.12968118
188	0xbd824a32	-0.06361808
189	0x3d422ef0	0.047408044
190	0x3dc60e6a	0.09670718
191	0xbe22b719	-0.15890159
192	0xbe3d81e0	-0.18506575
193	0xbe36a19a	-0.17835084
194	0x3e203932	0.15646818
195	0x3db305d8	0.08741349
196	0x3e084513	0.133076
197	0x3dbd3149	0.09237916
198	0xbde6f817	-0.11277788
199	0x3cdd8831	0.02704248
200	0x3d82a2b0	0.063786864
201	0x3db6faca	0.08934553
202	0xbdc882eb	-0.097905956
203	0xbdb75f2b	-0.08953699
204	0xbd44d44a	-0.048054017
205	0x3e0b9208	0.13629925
206	0x3db01ff8	0.085998476
207	0xbe2354b6	-0.15950283
208	0x3dc21766	0.09477119
209	0xbe188afa	-0.14896765
210	0xbcf66bbc	-0.030080669
211	0x3cec9f35	0.02888451
212	0x3d97b0a9	0.07406742
213	0xbdc20581	-0.09473706
214	0x3d5df053	0.05418427
215	0x3ca9ff88	0.02075173
216	0x3e391251	0.18073393
217	0xbcf070a2	-0.029350583
218	0xbde4626f	-0.11151587
219	0x3dd708c8	0.10499722
220	0xbcc6f684	-0.02428747
221	0x3db38c9a	0.08767052
222	0x3c548c94	0.01297297
223	0x3c99284f	0.018695978
224	0xbd840c08	-0.06447607
225	0xbe138d52	-0.14409378
226	0x3db3d516	0.08780877
227	0x3d9eb61e	0.0774958
228	0xbc029f82	-0.0079726
229	0xbdc494dd	-0.09598706
230	0x3e0963bc	0.13416952
231	0x3e020cc5	0.12700184
232	0xbe49f40c	-0.19722003
233	0xbe0d8cf7	-0.13823305
234	0x3e09f3b7	0.13471876
235	0xbe32352a	-0.17403093
236	0xbdaf27ed	-0.08552537
237	0x3d765cf3	0.060147237
238	0xbd07ac7a	-0.03312347
239	0xbe59f631	-0.21285321
240	0x3c81f1d5	0.015862385
241	0x3d5d872a	0.05408398
242	0xbd5ead6a	-0.0543646
243	0xbd9197db	-0.07109042
244	0x3e2cce52	0.1687558
245	0x3d750f76	0.059829198
246	0x3e1943d2	0.14967278
247	0x3e05d4e8	0.13069499
248	0x3e0ab7ca	0.13546672
249	0xbe07ba85	-0.13254745
250	0x3b4f5784	0.0031637857
251	0xbddccc8f	-0.10781204
252	0xbdb41aff	-0.087942116
253	0xbe4e6091	-0.20154025
254	0x3d31cf2f	0.043410476
255	0x3d41fbef	0.047359403

attentions2.attn.weight f4 [1, 64]
0	0xbd7ae0ea	-0.06124965
1	0x3d7008d3	0.058602165
2	0x3d901595	0.070353664
3	0xbbfc1fac	-0.0076942053
4	0xbca16d26	-0.019705366
5	0x3c8d9dd0	0.017287165
6	0x3c3ecfbd	0.011646208
7	0x3db00d40	0.08596277
8	0x3dec59bd	0.11540554
9	0x3dcd2a5a	0.100178435
10	0xbc3f15a6	-0.011662876
11	0x3c312867	0.010812855
12	0x3de9b3ad	0.114112236
13	0x3d52f299	0.05150089
14	0x3c39865c	0.011323538
15	0x3d861dba	0.06548639
16	0x3d35e157	0.044404354
17	0xbdf74ceb	-0.12075218
18	0x3cfa857a	0.030581225
19	0x3d2d6f4d	0.042342473
20	0x3db0c5c8	0.08631474
21	0x3dddf30b	0.108373724
22	0x3b7f6912	0.003897254
23	0xbdb376a2	-0.08762862
24	0xbbcc1961	-0.0062286113
25	0x3d6753be	0.056476347
26	0xbd0fb632	-0.035085864
27	0xbd3903d7	-0.045169678
28	0x3d22e284	0.039766803
29	0xbd8ae85a	-0.06782599
30	0x3b5e39e6	0.0033909022
31	0x3de6b331	0.11264647
32	0xbd2e9c53	-0.04262955
33	0xbd3f0984	-0.046639934
34	0xbe3401d9	-0.1757883
35	0x3d88f69b	0.06687661
36	0xbcb7a4ae	-0.022417393
37	0x3e0a6b2c	0.13517445
38	0x3d02817d	0.03186177
39	0x3d07699b	0.033059698
40	0x3e1f0616	0.15529665
41	0x3e0ef82f	0.13961862
42	0xbdad3a50	-0.08458388
43	0xbc02a191	-0.007973091
44	0xbd987aaf	-0.07445275
45	0xbe218e9e	-0.1577706
46	0x3e24cec1	0.16094495
47	0xbb3f0e12	-0.0029152674
48	0x3d1f5340	0.038897753
49	0xbe1e608c	-0.15466517
50	0xbde3ab3e	-0.11116646
51	0xbdd4b4d9	-0.103860565
52	0xbca70884	-0.020389803
53	0x3c66facc	0.014097881
54	0x3cac4c47	0.021032466
55	0xbd913a7e	-0.070912346
56	0x3d5b3b07	0.05352309
57	0xbd9eda21	-0.077564485
58	0x3d9009d1	0.07033122
59	0xbc9eaf24	-0.019370623
60	0x3e323904	0.17404562
61	0x3d936da0	0.07198644
62	0x3e2fbc5c	0.17161697
63	0xbe2895b9	-0.16463365

attentions3.linear.weight f4 [32, 32]
0	0x3e316b65	0.17326124
1	0x3cb2ffa4	0.021850415
2	0x3d976111	0.07391561
3	0xbdd74efb	-0.10513111
4	0x3d66f618	0.056387037
5	0x3df3d9aa	0.119067505
6	0x3e255b47	0.16148101
7	0x3e1d4b68	0.15360796
8	0xbe298098	-0.16552961
9	0xbd81df4d	-0.06341419
10	0x3ce7db84	0.028302915
11	0x3e2e4643	0.1701899
12	0xbdac2ffa	-0.08407588
13	0x3e42679e	0.1898484
14	0xbdecb7ab	-0.115584694
15	0x3e468e2c	0.19390172
16	0xbc5faca0	-0.013651997
17	0xbe00699a	-0.12540284
18	0xbd594f89	-0.053054366
19	0x3e3ed0e2	0.1863437
20	0x3d1a08c3	0.037606012
21	0x3deb465e	0.11488031
22	0x3c9b5f95	0.018966476
23	0x3d8037f5	0.06260673
24	0x3d8b8c8b	0.06813916
25	0x3dea11ac	0.11429152
26	0x3e19d839	0.15023889
27	0xbe601b56	-0.21885428
28	0xbd0559c0	-0.032556295
29	0x3db385b2	0.08765735
30	0xbd0abd20	-0.03387177
31	0x3dedad95	0.11605374
32	0x3d16be19	0.036802385
33	0x3d3ab314	0.04558094
34	0xbe451549	-0.19246401
35	0x3e14e944	0.14542109
36	0xbd015620	-0.031576276
37	0xbd6a6baa	-0.057231583
38	0xbdeabbd3	-0.11461606
39	0xbe0e7fcf	-0.13915943
40	0x3e53072d	0.20608206
41	0xbd88598f	-0.06657707
42	0xbbfeb6d4	-0.0077732597
43	0xbdc74f52	-0.09731926
44	0xbaf0005e	-0.0018310656
45	0xbcd1a8c6	-0.025593173
46	0xbcfbb8b7	-0.030727727
47	0x3d32a632	0.043615527
48	0x3c18feb5	0.009338071
49	0x39aa201c	0.0003244885
50	0x3c87d12c	0.016579233
51	0x3d3e479c	0.04645501
52	0xbc59bcb1	-0.013289616
53	0x3e3cf4c4	0.18452746
54	0xbd9d686d	-0.07685933
55	0xbe162bfa	-0.14665213
56	0x3e3b3eac	0.18285626
57	0x3d9d04cb	0.0766693
58	0xbe3bfb7b	-0.18357651
59	0xbda11c6a	-0.07866748
60	0x3e096005	0.13415535
61	0x3e3137cb	0.1730644
62	0xbe0ec9ec	-0.13944215
63	0xbdcc8fed	-0.09988389
64	0x3dfe3c13	0.12413802
65	0xbbdd3d52	-0.0067516947
66	0x3d76c268	0.060243994
67	0x3dafada4	0.08578041
68	0xbe43b443	-0.19111733
69	0x3e4cf886	0.20016679
70	0xbdd9bb36	-0.10631411
71	0x3e2f7da6	0.17137775
72	0x3b9d0dcf	0.004792906
73	0x3e4c859a	0.1997284
74	0x3de98a46	0.11403327
75	0xbdccc970	-0.09999359
76	0x3df043d8	0.1173169
77	0xbdc531e3	-0.09628656
78	0x3d67e4ae	0.05661457
79	0xbe3d580e	-0.18490621
80	0x3e4c8e8b	0.19976251
81	0xbdfba206	-0.12286763
82	0xbe4c8391	-0.19972064
83	0x3d16a77b	0.036780816
84	0x3a145384	0.0005658197
85	0x3d5e6e7a	0.054304577
86	0x3dbb28ad	0.09138618
87	0xbc2243fd	-0.009903905
88	0x3d993e5b	0.074825965
89	0x3c84ec21	0.016225876
90	0xbdef7b35	-0.11693422
91	0x3df0cf85	0.11758331
92	0x3d1c6d79	0.03819034
93	0x3cad01ba	0.021118987
94	0xbd514ec0	-0.051100492
95	0xbda7d05b	-0.081940375
96	0xbd9ad650	-0.07560408
97	0x3d800fad	0.0625299
98	0x3b9259cd	0.0044662715
99	0x3d3e7113	0.046494555
100	0x3e441ff1	0.1915281
101	0x3de68efe	0.11257742
102	0x3e47e80d	0.19522114
103	0xbb71d153	-0.0036898449
104	0xbcb5e710	-0.022204906
105	0x3d30cdee	0.04316514
106	0x3d858e4b	0.06521281
107	0xbdd44180	-0.10364056
108	0xbdb56c95	-0.08858601
109	0x3e569fee	0.20959446
110	0x3d298951	0.04139072
111	0xbe002a40	-0.12516117
112	0x3db6ebb7	0.08931678
113	0xbe10cf59	-0.14141597
114	0x3e347056	0.17620978
115	0x3dc4fe09	0.09618766
116	0xbdba721f	-0.09103798
117	0xbdd06b54	-0.10176721
118	0x3df853c4	0.12125352
119	0x3d8be335	0.06830446
120	0xbe08926c	-0.13337106
121	0x3d46ce1d	0.04853641
122	0x3e526b11	0.20548655
123	0x3db711ce	0.08938943
124	0xbe013355	-0.12617238
125	0xbd9db255	-0.0770003
126	0xbe22ef8e	-0.15911695
127	0x3e440290	0.19141603
128	0x3cd60b5c	0.026128463
129	0x3d21c521	0.039494637
130	0x3e02c87d	0.12771793
131	0x3e0013a5	0.12507494
132	0xbe124072	-0.14282396
133	0xbd942adf	-0.072347395
134	0xbd9c8d27	-0.0764411
135	0xbd00a6e9	-0.031409178
136	0x3d886012	0.06658949
137	0x3ddf118f	0.10892021
138	0x3dcc3dc5	0.09972719
139	0x3d41daaf	0.047327694
140	0x3e0f312b	0.139836
141	0x3adac5ff	0.0016691088
142	0x3e1b6e5d	0.15178819
143	0x3dd15ab1	0.10222376
144	0x3e28072d	0.16408987
145	0xbca0b1b8	-0.019615993
146	0xbd04748a	-0.032337703
147	0x3d073644	0.033010736
148	0x3c40a09f	0.011757045
149	0x3d2badf4	0.04191394
150	0xbdd3eed6	-0.10348289
151	0xbbe381af	-0.0069429497
152	0xbcd65304	-0.026162632
153	0xbe1ee42c	-0.15516728
154	0xbdd7c013	-0.10534682
155	0xbdbbefb4	-0.09176579
156	0xbdab3032	-0.08358802
157	0x3dd21670	0.10258186
158	0xbdbad4e5	-0.09122638
159	0xbe5421a1	-0.20715953
160	0xbd5b72bd	-0.05357622
161	0xbe0a2da0	-0.13493967
162	0x3e1bc9b2	0.1521366
163	0xbd4099c8	-0.047021657
164	0x3e079361	0.13239814
165	0xbcdc2d24	-0.026876993
166	0x3d07bf21	0.03314126
167	0xbe1b6221	-0.15174152
168	0xbdc0b2a8	-0.09409076
169	0x3e0086e0	0.1255145
170	0xbd9c0425	-0.07617978
171	0xbcf6c3f6	-0.030122738
172	0x3da4f0fb	0.08053776
173	0x3d908284	0.07056144
174	0xbd69eaf2	-0.057108827
175	0xbdf968c9	-0.12178189
176	0x3d1cf5df	0.03832042
177	0x3e3cc734	0.18435365
178	0x3d92a5d5	0.07160536
179	0xbd8cbac0	-0.06871557
180	0x3dc924e4	0.098214895
181	0xbe3009c5	-0.17191227
182	0x3dd5d345	0.10440687
183	0x3e3d5b67	0.18491898
184	0xbe2dc5e8	-0.16970026
185	0x3e4ad89e	0.19809195
186	0x3e1b7b95	0.15183862
187	0xbd4ab639	-0.049490187
188	0x3c31874a	0.010835478
189	0xbd1a7e83	-0.037718307
190	0x3d1d0f08	0.038344413
191	0x3db05ae7	0.08611088
192	0x3b82bdb3	0.003989899
193	0x3da6816a	0.081301525
194	0xbdadde16	-0.08489625
195	0x3cc3277f	0.023822544
196	0x3df949dd	0.121722914
197	0xbda158b0	-0.07878244
198	0x3e0a3b23	0.13499121
199	0x3e069816	0.13143954
200	0xbaf5eb16	-0.0018762078
201	0x3cf64017	0.030059857
202	0xbe26fcf3	-0.1630743
203	0x3df33a14	0.11876312
204	0x3d67ab03	0.056559574
205	0xbddc517f	-0.10757732
206	0x3dac08eb	0.084001385
207	0xbdddc980	-0.10829449
208	0xbe12fa27	-0.14353238
209	0x3e0a1c69	0.134874
210	0x3d71ff97	0.05908164
211	0x3c497015	0.012294789
212	0xbe199284	-0.14997298
213	0x3d91911c	0.071077555
214	0x3dd0569c	0.101727694
215	0xbd1cb8e6	-0.03826227
216	0x3ddbaff5	0.107269205
217	0x3dfd0f6c	0.12356457
218	0xbd6ed52c	-0.058308765
219	0xbe32aa2a	-0.17447725
220	0xbe157626	-0.14595851
221	0x3dd97512	0.106180325
222	0x3e0619fb	0.13095848
223	0xbd9a9e5d	-0.07549737
224	0xbdc86e3c	-0.097866505
225	0xbe34470a	-0.17605224
226	0x3d92f737	0.07176059
227	0xbdb701dc	-0.089359015
228	0x3dfa5a4e	0.122242555
229	0xbd3c21b8	-0.045930594
230	0x3ce66a9f	0.028127013
231	0x3c394ef7	0.011310331
232	0x3dec8cd6	0.115503
233	0x3dda71bd	0.10666225
234	0x3d7e8b87	0.062144782
235	0x3cfa5ce5	0.030561874
236	0xbdb1ff82	-0.086913124
237	0xbafbd5f9	-0.0019213549
238	0x3d0ebebf	0.03484988
239	0xbd0f4928	-0.034981877
240	0x3c3b24e5	0.011422371
241	0x3d21f10d	0.039536525
242	0xbe62aa0c	-0.2213518
243	0xbe1b2ae8	-0.15153086
244	0x3bc5d960	0.006037876
245	0xbada3a58	-0.0016649468
246	0xbd16a01a	-0.03677378
247	0xbd123ab0	-0.0357005
248	0x3db0ae43	0.08626988
249	0xbc09b8ba	-0.008405859
250	0xbb96ca99	-0.0046017882
251	0x3e5d3038	0.21600425
252	0x3dad1a5e	0.08452295
253	0xbe010cce	-0.12602541
254	0x3e24dec7	0.16100608
255	0xbe150481	-0.145525

attentions3.attn.weight f4 [1, 64]
0	0xbdb4fcc3	-0.08837273
1	0x3e238695	0.15969308
2	0xbca89d00	-0.020582676
3	0x3c922ee3	0.017844623
4	0xbcd30040	-0.025756955
5	0x3d6a14bc	0.05714868
6	0xbe28eeef	-0.16497396
7	0x3e28944e	0.16462824
8	0xbcdfd0ff	-0.027321337
9	0xbd215ce9	-0.039395247
10	0xbe28867f	-0.16457556
11	0x3e1731d0	0.14765096
12	0x3d1609bd	0.03663038
13	0x3cf94eeb	0.030433139
14	0xbe2802b2	-0.16407278
15	0xbd15d9d4	-0.03658469
16	0xbd5ba452	-0.053623505
17	0xbdeeeb9f	-0.11666035
18	0xbde5b71e	-0.112165675
19	0xbdf7ae08	-0.12093741
20	0x3d54298c	0.051797435
21	0xbe252068	-0.16125643
22	0xbdbb4cf6	-0.091455385
23	0x3d5eac00	0.05436325
24	0xbc3b766a	-0.011441806
25	0xbddd48ec	-0.10804924
26	0xbe0470c4	-0.12933642
27	0xbd54e246	-0.051973604
28	0x3c63e683	0.013909939
29	0x3e2ff1fc	0.17182153
30	0xbe2782aa	-0.16358438
31	0x3da604ab	0.08106359
32	0x3e22b903	0.15890889
33	0x3c634343	0.013871017
34	0xbdec5944	-0.115404636
35	0x3e1a9838	0.1509713
36	0xbe16b4b4	-0.1471737
37	0x3dc056b3	0.093915366
38	0x3e388377	0.180189
39	0xbe2506a8	-0.1611582
40	0x3de6cf80	0.11270046
41	0x3867048e	5.5078934e-05
42	0xbd103b1d	-0.035212625
43	0xbd19f570	-0.037587583
44	0x3d6c6e4c	0.057722375
45	0xbdd955f4	-0.106120974
46	0xbcb0abf1	-0.021566363
47	0x3cc26ba0	0.02373296
48	0x3e0954d0	0.1341126
49	0x3e37e001	0.17956544
50	0x3dd410fa	0.103548005
51	0x3da1493c	0.078752965
52	0xbe38919f	-0.180243
53	0xbd23c1b0	-0.039979637
54	0x3d91d9fc	0.07121655
55	0xbd4f56b4	-0.050619796
56	0xbe046595	-0.12929375
57	0x3e19117b	0.14948075
58	0x3ddf24d2	0.10895695
59	0x3e02f93d	0.1279039
60	0x3cf5cb76	0.030004244
61	0xbca023e4	-0.019548364
62	0x39e23423	0.00043144924
63	0x3e271d3b	0.16319744

output_layer.linear.weight f4 [1, 32]
0	0x3ddd6a05	0.10811237
1	0xbe120603	-0.14260106
2	0xbd3dabb5	-0.04630633
3	0x3d6b11c3	0.057389986
4	0xbca8489f	-0.020542441
5	0x3e210301	0.15723802
6	0x3e210bf0	0.1572721
7	0xbe1b5721	-0.15169956
8	0x3e24a425	0.16078241
9	0x3e1df488	0.15425313
10	0x3d206029	0.039154205
11	0xbc9fb6f8	-0.019496426
12	0x3e3de7bc	0.18545431
13	0xbdefee22	-0.11715342
14	0x3e4b49fa	0.19852439
15	0x3e20aa84	0.15690047
16	0x3d950821	0.07276941
17	0x3e3cf429	0.18452515
18	0x3d236bbc	0.039897665
19	0x3ce87bbf	0.02837932
20	0xbd66d3b1	-0.05635423
21	0x3dcdcdf3	0.10049047
22	0x3dd50b91	0.10402597
23	0x3e4bcc9b	0.1990227
24	0xbd32002c	-0.043457195
25	0x3c6a4b5a	0.014300192
26	0x3e00cc9f	0.12578057
27	0x3e25391a	0.16135064
28	0xbd17b363	-0.03703631
29	0xbd8fd613	-0.07023253
30	0x3da668da	0.081254676
31	0x3d8ef8b0	0.06981027

output_layer.attn.weight f4 [1, 2]
0	0x3f00a057	0.5024466
1	0x3ef9f244	0.48817647

fc1.weight f4 [1, 9]
0	0x3e92e948	0.28693604
1	0xbe5d8e3d	-0.21636291
2	0xbe888f05	-0.26671615
3	0xbe8c7de2	-0.2743979
4	0x3e2bbcd3	0.1677125
5	0x3e4378f3	0.19089107
6	0x3d8f6d3d	0.070032574
7	0xbe991b8a	-0.29903823
8	0x3e07ef76	0.13274941
