saved_weights/Grid_10_1-/108/actor.pth (torch, 265637 bytes, 12 tensors)

attentions1.linear.weight f4 [16, 1]
00000000: 33f0 4e3f 4286 6d3f af65 113f d6d4 86bc
00000010: acd1 763f 65fb e23d a9e7 4abe 6722 7e3d
00000020: 2dd3 24bf 70cb 86bd c273 1d3c d19c 1d3f
00000030: 1552 a53e ba8a 5c3f 2559 6abf 159d 273f
0.80835265 0.92782986 0.5679578 -0.01645891 0.96413684 0.11083106 -0.19814934 0.062044527
-0.6438473 -0.065817714 0.009610118 0.6156741 0.32289186 0.8614918 -0.91542274 0.65474063

attentions1.attn.weight f4 [1, 8]
00000000: ced5 493e d7dd 7c3d ee26 01be 0550 adbc
00000010: 0521 9a3e 1a02 f83d 8b79 f03d 44c0 9bbd
0.19710466 0.061735 -0.12612507 -0.02115632 0.30103317 0.12109776 0.117419325 -0.07605031

attentions2.linear.weight f4 [16, 16]
00000000: bc70 6cbe 4126 893e d07a 773d d222 77be
00000010: ccc9 733e a112 2cbe 24b8 b1bd 76ab 173e
00000020: afdf d5bd e2af 12be 8e9f aebc d396 8dbd
00000030: c27d a63d e54c 653d 11c5 2ebe e730 fcbb
00000040: 3394 f7ba 3234 a0bd 899b 743e 3f10 c33d
00000050: c0cd 323e 45bc a5bc b718 653e b0aa 98bd
00000060: f596 413e 9894 aebc 3e73 3a3d d1f0 3a3e
00000070: 4bda 97bd 9481 dd3d e59a 303e b1fb 633e
00000080: 2547 813c 46bb f1bc 504a d33d 105e 4bbc
00000090: 5a35 08be eb60 403e a4b7 85bb b631 343e
000000a0: ba50 c4bd 52bb de3d 53d9 203d 8972 3b3c
000000b0: 6355 57bc 3487 1fbd 5928 87bd 2476 873d
000000c0: 4820 c7bd e605 dbbc 323d 0bbe e587 73be
000000d0: f8fc b93d ef48 3ebe f3a4 d5bc 40a7 ff3c
000000e0: 3620 2dbe e294 50be 7371 7abd a36d f5bd
000000f0: 8a5c ad3d 7a48 82be 9488 47bd 387b 1bbe
00000100: b8af 673d 6c38 1e3e 9bc6 4cbd 13d9 dbbd
00000110: dd8d e03c 9fab 62be abc7 133d daec 0cbe
00000120: 6aef 06be f824 39be 6d59 34be bdeb 273e
00000130: 6e83 90bd 935b 0ebe f741 47be bb69 0ebd
00000140: 748d 9a3d 2ac9 803e b892 073b 62f1 0d3e
00000150: 1469 78be 2830 373d e30a 9c3a 2b08 4abe
00000160: e167 293e 5d72 76be 9925 0d3e 0852 25be
00000170: 8cbc 29be b032 f8bd bcfa 613d dfc8 4c3e
00000180: f007 163e ff55 703e 11ec 713e 7d21 1e3d
00000190: 52fc 54be 07fa 42be 61d6 7fbe ab28 853e
000001a0: db4e 5ebe 9f4a 1c3e a0de 0a3e 5c71 3fbd
000001b0: 0da2 12bb 84e1 02bc c06f d5bd 1cd8 27be
000001c0: e003 6abe c7a6 6f3e 8c8b 803d e9d4 56be
000001d0: 024f 193e b5da 593e 206b 6bbe 6116 e73d
000001e0: db0a dbbc 22fd f8bd 7f15 1dbe e1f0 763e
000001f0: 1c22 47be 4d3a 07bd 8296 f33d fb4e 693d
00000200: 0a79 4c3e ba71 f03d e1dc 62be b883 1ebc
00000210: da4c 303e 87a6 26bc 5c34 3bbe 59a5 6bbe
00000220: 3838 a7bd 2ff4 513e bf48 4cbe c92e 0f3e
00000230: 8365 4c3e 3a7f 4bbe bfd5 5ebd 11c3 33be
00000240: fd18 22be a942 30bd 3abc d8bd b870 2a3d
00000250: c4f4 343d c1ca aebc 1164 5fbe a4e6 103e
00000260: 1191 6a3e c4b4 3a3e 5c3b 21be 0ab1 15be
00000270: b5ea 763e 66da fabc abe1 55bd e93d 833e
00000280: 0c12 70be 789a 513e 2d08 0abe 3af9 48be
00000290: 6333 bcbd b469 653e 14d4 393e 3615 5b3e
000002a0: 3dbe 503e 1948 be3d 27d8 bd3d 1df5 babd
000002b0: 0bfa 5abe 60b4 2d3e e42e 0f3e f212 013e
000002c0: d81b 88bd 5a6f 8fbe cc4e 053e 5ede 46be
000002d0: c650 3ebd c3db 9d3d 690f c5bd 3327 5fbe
000002e0: ec3c 3a3d ee94 473e d124 6fbe ece7 9ebe
000002f0: ca2b df3b 74e1 1d3e 12d7 463e 7bdf 1d3e
00000300: 9aeb 85be 3c44 f03d 25de 273d ab39 9f3c
00000310: efcf 9e3c 3704 7abe c932 803e 7038 7fbe
00000320: be9e 02be a4bf 9abb 7c98 ff3d 671f aebc
00000330: 6ac8 f13c ee93 23bd 692c 873d f9c5 a6bd
00000340: d4e3 1dbe 6911 8f3d 7f7d ac3c e681 40be
00000350: 6af2 a1bd d4f3 c53d e550 b6bd 6a49 9c3d
00000360: 214e 673e ca95 763e 6b06 503e 2636 eebb
00000370: 2b0b 1cbe cf99 a9bd d042 b73d 9c3a 55be
00000380: afda afbd 512c 80be 3c1b 5c3e 08ae 943d
00000390: 0a76 d7bd d774 e1bd 1bf1 e33b 3f06 a43d
000003a0: 4054 cd3c ee11 393e 8b3b 51be b8a4 5bbe
000003b0: 0868 8ebe 0045 89be 5731 24be 3b0b f9bd
000003c0: f2ea 643e 6d1c 8c3c fd58 9abd 98b2 0b3c
000003d0: e694 86bd d62e db3b 5e3e 7fbe 4508 adbd
000003e0: 718c 163e e434 503d 1800 f33d b3fc 61be
000003f0: 6169 3f3e b1ff b9bc 9afd 153d e969 173e
-0.2308988 0.26786998 0.060419858 -0.24134377 0.23807448 -0.16803981 -0.086777 0.14811501
-0.10443055 -0.14324906 -0.021316316 -0.06913533 0.08129455 0.055981535 -0.17067362 -0.0076962593
-0.0018888771 -0.078224555 0.23887457 0.09524583 0.174613 -0.020231375 0.22372709 -0.07454431
0.18905242 -0.02131109 0.04552006 0.18255927 -0.07414683 0.10815731 0.17246588 0.22263981
0.015780995 -0.029508244 0.10316908 -0.012412563 -0.13301602 0.18786971 -0.0040807296 0.17597088
-0.0958571 0.10875572 0.039269757 0.0114408815 -0.013142916 -0.0389473 -0.065994926 0.066143304
-0.09722954 -0.026736211 -0.13597563 -0.23782308 0.09081453 -0.1858251 -0.02607963 0.03120768
-0.16906819 -0.20369294 -0.06114335 -0.11983802 0.08464916 -0.2544592 -0.048714235 -0.15183723
0.056564063 0.1545121 -0.049994092 -0.10734763 0.027411396 -0.22135781 0.03607909 -0.13762227
-0.13177267 -0.18080509 -0.17612238 0.16398521 -0.07056318 -0.1390212 -0.19458757 -0.0347688
0.07546511 0.25153476 0.0020686816 0.13861611 -0.24258834 0.04472366 0.00119051 -0.19729678
0.16543533 -0.24067064 0.13783874 -0.16144574 -0.16575831 -0.12119043 0.05517076 0.19998501
0.14651465 0.23470305 0.23625208 0.038606156 -0.20799378 -0.1904069 -0.24984123 0.2600759
-0.21709768 0.1526284 0.13561487 -0.046738967 -0.0022374422 -0.007988337 -0.10421705 -0.16391033
-0.2285304 0.23403464 0.062766165 -0.20979656 0.14971545 0.21274836 -0.22990084 0.11283565
-0.026738575 -0.12157656 -0.15340231 0.24115326 -0.19446605 -0.033014584 0.118939415 0.056960087
0.19968048 0.117404416 -0.22154571 -0.009674959 0.17216817 -0.010171539 -0.18281692 -0.23012294
-0.0816502 0.20503305 -0.19949625 0.13982691 0.19960599 -0.19872752 -0.054403063 -0.1755488
-0.15829845 -0.043032322 -0.10582776 0.041611403 0.04417874 -0.021336915 -0.21815516 0.14150482
0.22906901 0.18233019 -0.157453 -0.14618316 0.24112971 -0.030621719 -0.052217167 0.2563317
-0.23444384 0.20469081 -0.13479681 -0.19626322 -0.09189489 0.22403604 0.18147308 0.2139481
0.2038507 0.09291095 0.092697434 -0.09128783 -0.21384446 0.16963339 0.13982731 0.12604883
-0.06645936 -0.28014642 0.1301834 -0.19420764 -0.04646375 0.07707932 -0.0962208 -0.21792297
0.045468256 0.19490406 -0.23353888 -0.31036317 0.00681064 0.15418035 0.1941798 0.15417282
-0.26156312 0.11731765 0.040983338 0.019436678 0.01938626 -0.2441567 0.25038746 -0.24923873
-0.12755868 -0.0047225524 0.12480256 -0.021255208 0.02951451 -0.039936 0.066002674 -0.08143229
-0.15418941 0.069857426 0.021055935 -0.18799552 -0.07907565 0.09665647 -0.08902148 0.0763119
0.22588398 0.24080577 0.20314948 -0.0072696386 -0.15238635 -0.0828129 0.0894829 -0.20823139
-0.085866325 -0.2503381 0.21494764 0.07259756 -0.10520561 -0.110086136 0.0069562322 0.08009004
0.025064588 0.18073246 -0.2043287 -0.21449554 -0.27813745 -0.26810455 -0.16034447 -0.12160345
0.2235525 0.017103398 -0.075365044 0.008526467 -0.06571369 0.006688933 -0.24926135 -0.08448843
0.14702012 0.05083169 0.11865252 -0.22069053 0.18692543 -0.022704931 0.036618806 0.14786495

attentions2.attn.weight f4 [1, 8]
00000000: bcdf 33be 65ac 2a3e 8a6e 85be 79af 853e
00000010: 8297 dd3d 1f0e 65be 0aa2 5c3e 25d3 1b3d
-0.17565817 0.16667326 -0.26060897 0.26110438 0.108199134 -0.22368668 0.21546188 0.03804316

attentions3.linear.weight f4 [16, 16]
00000000: 9a9d 37be 5384 e43d f1be d2bd f432 d03d
00000010: 2c66 743c dd0c b8bd 4a27 6fbe cde2 84bc
00000020: 3d6d 85be b6f2 b23c 977c 383e 8ccf 173d
00000030: a44b eabd 6cfd 043e ee72 f63d 57ad ba3c
00000040: 1180 103d 67a7 67be 9c2b 243e 9ac5 74be
00000050: d4e1 433d 5298 6bbe a892 533e 8be6 7e3d
00000060: d938 cebd 40ef 443e 151a 1dbc 6eba a0bc
00000070: b281 1fbe ea58 f73c 38a2 1abe 26c3 b03d
00000080: 7fa0 143e 8a86 5dbe 1e5d 3b3e eff1 17be
00000090: 7e2e 7cbe 22d7 bd3c fa81 043e cbbb c9bc
000000a0: 37c4 36be 72e8 0b3d 78bb 183e 2fbd 39be
000000b0: 684c 043e 76f6 bbbc 3728 ab3d 20c8 d9bd
000000c0: ab3b 2cbe e032 dcbc ca03 97bc 062c 2fbe
000000d0: d37d 623e ce8f 1ebd a3e7 473e c166 c8bd
000000e0: 6483 953c 72b6 4e3e fa6a 1b3e bc3a 493e
000000f0: 30b5 20be ca64 08bd 077b 14be 6e43 2ebe
00000100: 0d09 8abe f42f b13d 05a6 e33d c77d 09be
00000110: 6bbb 29be cacb 6cbd 274d 7dbe d19c 3d3d
00000120: 6127 58be cef1 2a3d b299 7a3e 4870 fc3d
00000130: d8a7 a2bd f347 813e 0cd5 6c3e 211e e4bd
00000140: 2899 fa3a ddc8 783e 2b5e dfbd 4f9b 81be
00000150: 554c 8f3d 1c01 d83c 0cfd 2bbe d6a1 14bd
00000160: 8051 0a3e 5359 08be 0e6e 1f3e f795 2cbe
00000170: 7ad2 80bd bcbb b8bd 04aa 5e3e 2131 41be
00000180: 7180 923d a214 49be 1432 45be 2e05 1bbe
00000190: aa14 6cbd d111 c83d dd16 d03d c1bc 5a3d
000001a0: bcd0 21bc be63 013b 91c4 bbbd a381 19be
000001b0: 1d7c 20be 0613 e53d 785f 573e 2a2d 3cbe
000001c0: 5770 38ba 2edc 85bc b632 f73d 577b 2e3e
000001d0: 7789 07be 6aa0 ee3d 5750 74be d82a 12be
000001e0: 8db5 6ebe dbcc 10be 4b86 c83d 61ad e13d
000001f0: 64fa a33d 76a8 15bd 9e9e e03d 77be c3bd
00000200: 0e9e c33d 1c62 943d f1cd 003e fe77 0f3d
00000210: 33dc 3fbe b322 b93c c77b 5e3e 3953 81be
00000220: 5215 023c aff4 3a3e caed b43d 772a 193e
00000230: 4896 363e c14f e23d 5bdc 693d c892 27be
00000240: 7dd8 d33d 413b 6c3d d29c 1b3e 26da 653e
00000250: 75f4 553e e0d7 e0bd 9f9c 2fbe b833 09be
00000260: 1630 893d ac1d 2dbe 5b1d 913e a5da 4cbe
00000270: 445a 553e e3ec 2ebe 47bb 803d 0015 183e
00000280: 0a7c 49be 7199 33be b098 08bc da6d afbd
00000290: d48e 33bd d070 5abe 7bf8 8dbe d860 1cbe
000002a0: cc67 b3bd ccbb babd bc5b 1bbe cf4d 613e
000002b0: 959b 7b3e 1a09 2c3e 768e 803e fe30 5bbe
000002c0: bc70 303e 43b4 003e b2ae 77be 0806 563d
000002d0: 8fc4 52bd f757 293e 6862 193e 2e6e 1dbe
000002e0: ac16 e03d a63f 2fbe ca48 603e 208b 413e
000002f0: 4371 ad3d 6d46 6d3e 28a3 213e 4acb 41bd
00000300: 4762 5e3e 7471 833e 3cb2 9ebb 790b 1f3e
00000310: 483e 853d 5c82 b23a 7b78 43bd 27f7 823d
00000320: 0f14 17be b601 87be 6b29 f53d d0f4 ec3d
00000330: 5fee e13c c943 d23c 7af5 37be 05fd 033d
00000340: 8d49 4bbe 2eed 12be 992f 86bd 7d39 7b3e
00000350: ed5d 543d c3a2 cebd 7e20 373c 1140 13be
00000360: 4194 fb3d 4031 193d e3f9 303b d11c f5bd
00000370: 89af 1e3e 5edb 063e fbc2 51bc ae0b 0e3d
00000380: 68b7 1ebe be22 583e 3bb6 473e a61f 223e
00000390: d1fa 7e3e be8c 79be 4dc0 d0bd 49ab cbbd
000003a0: 34c2 6b3e 1b9d 58be 7564 cd3d 7c9f 283e
000003b0: 0795 5fbe bdc3 f5bd b98d 00be 327d ad3d
000003c0: 2de4 ddbd d486 543e 0472 483d af70 5f3e
000003d0: 7e18 85be 91e6 febd 3f61 26be e0ad fc3d
000003e0: cc02 fdbc dd6a 593e 5a88 603d d937 353e
000003f0: 8ef8 b8bd 69c7 02bd b097 673e 3d11 633e
-0.17931214 0.11158051 -0.102903254 0.101659685 0.014916938 -0.089868285 -0.23354831 -0.016221428
-0.26059905 0.02184425 0.18016277 0.037063166 -0.114402086 0.12987298 0.1203364 0.022787733
0.035278384 -0.22622453 0.1603226 -0.23903504 0.04782279 -0.23007324 0.20661414 0.06223158
-0.100694366 0.19231892 -0.009588738 -0.019620147 -0.15576819 0.030193765 -0.15100944 0.086309716
0.1451435 -0.21633354 0.1829724 -0.14838384 -0.2462711 0.023173872 0.12940207 -0.02462568
-0.17848288 0.034157224 0.14915264 -0.18138574 0.12919772 -0.02294467 0.0835728 -0.10633874
-0.16819637 -0.026879728 -0.018434424 -0.17106637 0.2211831 -0.03871136 0.19521956 -0.09785224
0.018251128 0.20186785 0.15177527 0.19651312 -0.15694118 -0.033299245 -0.14500056 -0.1701791
-0.2696003 0.086517245 0.1111565 -0.13426886 -0.165754 -0.057811536 -0.24736463 0.04629213
-0.21108772 0.04173451 0.24472693 0.123261034 -0.0794217 0.25250205 0.23128146 -0.11138559
0.001911913 0.24295373 -0.10906633 -0.25313804 0.06996981 0.026367716 -0.16795748 -0.03628715
0.13507652 -0.13315324 0.15569326 -0.16854082 -0.06290145 -0.090201825 0.21744543 -0.18866397
0.071534045 -0.19636777 -0.19257385 -0.15138695 -0.057636894 0.09769023 0.10160611 0.053402666
-0.009876426 0.001974329 -0.091683514 -0.14990859 -0.15672345 0.11185269 0.21032512 -0.18376604
-0.0007035783 -0.016340341 0.12070219 0.17039238 -0.13236032 0.1165169 -0.23858772 -0.14274156
-0.23311444 -0.14140646 0.09791239 0.110193975 0.080067426 -0.03653761 0.10967754 -0.09557813
0.09551631 0.072452754 0.1257856 0.035026543 -0.18736343 0.022599554 0.21726905 -0.25258806
0.0079396535 0.18257402 0.08834417 0.14957605 0.17830765 0.11050368 0.057094913 -0.16364586
0.10344026 0.057673696 0.15196541 0.22446498 0.20894034 -0.10978675 -0.1714959 -0.13398635
0.06698625 -0.1690585 0.2834271 -0.20005281 0.20835215 -0.17082553 0.0628572 0.14851761
-0.19676223 -0.17539002 -0.008337185 -0.085658744 -0.043837383 -0.21332097 -0.27728638 -0.15271318
-0.08760032 -0.09117851 -0.15171713 0.22002338 0.24571069 0.16800347 0.2510869 -0.21405408
0.17230505 0.12568764 -0.24187735 0.052251846 -0.051456984 0.16537462 0.14978945 -0.15374061
0.10941824 -0.17114124 0.21902767 0.18900728 0.084688686 0.23171397 0.15784895 -0.047313012
0.21717177 0.25672495 -0.0048430245 0.1553172 0.0650602 0.0013619172 -0.04772232 0.06394797
-0.14753745 -0.26368493 0.119707905 0.11570132 0.027579485 0.025667088 -0.17964736 0.03222372
-0.19852276 -0.1434829 -0.06552047 0.24533649 0.051847387 -0.10089638 0.01117718 -0.14379908
0.122841366 0.037400484 0.0027004413 -0.11968387 0.15496649 0.1316962 -0.012802835 0.034679107
-0.15499651 0.21107003 0.19503109 0.15832385 0.24900366 -0.24370095 -0.101929285 -0.099447794
0.23023301 -0.21153681 0.10028926 0.16467088 -0.21834193 -0.12000225 -0.12554063 0.08471145
-0.10834537 0.20754558 0.04893686 0.21820329 -0.2599525 -0.12446321 -0.16248034 0.123378515
-0.030885123 0.21232171 0.054817535 0.17697085 -0.09031783 -0.031928454 0.22616458 0.22174545

attentions3.attn.weight f4 [1, 8]
00000000: 5efd b1bc 2907 903e 036c 29be e05c 6fbe
00000010: cd5c ebbd 875f 963e e5e7 febc 4adb 73be
-0.02172726 0.28130463 -0.1654511 -0.23375273 -0.1149231 0.29369757 -0.031116435 -0.23814121

output_layer.linear.weight f4 [5, 16]
00000000: 55e7 6b3e cf1c 4fbe 5774 8a3d 2db2 10bd
00000010: cd5a 7c3e b8fe 49be 507e 363b 15c0 28be
00000020: fa47 2bbe b1e7 973d 52a3 243e 9d8b 1e3e
00000030: 11a4 8b3d 6af2 473e fa92 b3bd 91ac 6d3e
00000040: da46 4cbd 5298 833d fdab ce3d 60a2 263e
00000050: 6e2f 39be 00a3 87bd ad28 b7bd b882 77be
00000060: 9794 38bc ed58 b23d 06d0 813d 675c 6ebd
00000070: c43a 32bd 6e91 79be 092a 0f3e 2683 a73c
00000080: ff47 973d a860 d43d c6ba 10bd 0e35 c53d
00000090: 1d40 5bbd f2cf e7bd 46d0 3bbe 5eb5 81be
000000a0: 01ea 383e ba48 ab3d 171d d93d 583d 6a3e
000000b0: 6c81 bb3d 1ea3 6dbe 4701 483e 82bc e53d
000000c0: c703 933d 2677 113e c625 753e f45f 533e
000000d0: 70d9 a13d d764 833e e640 acbd 580f a23d
000000e0: d87b 3d3e 6b3b 9fbc df89 253e abe0 3b3c
000000f0: 43d4 073e eadb 7f3e 79dd 51be 5a9c fcbc
00000100: d393 833d 636a 9bbd 5e11 59be ad1a 2b3b
00000110: e62b 96bd f281 1bbe 8eb4 c0bd 63d4 883d
00000120: 7aa3 603e 7f15 963d 8cd6 813e eac8 77bd
00000130: 6b30 2dbe 7baf 1bbe 7b5e 09bc abd3 333e
0.23037465 -0.20225833 0.06760471 -0.03532617 0.24644013 -0.19726074 0.0027846284 -0.16479523
-0.16726676 0.074172385 0.16077927 0.15482946 0.068184026 0.19526067 -0.08768268 0.2321036
-0.049872257 0.06425537 0.10091398 0.16272879 -0.18084499 -0.06622887 -0.08943305 -0.24170959
-0.011265895 0.087083675 0.063385054 -0.05819359 -0.043513075 -0.24371883 0.13980879 0.020448279
0.07386779 0.10369998 -0.03533437 0.0962926 -0.05352794 -0.11318959 -0.18341169 -0.25333685
0.18058015 0.08363481 0.106012516 0.22874963 0.09155545 -0.23206756 0.19531737 0.11217596
0.07178455 0.14205608 0.2394019 0.20642072 0.07902801 0.25662872 -0.08410816 0.07913083
0.18504274 -0.019437512 0.16165875 0.011467139 0.13264565 0.24986234 -0.20494641 -0.030836273
0.064246796 -0.07588651 -0.21198031 0.002610843 -0.07332592 -0.15186289 -0.09409438 0.066811346
0.21937361 0.07328319 0.25359 -0.06049434 -0.16913001 -0.15203659 -0.008384342 0.17561214

output_layer.attn.weight f4 [1, 10]
00000000: ab4e f73d 5ca4 93bd f590 923e 6366 88be
00000010: 7313 91be 6fd9 f9bd 2c4a 9abe b614 d13c
00000020: 7036 5abe e10b 12be
0.120755516 -0.072090834 0.28626218 -0.26640615 -0.2833515 -0.12199675 -0.30134714 0.025522571
-0.21309829 -0.14262344

fc1.weight f4 [128, 500]
00000000: 2d6f 203a 6c40 14bd a42d e5bc a128 e23c
00000010: 78e3 93bb 4aba 7e3d 098d 91ba 5276 f43c
00000020: 9012 ce3c 645c d43c 7f08 753d 311e 1dbd
00000030: f104 eb3c 825a 373d 34c4 37bc a30d 6c3d
00000040: 8a78 5b3b ad31 683b 1bcb 4c3d 3e8e 133d
00000050: 3b11 a1bc 1e91 c3bc dafb 1abd 8096 e0ba
00000060: 97f0 34bd 8bf2 2a3d 22b6 f83c a3f4 92bc
00000070: 0059 11ba 8b1e 0a3d 5298 043b da9e 2abd
00000080: 5a4f 9dbc 746b 2a3d 94b6 65bb 1db6 d53c
00000090: f76c 0b3b 262e b0bc 455b 243d de19 e13c
000000a0: 971a ec3c b938 903c a594 f33b 5d01 3b3d
000000b0: 0015 69bc ae3d 3a3c ab18 623b ceec babb
000000c0: 9dc6 cd3b 53e8 ef3c 05be bebb c9db 18bd
000000d0: 5e27 ff3c c6a5 52bc 9566 433d bd4c 273d
000000e0: 5466 d5bb 1514 513d a18b 6d3d 9bb6 f63b
000000f0: 4006 ec3c 9052 7dbd 28c6 90bc 2909 1e3d
00000100: 2f29 6bba d2ea 333d 5730 0a3c 73ae 703d
00000110: 1acb 373c b3de 49bc 5fdf 5f3d a668 6cbd
00000120: 54f0 133d addd e33c 8638 493c 5f07 c63c
00000130: 380a 9a3c 6da8 7ebc c3dd 023d 6bb1 123d
00000140: 6d2b 263d 99a1 3dbd 5bcb a43c ced2 383d
00000150: 6139 8b3c 930a 1dbb 3d05 41bc c617 b7bc
00000160: 8b1c 873d 876c 80bb f269 773c ea41 2c3c
00000170: e22f 9bbc 3510 6a3d 1d20 47bc 705d abbc
00000180: 7157 ddbc d283 0c3d 9a88 273c 70b4 4bbb
00000190: 596d 033c f752 1dbc 1729 1b3b f24f a3bc
000001a0: 8179 1e3d a5fe d63c 2317 11bd 0714 11bc
000001b0: 67fb 423b e6e8 d439 e38e 573d 2039 44bd
000001c0: 740a 8cbb 3495 e73c 5df5 b9bc a945 003c
000001d0: e5f7 12bd 14da 80bc c07b 713d bc56 92bb
000001e0: 96c8 123d 6bed b6bc 7051 18bc ce79 84bc
000001f0: 238b 7d3d e50a 243c be50 093c 3fb8 703d
00000200: 5ba0 8d3b 540e 7c3d d6f3 733d 47e4 b93c
00000210: 95b3 603d fccd ba3c b97d 463d 2d1d 35bc
00000220: 6613 12bd d755 613d d6c8 7b3c b433 a5bc
00000230: d8d4 5b3d c8c3 55bd 43df b7bc e138 613d
00000240: 09ff 1f3d 6fa9 023d 4e8f 42bd 3db3 ad3a
00000250: 12d5 673d d662 e43c e75f 003d 83bb d7bb
00000260: d4de 3e3c 14f8 2abc ad4f 423d 1a10 9dbc
00000270: f606 8d3b 8615 093b 541a aabb 6925 ae3b
00000280: 5c73 41bc 7fa8 12bd 2ffe 6f3c 845b 1b3c
00000290: d81f 1f3c 09f2 3b3c d623 c23c 8fe6 1cbc
000002a0: a07e bb3c 5847 f03b 21f7 853d a44e 61bd
000002b0: c821 233d 0d13 543d 4282 553d 7c63 a13c
000002c0: c7d2 8bbc 2263 4b3d 0997 363c fc68 2f3d
000002d0: 0526 073c ec75 a93b e478 383c 2193 7a3d
000002e0: 0c0f 93bc 8a2a 6d3d 25c1 b93c 6f17 373d
000002f0: 3010 ebba d372 88bb 4b71 383d 98ee 68bd
00000300: 4967 5bbc cf33 8f3c 9607 25bc fa33 423d
00000310: a217 94bc c196 6e3c 3c5e 1d3b bc22 2d3d
00000320: ae05 8ebb a17d 9c3a 8b0f 01bd 2279 dc3c
00000330: f901 473d e22b 983c da2b 09bd a467 293d
00000340: e033 a5bc 759e 983b 150c b33c 14ef 3ebd
00000350: 73f9 99bc 620d 9abc 5b4e 67bc 9aa4 293d
00000360: 1126 aa3c b0ff 8abb 237e 2a3d 1997 8a3c
00000370: f1d4 213d f53c 13bd 6df9 31bc 7ff9 2c3d
00000380: 629f 30bc 2938 95bb 22df bcbb 23fc 88bb
00000390: ac1d 7c3d 97de 92bc e608 d03c bbca 033c
000003a0: fdaa eaba 613c 97bc da5f 5d3d caa2 6c3d
000003b0: 7cc5 05bd aa9b 41ba 0d75 0bbc 7b40 b23c
000003c0: 055e 593d 6427 4bbd a324 273b 0238 703c
000003d0: bf4f 3e3d 3492 d53b 83d4 8dbb 6888 393d
000003e0: 3b91 a7bc 472c 023d 1160 053c 3284 4ebd
000003f0: c296 463d fb15 0dbc e834 853b 77ee 793a
0.0006120082 -0.03619425 -0.027975865 0.027607264 -0.0045132004 0.062189378 -0.0011104654 0.029841576
0.025155336 0.025922962 0.059822556 -0.03835887 0.02868888 0.04476405 -0.011216212 0.057630192
0.0033488595 0.003543 0.049998384 0.036024325 -0.019661536 -0.023872908 -0.03783784 -0.0017134696
-0.044174757 0.041735213 0.030360285 -0.017938918 -0.0005544573 0.033720534 0.0020232392 -0.0416554
-0.019202877 0.04160638 -0.0035051452 0.026087815 0.0021274665 -0.02150638 0.040126104 0.027478155
0.028821273 0.017605172 0.0074334913 0.045655597 -0.014226198 0.011367245 0.0034499567 -0.005704499
0.00627978 0.029285586 -0.005820992 -0.03731898 0.031146701 -0.012856906 0.04770525 0.040844668
-0.0065124426 0.051044542 0.05799449 0.0075290925 0.028811574 -0.061846316 -0.017672613 0.038582955
-0.00089706754 0.043925114 0.008434377 0.058760118 0.011217857 -0.012321162 0.054656383 -0.057716988
0.036117867 0.027815664 0.012281543 0.024173437 0.0188037 -0.0155430855 0.03194977 0.03581373
0.040568758 -0.04629669 0.020116499 0.045122914 0.016995134 -0.0023962602 -0.011781034 -0.022350203
0.06597241 -0.0039191875 0.015100943 0.010513762 -0.01894373 0.057144362 -0.0121536525 -0.020918578
-0.027019234 0.0343054 0.010225439 -0.003108289 0.008021676 -0.0096023 0.0023675615 -0.019935582
0.038690094 0.02624447 -0.035422456 -0.008854873 0.0029751898 0.00040609314 0.0526265 -0.04790604
-0.004273707 0.028269388 -0.022700006 0.007829108 -0.035880942 -0.015728988 0.058955908 -0.004465906
0.035835825 -0.022330007 -0.00929676 -0.016171362 0.06190027 0.010012363 0.008381067 0.05876946
0.0043220944 0.061537102 0.059558712 0.022691859 0.054858763 0.0228033 0.048459742 -0.011054319
-0.03566303 0.055013504 0.015367707 -0.020166256 0.05366978 -0.052188665 -0.022445327 0.054985885
0.03906158 0.031899866 -0.047499947 0.001325227 0.056599684 0.02787916 0.03134146 -0.0065836324
0.011649806 -0.010435123 0.047439266 -0.019172717 0.0043038083 0.002091737 -0.005191127 0.005314518
-0.011807289 -0.03580522 0.014648004 0.009482268 0.009712182 0.01147128 0.023698729 -0.009576454
0.022887528 0.0073327236 0.06541277 -0.05500664 0.03982714 0.05177598 0.052126177 0.019700758
-0.01706828 0.049655087 0.011144408 0.04282473 0.008248811 0.005171528 0.011259291 0.06117547
-0.01795151 0.057901897 0.022675106 0.044700082 -0.0017933901 -0.0041640787 0.04502992 -0.056868166
-0.013391324 0.017480759 -0.010072609 0.04741285 -0.018077675 0.01456231 0.0024012467 0.042269453
-0.004334173 0.0011939296 -0.031508964 0.02691323 0.048585866 0.018575612 -0.033489086 0.041358605
-0.020166337 0.0046575614 0.021856347 -0.04661472 -0.018795704 -0.01880521 -0.0141178025 0.041416742
0.020770105 -0.004241906 0.0416242 0.016917752 0.039509717 -0.035946805 -0.01086269 0.042230126
-0.010780187 -0.004553814 -0.005763904 -0.0041804477 0.061551735 -0.017928405 0.025394868 0.00804394
-0.0017903742 -0.018461408 0.05404649 0.057772435 -0.03265904 -0.00073855615 -0.008511794 0.021759262
0.05306818 -0.049598113 0.0025504015 0.014661791 0.04646277 0.006517673 -0.004328312 0.045296103
-0.020454993 0.031780507 0.00814058 -0.05041904 0.048483618 -0.008611198 0.004065145 0.000953413

fc1.bias f4 [128]
00000000: 5359 40bd f17e 46bb 78e5 813d 69b6 33bd
00000010: 182f 06bc d130 12bd 8150 833c 5520 5c3d
00000020: 6867 643d 44ff 1e3d 6ba0 1d3d 55fe 62bd
00000030: 55c7 55bd 388a abbd afb6 28bd d3d4 32bd
00000040: aa30 8cbd d51d 50bd 4c8f b23b bb5f 89bd
00000050: 9a3a 81bd 8593 58bd 1711 7fbd 8ef2 30bd
00000060: 49e4 b13c aabe 993d 5c60 60bc 98e3 f83c
00000070: b18b a53d 65c6 cebc d791 7dbd ce58 69bd
00000080: 1400 a7bb 18ce d53c f0bb 59bd b4bf f4bc
00000090: 8915 043e d595 18bd 9d12 d63c 17fa 6ebd
000000a0: 53b0 f83c 9ead 86bc ed40 27bd 0834 00bc
000000b0: b708 f6bc 9a8e c7bc 0f42 ab3c 3fce c3bc
000000c0: bc31 a03b acf0 24bd 55c7 a03c 58b3 083d
000000d0: 18a6 903d 2cb0 ea3c cd0b cb3b 995f 203d
000000e0: 4632 963c 1d3a 74bd aa7f 4dbd f682 08bd
000000f0: bb58 e5bc 0b6b ae3c 059f 773d 1a85 5abd
00000100: 6c90 37bd 0ed8 203d 4b48 3cbc 7f8b 403c
00000110: 1afd 69bd 0d30 93bd 5f28 5a3b 9691 9f3d
00000120: 2c74 b4bc 88d0 eabc dbe1 0e3c b146 6d3c
00000130: 67ef 26bc 32c0 9f3d 1702 bd3d 203c b3bc
00000140: 8e5b 1cbd ff59 13bd b7fa ffbc 5473 16bd
00000150: 03c4 5f3c 748b 1f3d cda8 74bc 8abe 07bd
00000160: 108f 55bd 50d8 3ebd fc14 013d 4883 303d
00000170: 6ffa 63bd b0d3 933c b568 e6bc afaf f7bb
00000180: 7e44 e3ba 1638 01bd 3736 903d 8583 debc
00000190: 7e41 d23b f7d3 943d 0af2 84bd 4688 933d
000001a0: ad00 32bd e68d d1b9 f7d8 35bd b806 27bd
000001b0: 25b8 63bd 2e62 b33d 2b1a 9cbc 2836 cbbc
000001c0: acc3 893a 4f4f ca3b 059c 4cbc c383 d53c
000001d0: efa7 233d fa02 2ebd 9241 083d 9b1d cbbc
000001e0: 25c8 d83c 593d 3f3d 1c8e 53bd 6b54 f93c
000001f0: 2d04 2b3c faf5 6fbd 0484 94bc 3a68 bd3c
-0.046960186 -0.0030288065 0.06342596 -0.04387513 -0.008189939 -0.035691086 0.016029598 0.05374177
0.05576268 0.03881766 0.038483065 -0.05541833 -0.05219205 -0.083759725 -0.041189846 -0.043659996
-0.068452194 -0.0508097 0.005449211 -0.06707712 -0.063100055 -0.05287506 -0.062272158 -0.04320007
0.0217153 0.075070694 -0.013694849 0.030381963 0.08083285 -0.025241086 -0.06190666 -0.056969456
-0.005096445 0.02609925 -0.053157747 -0.029876567 0.1289884 -0.037252266 0.026131922 -0.058343973
0.030357515 -0.016440209 -0.040833402 -0.007824905 -0.030033452 -0.02435999 0.020905523 -0.023902057
0.0048887413 -0.040268585 0.019626299 0.03337416 0.0706293 0.028648458 0.006196475 0.03915367
0.01833452 -0.059625734 -0.050170578 -0.03332802 -0.027996412 0.021291276 0.060454387 -0.05334959
-0.044815466 0.039268546 -0.011491845 0.011752008 -0.057126142 -0.07186899 0.0033288223 0.0779144
-0.022028051 -0.028663889 0.00872084 0.014482186 -0.010188914 0.0780033 0.09228914 -0.021879256
-0.03817325 -0.0359745 -0.03124748 -0.03673108 0.013657573 0.038951352 -0.014932823 -0.033140697
-0.05213839 -0.04659301 0.031514153 0.04309395 -0.055658754 0.018045276 -0.0281261 -0.007558785
-0.0017339138 -0.03154763 0.07041591 -0.027162323 0.0064164987 0.072669916 -0.06491478 0.072037265
-0.043457676 -0.0003996931 -0.044396367 -0.040777892 -0.055595536 0.08758961 -0.019055447 -0.024806097
0.0010510585 0.006174005 -0.01248837 0.026063805 0.039955076 -0.042483307 0.033265658 -0.02479439
0.026462624 0.046689365 -0.051649198 0.030435761 0.010438007 -0.05858419 -0.018129356 0.023120988

fc2.weight f4 [5, 128]
00000000: 2a2f 3f3d 52df b3bc 0bb3 953d 75d8 9a3d
00000010: f651 2fbd 6824 e33c 9d24 08bd 87a7 d53d
00000020: 05e7 973d b4c7 88bd fce5 ba3d ad5e 993c
00000030: d7fb 8ebc 212c 213d e3d9 963d 5375 043d
00000040: 036a 5e3c 0691 183d 1be6 933d 95a2 06bd
00000050: 964b 98bd af93 01bd b484 c2bd fcbf c5bd
00000060: 610e d5bb 2d71 363d 77a8 04be 20cf b73d
00000070: 6be8 373c 2259 a93b 53f1 efbc 7574 04bd
00000080: eb04 89bd cd64 ac3b bb4f 01b9 af5a 863d
00000090: 12c5 9f3d 1b7f 5ebd 0c34 8e3d 04f0 07be
000000a0: a85e 73bd ee1b 06bd be0d cfbd b553 a0bc
000000b0: 42fe d9bc c59e 113e 4ee6 01bd d218 06be
000000c0: 81b9 84bc 71dd 253e 7ea7 c1bd bf55 6b3d
000000d0: d196 c53d 06d1 903d c0bd b43c 0c30 bfbb
000000e0: e366 cc3d 1089 18be 05eb 343c 7f61 873d
000000f0: 24d3 6dbd bb90 aabd 90b5 d23c 5eaa 0abc
00000100: d798 1a3d 6815 32be 1121 bdbd a559 bc3d
00000110: 8310 3c3d 59e5 94bd 0231 66bc 20fb 673b
00000120: de89 dabd 189f 163d 4766 b8bd f497 0a3d
00000130: 7bc9 07bd 9391 bf3d ae02 c03d e3e9 5cbd
00000140: 244c 9ebc 1693 d9bc 0be1 2dbd 27c8 733d
00000150: 3556 07bd 875c de3d 590f 67bd bfdc 5abc
00000160: 584c 883d c06a 1bbd d050 11be 273c 383d
00000170: 010e e1bd 1530 9b3c 491c 81bd d476 b5bd
00000180: 46a8 6f3d ba7e 20bd f706 b03d dca6 c8bc
00000190: 2567 e23d a7ec 9c3d b10e 88bd 9e4e b93c
000001a0: 3267 54bd f5e2 0a3c 90ce d83b f69c 95bc
000001b0: ef31 54bd f397 b13d b180 243d 3c28 55bd
000001c0: d198 a53d c6d3 3d3d 1ec2 a03d 4aad 9c3d
000001d0: e6e8 47be 67bc 2bbd d0bf 05be fcb7 0fbe
000001e0: 6e54 7e3d a9fb 15be 86cd 293d 4263 a33d
000001f0: e175 923d 5c02 74bd 496a 82bc 4d2c 89bc
00000200: f8c2 9bbc bb6f 81bd 20de 8c3d a0e7 2e3c
00000210: 9567 483d d2b9 c8bd 9e89 c3bd cc6b 9abc
00000220: 6de7 923a 443e ef3c e6dd 8c3d 05be f6b9
00000230: 6c8a 68bd 2007 e6bd 04cf 9f3c af3b e03c
00000240: 559c 353d 053c afbd c042 2ebd c373 633d
00000250: 404c 873c 358d 6fbd 4ec0 3d3e 15a6 06bd
00000260: c76d 853d 8ade cf3d f093 fd3d 390e e2bd
00000270: eec0 813d bb95 0d3d 189f f2bb 33c1 6cbd
00000280: a44d 88bc b735 61bd 1acd 89bd 0fce 48bc
00000290: a4ac b93d 5d8a 50bd 7648 2b3c a82e 1e3e
000002a0: f140 d03d f290 bd3d 1343 e0bb d3d5 b3bc
000002b0: 70fa c53c a445 5bbd a53c ccbd b947 e13d
000002c0: dd46 78bd 2049 9fbc 0453 71bd 0372 df3c
000002d0: 8418 523d 7be9 27bd 5dc9 143e 1618 213d
000002e0: e0c5 b1bd 9398 bf3d 0342 9cbd 1e31 813b
000002f0: c2af 1f3d 598f f43d f06f be3d bf6c 94bd
00000300: fea1 01bd b73e e53c 8c29 90bd a5bf 5fbd
00000310: 803c 61bd 9c48 4ebd 102a b9bc b061 c83d
00000320: d6e2 343d 2647 b73c 53ae ed3d 4c6d 9dbd
00000330: a5c5 85bc f335 ccbc 3be0 d03d a547 8cbd
00000340: 69a4 9e3d f01c 703d 612a b1bc 7e90 183c
00000350: 8d8b ab3d 34a5 f3bd e562 10bd 733b b8bb
00000360: 202a d63c 4800 51bd 86bb 373c 8c23 93bd
00000370: 0d85 2ebd 3b1b 9e3d 9074 3dbd e067 01be
00000380: c37f 01bc 6233 d7bc 332a c23d 4e62 023d
00000390: 34bd 2fbd 1a84 a23b 16a6 cb3d 3841 e639
000003a0: a225 3d3d d172 96bc 89ee b33d 34a1 68bd
000003b0: 160e aabc 20d5 13bd e657 92bd d6bc 5a3d
000003c0: 403c 76bd ad91 a9bd 8b68 5abc d8f8 59bd
000003d0: 084b 5aba 08d7 35bd e732 e83d 4ec1 31bd
000003e0: dbc5 e83c d3a4 423e bee8 14be dd3d acbd
000003f0: 9fce ea3c b2cf e83d 6ec5 18bd 6337 6c3c
0.04667584 -0.021957073 0.0730954 0.07560817 -0.042802773 0.02772732 -0.033238042 0.10432344
0.0741711 -0.06678715 0.09125897 0.018721903 -0.017454071 0.039348725 0.07365777 0.03233845
0.01357508 0.03724768 0.072216235 -0.032869894 -0.07436292 -0.031634983 -0.09497967 -0.09655759
-0.0065019582 0.044541527 -0.12954889 0.08975053 0.011224846 0.005168096 -0.029289877 -0.032337625
-0.06690391 0.00526104 -0.000123321 0.06560265 0.0780126 -0.054320436 0.06943521 -0.13275152
-0.059416443 -0.03274148 -0.10110043 -0.019571165 -0.026610497 0.14220722 -0.031713776 -0.13095406
-0.016201736 0.16197754 -0.09455775 0.05745482 0.096479066 0.07071118 0.022063136 -0.005834585
0.099805616 -0.14896035 0.011042361 0.06610393 -0.058062688 -0.083283864 0.025721341 -0.00846347
0.037743416 -0.17390978 -0.092348225 0.09196786 0.045914184 -0.07270307 -0.01404977 0.0035397485
-0.10670827 0.036772817 -0.09003883 0.03383632 -0.03315113 0.09353938 0.09375511 -0.05393399
-0.019323416 -0.026559394 -0.042450946 0.059517052 -0.033041198 0.10857492 -0.05641112 -0.013358294
0.066551864 -0.0379436 -0.14190984 0.04497924 -0.10988999 0.018943826 -0.06304223 -0.08860555
0.058510087 -0.039183356 0.085950784 -0.024493627 0.110548295 0.07662325 -0.06643427 0.022620495
-0.051856227 0.008476962 0.006616421 -0.018263321 -0.051805433 0.0867156 0.040161792 -0.052040324
0.08085788 0.04634454 0.07849525 0.0765024 -0.19522437 -0.04192772 -0.13061452 -0.14035028
0.062092237 -0.14646782 0.041455768 0.07977916 0.0715139 -0.059572563 -0.015919821 -0.016744757
-0.019013867 -0.06320139 0.068783045 0.010675341 0.04892691 -0.098010674 -0.09547733 -0.01885023
0.0011207886 0.029204495 0.06878261 -0.00047062352 -0.056772634 -0.11231828 0.019507892 0.02737221
0.044338543 -0.0855637 -0.042544127 0.05553032 0.016515851 -0.058484275 0.1853039 -0.032873232
0.06515079 0.10149868 0.123817325 -0.11037869 0.063356265 0.034566622 -0.0074042194 -0.057801437
-0.016638584 -0.054982867 -0.06728573 -0.012256159 0.09066132 -0.050913204 0.010454288 0.15447485
0.101686366 0.09256162 -0.0068439334 -0.021952545 0.02416727 -0.05353321 -0.099725045 0.11000008
-0.060614455 -0.019444048 -0.05891706 0.027276045 0.05129291 -0.04099415 0.14529939 0.03932961
-0.0868032 0.09355273 -0.07629778 0.003942623 0.038985975 0.11941404 0.09298694 -0.07247304
-0.03164863 0.027984006 -0.070391744 -0.054626126 -0.054989338 -0.050362214 -0.022603065 0.097842574
0.04416164 0.022372793 0.11605515 -0.07686862 -0.016329596 -0.024928069 0.101990186 -0.068496026
0.077462025 0.058621347 -0.021626653 0.009311793 0.083762266 -0.11896744 -0.035250563 -0.0056223213
0.026143134 -0.05102566 0.011214143 -0.071845144 -0.042607356 0.077200375 -0.04625374 -0.12637281
-0.007903996 -0.026269618 0.09480705 0.031832032 -0.042905048 0.0049595954 0.09943788 0.0004391761
0.046178468 -0.018365296 0.08785731 -0.05679436 -0.02075867 -0.036091924 -0.071456715 0.053402744
-0.060116053 -0.082797386 -0.013330589 -0.05321583 -0.00083272206 -0.044394523 0.11337834 -0.04339724
0.028414657 0.19008188 -0.14541909 -0.08410237 0.028662978 0.1136774 -0.03729766 0.014417502

fc2.bias f4 [5]
00000000: 08bc 29bd 2f9e a7bc cf11 8dbd b22a 923d
00000010: 9409 37be
-0.041439086 -0.02046117 -0.06888162 0.0713705 -0.17874748
