saved_weights/Grid_10_1-/7/actor.pth (torch, 265637 bytes, 12 tensors)

attentions1.linear.weight f4 [16, 1]
0	0x3f5e15a0	0.8675175
1	0x3f7bb855	0.98328143
2	0x3f2459ce	0.6419953
3	0xbd81532f	-0.06314694
4	0x3f7ab02b	0.9792506
5	0x3c9b7186	0.01897503
6	0xbe434634	-0.19069749
7	0x3d750e8e	0.059828334
8	0xbf1d508e	-0.6145104
9	0x3b2a71d0	0.002600778
10	0xbd05acf6	-0.03263565
11	0x3f136810	0.5758066
12	0x3e9f5750	0.31121302
13	0x3f521d3d	0.82075864
14	0xbf62bea6	-0.88572156
15	0x3efd3d6a	0.49460918

attentions1.attn.weight f4 [1, 8]
0	0x3e48eea1	0.1962228
1	0x3d79bae1	0.060969237
2	0xbe017d69	-0.12645496
3	0xbcae2cc3	-0.021261578
4	0x3ec98908	0.3936236
5	0x3e5623e4	0.20912129
6	0x3e8d6d10	0.2762227
7	0xbda3b58f	-0.07993614

attentions2.linear.weight f4 [16, 16]
0	0xbe428d7b	-0.18999283
1	0x3e9e14a9	0.30875137
2	0x3dcdc942	0.100481525
3	0xbe87d1f7	-0.26527378
4	0x3e83c8ef	0.25739238
5	0xbe191f8c	-0.1495344
6	0xbdc9cdee	-0.09853731
7	0x3e211522	0.15730718
8	0xbd97650f	-0.07392322
9	0xbdf85010	-0.12124646
10	0xbc67ea20	-0.014154941
11	0xbdc2a4d9	-0.095040984
12	0x3d89d13b	0.06729361
13	0x3d30f4f7	0.043202367
14	0xbe17b09a	-0.14813462
15	0xbc97f5c7	-0.018549813
16	0xbc164114	-0.009170789
17	0xbdaec27d	-0.085331894
18	0x3e6bd204	0.23029333
19	0x3dfd8b97	0.1238014
20	0x3e20d4bb	0.1570615
21	0xbcdfd4e6	-0.027323198
22	0x3e790201	0.2431717
23	0xbdb801a9	-0.08984692
24	0x3e6cd44f	0.23127864
25	0x3b945c18	0.00452758
26	0x3d8134dc	0.0630891
27	0x3e10cb00	0.14139938
28	0xbdde5792	-0.108565465
29	0x3d9763ed	0.07392106
30	0x3e566a9c	0.20939106
31	0x3e4375ce	0.19087908
32	0x3cf69bc7	0.030103577
33	0xbc77a4b6	-0.015114954
34	0x3deff419	0.1171648
35	0xbc88efc2	-0.016715888
36	0xbdf1703b	-0.117889844
37	0x3e4da153	0.20081072
38	0xbc9c9eae	-0.019118633
39	0x3e4238fa	0.18967047
40	0xbde61ddb	-0.11236163
41	0x3dcb613d	0.09930656
42	0x3d0060b1	0.031342212
43	0x3cd154c2	0.025553111
44	0x39fecda8	0.0004859988
45	0xbccab98e	-0.024746682
46	0xbdabb3a0	-0.0838387
47	0x3da2c31c	0.079473704
48	0xbdf8f576	-0.12156193
49	0xbd510a90	-0.051035464
50	0xbe236cd7	-0.15959488
51	0xbe6a26c3	-0.22866349
52	0x3dad6d50	0.08468115
53	0xbe486ccd	-0.19572754
54	0xbcd8e826	-0.026477885
55	0x3d07c3f4	0.03314586
56	0xbe51d19f	-0.2049012
57	0xbe6b03b1	-0.22950627
58	0xbd85d65d	-0.06535027
59	0xbdb4362c	-0.08799395
60	0x3dd9b46d	0.106301166
61	0xbe6f7088	-0.23382771
62	0xbd9f766f	-0.07786261
63	0xbe090fc8	-0.13384926
64	0x3dd08c5c	0.101830214
65	0x3e4c8ede	0.19976375
66	0xbbb5d1a3	-0.0055486723
67	0xbe0bddba	-0.136588
68	0x3d53e3e3	0.051731
69	0xbe4dfea4	-0.20116669
70	0x3c9a85fd	0.018862719
71	0xbdfcdab3	-0.12346401
72	0xbddef33a	-0.108862355
73	0xbe2609f2	-0.16214731
74	0xbe2e6b8a	-0.1703321
75	0x3e13fb40	0.14451313
76	0xbda131ac	-0.07870802
77	0xbe155df0	-0.14586616
78	0xbe381adf	-0.17979
79	0xbd255e72	-0.040373273
80	0x3dcf3bd6	0.10118835
81	0x3e8dddb7	0.27708218
82	0x3ce1f1be	0.027581092
83	0x3dea830d	0.11450777
84	0xbe7aac87	-0.24479876
85	0x3d491829	0.049095307
86	0x3c6337cd	0.013868284
87	0xbe578cac	-0.21049756
88	0x3e6d4dd2	0.23174217
89	0xbe42d3e5	-0.19026144
90	0x3e090de8	0.13384211
91	0xbe5ebdda	-0.2175211
92	0xbe53e066	-0.2069107
93	0xbe255a74	-0.16147786
94	0x3deac1e5	0.11462764
95	0x3e27151f	0.16316651
96	0x3e507690	0.20357728
97	0x3e955d4a	0.29172736
98	0x3e95bbc2	0.2924481
99	0xbb253b12	-0.002521221
100	0xbe31edfa	-0.17375937
101	0xbe26f878	-0.16305721
102	0xbe8d68c1	-0.27618983
103	0x3e903783	0.28167352
104	0xbe4d6129	-0.20056595
105	0x3e2aeeb3	0.16692619
106	0x3e104357	0.14088188
107	0xbd7405e1	-0.05957592
108	0xbb4f0841	-0.0031590613
109	0xbbf3ff43	-0.007446201
110	0xbdc4f139	-0.09616322
111	0xbe266a94	-0.16251594
112	0xbe3894a0	-0.18025446
113	0x3e907a78	0.28218436
114	0x3de23ec3	0.11047127
115	0xbe7f86f7	-0.24953829
116	0x3e32807c	0.17431825
117	0x3e6cdb7a	0.23130599
118	0xbe7c258a	-0.24623695
119	0x3dff7db9	0.124751516
120	0x3ab12a3d	0.0013516616
121	0xbdca421e	-0.09875892
122	0xbe1bddc7	-0.1522132
123	0x3e5fb898	0.2184776
124	0xbe518d25	-0.20463999
125	0xbd2c0e33	-0.04200573
126	0x3e0e7ee3	0.13915591
127	0x3d49c90d	0.049264003
128	0x3e771790	0.24130082
129	0x3e22d765	0.15902479
130	0xbe393387	-0.18086062
131	0xbd0a1166	-0.033708
132	0x3e456181	0.19275476
133	0x3c08ac13	0.008341807
134	0xbe48bffa	-0.19604483
135	0xbe60b8c6	-0.21945485
136	0xbd5aa56f	-0.053380426
137	0x3e67415a	0.22583523
138	0xbe444561	-0.19167091
139	0x3ded5479	0.115883775
140	0x3e3fe0ad	0.18738051
141	0xbe56bf90	-0.20971513
142	0xbd0bab5d	-0.03409897
143	0xbe3d325f	-0.18476246
144	0xbe464e9c	-0.19365925
145	0xbda07a1b	-0.0783579
146	0xbe0fbe94	-0.14037544
147	0x3d767d30	0.06017798
148	0x3d07b912	0.03313548
149	0xbd095d69	-0.03353635
150	0xbe5c79e8	-0.21530879
151	0x3e0f3693	0.13985662
152	0x3e3c1b21	0.18369724
153	0x3e19890d	0.14993687
154	0xbe2866cc	-0.16445464
155	0xbddad3e7	-0.106849484
156	0x3e8893f5	0.26675382
157	0xbbc5e8dc	-0.006039722
158	0xbdb629ae	-0.088946685
159	0x3e8e7dd0	0.27830362
160	0xbe6284d8	-0.22120988
161	0x3e5f25a7	0.21791707
162	0xbdf80054	-0.121094376
163	0xbe62020e	-0.22071096
164	0xbd81f3d6	-0.06345336
165	0x3e77191f	0.24130677
166	0x3e174486	0.14772233
167	0x3e79e959	0.24405421
168	0x3e0cb8af	0.13742326
169	0x3d2c4f6c	0.04206793
170	0x3da75382	0.08170225
171	0xbcf56308	-0.029954448
172	0xbe26405f	-0.16235493
173	0x3e61e91a	0.22061577
174	0x3da1b35e	0.0789554
175	0x3e30f747	0.17281829
176	0xbda6ab4a	-0.081381395
177	0xbe96fd61	-0.29490188
178	0x3dec4f8a	0.11538608
179	0xbe380e3f	-0.17974184
180	0xbd226b5e	-0.039653175
181	0x3da818fd	0.08207891
182	0xbde28a65	-0.11061553
183	0xbe4e3bb3	-0.20139961
184	0xbc19c189	-0.009384521
185	0x3e186b2e	0.14884636
186	0xbe76cdb8	-0.24101913
187	0xbe863026	-0.2620861
188	0x3d326bca	0.043559827
189	0x3e42a2fa	0.19007483
190	0x3e14f7b3	0.14547615
191	0x3e4015ac	0.18758267
192	0xbe907791	-0.28216222
193	0x3dc5ffaa	0.09667905
194	0x3caea0e3	0.021316951
195	0x3ca22c06	0.019796383
196	0x3c933a33	0.017972087
197	0xbe8115e8	-0.25212026
198	0x3e7aec9e	0.24504325
199	0xbe7a9938	-0.24472511
200	0xbe3179d5	-0.17331631
201	0xbd111eb7	-0.035429683
202	0x3decd3f8	0.11563867
203	0x3c9f38f3	0.019436335
204	0x3d6fbe69	0.0585312
205	0xbc42729b	-0.011868144
206	0x3ce2fee8	0.02770944
207	0xbd68c5bf	-0.05682921
208	0xbe459545	-0.19295223
209	0x3cff1c2b	0.031141361
210	0xbc8b20cc	-0.016983412
211	0xbe268fba	-0.16265765
212	0xbdc9b350	-0.09848654
213	0x3da25df2	0.07928075
214	0xbd9d0445	-0.0766683
215	0x3d88e65f	0.06684565
216	0x3e4cee8a	0.2001287
217	0x3e628bb5	0.22123607
218	0x3e49d7cd	0.19711228
219	0x3c64dff7	0.013969413
220	0xbe11579e	-0.1419358
221	0xbd9690c2	-0.07351829
222	0x3d90f61b	0.07078191
223	0xbe4d61e7	-0.20056878
224	0xbde55d01	-0.1119938
225	0xbe8d926f	-0.27650782
226	0x3e425bbe	0.1898031
227	0x3d9d6f97	0.076873
228	0xbde29166	-0.11062889
229	0xbdf8ee4e	-0.12154828
230	0x3b9e8e0e	0.0048387116
231	0x3da75995	0.08171383
232	0xbca9165d	-0.020640546
233	0x3e18fea4	0.14940888
234	0xbe5caf5d	-0.21551271
235	0xbe32c6fe	-0.17458722
236	0xbe804cf5	-0.25058714
237	0xbe777094	-0.24164039
238	0xbe4b0cb4	-0.19829065
239	0xbdc93b1b	-0.098257266
240	0x3e82b063	0.25525197
241	0x3d4830f7	0.04887482
242	0xbd37a5bc	-0.04483579
243	0xbad1ec6a	-0.0016015891
244	0xbd631759	-0.055442188
245	0x3c96a858	0.01839082
246	0xbe813c7f	-0.25241467
247	0xbda6bfc2	-0.08142044
248	0x3e40379a	0.1877121
249	0x3da2cc13	0.0794908
250	0x3e042783	0.12905698
251	0xbe83666e	-0.25664085
252	0x3e2764c7	0.16347037
253	0xbd38d357	-0.045123424
254	0x3d8d335e	0.06894563
255	0x3e02e07b	0.12780945

attentions2.attn.weight f4 [1, 8]
0	0xbdec2833	-0.11531105
1	0x3d73ebbf	0.059550997
2	0xbe3767d6	-0.17910704
3	0x3ecbd8eb	0.39813933
4	0x3e8f2b60	0.2796278
5	0xbeb36fc0	-0.35046196
6	0x3ed4596b	0.4147447
7	0x3e11cbb0	0.14237857

attentions3.linear.weight f4 [16, 16]
0	0xbe44a17e	-0.1920223
1	0x3d9de4d3	0.077096604
2	0xbd9a5699	-0.075360484
3	0x3deec4d0	0.11658633
4	0xbba92094	-0.0051613543
5	0xbe3e47d7	-0.18582092
6	0xbe8fa537	-0.28055736
7	0xbd2246c8	-0.039618284
8	0xbe941b06	-0.28926867
9	0x3d5a4149	0.053284917
10	0x3e37244e	0.17884943
11	0x3d589831	0.052879516
12	0xbdd1826b	-0.102299534
13	0x3df9dd78	0.12200445
14	0x3e050a70	0.12992263
15	0xbd1248ca	-0.03571395
16	0x3d35111f	0.04420578
17	0xbe5b57d4	-0.21420223
18	0x3e0a67c3	0.13516144
19	0xbe7fd262	-0.24982598
20	0x3d76df6a	0.060271658
21	0xbe183fc0	-0.14868069
22	0x3e73f0e4	0.23822361
23	0x3d9dabab	0.07698759
24	0xbda84e8d	-0.08218107
25	0x3e2fb9ac	0.17160672
26	0xbc58688b	-0.013208519
27	0xbd1a3e09	-0.037656818
28	0xbe271ca7	-0.16319524
29	0x3d06cb54	0.032908753
30	0xbe246320	-0.16053438
31	0x3dee8f42	0.11648418
32	0x3e278270	0.16358352
33	0xbe41817f	-0.18897055
34	0x3e4d58f2	0.20053461
35	0xbe256db6	-0.16155133
36	0xbe6ccd66	-0.23125228
37	0xbd7ee67d	-0.06223153
38	0x3e0764ed	0.13222094
39	0xbc65557a	-0.01399743
40	0xbe2b8dca	-0.16753307
41	0x3cf6f98a	0.030148286
42	0x3e06540f	0.13118003
43	0xbe4323de	-0.19056651
44	0x3dea6345	0.114447154
45	0xbd5017c7	-0.050803926
46	0x3d801ba1	0.0625527
47	0xbde677e1	-0.11253334
48	0xbe3cc910	-0.18436074
49	0xbd7efce9	-0.062252913
50	0xbd3284b5	-0.04358359
51	0xbe22975b	-0.1587805
52	0x3e4fdaf6	0.2029837
53	0x3b5f7ac3	0.0034100271
54	0x3e365ae1	0.17808105
55	0xbde98a4e	-0.11403333
56	0xb82c71f0	-4.1114108e-05
57	0x3e5d7f53	0.21630602
58	0x3e1ebd3c	0.15501875
59	0x3e49fb47	0.19724761
60	0xbe11d1b8	-0.14240158
61	0xbcb6c4a6	-0.022310566
62	0xbe0a1d1f	-0.13487671
63	0xbe4b368c	-0.19845027
64	0xbe92302c	-0.28552377
65	0x3d68cf23	0.056838166
66	0x3e0b009d	0.13574453
67	0xbdef0c29	-0.11672241
68	0xbe3ffc61	-0.18748619
69	0xbe15ee28	-0.1464163
70	0xbe95def5	-0.29271665
71	0x3cb5c2be	0.022187587
72	0xbe762049	-0.24035753
73	0x3d957781	0.07298184
74	0x3e7f6069	0.24939121
75	0x3e143bc3	0.14475922
76	0xbd84f6ef	-0.06492411
77	0x3e80c094	0.25146925
78	0x3e7b9428	0.24568236
79	0xbe2647b5	-0.16238292
80	0x3bd44062	0.0064774016
81	0x3e848d8d	0.25889245
82	0xbdfb553b	-0.12272116
83	0xbe81e7a3	-0.25372037
84	0x3d9eb2ca	0.07748945
85	0x3cb6ffc8	0.022338763
86	0xbe1be3c0	-0.15223598
87	0xbd025b9e	-0.031825654
88	0x3e146685	0.14492233
89	0xbe0dea8d	-0.13859005
90	0x3e278056	0.1635755
91	0xbe2a4ab7	-0.16630064
92	0xbd7f32e4	-0.062304392
93	0xbdb648bf	-0.08900594
94	0x3e5c1a56	0.21494421
95	0xbe30db2f	-0.17271112
96	0x3d7d0f02	0.06178189
97	0xbe2ecb2e	-0.17069694
98	0xbe50cdf2	-0.20391062
99	0xbe10d8d7	-0.14145218
100	0xbd7a6977	-0.061135735
101	0x3e039fa2	0.12853864
102	0x3de53476	0.11191647
103	0x3d4e985e	0.050438277
104	0xbc16048e	-0.009156359
105	0x3ae23cb8	0.0017260527
106	0xbd8b9f1b	-0.06817456
107	0xbe058266	-0.13038024
108	0xbe175b24	-0.14780861
109	0x3e0bdeb8	0.13659179
110	0x3e66fb20	0.22556734
111	0xbe1d8ed2	-0.15386513
112	0xbc7bc677	-0.015367142
113	0xbd07b64b	-0.033132832
114	0x3e141841	0.14462377
115	0x3e3f0393	0.18653707
116	0xbe1ad84c	-0.15121573
117	0x3cd55182	0.026039843
118	0xbe8cc0de	-0.27490896
119	0xbe265017	-0.1624149
120	0xbe83deab	-0.2575582
121	0xbdea55af	-0.11442124
122	0x3ddccf13	0.10781684
123	0x3e0ac7bf	0.1355276
124	0x3dc065ff	0.09394454
125	0xbd091dde	-0.03347575
126	0x3dff96dd	0.12479947
127	0xbe07b5fd	-0.13253017
128	0x3dcaf40b	0.09909829
129	0x3d197f09	0.037474666
130	0x3e229eca	0.15880886
131	0x3d0d9f0f	0.03457552
132	0xbe464716	-0.19363055
133	0xbda16863	-0.07881238
134	0x3e3a6c62	0.18205407
135	0xbe86a8c8	-0.26300645
136	0xbbf9722c	-0.0076124873
137	0x3e4fbb22	0.20286229
138	0x3d89af42	0.06722881
139	0x3e12f352	0.14350632
140	0x3e353a90	0.17698121
141	0x3da6fc82	0.08153631
142	0x3d407c9e	0.046993844
143	0xbe657658	-0.22408426
144	0x3df470d7	0.11935585
145	0x3d329dc4	0.04360749
146	0x3e2a025a	0.1660246
147	0x3e55d2b7	0.20881163
148	0x3e609e8d	0.21935482
149	0xbdf915fa	-0.12162395
150	0xbe2ef869	-0.17086948
151	0xbdfd974d	-0.12382374
152	0x3d9ac1eb	0.07556518
153	0xbe36bd94	-0.17845756
154	0x3e8419e9	0.25801018
155	0xbe64db81	-0.22349359
156	0x3e463db0	0.1935947
157	0xbe4997aa	-0.19686761
158	0x3d34e364	0.04416217
159	0x3e09da38	0.1346215
160	0xbe58aaef	-0.21158956
161	0xbe5da299	-0.21644057
162	0x3cb5ea31	0.022206398
163	0xbd8b5fb1	-0.06805361
164	0xbd8a0084	-0.067383796
165	0xbea59afd	-0.3234481
166	0xbea94c5f	-0.3306608
167	0xbe38dee7	-0.1805378
168	0xbdf75e95	-0.12078587
169	0xbd5dbbf0	-0.05413431
170	0xbe1c5f6e	-0.15270779
171	0x3e730581	0.23732568
172	0x3e856ea2	0.2606097
173	0x3e22d51b	0.15901606
174	0x3e85e7f2	0.26153523
175	0xbe9138a0	-0.28363514
176	0x3e36865e	0.17824695
177	0x3ddc574c	0.10758838
178	0xbe6f8f16	-0.23394427
179	0x3d372454	0.04471238
180	0xbd450c25	-0.048107285
181	0x3e3250f9	0.17413701
182	0x3e11257a	0.14174452
183	0xbe19be4c	-0.15013999
184	0x3dddb1f2	0.10824956
185	0xbe30eee4	-0.1727863
186	0x3e4bded6	0.19909224
187	0x3e32d5a4	0.1746431
188	0x3d9d5017	0.076812916
189	0x3e5cb38c	0.21552867
190	0x3e18205d	0.14856096
191	0xbd86c324	-0.06580189
192	0x3e4a491d	0.19754453
193	0x3e6608f2	0.2246435
194	0xbd3ea933	-0.04654808
195	0x3e2b840b	0.16749589
196	0x3d4df23a	0.050279833
197	0x3e00219b	0.1251282
198	0xbd49b16e	-0.049241476
199	0x3d5ea226	0.054353856
200	0xbe21f015	-0.1581424
201	0xbe87bd76	-0.26511735
202	0x3e035835	0.12826617
203	0x3df1164b	0.1177183
204	0x3d281184	0.04103233
205	0x3d58b58a	0.052907504
206	0xbe240c35	-0.16020282
207	0x3d1bb0be	0.03801035
208	0xbe558339	-0.20850839
209	0xbe270a27	-0.16312467
210	0xbd2c63ee	-0.042087488
211	0x3e83ab6a	0.25716716
212	0x3d1b9eb3	0.037993144
213	0xbe394a94	-0.18094856
214	0xbcb665e1	-0.022265377
215	0xbe2364a0	-0.15956354
216	0x3dd1c990	0.10243523
217	0x3d729fb5	0.05923434
218	0x3bc38515	0.0059667923
219	0xbdd0cb33	-0.10195007
220	0x3e284757	0.16433464
221	0x3e03a5c5	0.12856205
222	0xbb1cc688	-0.0023922045
223	0xbae573d8	-0.0017505838
224	0xbe176aff	-0.1478691
225	0x3e687f2a	0.22704759
226	0x3e304e42	0.17217353
227	0x3e186dac	0.14885587
228	0x3e85085c	0.2598294
229	0xbe2467aa	-0.1605517
230	0xbd92a259	-0.071598716
231	0xbdb0143b	-0.08597609
232	0x3e7d8a56	0.24759802
233	0xbe6cc37b	-0.23121445
234	0x3dca4d68	0.09878045
235	0x3e192253	0.149545
236	0xbe66a3a8	-0.22523367
237	0xbde964bb	-0.11396166
238	0xbe07fa24	-0.13279015
239	0x3df1fc4e	0.118157014
240	0xbdf62e89	-0.120205946
241	0x3e307f2f	0.17236017
242	0x3d9fe974	0.078081995
243	0x3e6ded26	0.23234996
244	0xbe8f3688	-0.27971292
245	0xbe6318d4	-0.2217744
246	0xbe570acf	-0.21000217
247	0x3dccb8af	0.09996163
248	0xbd734a61	-0.059397105
249	0x3e79cb2e	0.24393913
250	0x3d5454ab	0.05183856
251	0x3e43bdc9	0.19115366
252	0xbda1e335	-0.079046644
253	0xbd2a029a	-0.041506387
254	0x3e6ff38b	0.23432748
255	0x3e256a30	0.16153789

attentions3.attn.weight f4 [1, 8]
0	0xbdb8902d	-0.09011874
1	0x3ea09ec7	0.31371137
2	0xbe517078	-0.2045306
3	0xbe48bb4d	-0.196027
4	0xbe6c8d69	-0.23100819
5	0x3ed25d68	0.41086888
6	0xbe3b32ff	-0.18281172
7	0xbead8918	-0.33893657

output_layer.linear.weight f4 [5, 16]
0	0x3e81e9af	0.253736
1	0xbe5a194c	-0.21298712
2	0x3da90559	0.08252973
3	0xbd4a09f4	-0.0493259
4	0x3e8bb51d	0.27286616
5	0xbe42a6b9	-0.19008912
6	0xbbce538a	-0.0062965797
7	0xbe07cf0d	-0.13262577
8	0xbe27d444	-0.16389567
9	0x3db03823	0.08604457
10	0x3e4377ca	0.19088665
11	0x3e005e4b	0.1253597
12	0x3d3b61b4	0.045747474
13	0x3e542089	0.20715536
14	0xbda55bb5	-0.08074132
15	0x3e812587	0.25223944
16	0xbd8405a1	-0.06446386
17	0x3d89cc4a	0.06728418
18	0x3dbcc0f8	0.09216493
19	0x3e3481c6	0.1762763
20	0xbe4b208b	-0.19836633
21	0xbd95c4d1	-0.073129304
22	0xbda98d97	-0.08278959
23	0xbe87799c	-0.26459968
24	0xbc02c370	-0.007981166
25	0x3da29635	0.07938806
26	0x3d2bbfa7	0.04193082
27	0xbce23280	-0.02761197
28	0xbca2864c	-0.019839428
29	0xbe7e5d62	-0.2484031
30	0x3e039c19	0.12852515
31	0x3c134c39	0.008990341
32	0x3d5dd86a	0.054161467
33	0x3de66a4c	0.11250743
34	0x3c95a764	0.018268295
35	0x3d707cac	0.058712646
36	0xbd98feff	-0.07470512
37	0xbd8356fd	-0.06413076
38	0xbdff0425	-0.124519624
39	0xbe891053	-0.26770267
40	0x3e1c6be3	0.1527553
41	0x3d41cece	0.047316365
42	0x3dae9d7b	0.08526131
43	0x3e37e201	0.17957307
44	0x3db17230	0.08664358
45	0xbe736db7	-0.23772322
46	0x3e40b164	0.18817669
47	0x3db1496c	0.08656582
48	0x3dbd7c73	0.092522524
49	0x3e08896d	0.13333674
50	0x3e872cc0	0.2640133
51	0x3e40b06e	0.18817303
52	0x3dd11404	0.10208896
53	0x3e87b56d	0.26505604
54	0xbdbe23cc	-0.092841715
55	0x3de157f7	0.11003106
56	0x3e3e1b2a	0.1856505
57	0xbb8cbad9	-0.004294735
58	0x3e424358	0.18971002
59	0xbce374c2	-0.027765635
60	0x3dcf4650	0.10120833
61	0x3e85c21b	0.26124653
62	0xbe4aaeff	-0.19793318
63	0xbc68f13c	-0.014217671
64	0x3dbe7817	0.09300249
65	0xbdb9d14a	-0.09073122
66	0xbe3b5b2c	-0.18296498
67	0xbc68ab4e	-0.0142009985
68	0xbd2ce471	-0.042210046
69	0xbe145d56	-0.1448873
70	0xbddc29e4	-0.107501775
71	0x3dd8bcc6	0.10582881
72	0x3e67e2e8	0.22645152
73	0x3db66d88	0.0890761
74	0x3e945210	0.2896886
75	0xbdc6dd1e	-0.097101435
76	0xbe4dbbfe	-0.20091245
77	0xbe093bb1	-0.13401677
78	0xbba81585	-0.0051295185
79	0x3e4cef0d	0.20013066

output_layer.attn.weight f4 [1, 10]
0	0x3df69f92	0.12042154
1	0xbd932809	-0.071853705
2	0x3e925f95	0.28588548
3	0xbe888a9c	-0.2666825
4	0xbe913d60	-0.28367138
5	0xbe663314	-0.22480422
6	0xbe491044	-0.19635111
7	0x3dc2e8c7	0.09517055
8	0xbea058c8	-0.31317735
9	0xbe7f5095	-0.24933083

fc1.weight f4 [128, 500]
0	0x3a221645	0.0006183128
1	0xbd144700	-0.036200523
2	0xbce5244c	-0.02797141
3	0x3ce235af	0.027613489
4	0xbb93af3f	-0.004506975
5	0x3d7ec140	0.062196016
6	0xba926a36	-0.0011170569
7	0x3cf47ff6	0.029846173
8	0x3cce203f	0.02516186
9	0x3cd46a0d	0.025929475
10	0x3d750fd5	0.05982955
11	0xbd1d257b	-0.038365822
12	0x3ceb0eac	0.02869352
13	0x3d3761b8	0.044770926
14	0xbc37a762	-0.011209341
15	0x3d6c16b3	0.057638835
16	0x3b5af55b	0.0033410403
17	0x3b686062	0.003545784
18	0x3d4cd324	0.050006047
19	0x3d13965d	0.03603207
20	0xbca1113b	-0.019661536
21	0xbcc3911e	-0.023872908
22	0xbd1afbda	-0.03783784
23	0xbae09680	-0.0017134696
24	0xbd34f097	-0.044174757
25	0x3d2af28b	0.041735213
26	0x3cf8b622	0.030360285
27	0xbc92f4a3	-0.017938918
28	0xba115900	-0.0005544573
29	0x3d0a1e8b	0.033720534
30	0x3b04f7f5	0.0020289395
31	0xbd2aa4b3	-0.041660976
32	0xbc9d469b	-0.019198706
33	0x3d2a714c	0.041611955
34	0xbb6558bf	-0.0034995524
35	0x3cd5c24b	0.026093623
36	0x3b0b0c03	0.0021216876
37	0xbcb0232f	-0.021501152
38	0x3d24614e	0.04013186
39	0x3ce125fc	0.027483933
40	0x3cec26d0	0.028827101
41	0x3c902c84	0.017599352
42	0x3bf3c33b	0.007439045
43	0x3d3b0774	0.045661405
44	0xbc68fc93	-0.014220375
45	0x3c3a562c	0.011373084
46	0x3b61b6d4	0.003444125
47	0xbbbabdaa	-0.0056988792
48	0x3bcdf782	0.0062856087
49	0x3ceff48c	0.029291414
50	0xbbbe8c28	-0.005815048
51	0xbd18e201	-0.03732491
52	0x3cff3149	0.03115143
53	0xbc528cfe	-0.012850998
54	0x3d436cc3	0.047711145
55	0x3d27537c	0.0408511
56	0xbbd59c88	-0.006518904
57	0x3d51195c	0.051049575
58	0x3d6d9254	0.058000877
59	0x3bf6ec38	0.0075354837
60	0x3cec1500	0.028818607
61	0xbd7d59e8	-0.06185332
62	0xbc90baa5	-0.017667124
63	0x3d1e1071	0.0385899
64	0xba6956de	-0.0008901189
65	0x3d33f2b3	0.043932628
66	0x3c0a10ec	0.008426886
67	0x3d70b407	0.058765437
68	0x3c37ea32	0.01122527
69	0xbc49bfaf	-0.012313767
70	0x3d5fe987	0.05466607
71	0xbd6c71f6	-0.05772587
72	0x3d13f3f2	0.036121316
73	0x3ce3f001	0.027824404
74	0x3c495d8e	0.012290372
75	0x3cc6118d	0.02417829
76	0x3c9a0138	0.01879941
77	0xbc7ea1c7	-0.0155415
78	0x3d02e234	0.031954005
79	0x3d12b5f6	0.035818063
80	0x3d263156	0.040574394
81	0xbd3da75b	-0.04630218
82	0x3ca4d37e	0.020120379
83	0x3d38d88a	0.045128383
84	0x3c8b44ed	0.01700064
85	0xbb1ca901	-0.0023904445
86	0xbc411d7f	-0.011786818
87	0xbcb70cb5	-0.022344926
88	0x3d871f90	0.06597817
89	0xbb803c00	-0.0039134026
90	0x3c77826b	0.015106778
91	0x3c2c297e	0.010507939
92	0xbc9b2442	-0.018938188
93	0x3d6a164b	0.057150166
94	0xbc4707b1	-0.01214783
95	0xbcab5131	-0.020912739
96	0xbcdd63aa	-0.027025063
97	0x3d0c89b5	0.034311015
98	0x3c27a10c	0.010231268
99	0xbb4b5293	-0.003102456
100	0x3c038649	0.008027622
101	0xbc1d6bfd	-0.009608266
102	0x3b1b7954	0.002372344
103	0xbca34383	-0.019929653
104	0x3d1e7fb3	0.038696002
105	0x3cd70b26	0.026250433
106	0xbd111d65	-0.035428423
107	0xbc10ff9d	-0.008850005
108	0x3b435f35	0.0029811386
109	0x39d805b4	0.0004120298
110	0x3d5795c7	0.052633073
111	0xbd44400a	-0.047912635
112	0xbb8bdf1a	-0.004268539
113	0x3ce7a2e7	0.02827592
114	0xbcb9e7b7	-0.022693498
115	0x3c0063dc	0.007836308
116	0xbd12ff72	-0.035888143
117	0xbc80ce32	-0.015723322
118	0x3d718338	0.05896303
119	0xbb921b02	-0.004458786
120	0x3d12d098	0.03584346
121	0xbcb6fd59	-0.022337602
122	0xbc183b04	-0.009291414
123	0xbc846a05	-0.016163835
124	0x3d7d9301	0.061907772
125	0x3c24334a	0.010021994
126	0x3c092baa	0.008372227
127	0x3d70bbf1	0.058772985
128	0x3b8de93a	0.0043307813
129	0x3d7c1780	0.06154585
130	0x3d73f9c0	0.059564352
131	0x3cb9d8bd	0.022686357
132	0x3d60b7a3	0.05486263
133	0x3cbad97c	0.022808783
134	0x3d46837c	0.048465237
135	0xbc3504dc	-0.011048522
136	0xbd12196e	-0.035668783
137	0x3d615b31	0.055018608
138	0x3c7be0f5	0.015373458
139	0xbca527a2	-0.0201605
140	0x3d5bdaf4	0.053675607
141	0xbd55c9dd	-0.052194465
142	0xbcb7d3b6	-0.022439819
143	0x3d613ef5	0.05499168
144	0x3d20051e	0.03906738
145	0x3d02af8b	0.031905692
146	0xbd429567	-0.047505762
147	0x3aae6ebd	0.0013308149
148	0x3d67db2a	0.056605496
149	0x3ce46f0e	0.027884986
150	0x3d00656b	0.03134672
151	0xbbd7e7cf	-0.006588913
152	0x3c3ef0f5	0.011654128
153	0xbc2ae1fb	-0.0104298545
154	0x3d425530	0.047444522
155	0xbc9d03b3	-0.019166803
156	0x3b8cd514	0.004297862
157	0x3b096440	0.0020964295
158	0xbba9e8cd	-0.0051852227
159	0x3bae56d7	0.0053204107
160	0xbc415a4b	-0.011801313
161	0xbd12aec7	-0.035811212
162	0x3c7011c4	0.014652673
163	0x3c1b7476	0.009488216
164	0x3c1f38b8	0.009718113
165	0x3c3c0dd8	0.01147791
166	0x3cc215e2	0.023692075
167	0xbc1cd179	-0.009571427
168	0x3cbb8c6f	0.022894112
169	0x3bf07e78	0.007339295
170	0x3d85fad8	0.06541985
171	0xbd615611	-0.05501372
172	0x3d232744	0.03983237
173	0x3d541a65	0.051782984
174	0x3d558998	0.052133173
175	0x3ca17287	0.019707931
176	0xbc8be198	-0.017075345
177	0x3d4b677b	0.049659234
178	0x3c36b44d	0.0111513855
179	0x3d2f7048	0.04283169
180	0x3c074556	0.008256277
181	0x3ba93b42	0.005164535
182	0x3c38871e	0.011262683
183	0x3d7a9a5a	0.061182357
184	0xbc930080	-0.017944574
185	0x3d6d308f	0.057907637
186	0x3cb9b540	0.022669435
187	0x3d371c50	0.044704735
188	0xbaea51ef	-0.0017877201
189	0xbb88432f	-0.0041583995
190	0x3d387760	0.04503572
191	0xbd68f4a4	-0.056873932
192	0xbc5b510b	-0.013386021
193	0x3c8f3fed	0.017486537
194	0xbc24ef52	-0.010066824
195	0x3d423a15	0.047418673
196	0xbc9423d0	-0.018083483
197	0x3c6eadb1	0.014567778
198	0x3b1dbfb4	0.0024070563
199	0x3d2d28d0	0.04227525
200	0xbb8dd7bc	-0.004328696
201	0x3a9bc595	0.0011884446
202	0xbd010adf	-0.031504508
203	0x3cdc849c	0.026918702
204	0x3d4707b0	0.048591316
205	0x3c9836aa	0.018580753
206	0xbd09313e	-0.033494227
207	0x3d296bf9	0.041362736
208	0xbca52919	-0.020161198
209	0x3b98c981	0.004662693
210	0x3cb318eb	0.021862468
211	0xbd3ef586	-0.04662087
212	0xbc99efb0	-0.01879105
213	0xbc9a009d	-0.01879912
214	0xbc6734e2	-0.014111729
215	0x3d29aae9	0.04142276
216	0x3caa1961	0.020764055
217	0xbb8ada65	-0.0042374604
218	0x3d2a8465	0.041630168
219	0x3c8aa399	0.016923713
220	0x3d21dbde	0.039516322
221	0xbd1343e7	-0.03595343
222	0xbc31e5be	-0.010857997
223	0x3d2d005c	0.04223667
224	0xbc3083fa	-0.010773653
225	0xbb950021	-0.0045471345
226	0xbbbd163d	-0.0057704733
227	0xbb88dac6	-0.0041764705
228	0x3d7c2473	0.0615582
229	0xbc92d100	-0.017921925
230	0x3cd015ec	0.025401078
231	0x3c03b27d	0.00803816
232	0xbaea62e0	-0.001788225
233	0xbc973086	-0.018455755
234	0x3d5d65ce	0.054052167
235	0x3d6ca977	0.0577788
236	0xbd05cbd8	-0.032665104
237	0xba40ac25	-0.000734987
238	0xbc0b5bc3	-0.008505764
239	0x3cb24d2d	0.021765316
240	0x3d59640a	0.05307392
241	0xbd4b2d52	-0.049603768
242	0x3b2772c0	0.0025550574
243	0x3c704fc6	0.014667457
244	0x3d3e55ad	0.046468426
245	0x3bd5c2da	0.0065234723
246	0xbb8e04c5	-0.0043340647
247	0x3d398dbc	0.045301184
248	0xbca7852e	-0.020449247
249	0x3d02324d	0.03178625
250	0x3c05749c	0.008145478
251	0xbd4e8948	-0.05042389
252	0x3d469baa	0.048488297
253	0xbc0d0160	-0.008606285
254	0x3b855e31	0.0040700664
255	0x3a7bac47	0.00096005615

fc1.bias f4 [128]
0	0xbd40630f	-0.04696947
1	0xbcf98d4b	-0.030462882
2	0x3dd29430	0.10282171
3	0xbd15725c	-0.036486015
4	0xbd1e0492	-0.038578577
5	0xbd1230d1	-0.035691086
6	0x3d223485	0.039600868
7	0x3d3bed97	0.04588088
8	0x3d8418a0	0.06450009
9	0x3d226963	0.039651286
10	0x3d3e9e60	0.046537757
11	0xbd62fe55	-0.05541833
12	0xbd55d945	-0.052209157
13	0xbd179eff	-0.037016865
14	0xbd28b6af	-0.041189846
15	0xbd32d767	-0.043662455
16	0xbd8e8e3b	-0.06960722
17	0xbd6b1a23	-0.057397973
18	0x3c408987	0.011751539
19	0xbd8a78a4	-0.067612916
20	0xbd813aa7	-0.06310015
21	0xbd589388	-0.05287507
22	0xbdb2e28a	-0.08734615
23	0xbd30f28e	-0.04320007
24	0x3c628e52	0.013827877
25	0x3dbd845f	0.092537634
26	0xb9346e9a	-0.0001720734
27	0x3d6d5e61	0.057951335
28	0x3de1bd56	0.11022441
29	0xbcd0d4b3	-0.025492048
30	0xbd9eeff3	-0.077606104
31	0xbd81fdf5	-0.063472666
32	0x3d7287f1	0.059211675
33	0x3d2378b2	0.039910026
34	0xbd59bbf0	-0.053157747
35	0xbd005d14	-0.031338766
36	0x3e270068	0.16308749
37	0xbd1895d5	-0.037252266
38	0x3b9553a8	0.0045570917
39	0xbd215a57	-0.039392795
40	0x3cc13c8c	0.023588441
41	0xbcc9649f	-0.024584113
42	0xbd2740f1	-0.040833417
43	0xbd63c769	-0.055610094
44	0xbd757af1	-0.0599317
45	0xbc13c43e	-0.009018956
46	0x3d315a04	0.043298736
47	0xbd48a8c8	-0.048989087
48	0x3d16724a	0.03673009
49	0xba1c39fb	-0.00059595675
50	0x3c0ce62f	0.008599802
51	0x3d3a9c45	0.045559186
52	0x3d7f6e21	0.062360886
53	0x3ca21f3f	0.01979029
54	0x3d35d863	0.044395816
55	0x3d2ac922	0.04169572
56	0x3b7dd558	0.00387319
57	0x3c317876	0.010831943
58	0xbd4d7faa	-0.050170578
59	0xbd0882f6	-0.03332802
60	0xbce558bb	-0.027996412
61	0x3ca71e8f	0.020400314
62	0x3d5c1e17	0.053739633
63	0xbd5a851a	-0.05334959
64	0xbd495641	-0.049154524
65	0x3d660b59	0.056163166
66	0xbd2a30d6	-0.04155048
67	0xbb87a878	-0.004139956
68	0xbd69fd1a	-0.057126142
69	0xbd9566f2	-0.07295026
70	0xbd1e3170	-0.038621366
71	0x3df97c00	0.12181854
72	0xbd83c48d	-0.064339735
73	0xbcead088	-0.028663889
74	0xbc0c11fe	-0.008549212
75	0x3d1ef984	0.038812175
76	0xbc26ef67	-0.010188914
77	0x3d891e69	0.066952534
78	0x3df689ca	0.12038
79	0xbcb028fe	-0.021503922
80	0xbd1c5b8e	-0.03817325
81	0xbd27a07f	-0.040924545
82	0xbcfffab7	-0.03124748
83	0x3c439a0c	0.011938583
84	0x3d1519f4	0.036401704
85	0x3ddce9c8	0.10786778
86	0xbd29c527	-0.041447785
87	0xbd07bea5	-0.033140797
88	0xbd558f10	-0.05213839
89	0xbbaf0aa2	-0.0053418437
90	0x3d3e3f8c	0.04644732
91	0x3caba8ac	0.020954452
92	0xbdb646fc	-0.08900258
93	0x3d359fd9	0.044341896
94	0xbdc48097	-0.09594839
95	0xbcaa7b89	-0.02081086
96	0xbd64d20f	-0.05586439
97	0xbd013816	-0.03154763
98	0x3db3a832	0.08772315
99	0xbdc645f1	-0.09681309
100	0x3d1e9f47	0.038726117
101	0x3db84474	0.089974314
102	0xbda42b57	-0.08016079
103	0x3d9b2b38	0.07576603
104	0xbd3200ad	-0.043457676
105	0x3d7baab0	0.061442077
106	0xbd35d8f7	-0.044396367
107	0xbd2709ed	-0.04078095
108	0xbd63b825	-0.055595536
109	0x3dc9da90	0.098561406
110	0xbcf6e9dc	-0.03014081
111	0xbd8beca7	-0.06832247
112	0xbc6d6e3a	-0.014491612
113	0x3b1a1540	0.00235112
114	0xbce13a0f	-0.027493505
115	0x3cedf6f5	0.029048422
116	0x3d7650e2	0.06013573
117	0xbd2e02fa	-0.042483307
118	0x3d800484	0.06250861
119	0xbd8cb88b	-0.06871136
120	0x3d53eb4d	0.051738072
121	0x3d99c687	0.07508569
122	0xbdb5ab29	-0.08870537
123	0x3cc6da8a	0.02427413
124	0xbc6df20e	-0.014523042
125	0xbd7eac93	-0.0621763
126	0xbc948404	-0.018129356
127	0xbba35fe4	-0.0049857963

fc2.weight f4 [5, 128]
0	0x3d3f37a6	0.04668393
1	0x3bc3dc19	0.0059771654
2	0x3dc023e9	0.09381849
3	0x3cc500e9	0.024048286
4	0x390fd230	0.00013715844
5	0x3ce32468	0.02772732
6	0xbd2e4efb	-0.04255579
7	0x3dc31006	0.095245406
8	0x3d45cd59	0.048291538
9	0xbc9d9ee3	-0.019240802
10	0x3de38f43	0.111113094
11	0x3c995ead	0.018721903
12	0xbc9d69af	-0.019215433
13	0x3e07c902	0.13260272
14	0x3d96d9e3	0.07365777
15	0x3d0477f1	0.032340948
16	0x3c59fede	0.013305394
17	0x3d0a2046	0.033722185
18	0x3d754074	0.05987592
19	0xbd085989	-0.033288512
20	0xbd984b96	-0.07436292
21	0xbd0193af	-0.031634983
22	0xbe364389	-0.177992
23	0xbdc5bffc	-0.09655759
24	0xbc9d44e1	-0.019197883
25	0x3dd1702f	0.102264754
26	0xbde98b66	-0.11403541
27	0x3db22df4	0.08700171
28	0x3d4ec64f	0.05048209
29	0x3b8e6897	0.004345964
30	0xbc93c81f	-0.018039761
31	0xbd099634	-0.03359051
32	0xbd46d50f	-0.048543032
33	0x3cf97d3a	0.03045522
34	0xb9015019	-0.00012332237
35	0x3d854717	0.065077
36	0x3dcdeb10	0.100546
37	0xbd5e7f1b	-0.054320436
38	0x3db5817c	0.08862588
39	0xbe701fd2	-0.23449638
40	0xbdd9c4eb	-0.10633262
41	0xbd26a504	-0.040684715
42	0xbdcf0dbe	-0.10110043
43	0xbd30911e	-0.043107145
44	0xbdedcdc7	-0.116115145
45	0x3de5010c	0.1118184
46	0x3bcb928e	0.006212539
47	0xbdd870cb	-0.105683886
48	0x3d9dfd1c	0.077142924
49	0x3e815798	0.2526214
50	0xbc314446	-0.0108195
51	0x3db14939	0.08656544
52	0x3dd27d0a	0.102777556
53	0x3d989006	0.07449345
54	0x3cd2016c	0.025635444
55	0xbd385205	-0.045000095
56	0x3d70bc62	0.058773406
57	0xbe8a6dc8	-0.2703688
58	0x3c34eb05	0.011042361
59	0x3d87617f	0.06610393
60	0xbd6dd324	-0.058062688
61	0xbd8f4c10	-0.0699693
62	0x3d6cb375	0.05778833
63	0xbc0aaa5e	-0.00846347
64	0xbcc3013d	-0.023804301
65	0xbe18cd06	-0.1492196
66	0xbd74c469	-0.059757624
67	0x3d938cc1	0.07204581
68	0x3d3c1083	0.045914184
69	0xbd9766bc	-0.07392642
70	0xbbd99e38	-0.0066411756
71	0x3d4427cc	0.047889516
72	0xbde7b885	-0.11314491
73	0x3d169f18	0.036772817
74	0xbdcc8d86	-0.09987931
75	0xbb3d590c	-0.0028892187
76	0xbd07c97b	-0.03315113
77	0x3d8f38b1	0.06993235
78	0x3df7243a	0.120674565
79	0xbd595be6	-0.053066157
80	0xbc9e4c24	-0.019323416
81	0xbcd9a81f	-0.026569424
82	0xbd2de10b	-0.042450946
83	0x3e61c19c	0.22046512
84	0xbbb0f921	-0.005400792
85	0x3deb6427	0.11493712
86	0xbd8af15e	-0.067843184
87	0xbc5adc5f	-0.013358205
88	0x3d884c58	0.066551864
89	0x3d991f83	0.074767135
90	0xbe08e240	-0.13367558
91	0x3d7fb7e4	0.06243123
92	0xbdde84ab	-0.10865148
93	0x3d0fc010	0.035095274
94	0xbd0625d5	-0.032750923
95	0x3d0b99e7	0.03408232
96	0x3d51a798	0.05118522
97	0xbd207eba	-0.039183356
98	0x3db6953d	0.08915184
99	0xbd0e9924	-0.034814015
100	0x3de170ac	0.110078186
101	0x3d8dadcf	0.06917917
102	0xbd814f9b	-0.06314012
103	0x3d4bf888	0.049797565
104	0xbd546732	-0.051856227
105	0x3cae6a7c	0.02129101
106	0x3bd8ce90	0.006616421
107	0xbc959d52	-0.018263493
108	0xbd5431ef	-0.051805433
109	0x3db49c33	0.08818855
110	0x3d0a5757	0.0337747
111	0xbc8e208b	-0.017349502
112	0x3d91b195	0.07113949
113	0x3cefc5a9	0.029269056
114	0x3d296409	0.041355167
115	0x3d3555fc	0.044271454
116	0xbe540543	-0.20705132
117	0xbd2bbc67	-0.04192772
118	0xbe364583	-0.17799954
119	0xbdf378d4	-0.118882805
120	0x3da0c5cf	0.07850229
121	0xbe0a09aa	-0.13480249
122	0x3d32c6ad	0.043646503
123	0x3d325c7b	0.043545227
124	0x3d709b84	0.05874206
125	0xbd715817	-0.0589219
126	0xbc826a49	-0.015919821
127	0xbd87cfac	-0.06631407
128	0xbc9bc8f3	-0.019016718
129	0xbdbf4f7b	-0.093413316
130	0x3d90ca62	0.070698515
131	0x3d8fb375	0.070166506
132	0xbbc920a9	-0.0061379266
133	0xbdc8b9d2	-0.098010674
134	0xbdbd3c69	-0.09240038
135	0xbbe764e2	-0.0070615867
136	0xbbfcf5b4	-0.00771972
137	0x3d0f5a0b	0.03499798
138	0x3db2040d	0.08692179
139	0xb9f6be77	-0.00047062684
140	0xbd607c47	-0.05480602
141	0xbe054543	-0.13014702
142	0x3c9fcf04	0.019507892
143	0x3ce040e7	0.027374698
144	0x3d383283	0.044970047
145	0xbda7dd4f	-0.08196508
146	0xbcd093ab	-0.025461039
147	0x3d64df8f	0.055877265
148	0x3c874c52	0.016515885
149	0xbd6f8d34	-0.05848427
150	0x3e506a91	0.20353152
151	0xbd06a615	-0.032873232
152	0x3d4e0ce1	0.05030525
153	0x3dd230f5	0.10263244
154	0x3dfc70f5	0.12326232
155	0xbe51afd0	-0.20477223
156	0x3d036c11	0.032085482
157	0x3d0bb175	0.034104783
158	0x3c7c6178	0.015404098
159	0xbd7689a1	-0.060189847
160	0xb8d82110	-0.00010305841
161	0xbd8319a4	-0.06401375
162	0xbd89cd1a	-0.06728573
163	0xbc472e3e	-0.012157021
164	0x3db7c5c0	0.08973265
165	0xbd508a5d	-0.050913204
166	0x3d047cf4	0.032345727
167	0x3e2afc17	0.16697727
168	0x3e1be17d	0.15222736
169	0x3daa2fe5	0.083099164
170	0xbbe04313	-0.0068439334
171	0xbba421c2	-0.005008907
172	0x3de19823	0.11015346
173	0xbcf3e45e	-0.02977198
174	0xbe4a10af	-0.19732927
175	0x3de65a7e	0.11247729
176	0xbdc61309	-0.096715994
177	0xbdcceac9	-0.10005719
178	0xbd21e087	-0.039520767
179	0x3d348abc	0.04407762
180	0x3d5f1791	0.054465834
181	0xbd442b3f	-0.047892805
182	0x3e27bf5d	0.16381593
183	0x3d0739bc	0.033014044
184	0xbd8fa10b	-0.070131384
185	0x3e22f464	0.1591354
186	0xbd9c4203	-0.07629778
187	0x3b81311e	0.003942623
188	0x3d1fafc2	0.038985975
189	0x3e01cb6d	0.12675257
190	0x3db470de	0.0881059
191	0xbd946cbf	-0.07247304
192	0xbdb4c5e5	-0.08826808
193	0x3cf1e070	0.029525965
194	0xbdbf3b46	-0.093374774
195	0xbd8c14e6	-0.068399236
196	0xbd613c80	-0.054989338
197	0xbd53eba6	-0.051738404
198	0xbdd81600	-0.10551071
199	0x3dd66604	0.10468677
200	0x3d0af655	0.033926327
201	0x3cb74726	0.022372793
202	0x3e021dc8	0.12706673
203	0xbd8b0d26	-0.06789617
204	0xbc85c5a5	-0.016329596
205	0x3c1999c1	0.009375037
206	0x3db136a0	0.08652997
207	0xbd8d6364	-0.06903723
208	0x3d9ea469	0.077462025
209	0x3d7023ad	0.058627773
210	0xbcb12a61	-0.021626653
211	0xbe03b49a	-0.12861863
212	0x3da0afcc	0.078460306
213	0xbe83eb90	-0.25765657
214	0xbd4d1cdb	-0.050076347
215	0xbbb83b11	-0.0056222756
216	0x3cd62a20	0.026143134
217	0xbe363b09	-0.17795958
218	0x3c47fb41	0.0122059
219	0xbe059df1	-0.13048531
220	0xbd51f36e	-0.051257543
221	0x3d6790da	0.056534626
222	0xbd79cc3c	-0.06098579
223	0xbe1db2ad	-0.1540019
224	0x3c593b1f	0.0132587245
225	0xbcd73362	-0.026269618
226	0x3ddc5e9f	0.10760235
227	0x3de6ba8b	0.11266049
228	0xbe02be86	-0.12767991
229	0x3c4fac96	0.012675425
230	0x3dc7db9f	0.09758686
231	0xbcc5c7a9	-0.024143057
232	0x3d3d25a2	0.046178468
233	0xbd6e4509	-0.058171306
234	0x3db3ee89	0.08785731
235	0xbd68a03c	-0.056793436
236	0xbcaa0e16	-0.02075867
237	0xbce38610	-0.027773887
238	0xbd7f4131	-0.06231803
239	0x3d374962	0.044747718
240	0xbd8e0336	-0.06934206
241	0xbdce2e93	-0.10067477
242	0xbcc22f86	-0.023704302
243	0xbd3eb761	-0.046561603
244	0x3cda4588	0.026644483
245	0xbd35d708	-0.044394523
246	0x3e23c26e	0.15992138
247	0xbd448cff	-0.047986027
248	0x3c840a62	0.016118232
249	0x3e57099e	0.20999762
250	0xbe12364d	-0.14278527
251	0xbd7f5164	-0.06233348
252	0x3d9b968f	0.07597076
253	0x3de23a88	0.1104632
254	0xbd18c56e	-0.03729766
255	0x3d260772	0.040534444

fc2.bias f4 [5]
0	0xbcb1972f	-0.021678535
1	0xbd06a704	-0.032874122
2	0xbd2c525d	-0.042070735
3	0x3d987f0d	0.07446108
4	0xbe6e644f	-0.23280452
