saved_weights/Grid_4_4/20/critic.pth (torch, 10931 bytes, 11 tensors)

attentions1.linear.weight f4 [16, 1]
000000 9d 97 7f be 75 d9 2f bd 33 63 c0 3e 9e 04 b8 be
       -0.2496018 -0.042931993 0.37575683 -0.35941023
000010 31 49 e4 3e 67 34 49 3f d6 23 3f bf 8b 76 90 be
       0.4458709 0.78595585 -0.74664056 -0.2821544
000020 e2 c2 69 bf 8d ab 06 bf ae 38 e2 3e c9 40 38 bf
       -0.9131299 -0.52605516 0.44183868 -0.71973854
000030 a3 a7 fa be ec a3 ad be 41 ca ca 3e f9 2a 8d be
       -0.48956022 -0.33914125 0.39607432 -0.27571848

attentions1.attn.weight f4 [1, 8]
000000 68 fb 4e 3e 29 db 0c 3e 67 01 8f be 97 c3 1c 3e
       0.20213091 0.13755478 -0.27930757 0.15308987
000010 e1 be 31 3d 81 4d c6 3e 57 63 ae be 37 fa 8d 3d
       0.043394927 0.38731006 -0.34060165 0.0693249

attentions2.linear.weight f4 [16, 16]
000000 d0 01 25 3c c1 46 3e 3e 82 54 06 be 1e ad ee 3d
       0.010071233 0.18581678 -0.13118175 0.11654113
000010 48 ed 52 3d 4b 4a 34 3e 7e 51 d2 3b 9c 9c d4 3d
       0.05149582 0.17606466 0.006418406 0.10381433
000020 5d 08 1b 3e f6 51 2f be ec 5e 80 be 76 95 2b 3e
       0.15139909 -0.1712111 -0.2507242 0.16756234
000030 1a c3 ba 3d 6e 49 03 bd 87 1f 5a 3c ea 31 67 3e
       0.09119244 -0.03205245 0.013313181 0.22577634
000040 82 4d 4d be 10 ae ad 3d 53 07 92 3c 6e 4d f3 bd
       -0.20049098 0.084804654 0.017825758 -0.11880003
000050 45 cf 0d bd 47 30 67 be 33 a9 3a 3e ab 31 53 bd
       -0.034621496 -0.2257701 0.18228607 -0.05156104
000060 ca 12 56 3e 40 c9 f7 bd a9 00 48 be 19 77 1a 3e
       0.20905605 -0.12098932 -0.19531502 0.15084495
000070 e2 c3 c7 3a 04 0a 3e 3d b7 09 57 3d 51 4f 06 3e
       0.0015240873 0.04639627 0.0524995 0.13116194
000080 36 26 76 bd f5 be 0b 3e c6 85 75 bc ce 76 51 be
       -0.060095035 0.13647063 -0.014985507 -0.20455477
000090 e3 af dc bd 26 0b 29 be 51 66 ea 3c 58 db 45 3e
       -0.10775735 -0.16508159 0.028613241 0.19321954
0000a0 bd 61 64 3e 8f ef 46 3e 74 e4 33 be 2e be 21 be
       0.22302909 0.19427322 -0.17567617 -0.15795204
0000b0 eb 79 55 bd a1 7c 01 be 8c 79 71 be 35 4f 49 be
       -0.052118223 -0.12645198 -0.23581523 -0.19659121
0000c0 02 e8 cc bd 75 eb 12 bd 29 14 5d be 2c 3b 83 3e
       -0.100051895 -0.03586908 -0.21589722 0.25631082
0000d0 c5 02 83 be 16 9c ed 3d 64 90 f8 3d 63 fb d7 3d
       -0.2558805 0.11602037 0.12136915 0.10545995
0000e0 c7 b5 42 3e 4d cd 21 bb 85 2a 3d be f8 19 61 be
       0.19014655 -0.002468902 -0.18473251 -0.21982563
0000f0 89 fb 01 be b5 0b 61 be 58 d4 42 be a5 bb 0e bd
       -0.1269361 -0.21977122 -0.19026315 -0.03484692
000100 92 58 ea bd 74 69 a1 bb 6e ae 7b 3e a4 cc 83 3d
       -0.11442675 -0.004925901 0.24578258 0.064355165
000110 e5 a5 d3 3d f2 d2 91 3d 8d ff f2 3d 8f da 81 be
       0.10334376 0.07120313 0.11865149 -0.2536206
000120 27 3d 7c be 65 dc 64 be f1 65 06 3e 9d 38 78 be
       -0.24632703 -0.22349699 0.13124825 -0.24240346
000130 11 1e 63 bd 8c 93 e8 bc 28 4c 11 be a8 6b a8 bd
       -0.055448595 -0.028390668 -0.14189208 -0.08223659
000140 fd 07 06 3e 46 0e dd bd 04 bd 50 3e c7 c0 67 be
       0.13088985 -0.10793738 0.20384604 -0.22632132
000150 a8 ab 3c 3d 02 d7 65 3e 29 c4 83 be a6 cf bd bd
       0.04606214 0.224453 -0.25735596 -0.092681214
000160 95 53 78 be 76 61 5c bd f7 15 47 3e 63 83 dc 3d
       -0.24250634 -0.053803883 0.19441973 0.107672475
000170 2a 93 61 3e c1 2a 89 be 4d f3 b9 bd 6f e6 13 be
       0.22028795 -0.2679043 -0.09079609 -0.14443372
000180 c4 b3 c5 bd 89 0e 1b 3e e9 44 db 3d 65 14 9b 3c
       -0.09653428 0.15142263 0.10706503 0.018930623
000190 87 15 a0 3d 26 25 38 3e e7 c4 4a be a2 16 b5 3c
       0.07816606 0.17982921 -0.19801675 0.022105519
0001a0 39 1b f3 3d e0 1f 56 bc dd 23 d6 bd 31 b5 5f 3d
       0.11870427 -0.013069123 -0.10456059 0.054616157
0001b0 21 c2 03 3e 36 39 27 3e e9 1d 87 3e 5d 8a 07 be
       0.12867023 0.16330418 0.26390007 -0.13236375
0001c0 e7 b6 5f 3e ec 18 55 3e 8c a5 a5 3d ee b6 c9 bd
       0.21847115 0.20810288 0.08088216 -0.09849344
0001d0 ee 1c 32 3e 0a 18 81 3e cb 34 0d be 33 93 3b 3e
       0.17393848 0.25213653 -0.1378967 0.18317871
0001e0 8b 10 78 be 2b ae 07 be 48 c8 fb bc 7b e5 39 be
       -0.2422506 -0.13250034 -0.03073515 -0.18153946
0001f0 70 64 4c 3e cd 88 8f bd f8 9d 71 3d c4 c0 cc 3d
       0.19960189 -0.070085146 0.05898854 0.099977046
000200 30 50 81 3e 38 9b 6c be e5 4d 95 bd f3 e5 24 be
       0.2525649 -0.23106086 -0.07290248 -0.16103344
000210 9d 15 2d 3d 5a d3 8e bc 52 7f 76 bd 3a b6 4b bd
       0.04225694 -0.017434765 -0.060180016 -0.04973433
000220 ba a4 4f be 2e 1b b5 bd 8d 77 6c be 72 f8 97 3d
       -0.20277682 -0.08843075 -0.2309248 0.07420434
000230 52 2f 39 bc b3 b5 12 3e 65 2e 52 bd 53 49 32 be
       -0.011302786 0.14327125 -0.051313777 -0.17410783
000240 b8 78 71 be 55 17 4f bd 2a ad 04 3e c8 20 22 bd
       -0.23581207 -0.05055936 0.12956682 -0.039582044
000250 fd ea 29 3e 18 bc 27 3e d3 91 e9 bd 0b 3b c4 3d
       0.16593547 0.16380346 -0.11404767 0.09581574
000260 ac 1e fe 3d 1e 98 4f 3e db 3c 45 be ae ca 58 3e
       0.12408194 0.20272872 -0.19261496 0.21171066
000270 a3 aa 6f be 89 67 c6 bd a5 8f 8a 3e 3f e1 86 bc
       -0.23404936 -0.096877165 0.27062717 -0.016464828
000280 9d cc 61 be 2f 0f 47 3e 48 f5 64 be 20 22 81 3e
       -0.2205071 0.19439386 -0.22359192 0.25221348
000290 d3 ef 5e be c5 4d 89 be 19 07 50 be 18 3f 40 3e
       -0.21771173 -0.26817146 -0.20315208 0.18774068
0002a0 f0 b6 2f be 90 74 a8 3d 2e 4b 6c be 0d 55 96 bd
       -0.17159629 0.082253575 -0.23075554 -0.07340441
0002b0 bf 96 7b 3e d5 54 15 be 7b 18 09 3e 07 8d 45 be
       0.24569224 -0.14583142 0.13388245 -0.19292079
0002c0 af a1 53 3e fe 48 3e 3e f6 fe d4 bd 23 6e 3e be
       0.20667146 0.18582532 -0.104001924 -0.18596701
0002d0 73 77 87 be 39 12 78 be e0 c7 29 3e 07 24 de bd
       -0.2645832 -0.24225701 0.16580153 -0.108467154
0002e0 76 d2 0b 3c 00 d7 ca 3d b3 eb 89 be c5 d2 34 be
       0.0085340645 0.09904289 -0.26937637 -0.17658527
0002f0 f2 c4 eb 3d ae 0a 68 be 9a a6 f9 bd c5 f7 1b bd
       0.11512174 -0.22660324 -0.1218998 -0.03807809
000300 24 9e 63 be 1b c6 81 bd 2a e0 8f bd 01 ca 0c be
       -0.22228295 -0.06336614 -0.07025178 -0.13748933
000310 d4 98 14 3b 41 10 64 3e 52 9b 90 3d 74 0a 71 be
       0.00226741 0.22271825 0.07060875 -0.23539144
000320 7a 4f 2f 3e ec 89 d7 3d 93 5b 41 3e 56 60 21 3e
       0.17120162 0.105243534 0.18882589 0.15759405
000330 48 06 93 3c 80 c9 aa bc e0 91 f3 bd 38 1a 5a 3d
       0.017947331 -0.020848036 -0.11893058 0.05324766
000340 49 2d 21 be f9 ab 7b 3e 8d 70 e1 3c 2a 8e c9 3d
       -0.15739931 0.24577321 0.027519489 0.09841569
000350 9a b3 37 3d bc d5 10 be 17 50 d2 3c 29 7c 48 3e
       0.044849016 -0.14144033 0.025672955 0.19578613
000360 ee a6 1d 3c 3b f9 82 bd 75 6a 08 3d b1 cb 32 be
       0.009622319 -0.06395193 0.03330465 -0.17460515
000370 11 1f 22 be b2 e5 0c 3e ba 2b 87 bd cb c0 04 bd
       -0.15832163 0.13759497 -0.06600137 -0.032410424
000380 c7 19 4b bd 4e c6 99 bd 90 d1 01 3e 1c 73 13 be
       -0.04958513 -0.07508527 0.12677598 -0.1439938
000390 c5 69 56 3d 7d c0 a5 3d 79 98 6a 3e b5 e3 e3 3d
       0.052346963 0.08093355 0.22909726 0.11127416
0003a0 f4 39 f1 bb e1 b5 69 3e a8 1c 28 3e 6c 57 54 be
       -0.007361645 0.22823288 0.16417181 -0.20736474
0003b0 3d 98 92 3d ba 06 27 bd 9c 26 ab 39 dc 11 71 3d
       0.071579434 -0.0407779 0.00032644428 0.058854923
0003c0 66 8d 10 bd b6 e5 53 3e 99 31 84 be 7f c9 78 bd
       -0.035291098 0.20693097 -0.2581909 -0.060739037
0003d0 33 63 6e be d3 96 10 3e 08 25 11 be 8d 4b 52 3d
       -0.23280029 0.14120035 -0.14174283 0.051341582
0003e0 54 04 90 3d e7 c3 0a be 92 13 ee 3c bc e3 c3 bd
       0.070320755 -0.13551293 0.029062066 -0.09564921
0003f0 c8 d4 d0 3d 7a 77 07 3e 00 82 11 3e 8e 76 79 3e
       0.10196835 0.1322917 0.14209747 0.24361631

attentions2.attn.weight f4 [1, 8]
000000 f9 63 85 3c 08 97 ad 3e 8e 7f 96 bc 8a b5 a6 bd
       0.016283022 0.3390429 -0.01837137 -0.081400946
000010 f5 9e 2b 3d 27 62 16 3e ab 87 94 3e a5 ef 5d 3d
       0.04189964 0.1468588 0.29009756 0.05418362

attentions3.linear.weight f4 [16, 16]
000000 a4 d0 79 bd bd fa 5e bd 34 dd 4a be b1 88 01 3e
       -0.06098999 -0.05443834 -0.19810945 0.126498
000010 99 70 3d 3e e8 b4 b9 bd 08 7a c9 3d 5e 9c 16 be
       0.18499984 -0.09067708 0.09837729 -0.14708087
000020 09 a0 b3 3d 20 26 2e 3d ad a5 de 3d 49 e1 06 be
       0.08770759 0.042516828 0.10871444 -0.13171877
000030 17 52 29 3e 8b f8 41 bd bd ab 5b be c0 aa 88 bc
       0.16535221 -0.04735617 -0.21452232 -0.016682982
000040 49 91 9d 3d ce f7 76 3e 0c 91 a2 3d 2c ba 8f 3e
       0.076937266 0.24117967 0.07937822 0.28071725
000050 b1 b7 07 bd d4 27 91 bc b7 f5 88 be 7b bd ca 3b
       -0.033134166 -0.017719187 -0.26749966 0.0061871386
000060 8e 81 54 3e 81 33 91 bb 94 6f 8f 3e e4 44 49 bd
       0.20752546 -0.0044311886 0.28014815 -0.049137965
000070 ec ea 80 be 17 87 13 3e 15 70 57 bc 66 3a 14 3e
       -0.2517923 0.14407001 -0.013149281 0.14475402
000080 e3 3a c7 3d 16 37 10 be ae bf ca bd da 40 5e 3d
       0.097280286 -0.14083514 -0.09899841 0.054261066
000090 47 4e c0 3c 80 ef 13 3e af 3b 89 3d 5e 09 07 be
       0.023474826 0.14446831 0.06700837 -0.13187167
0000a0 ee 8e 33 be ea 72 34 be 5c 9a cf 3d 7e e1 68 3d
       -0.17534992 -0.17621961 0.101368636 0.05685567
0000b0 23 ba 1a 3e 67 b1 f1 bc a5 5e 80 3e ff e3 4e 3e
       0.15110068 -0.029503537 0.25072208 0.20204161
0000c0 ab 79 0d be cc 50 a3 bc c8 88 4f 3e 43 44 01 3e
       -0.13815944 -0.019935988 0.20267022 0.12623696
0000d0 50 53 c8 3d c7 03 72 be f4 53 95 be 1c d7 0d 3e
       0.097815156 -0.23634253 -0.29165614 0.13851589
0000e0 32 df 1f 3b 7b 16 2e 3e 7e a4 59 bb f6 d4 e9 bd
       0.002439451 0.17000763 -0.0033209617 -0.11417572
0000f0 52 ae 44 3e 0e b0 ec bd f9 4d 0a be 65 75 2b 3d
       0.19207123 -0.11557017 -0.13506307 0.041860003
000100 73 da 38 be 48 20 63 3e d8 cb 56 bd eb 4d 3d 3e
       -0.18052082 0.22180283 -0.052440494 0.18486755
000110 52 e6 85 be d8 16 58 be e5 6f 89 3d 29 9b 51 be
       -0.26152283 -0.21102464 0.06710795 -0.20469345
000120 ad 4d 59 3e 7b 54 8e be 0a 3d 5e 3e f3 53 42 be
       0.21221037 -0.27798828 0.21702972 -0.18977337
000130 8f 79 13 be 05 a9 2b 3e a6 96 cd 3d 76 cb da 3d
       -0.1440184 0.16763695 0.100384995 0.10683338
000140 8f 2d cd bd e5 0f 33 be d3 74 34 be 9c 77 e6 bd
       -0.10018455 -0.17486532 -0.1762269 -0.112532824
000150 28 e9 0f be b0 0a 1a be 2c d6 8b be 92 31 58 be
       -0.14053786 -0.1504314 -0.27311838 -0.2111266
000160 02 aa c0 3c 88 d9 6a be 7c 7f 32 be 5f cd 9c bd
       0.023518566 -0.22934544 -0.17431444 -0.07656359
000170 07 3b 39 3e 66 30 3d 3e 65 be 7b bd f2 f4 77 3d
       0.18088923 0.18475494 -0.06146087 0.060536332
000180 01 80 e4 bd 74 77 2d be 26 ff 25 3e 98 d9 37 be
       -0.11157227 -0.16940099 0.16210613 -0.17954099
000190 c8 50 01 be 5c 82 ac 3d 9f cd 58 3d 59 db c5 3b
       -0.12628472 0.084233016 0.05293047 0.006038111
0001a0 64 b8 00 be f5 74 62 3d 6c 3e 90 3d b1 b1 0d 3e
       -0.1257034 0.05528732 0.07043156 0.13837315
0001b0 7f 37 d2 bd 48 e1 85 3d bf 7a 07 be d6 7f 32 3e
       -0.10264491 0.065371096 -0.13230418 0.17431578
0001c0 03 f4 81 bd 44 32 3a be 7e a0 4a 3d 20 62 60 3e
       -0.0634537 -0.18183237 0.049469464 0.21912432
0001d0 cd 22 c9 bd 4d 6a 53 3d fd 56 44 bd 15 e2 18 be
       -0.09821091 0.05161505 -0.04793452 -0.14929993
0001e0 5a b1 2d 3e 00 6c 62 be 5d da 36 3e 88 d1 5c 3e
       0.16962186 -0.22111511 0.17856736 0.21564305
0001f0 ad 18 eb bc 4c ab 6e 3d c7 f9 ed bc a8 a9 f2 bc
       -0.02869829 0.05826883 -0.029049767 -0.029621914
000200 d9 8e 06 3e 47 56 de bd 37 24 75 3e 38 8d 01 3d
       0.1314043 -0.108563 0.23939596 0.031628817
000210 8a 5d 11 be e6 bd ea bb 61 5a 04 3d b6 5b 09 3e
       -0.14195839 -0.007163751 0.032312755 0.13413891
000220 22 41 b8 bc 97 0a 09 3d 6e 38 44 3e a4 8b 22 be
       -0.022491995 0.033457365 0.19162151 -0.15873581
000230 83 05 21 be 17 01 a7 3d ea b9 5f be 3a 3e 10 be
       -0.15724759 0.08154505 -0.21848264 -0.14086238
000240 09 6c dd bd 06 9c 5a 3e 1d bd db bc a9 e2 73 bd
       -0.10811622 0.2134858 -0.026823575 -0.05954233
000250 66 3b 8a 3e 10 cf 67 bc c1 0d 1b 3e 33 09 80 3e
       0.26998442 -0.014148489 0.15141965 0.25007018
000260 28 0c cf 3d 33 e6 8c 3e d1 c1 8f be ed c4 84 bd
       0.101097405 0.27519378 -0.28077558 -0.06482873
000270 1f e7 89 bd 4e 90 83 bd 0e 1f 1d 3e de fb 58 3d
       -0.06733536 -0.06424008 0.15343878 0.052974574
000280 61 d6 31 3e e1 c0 9f bd 85 42 06 3a 40 fa bd bd
       0.17366935 -0.078004606 0.00051216065 -0.09276247
000290 ad a0 7f 3e 8f cf 80 3e 26 bf 3c 3e 21 27 53 3e
       0.24963637 0.25158355 0.18432292 0.20620395
0002a0 71 4d 7f 3e d6 66 fb 3d 63 f2 20 3d fc 5f 8d be
       0.24931885 0.12275474 0.039293658 -0.27612293
0002b0 9d ab fd bc 13 d0 0d 3d 57 8f 3c be a0 fb 56 3d
       -0.03096562 0.034622263 -0.18414055 0.052486062
0002c0 52 15 13 3d 93 9d 89 3e 3d 24 27 be 3d 79 4b 3e
       0.035909005 0.26878032 -0.16322418 0.19870467
0002d0 6c b7 d4 3d b3 3a 05 3d 86 5a 3b bd f1 09 c6 3d
       0.103865474 0.032526683 -0.045740627 0.09669865
0002e0 8a 38 30 3e 60 d5 95 3d eb bd 0e 3e 49 d7 84 3e
       0.17209068 0.07316089 0.13939635 0.259455
0002f0 3c 69 5d bd 77 3c e7 bd 7a ae da 3c 10 1a 8a be
       -0.054055437 -0.1129083 0.026694525 -0.2697301
000300 5b 1b 08 3d d9 71 26 3d 99 f1 3b 3e 20 99 75 bd
       0.033229213 0.040635917 0.18353881 -0.059960485
000310 b3 1f 8e be 80 c1 40 3c 86 96 25 3e a4 eb fd bd
       -0.2775856 0.011764884 0.16170701 -0.123984605
000320 5c 5c 78 3d b9 a7 76 be 98 98 3c 3c e8 ac 8a 3c
       0.060634956 -0.24087419 0.011510991 0.016928151
000330 56 da 3f 3d c2 fb 29 be 49 73 17 be b0 89 25 3e
       0.04683908 -0.16599944 -0.14790072 0.16165805
000340 5e 40 20 3e e5 1e 7d 3e 8b c9 84 3e 90 52 bb bd
       0.15649554 0.24718817 0.25935015 -0.09146607
000350 9f f9 5d be c7 c7 8c bd 60 fe 6f be 78 fc ea 3d
       -0.21677254 -0.06874042 -0.2343688 0.11473936
000360 d4 b1 20 3d 1e b8 3f 3d 1a a9 ee 3b 98 0a 04 3e
       0.03923209 0.046806447 0.007283342 0.12894666
000370 91 bd 12 bb 57 16 5a be 07 d4 c2 3c 45 f9 cc bd
       -0.0022390822 -0.21297584 0.023782743 -0.10008482
000380 04 9c fc bd e2 9c 07 3d f5 a4 5b 3d 34 24 c0 bc
       -0.12334445 0.0331086 0.053624112 -0.023454763
000390 ab f7 16 3e 41 bf 8c 3e 61 c9 92 3e 87 45 77 bd
       0.14742915 0.27489665 0.28669265 -0.06036904
0003a0 31 51 4d 3e 1d bb f6 bd 0f e4 5c be 29 ad 8c be
       0.20050503 -0.12047408 -0.21571372 -0.2747586
0003b0 5c bb 3b 3e 6b 59 3c 3d 72 e0 d9 bd b7 c7 e6 bd
       0.1833319 0.045983713 -0.10638513 -0.11268561
0003c0 73 d2 09 be d5 43 d2 bc 51 0c 72 be 8e 1b 80 be
       -0.13459186 -0.02566711 -0.23637511 -0.25021023
0003d0 d2 8c 04 3e ec ce f8 3d d5 fe b7 bd 15 55 60 3d
       0.12944344 0.12148842 -0.08984152 0.05476864
0003e0 10 3c 63 3e 2f 5d f8 3d 77 68 33 3e 99 3c 80 3d
       0.22190881 0.12127148 0.17520319 0.06261558
0003f0 cb 0a 39 bd e2 42 1a be bf 56 4b 3e a9 7f 8a 3e
       -0.04517631 -0.15064576 0.1985731 0.27050522

attentions3.attn.weight f4 [1, 8]
000000 70 cb 73 be 19 62 3c be 39 c1 c7 3d bc de 6f be
       -0.23808074 -0.18396796 0.09753651 -0.2342481
000010 33 5a f2 bd 53 18 dc 3d 87 9b 20 3e ad b8 1c be
       -0.118336104 0.10746827 0.15684329 -0.15304823

output_layer.linear.weight f4 [1, 16]
000000 b8 3c 3b 3e 46 7d 8c be 56 ad c1 3d ec e5 ed bd
       0.18284881 -0.27439326 0.09456889 -0.1161612
000010 a7 0a 85 be 8e 5e 36 be a9 54 2e bc b0 0c f1 bd
       -0.2598469 -0.17809507 -0.010640302 -0.11769998
000020 c0 18 a3 bd c1 2c 84 3e d8 d0 6e 3e d1 87 9e bd
       -0.07963705 0.25815395 0.23321855 -0.07740749
000030 00 e4 4f bd 3b 68 ca bd af 1a 58 3e 0b 39 bf 3d
       -0.050754547 -0.09883162 0.21103929 0.09337052

output_layer.attn.weight f4 [1, 2]
000000 81 f3 2c 3e f7 ea d8 3d
       0.16889764 0.10591691

fc1.weight f4 [64, 16]
000000 33 de 02 be d2 de f4 3d e4 03 43 bd c7 ec 18 3d
       -0.12780075 0.11956562 -0.047611132 0.037335183
000010 8f e8 93 be 11 e9 a1 3d 6d 3b 38 3e 57 52 cd 3d
       -0.28888366 0.07905782 0.17991419 0.10025471
000020 f9 16 f3 bd 94 eb 47 bd 08 8f 4c 3e 27 5c 94 3d
       -0.11869616 -0.04880865 0.19976437 0.07244139
000030 b5 96 8e 3d 50 a0 3d 3d 2e 67 e7 3d 8b ce 08 be
       0.06962339 0.046295464 0.11298977 -0.1336004
000040 00 97 28 3d 44 bd 3a 3e 0c 81 9d 3d 54 60 05 3e
       0.04115963 0.18236262 0.07690629 0.13025028
000050 60 c6 4b 3e 90 c8 9a 3c 80 95 ec bb 20 c4 72 3d
       0.19899893 0.018894464 -0.00721997 0.05926907
000060 88 c8 76 be 60 4e 43 be e8 9b 1c be 8c 40 e8 bd
       -0.24099934 -0.19072866 -0.15293849 -0.11340436
000070 f0 c9 82 bd 56 81 21 be f0 ee 6f bd 24 64 c5 bd
       -0.06386173 -0.15771994 -0.058577478 -0.09638241
000080 76 20 38 3e c7 af 92 bd 5e 30 1b be 39 60 62 bd
       0.17981133 -0.07162433 -0.1515517 -0.055267546
000090 ba 30 3e 3e f7 46 dd 3d 16 bf ec 3d 7d cb 28 3b
       0.18573275 0.10804551 0.11559884 0.0025756054
0000a0 a3 c6 6e bd 4c a8 21 be f1 44 f1 bd 87 f2 9c bd
       -0.058294903 -0.15786856 -0.11780728 -0.07663446
0000b0 c5 2c a4 3d ea fd 22 be 0d 88 27 be 96 0b b9 3d
       0.080163516 -0.15917173 -0.16360493 0.09035413
0000c0 39 c2 f6 bd 47 90 1c be e9 06 22 be 2b 94 d6 3c
       -0.12048764 -0.15289412 -0.15822949 0.026193699
0000d0 b3 0d af 3d 63 d6 68 3e 7a a2 52 be b2 31 73 3e
       0.08547535 0.22738032 -0.20569792 0.23749426
0000e0 43 b3 19 3e 93 c9 73 be 4a c7 44 3c d3 f1 0f bd
       0.15009789 -0.23807363 0.012010405 -0.03514273
0000f0 b0 77 f2 bd b2 c6 ab 3d ca f7 7e bb f9 b1 53 3e
       -0.11839235 0.083875075 -0.0038905018 0.2067336
000100 67 54 38 be 72 1d 5e be 8c b6 4c be ca 1f c0 3d
       -0.18000947 -0.2169092 -0.19991511 0.09381063
000110 98 ba 0b 3e 2e a8 21 be f6 78 6e be db b7 45 be
       0.13645399 -0.15786812 -0.2328833 -0.19308417
000120 64 2b 96 be 9d 00 88 bd 27 d4 51 bd be a5 6d 3e
       -0.2932998 -0.06640742 -0.051227715 0.23207757
000130 5a 89 a9 3d 8c 2d c2 bd 55 6a 5c 3e 55 d8 84 3e
       0.08278151 -0.094813436 0.21524937 0.25946298
000140 54 d7 18 3e 3d 24 2b 3c e5 10 39 be 4e d1 85 3e
       0.14925891 0.010445652 -0.18072851 0.2613625
000150 af fd 86 be e9 0b 1f 3e 72 e2 77 be 5c 39 88 bd
       -0.2636542 0.15531887 -0.24207476 -0.066515654
000160 86 a6 80 be d0 ec 15 be ca 51 ce 3d 2a 40 bd bd
       -0.25127047 -0.14641118 0.10074194 -0.09240754
000170 3b f3 82 3d 93 de d0 3c 7c a1 1a be b8 6d 7b bd
       0.06394049 0.025496757 -0.15100664 -0.061383933
000180 d7 2d 1e bd df 19 d8 bc c0 d8 44 3e 6f 5c c2 3c
       -0.038617935 -0.026379524 0.19223309 0.023725716
000190 19 1b 1e 3e 0d da 73 bb 04 8d 2a be 9b 43 33 3e
       0.15440024 -0.0037208826 -0.16655356 0.17506258
0001a0 b3 de 67 bd 9c 81 89 3c e8 e4 36 3e 7f 6e ac 3d
       -0.056608867 0.016785435 0.17860758 0.08419513
0001b0 8f 02 43 bc 36 ca a3 3d 1d b3 73 be 46 65 c8 3c
       -0.0119024655 0.07997553 -0.23798795 0.024462353
0001c0 b2 64 52 be 8b 47 9d 3d fa 75 37 be da 71 3d be
       -0.20546225 0.07679661 -0.17916098 -0.18500462
0001d0 9a 3c 58 bd 34 b6 8a bd 21 1d 8c 3e dd ef 92 3a
       -0.05279217 -0.06773034 0.27365974 0.0011210401
0001e0 b0 78 f9 bd ef 62 93 3e e5 ae 80 3e cf c1 4f be
       -0.121812224 0.28786418 0.25133434 -0.20288776
0001f0 92 36 51 3e da a7 12 3e 53 18 05 be d0 cd ca bd
       0.20430973 0.14321843 -0.1299756 -0.09902537
000200 53 9a 85 3c 6f 54 0b be a1 d1 8e 3d 2e e9 71 3e
       0.01630894 -0.13606428 0.06973577 0.23624107
000210 03 95 51 be 71 17 06 3e f4 ed 3d 3e 12 69 fc 3d
       -0.20467 0.1309488 0.18547803 0.12324728
000220 87 64 cf bd 45 87 99 be a3 e4 ee 3d 71 80 23 3d
       -0.10126596 -0.29986015 0.11664703 0.039917413
000230 1d 01 20 3e 58 e1 35 bd 1f 64 6f be 18 47 ec bc
       0.15625425 -0.044404358 -0.23378037 -0.028842494
000240 e4 a8 77 be 48 fe 2c bd 46 2d 78 be ca ea 01 3e
       -0.2418552 -0.04223469 -0.2423602 0.12687221
000250 8c d0 3c 3e c6 76 74 be e6 b8 56 be f0 fd e0 3c
       0.1843893 -0.23873433 -0.2096897 0.027464837
000260 f8 a6 16 3d c0 5c 04 be c0 30 b0 bd b2 4e 24 3e
       0.036780328 -0.12926006 -0.08603048 0.16045645
000270 de e8 6f be c8 c2 47 be f4 68 1a 3e 40 68 10 3c
       -0.23428676 -0.19507897 0.15079099 0.008813918
000280 30 82 ee bd 1d 60 8e 3d 09 b4 e9 bc 4e cc 86 3e
       -0.11645925 0.06951926 -0.02852823 0.26327747
000290 04 ce ff 3d ea 0d 96 be a6 52 3e 3e 48 4d 45 be
       0.12490466 -0.2930749 0.18586215 -0.19267762
0002a0 b0 10 38 be f9 4c 40 be e2 78 5a 3e f2 89 25 3e
       -0.17975116 -0.18779363 0.21335176 0.16165903
0002b0 46 d9 84 be f5 67 f7 3d 9b b0 b3 bd 71 6d 1e 3e
       -0.25947016 0.12080375 -0.08773919 0.15471436
0002c0 3b 54 3b 3e 47 a6 68 3e d0 cb 21 3e d5 cb 4e 3c
       0.1829385 0.2271968 0.15800405 0.0126218395
0002d0 60 45 b2 bc f4 7f 1e 3e 07 7b 0b 3e 2e 3d 8b 3c
       -0.021761596 0.15478498 0.1362115 0.016996946
0002e0 3a 37 60 3e 59 e1 53 3c 40 07 6a 3e 94 fd bd 3d
       0.21896067 0.012932145 0.22854328 0.09276882
0002f0 b5 4f 58 3e 48 20 87 3b a3 44 2c 3e 48 d2 74 3d
       0.21124156 0.0041237213 0.16823058 0.059770852
000300 da b1 e9 3d 39 68 63 be 83 6e 2e 3e 3d 5a 1f 3d
       0.114108756 -0.22207727 0.17034344 0.038904417
000310 17 d1 6d bc 33 67 6a 3e 56 2e ba bc 4e 8a 81 bd
       -0.014515183 0.2289093 -0.022727173 -0.06325208
000320 6e c1 b3 bc e9 fa 6b be ad 98 24 be 8c 8a 26 3e
       -0.02194282 -0.23044933 -0.16073866 0.16263789
000330 a5 51 28 be bc 93 16 3d 02 13 49 3e 17 96 25 3e
       -0.16437395 0.036761984 0.19636157 0.16170536
000340 c6 46 17 bc 6f 0a c6 bc c8 77 e0 bd ef 03 25 3d
       -0.009233182 -0.024174897 -0.109603465 0.040286954
000350 d6 64 0e 3c c9 4b 5f be f5 e7 18 be 3f 4d b3 3d
       0.008691033 -0.21806253 -0.14932235 0.08754968
000360 b2 b0 11 be 20 b6 80 3e 31 60 26 bd 3f 72 51 3e
       -0.1422756 0.2513895 -0.04061908 0.20453738
000370 5a b8 fd 3c bf 9d 38 3d cb 84 7d be 1c 91 18 3e
       0.030971695 0.045072313 -0.24757688 0.14899105
000380 49 ce 84 be 76 23 28 be b5 bc 30 3e f4 5b ed 3d
       -0.25938633 -0.16419777 0.17259486 0.11589804
000390 20 20 12 bc 97 c6 c1 3d 76 f6 ae bd 6c 59 b8 bd
       -0.008918792 0.09461706 -0.085431024 -0.09001431
0003a0 64 b0 f3 3d 82 ec d1 3d 3f 28 68 3d 5b bf 97 bd
       0.11898878 0.102501884 0.056679007 -0.07409545
0003b0 c0 72 b0 bc 08 8e 10 bd 0d 7f 86 be 6f 46 4c 3e
       -0.021539092 -0.0352917 -0.26268807 0.19948743
0003c0 e7 68 66 bd 76 4b 87 3d cc 12 01 bd 37 ac 2c be
       -0.056252386 0.0660619 -0.031512067 -0.1686257
0003d0 eb 1c b0 bd 6e 88 1c be e0 2e 22 be de 7c 82 bc
       -0.08599266 -0.15286419 -0.15838194 -0.015928682
0003e0 95 62 49 be 09 e4 8a be e9 f4 31 3e e2 ce 59 3e
       -0.19666512 -0.27127102 0.17378582 0.21270326
0003f0 9a d5 bc bc b2 9f 78 be 03 f7 b1 bd 4f 9e 0f 3c
       -0.023051072 -0.24279669 -0.08689692 0.008765771

fc1.bias f4 [64]
000000 73 8b 22 3e 08 eb 69 be 6e 80 5d 3e f7 27 a3 bd
       0.15873508 -0.22843564 0.21631023 -0.07966607
000010 37 a8 02 3e 53 2b 62 3e 03 7e 70 bd 61 26 7d 3e
       0.12759481 0.2208684 -0.058713924 0.24721672
000020 5e bb 6a 3e 6a b2 3d be 62 82 1d 3e ea d6 1b 3e
       0.22923037 -0.18525091 0.15381768 0.15218702
000030 b5 17 1a 3d 95 70 53 bd c2 5a e6 bb d0 6d 9a bc
       0.037620265 -0.05162104 -0.007029862 -0.01885119
000040 04 e8 f9 bd 2f 2e 7b 3c 1a ff 52 bd 26 43 b0 3d
       -0.122024566 0.015330835 -0.051512815 0.086065575
000050 f6 f2 f0 3d 42 b8 ea 3d cf d8 23 3e ec 7e b3 3d
       0.11765091 0.11460926 0.16000675 0.08764443
000060 7d ee 85 3d fa f4 72 bd cc 00 32 be 4b c2 a4 3d
       0.06539629 -0.05931566 -0.17383116 0.08044871
000070 4b 1e 75 be a9 91 52 be ab 0c 25 be c2 40 2b 3e
       -0.23937337 -0.20563377 -0.16118114 0.16723922
000080 cc fe d6 bd 3d 42 70 3d c4 d1 41 3c ca ae 38 be
       -0.104978174 0.05865692 0.011829797 -0.18035427
000090 fd ce 4d bd 10 42 ea bd 8d 24 e7 3d c0 5a b5 3d
       -0.050246228 -0.11438382 0.112862684 0.088552
0000a0 ee 94 15 3d 2a 91 e6 bd 97 da 48 3e db 94 88 3d
       0.036518984 -0.112581566 0.19614635 0.06669017
0000b0 30 f3 ec bd c8 f7 7c 3e 32 af 6a be 08 90 59 be
       -0.11569822 0.24703896 -0.22918394 -0.2124635
0000c0 11 ea 98 3d 61 71 08 bd 31 7b 60 3e b5 86 a8 3d
       0.074665196 -0.03331125 0.21921994 0.08228818
0000d0 0e 19 15 3d 98 35 47 3e ec 89 87 3d 92 1a 36 be
       0.036400847 0.19454038 0.066181034 -0.17783573
0000e0 77 07 eb 3c 9a 40 42 be fd 8b 1a be 24 0e 3f be
       0.028690083 -0.18969956 -0.15092464 -0.18657738
0000f0 9c b3 74 be c3 31 ad 3d 47 ac 8f 3d 24 86 66 bd
       -0.2389664 0.08456757 0.07015281 -0.05628027

fc2.weight f4 [1, 64]
000000 65 d0 c6 bd e8 d7 97 3d 29 a2 ad 3d 16 b7 ad 3d
       -0.09707717 0.07414228 0.08478195 0.084821865
000010 4e fd cf bc bb a1 c0 bd a4 1e 4a 3d 8b 66 b2 3d
       -0.02538934 -0.09405848 0.049345627 0.08710965
000020 7d a0 be bd 66 e3 fe bd f4 0f 56 bd 28 01 87 3d
       -0.093079545 -0.124457166 -0.052261308 0.065920174
000030 a4 57 ca bd a3 dc f1 3d 67 4f cc bd b5 ac 86 3d
       -0.098799974 0.11809661 -0.09976082 0.0657591
000040 b0 f6 69 bd 90 26 2c bd 59 42 ad 3d 85 31 93 bd
       -0.057120025 -0.042028964 0.084599204 -0.071871795
000050 6d ac 2d bc 39 c1 af 3d 89 dd e4 bd ae 2d b3 bd
       -0.010600192 0.08581776 -0.11175067 -0.08748947
000060 0c 5b d0 bd d2 0c 05 3e 6a 71 b5 bd 94 f4 a0 bc
       -0.10173616 0.12993172 -0.08859523 -0.019647874
000070 4b a1 9e bc 50 6a d0 bd f7 60 6b bd 92 81 02 3e
       -0.01936402 -0.101765275 -0.05746552 0.1274474
000080 32 ed ea bd 75 4c 1d be ac 30 87 bd 40 1f 56 3d
       -0.11471023 -0.15361197 -0.0660108 0.052275896
000090 6f 06 01 3e 28 9d 66 3d 44 4d dc bd 2c 23 17 be
       0.1260011 0.05630222 -0.10756925 -0.14759511
0000a0 ad 55 60 3d b9 0c ff 3d ab 32 66 bd 34 26 27 be
       0.054769207 0.124535985 -0.056200664 -0.16323167
0000b0 94 05 94 3d 27 39 a1 3d 90 41 b9 bd a4 a9 47 3d
       0.072276264 0.07872229 -0.09045708 0.048745766
0000c0 3d d9 01 3e 1a 23 a8 3c e5 a6 c0 bb e6 50 23 bd
       0.12680526 0.02052455 -0.0058792704 -0.039872073
0000d0 be d6 03 bd 01 71 86 3d 95 de 97 bd b2 ce c4 3d
       -0.032187216 0.065645225 -0.07415501 0.096097365
0000e0 d8 23 26 3d a2 ee b2 bd f6 64 19 bd ea 5c e9 bd
       0.040561527 -0.08736922 -0.0374498 -0.11394675
0000f0 58 6d 6d 3d 77 36 09 be ad a9 14 be 12 ec ff 3d
       0.057965606 -0.13399683 -0.14517851 0.12496199
