saved_weights/LunarLander-v2/2137/actor.pth (torch, 14255 bytes, 10 tensors)

attentions1.linear.weight f4 [32, 1]
00000000: f7e9 8cbe b0c4 0b3e 35a3 583f 0dc8 bfbd
00000010: c9f9 07bf 8c95 813f 3964 853e 67f2 bdbe
00000020: 67dc 363f 2bb1 7d3f 5579 ebbe 8e6b 373f
00000030: 9541 b63e 5e31 413f 08b9 4e3f 3ad4 823f
00000040: 129a 59bf 75cf 60bf d75f 233f d6bb 69bf
00000050: dc79 0a3f e9e7 853e 5754 a43e ab59 1d3f
00000060: 1680 41bf ffb8 7ebf 8d4f dbbe 9fa0 463f
00000070: 22a3 543f 0a9e a23e ae25 7f3e bb5e 823e
-0.2752225 0.13649249 0.84624034 -0.093643285 -0.53115517 1.0123763 0.26053026 -0.37099
0.7143006 0.9909846 -0.45991006 0.7164849 0.3559691 0.75465953 0.80751085 1.0221016
-0.8500072 -0.87816554 0.63818115 -0.9130224 0.5409219 0.26153496 0.32095596 0.6146495
-0.7558607 -0.9950103 -0.4283413 0.7758884 0.8306142 0.317612 0.24916717 0.254629

attentions1.attn.weight f4 [1, 64]
00000000: d3cb 953d 50a1 93bd 3fa0 833d 80b6 8cbc
00000010: f9d1 1fbd 78e9 d53d 1520 dbbc 3b34 c83d
00000020: bbeb 883d 4c42 b63c 3ff5 adbd 9fe4 b6bd
00000030: 3fae e3bd 0803 e0bd 0ede f8bd d138 67bd
00000040: 9728 843c 64f7 c93c b8ab 46bd d193 9bbd
00000050: 0612 dcbd 6c2d 92bd 2b2e c9bd 1dbb 823d
00000060: 6285 8ebd 807f bc3d 8174 a9bd 25b8 c7bd
00000070: b23c 323a 548c ad3d f77f 5dbd bd71 d73d
00000080: b1f7 9e3b 1554 cb3d 67d1 4abd b6c7 39be
00000090: 0a61 833c ebda 013e dbe4 073e 549b 763b
000000a0: ba58 fc3b 4a38 9b3d c14f e7bd c484 043e
000000b0: 8a9c 8d3c 5c76 1ebd 428b 74bb 9450 ad3c
000000c0: 8291 073c 10e7 b1bd f1fa 753d 0b09 c2bc
000000d0: c375 013d afac 3c3d 26bb 103d ee9a 723d
000000e0: 2dc2 d4bc 61d5 90bd 4186 01bd c430 273e
000000f0: 1ec6 eebb 20ed eb3a deb3 2f3b e9e7 87bd
0.07314267 -0.07208502 0.06427049 -0.017176867 -0.039018605 0.10444921 -0.026748696 0.09775587
0.06685587 0.02224841 -0.084940426 -0.08930325 -0.11117219 -0.10938078 -0.121517286 -0.05645067
0.016132636 0.024654098 -0.048503608 -0.07596553 -0.10745625 -0.0713757 -0.09823259 0.06383345
-0.069590345 0.09204006 -0.082741745 -0.0975192 0.00067992054 0.08474031 -0.054077115 0.10519741
0.0048513045 0.09928147 -0.049516108 -0.1814259 0.016037483 0.12681167 0.13270895 0.0037629204
0.0077010067 0.07579096 -0.11294509 0.12941271 0.017286558 -0.038687095 -0.003731445 0.021156587
0.008274438 -0.0868665 0.06005377 -0.023685953 0.031606447 0.04606312 0.03533473 0.059229784
-0.025971496 -0.07071949 -0.031622175 0.16327196 -0.007286801 0.0017999746 0.002681009 -0.0663603

attentions2.linear.weight f4 [32, 32]
00000000: e7b7 8c3d 20ed 1c3e 0a91 a53d 3ea1 f5bb
00000010: 72ee 333d 0e71 3e3e c2af 543c d105 35be
00000020: ee61 443d 68ac a43d 2497 c8bd f7d4 f93c
00000030: e154 aebd 5ebb bf3d e032 c5bd 2779 113e
00000040: 2e5c 24be 246e 43be 82dc 7fbb f852 a9bd
00000050: bbb1 9d3d ba80 35bd 486e e93c b595 b1bd
00000060: b8a3 ddbd 207d 9d3d 2e30 0dbd 035b cf3d
00000070: 3642 fe3d 8ea9 ddbc 6b5b 403e 8c91 073e
00000080: 38c3 703d 1e29 17be 0737 52be 31d2 183e
00000090: af89 a0bd 2db4 87bd 186f 4b3d b5ef 7dbd
000000a0: f3cc 19be bdb4 ebbc e115 213e 15a6 f4bb
000000b0: dc68 85bd f429 2e3d 4f7d 0abe b41a 45be
000000c0: 94bc 553e d04f 4c3e e218 5bbe 808c f63d
000000d0: 78a9 25bd 4854 e23d b367 14be d336 b1bd
000000e0: e6b1 d43d d8b4 5f3e 5dee cfbd b251 863d
000000f0: d2ce fdbb 8e98 26be 29de aebd 0b02 1cbd
00000100: 51a9 0f3d 641c 6e3b 0afa 9b3d a637 1fbe
00000110: bacd 32be db2c 55bd a282 29bd f2cb 413d
00000120: e027 e53d 3bb9 2d3e f6bc ddbd c1e7 97bd
00000130: 94b6 8bba e146 35bb 16eb 1d3e 9bd4 733d
00000140: 2932 6bbd f0c8 3dbd ce5b 0a3e b70e 86bd
00000150: bce0 a1bd 59be 593d 22be 02be 1a0a 043e
00000160: d674 26be 4388 38be 9479 043e 6fce 943d
00000170: 296d 92bd 34b3 123e 2818 d33d fdd0 143d
00000180: 49e4 da3d 028e 4e3c e80c 8cbd 0bc2 8ebd
00000190: 92c4 193e 4c2f 023e ef82 c8bd 8a2f ee3d
000001a0: 59ad 1bbd f386 d2bd 6963 013d 4961 22be
000001b0: c409 51bb 0386 b63d f981 33bd 7243 743d
000001c0: 91aa 9c3d 41af 7cbd 801f c2bd 3505 173e
000001d0: 2a34 cb3a bf90 283e 21be d3bd 2f69 2abe
000001e0: c084 0bbe ba49 0f3e bed0 0ebe 8cf7 13bd
000001f0: a39e b23d 69bf 21bd c84a 46bd a1a6 08be
00000200: 3e95 0b3e 82b9 89bd d483 ff3d bd02 f7bd
00000210: 121b 293e 38c6 823c 10af cc3c 2692 afbd
00000220: 8991 b2bd 0636 85bd 373f e6bc 8b10 0bbe
00000230: 32f4 ef3d 6568 c2bd 2f91 08be 65cb 30bd
00000240: b22a c93d ffd0 433d 33ab d0bd d02e 453e
00000250: 97b9 2e3d 0491 a1bd 9018 053d c997 2bbe
00000260: c855 a6bd 785e 1bbd d2ec 80bd 4b4b 14bd
00000270: 5985 3db9 81bf 283d 03cd 38be 7738 f13d
00000280: 40ae a73d 315b d3bc f0ea ee3d 4306 043e
00000290: 737e 9bbd 72ea a63d e6d1 333d daf6 21bd
000002a0: 32aa e9bd b738 f0bd 28d6 eebd f4ff f63d
000002b0: e38a 113e 07fc e93d 2459 1bbe 8a53 32be
000002c0: 43f2 64bd d858 af3d d086 fb3d 3665 f9bd
000002d0: 5976 abbd 3003 b6bd 6b8e bebd 1385 59bd
000002e0: 319b 1b3e b89d e93d e466 22bd 519b 8abd
000002f0: c1aa 743d c592 273c e7bd 20be bac0 053e
00000300: 7306 06bd e9ad bd3d a624 20be 851d 073e
00000310: 22cb 173e c45d 5ebc 9efa 4dbe fb8a 32bc
00000320: 7bbc 0a3e b729 74bd 99fe 82bd 8a8a 2cbe
00000330: 6d89 0fbe 3bec 08be fa3e c13d 4d63 a63d
00000340: 7457 a93c c72c 243e 49a1 52be 72b4 453e
00000350: 5d51 11bd c9d8 13be 3ad9 49bc 2509 eb3d
00000360: 5da5 043d ff65 92bc c6a7 c6bc 2f73 1ebe
00000370: 3cee d53c 3545 cb3c 6add 623d 3cda 43be
00000380: d37f 993d 5239 0fbe 8ff8 afbd d123 f9bb
00000390: 904d 5ebd 7266 adbc 3545 36bd a368 b03d
000003a0: 2f7c 193e 5b0d 123d f821 3d3c 1a79 ebbd
000003b0: 3333 31bd f38e 453d 8bfe 0ebe 131c 4abd
000003c0: 3b96 1b3e b7e3 ba3d 3992 9abd 92ff 373e
000003d0: ef32 a9bd c589 b73d 6bf1 97bd bdf0 00be
000003e0: 9c72 adbd eb15 a1bd 431f 9fbd f81a 69bd
000003f0: 086a 16bd d00d 10be 7806 ebbd 2356 3fbe
0.06871014 0.15324831 0.08084305 -0.007496028 0.04392857 0.18597814 0.012981357 -0.17678
0.047944956 0.080406964 -0.09794453 0.030497057 -0.08512283 0.09361909 -0.09628844 0.14206372
-0.16050789 -0.19084984 -0.0039041345 -0.08267778 0.07699915 -0.044312216 0.028494969 -0.086711325
-0.108222425 0.07689881 -0.034469776 0.10124781 0.124149725 -0.027058389 0.18784873 0.13239115
0.058779925 -0.14761779 -0.20528804 0.14923932 -0.07838761 -0.06626163 0.049666494 -0.06199618
-0.15019588 -0.028772706 0.15731002 -0.0074660876 -0.06514141 0.04252048 -0.13524364 -0.19248468
0.20872718 0.19952321 -0.21396211 0.12038517 -0.04044482 0.110512316 -0.14492683 -0.08653035
0.10385494 0.2184633 -0.10152886 0.06558551 -0.007745602 -0.16269132 -0.085384674 -0.038087886
0.035073582 0.003633284 0.076160505 -0.15548572 -0.17461291 -0.05204473 -0.041384347 0.047313638
0.11189246 0.16965191 -0.10827057 -0.074172504 -0.0010659271 -0.0027660655 0.1542171 0.05952893
-0.057420883 -0.046334207 0.13511583 -0.065457754 -0.07904193 0.053160045 -0.12767842 0.12894478
-0.16255507 -0.1802073 0.12937003 0.072659366 -0.07149727 0.14326173 0.10307342 0.03633212
0.10688073 0.0126070995 -0.06838399 -0.069706045 0.15016392 0.12713355 -0.097905986 0.11630161
-0.038007114 -0.10279646 0.031588946 -0.15857424 -0.003189669 0.089122795 -0.043825123 0.059634633
0.076497205 -0.061690573 -0.094786644 0.1474808 0.0015503217 0.16461466 -0.103389986 -0.16641687
-0.13624859 0.13992968 -0.13946816 -0.03612475 0.08721664 -0.039489184 -0.04841116 -0.13344814
0.1363115 -0.06724836 0.12476316 -0.12061069 0.16514233 0.015963659 0.02498582 -0.085727975
-0.08719165 -0.06504445 -0.028106315 -0.1358053 0.117164984 -0.09492568 -0.13336633 -0.043162722
0.098225966 0.047806736 -0.10188904 0.19256139 0.04265746 -0.07888988 0.032494128 -0.1675712
-0.0812183 -0.03793189 -0.0629517 -0.036204617 -0.0001807412 0.041198257 -0.18046956 0.11778348
0.081875324 -0.02580032 0.116659045 0.12893014 -0.07592478 0.08150186 0.043901347 -0.039542057
-0.11409415 -0.117295675 -0.11661941 0.12060538 0.14213137 0.114250235 -0.15170723 -0.1741468
-0.0558951 0.085618675 0.12281573 -0.121775076 -0.083721824 -0.08887327 -0.09304508 -0.053105425
0.1519592 0.114070356 -0.039648905 -0.067679055 0.059733156 0.010227864 -0.15697442 0.130618
-0.032720994 0.09261686 -0.1563898 0.13194855 0.14823583 -0.01357216 -0.20115134 -0.010897393
0.13548462 -0.059610095 -0.06396217 -0.16849723 -0.14017268 -0.13371365 0.0943584 0.08124409
0.020671584 0.16032706 -0.20569338 0.19307116 -0.035477985 -0.14438166 -0.012319857 0.114763536
0.032384265 -0.017870901 -0.024249922 -0.15473627 0.026114576 0.024813274 0.05538694 -0.19126219
0.07495084 -0.1398671 -0.08592331 -0.0076031466 -0.054273188 -0.021167014 -0.044499595 0.08613708
0.14988779 0.035657268 0.011543743 -0.11497708 -0.043261718 0.04823203 -0.13964288 -0.04934318
0.15194027 0.091254644 -0.07547421 0.17968586 -0.08261668 0.08961824 -0.07419094 -0.12591834
-0.08469126 -0.07865509 -0.077696346 -0.056910485 -0.036722213 -0.14067769 -0.11475843 -0.18685202

attentions2.attn.weight f4 [1, 64]
00000000: 008f 413d 3168 8d3d 058b f33d 1c60 bb3d
00000010: 5760 e83d 8ea2 7ebd 6146 673d cb7b ae3d
00000020: 1929 433c ff54 f1bb 8915 d53d 7683 f5bc
00000030: 4eee 8cbc 08b5 47bc dc64 83bd e789 073b
00000040: 3b2e ac3d b15e 8abc 7988 933d 1dd9 dcbd
00000050: 975b 39bd 10d2 f1bb 7117 34bd 6e21 413d
00000060: cbf4 363d c16f 063c da7d f3bc fb00 edbd
00000070: 77a1 89bc 95ce 3dbd 4cf3 e6bd 8727 d4bd
00000080: 1f44 103e 1e6b 19be 38c8 a13d 67bc 633c
00000090: d8f7 3f3c c33c b43d 2b76 44bd 02dc 7ebd
000000a0: de2e f03d 42e5 9a3d 3874 173d 4ffd 803d
000000b0: 0409 fdbc 1ef9 dcbc ccaf 60bd 5633 f93c
000000c0: 7878 143e 8a7a 113d e959 873c f93e 86bd
000000d0: e9dc 02be ed9d 01be 2b8e adbd 7171 d4bd
000000e0: 6f1e a33d 5e3e 093e ffbb c33c 37d1 9abd
000000f0: d8c9 7abc eeef 1a3c d042 69bc 35b8 25bc
0.047255516 0.069046386 0.1189175 0.09149191 0.113465 -0.062166743 0.056463603 0.085197054
0.011911654 -0.0073648687 0.10404498 -0.029969912 -0.017203476 -0.012189157 -0.06415722 0.0020681561
0.08407255 -0.016890856 0.072037645 -0.107835986 -0.045253363 -0.0073797777 -0.043967668 0.04715102
0.044667047 0.008205355 -0.029723097 -0.11572453 -0.016800625 -0.04633959 -0.11276874 -0.10359102
0.14088486 -0.14982268 0.07899517 0.013899899 0.011716805 0.08800652 -0.047964256 -0.062221535
0.11727689 0.07563259 0.03697607 0.06298315 -0.030888088 -0.026974257 -0.054855153 0.030419987
0.1449908 0.035517253 0.016522365 -0.0655498 -0.12779583 -0.126579 -0.08474382 -0.103732
0.07964789 0.13402697 0.023893354 -0.07559436 -0.015306912 0.009456618 -0.014237121 -0.010114719

attentions3.linear.weight f4 [32, 32]
00000000: 1b9d 1f3e 6311 86bd fa18 033e 8bf1 c1bd
00000010: e845 fc3d dea4 20be bd06 12be 0db3 913d
00000020: 2b19 013d defd dfbb 6f32 4f3c 34cf f93d
00000030: 0f71 82bc 22ee 7cbd 0269 25bd 9239 43bb
00000040: 6597 593e 5d86 443e 0923 28be 04d9 02bd
00000050: 98c6 19be 0c3d d7bd 4e88 06be 83f1 2bbe
00000060: b65d 4a3d 859f 3a3b e94c 923d b064 f23d
00000070: 960d 56bd 7aa2 043e ebc1 453d 9ff2 52be
00000080: d198 8d3d 2dda 3e3e d47c 6e3c 35ad 843d
00000090: 7fa2 f7bd 57bf 993c 9542 e63d 7398 87bc
000000a0: ca20 743d f01f 1ebe 9e6b 193d 8960 17be
000000b0: 3d30 10be 1647 c73b 5d47 bebd e9a7 403d
000000c0: 32a0 b4bd 14ca 2bbe f9ca 82bd c21a 18bc
000000d0: daaa a9bd 78a0 44bd 3b8c 93bc 47a3 9d3c
000000e0: 8cf8 c43d cde8 0fbd 227c ea3a 32f6 0ebe
000000f0: 38d1 b83b 07d8 a03c c22f 293e 3734 6f3d
00000100: b5da 733d 3b1b 9b3d 6b58 443e d0f7 e1bd
00000110: 0c76 7bbb 9b69 13be f01a 36be 4aad 873d
00000120: fe98 88bc f749 a1bd fa1d f63d fcb6 6f3d
00000130: 1635 94bd 927e ffbd 3e77 043e bfae 55bd
00000140: 33a8 10bb f388 023e 8299 143e 0193 3e3e
00000150: 2ca9 60bd 49e2 2dbe 9ae4 973c 3a4e 113e
00000160: 4977 07bb 5538 233e 40b9 68bd 99a6 97bd
00000170: b139 fb3d 110b b0bd 8f4e 73bd fcbf 033d
00000180: 5e2d 48be fd16 3dbd 97b4 19be 2d2c 513d
00000190: d395 103e 6dc5 3b3d 4aa8 ab3d 711e 02b7
000001a0: 9bb4 71bd 24b1 0ebe 19a9 0d3e 28b9 1ebe
000001b0: fb35 c5bd 713c 1c3e 4bd4 30bd 2abe 123e
000001c0: 4fbb 8ebd 09df 01bc 15ce fbbd 11c0 91bd
000001d0: 07db 3c3e a014 6d3d f8a3 b2bc a521 e1bd
000001e0: 199e 1bbe bd70 0cbe c19b 8ebd 7283 e23c
000001f0: 4ea1 08be 8c88 47be 599c b53d 4cd1 c5bd
00000200: 2696 ab3d 9bda 86bd ae8d 203b 26fe 2a3d
00000210: 3059 163e 43c4 0f3c 58c9 443e 98f6 843d
00000220: 4ae6 933d f5ef a7bd 2e5d 1fbc 9c8b 3dbd
00000230: d522 3cbd 9963 7e3d 8673 11bb 8f6e 423e
00000240: 76da 5abe 7331 a03c b3de 2b3e a119 2abe
00000250: a15d fcbc c167 393e 1043 823d 51e3 ab3d
00000260: 48c9 ea3d ca19 a73d c3d2 9e3d 5a25 85bd
00000270: 49d4 0dbd b51f 0ebe f6f3 cf3c c70a 0c3e
00000280: c8fc f33d 88f2 823d 5b16 a93d b850 a2bd
00000290: 3877 063e 4855 de3d b963 3ebe 164f 3dbe
000002a0: 6c9b d4bd c56f e83b fce0 ccbd 5a9d a73d
000002b0: 6b5a dbbc 3d44 533d 7ab9 1bbe 3e08 55be
000002c0: 02db 1f3d eb67 083d 553b 133e f0ba 7f3d
000002d0: a57d a93c 4ab5 8c3d 8442 de3d d760 01bb
000002e0: f65b ff3d 6127 04be 0d0f 203e f196 55bd
000002f0: b2c5 233e 464b 6e3d 81c6 54be d849 bf3c
00000300: b347 13be ba36 2c3e 11cf b8bd c9d1 f4bd
00000310: b7e2 0cbe 52a3 0f3e 8146 a6bd f595 e63d
00000320: 5ad5 1cbe 8935 adbd d144 22be 5101 e03d
00000330: 6c22 023e 10cb 0a3e c0a9 8b3d 96e1 bbbc
00000340: b4b7 debd 3b73 b23d cdb1 d4bd 34e8 da3d
00000350: 445f 0b3e 2f1f 2c3e f068 28bd 01c1 1c3e
00000360: 474f 053c 4168 e93d 2ad3 fd3d a4c4 103e
00000370: bb60 a33c 5e46 48be 9b37 c13d 8923 813d
00000380: c774 bc3d d4cd c4bd 307c 1cbd 4797 41bc
00000390: dec9 01be be36 fdbc d602 4dbe 9f17 183e
000003a0: ca56 bc3d 3eb1 b4bd b32c c63d ad59 64bd
000003b0: 43a9 ea3c e79c bcbc af2c 35be 49be d7bd
000003c0: bd9d 5c3b 6916 a93d 259e 20bd 3e03 833d
000003d0: c90a 40be ed53 ba3d f303 4dbe 0c3c f4bd
000003e0: 3d18 b8bd 2fdd 4c3d dc3a 09be 2881 fc3d
000003f0: 4e55 bb3c 6bde 6abd 4662 44be bf3b 843d
0.15587275 -0.06546285 0.12802497 -0.09469899 0.12318021 -0.15687892 -0.14260383 0.07114229
0.031518143 -0.0068356832 0.012646302 0.12197724 -0.015923051 -0.06175054 -0.040383346 -0.0029788953
0.21249159 0.1919188 -0.16419615 -0.031945243 -0.15017164 -0.10509691 -0.13137934 -0.16791348
0.049405776 0.0028476429 0.07143576 0.11835611 -0.05225905 0.12952605 0.048280638 -0.20600365
0.06913913 0.18637915 0.0145561285 0.06478349 -0.120915405 0.018767996 0.11243168 -0.016552186
0.059601583 -0.1544187 0.037456147 -0.14782919 -0.14080901 0.006081472 -0.09290955 0.04703513
-0.08819617 -0.16776305 -0.0638637 -0.009283723 -0.082845405 -0.048004597 -0.018011203 0.019242896
0.09617719 -0.035134126 0.0017889778 -0.13961104 0.005640175 0.01963426 0.16522124 0.058399405
0.059534747 0.07573553 0.19174354 -0.110335946 -0.0038369922 -0.14395754 -0.17783713 0.06624849
-0.016674515 -0.07875436 0.12017436 0.058524117 -0.07236688 -0.12475313 0.12936112 -0.052168604
-0.002207291 0.12747554 0.14511684 0.18610765 -0.054848835 -0.16980852 0.018541623 0.14189997
-0.0020670465 0.15939458 -0.056817293 -0.07404823 0.12266863 -0.08595861 -0.05940109 0.032165512
-0.19548556 -0.0461645 -0.15010296 0.05106752 0.14119653 0.045842577 0.08381708 -7.7556915e-06
-0.05901013 -0.13934761 0.13834037 -0.15500319 -0.096294366 0.15257432 -0.04317121 0.14330354
-0.0696932 -0.007926711 -0.122951664 -0.07116712 0.18442927 0.057880998 -0.021806702 -0.10992745
-0.15197028 -0.13714881 -0.069633015 0.027650569 -0.13342783 -0.19485682 0.088677116 -0.09659061
0.08378248 -0.065846644 0.002449851 0.04174628 0.1468246 0.00877482 0.19217432 0.064923465
0.072216585 -0.08200065 -0.009726806 -0.04627572 -0.045931656 0.062106702 -0.0022194101 0.18987487
-0.21372399 0.01955483 0.16784172 -0.16611339 -0.030806364 0.18105985 0.063604474 0.083929665
0.114641726 0.08159216 0.07755043 -0.06501265 -0.03462628 -0.13879283 0.025384884 0.13675986
0.119134486 0.063939154 0.08256217 -0.07925552 0.13131416 0.1085611 -0.18592729 -0.184872
-0.10381207 0.007093402 -0.1000385 0.08184309 -0.026776513 0.05157875 -0.15207472 -0.20803925
0.03902722 0.03330223 0.14378102 0.062434137 0.020689795 0.06870516 0.108525306 -0.001974156
0.12468712 -0.12905647 0.15630741 -0.052145902 0.15993384 0.058177255 -0.20778848 0.023350641
-0.1438282 0.16817752 -0.0902387 -0.11954076 -0.1375836 0.14027146 -0.08118916 0.11259071
-0.15315762 -0.08457477 -0.15846564 0.10937751 0.12708443 0.13554025 0.068194866 -0.022934716
-0.10874882 0.08713385 -0.10385475 0.106888205 0.1361056 0.1680877 -0.0411157 0.15308
0.008136577 0.11396838 0.12393792 0.14137512 0.019943586 -0.19558093 0.09434434 0.06305606
0.09201961 -0.09609571 -0.038204372 -0.0118158525 -0.12674662 -0.030909892 -0.20020613 0.1485276
0.09196241 -0.08822869 0.096764944 -0.055749584 0.028645163 -0.023024036 -0.17692827 -0.10534341
0.0033663355 0.082562275 -0.03921332 0.06397103 -0.18754114 0.09098039 -0.20021038 -0.119255155
-0.08988998 0.050015625 -0.1340136 0.12329322 0.022867825 -0.05734102 -0.19178113 0.06456708

attentions3.attn.weight f4 [1, 64]
00000000: fa71 ec3d 895a 36bd 1ab8 ca3d 5cb7 f53d
00000010: 9474 0bbd a116 df3c 50a5 bbbd 0fae d03d
00000020: 191c f4bc f3eb a33d ae68 cf3d ab6e 01be
00000030: 1d95 a73a 4039 e7bd 23e0 b4bd a013 febd
00000040: 5c1d cb3d b4f8 04bd 035c aa3d 7eb0 533d
00000050: 40a0 883d 786e a33c 242c bcbd 4277 dcbc
00000060: 7972 cabd 74af 8c3d daf5 1cbd c810 37bc
00000070: b60f dc3c ffb7 cfbc cfa1 fcbd a7ea 453d
00000080: 1ac8 9ebd 79c6 e4bc ed08 fc3d f52f eebd
00000090: 5286 01bc faaa c2bb 3ccd cc3d 4e36 c63c
000000a0: 26d2 0f3e eb3d 74bc 942c 79bd f01c d53b
000000b0: 8f23 b8bc 8c97 d73b 8894 413d ff0f 953d
000000c0: 5eff 9d3d 715a a5bd 54ca 86bd afff 6c3d
000000d0: e636 f7bd 0e21 d23d ac00 723b 4f5e 18bd
000000e0: 1f07 a2bd 8bdb bd3d 351f 20bd 9f02 a3bd
000000f0: 0058 39bd 59d7 af3d e385 c1bd 8448 72bc
0.11545177 -0.044519935 0.09898396 0.11997864 -0.034046724 0.02723247 -0.0916239 0.10189449
-0.029798554 0.08003988 0.10127388 -0.12639873 0.0012785528 -0.112902164 -0.08831813 -0.12406087
0.09917709 -0.032463744 0.08318331 0.051681988 0.0667119 0.019950137 -0.09188107 -0.026912335
-0.09885115 0.068694025 -0.0383204 -0.011173435 0.02686296 -0.02535629 -0.1233555 0.048319485
-0.0775301 -0.02792667 0.1230639 -0.11630241 -0.00790556 -0.005940792 0.10000083 0.024195816
0.14045009 -0.0149073405 -0.06083353 0.0065036938 -0.022477893 0.006579345 0.04726079 0.07278442
0.07714723 -0.08073891 -0.0658156 0.057861026 -0.12071018 0.10260211 0.003692667 -0.037199315
-0.079115145 0.0927039 -0.03909226 -0.07959484 -0.04524994 0.08585996 -0.09449365 -0.014787797

output_layer.linear.weight f4 [5, 32]
00000000: 4316 933d 2a8d 343b 1c58 8a3d 4d69 1cbd
00000010: a2f4 ebbd 9e5d 4e3e 4ebb 1dbe 826f 0dbc
00000020: 5e59 de3d c809 c73c 0539 bbbd d6b5 00bd
00000030: 8c7b 09bc bca4 09be 1e43 b83d ba89 3c3e
00000040: bc06 f7bc f3e1 2dbe 24a4 3e3e 4983 43be
00000050: 233d 45be ebee 1e3e 1195 263d 2fcd 1fbe
00000060: e3ea 97bd a423 e1bd a2c9 1b3e 8759 96bc
00000070: ae77 b63d 5a66 1fbe 5642 48be 8eec 0ebd
00000080: 91d8 dfbd 2acf 33bb 3ab0 feba 82d9 863c
00000090: 05b5 013e 0837 b7bb 7559 8f3d 3eee bebd
000000a0: d1b2 1bbe 092a 24be dc40 3c3d a53f 05be
000000b0: 9fe3 26bd 72eb 843d 4624 fabc d2e4 b1bd
000000c0: dce6 f2bb 483c 323e 50af d93d 5c29 fb3d
000000d0: da6f b73c 5d0d 52be 18d6 fbbd 5c88 eebd
000000e0: 24db a23d 743f 2cbe 39de cfbd df95 b5bb
000000f0: 8147 653e c948 6ebb 5e26 353d 9e8d cc3d
00000100: de66 00be d31f ff3d d8c4 3abe bfcd 3a3e
00000110: d09d b3bc eda3 38be 6197 edbc 516e d63d
00000120: 2fb3 123d 9162 0b3c 722b c4bd 8b3b e53d
00000130: 4e05 d03d 55c9 55be d721 97bc 7812 23bc
00000140: 45f7 ed3d 4d3c 27be 6c78 7ebd 50b2 0b3d
00000150: d479 a73d 9a80 50bd 86c4 113e 2bb3 c53d
00000160: 91d7 95bd 8293 50be 4f9e 05bd f4cd bd3c
00000170: 8f2a 423e 2e24 f8bd efb4 1e3e b52a 923d
00000180: 7e61 adbd a560 8cbd f24c 933d f25e cf3d
00000190: 70b9 843d 3876 863d df2d 2cbe cf61 133e
000001a0: 456c cb3d 0fa1 143e 0d30 b13d a3ee 22be
000001b0: f3f6 233e 2b7f 17be 1d2b 213e 1fd7 6e3c
000001c0: 0f68 2d3e 93da 91bd 02a6 223e 1430 013d
000001d0: 0860 da3d 797a d93d 058c bf3d de75 d8bd
000001e0: 846d 62bd f0e6 773d e676 3e3d 8b69 973d
000001f0: 6192 44bd ecd8 ba3d 91ac 213e 7c7e 26be
00000200: 87c8 afbc aee5 9a3b a2c9 023e c1c2 26be
00000210: 5c45 a2bd e8d0 95bc 0d30 24be e312 4d3e
00000220: 6829 5ebd ca57 003e 3918 03bc 4a20 223e
00000230: 6b08 03be 721b dfbb 6ea8 063e 2d95 db3c
00000240: 8a20 57be 3ba2 c4bc b96f eb3d afad 25be
00000250: 7d98 5ebe b122 dbbd 6c7e 6a3c f30b 273e
00000260: 35d8 a0bd 4fed 053e 915f 0d3e 6bde 173e
00000270: 12db 553d 44c0 5cbe c10a ebbd c99b 37be
0.071819805 0.002754996 0.06755087 -0.03818636 -0.115212694 0.201529 -0.15403482 -0.008632543
0.10856889 0.024296656 -0.09141735 -0.031423412 -0.008391272 -0.13441747 0.089971766 0.18411914
-0.030154578 -0.16980724 0.18617302 -0.1909305 -0.19261603 0.15520827 0.040669505 -0.15605615
-0.07417848 -0.10993126 0.15213636 -0.018353237 0.08909546 -0.15566388 -0.19556555 -0.034893565
-0.10929979 -0.0027436712 -0.0019431182 0.016461138 0.1266671 -0.005591277 0.069994844 -0.09322785
-0.15204932 -0.1603166 0.045960292 -0.1301256 -0.04074442 0.0649022 -0.030534875 -0.08686222
-0.0074127745 0.17405808 0.10629141 0.12263748 0.022392202 -0.2051291 -0.122966945 -0.11647102
0.07951954 -0.1682108 -0.101498075 -0.0055415477 0.22390558 -0.0036359301 0.044226043 0.09987949
-0.1253924 0.12457242 -0.18239152 0.18242548 -0.021925837 -0.18031283 -0.029002847 0.1047026
0.035815414 0.008507387 -0.09578599 0.111929975 0.10157262 -0.20877583 -0.018448753 -0.009953134
0.116194285 -0.16331597 -0.062126562 0.0341056 0.08177534 -0.050903894 0.14235124 0.09653314
-0.07316507 -0.2036877 -0.032621678 0.023169495 0.18961547 -0.12116276 0.15498708 0.07137052
-0.08465861 -0.06854371 0.071924105 0.10125531 0.06480682 0.06565517 -0.16814373 0.1439278
0.0993276 0.14514564 0.08651743 -0.15911345 0.16012172 -0.14794604 0.15739103 0.014577656
0.16934226 -0.07121768 0.1588364 0.03153999 0.10662848 0.10619063 0.093528785 -0.105693564
-0.055280223 0.060522974 0.04650011 0.073931776 -0.04799116 0.09123406 0.15788485 -0.16259187
-0.021457924 0.004727087 0.1277223 -0.1628523 -0.079233855 -0.01828809 -0.16033955 0.20026736
-0.054238707 0.12533489 -0.008001381 0.1583263 -0.1279618 -0.0068086917 0.13150188 0.026804531
-0.21008506 -0.024003139 0.11495919 -0.16179536 -0.21737857 -0.10699976 0.014312368 0.16313152
-0.07853738 0.13078807 0.13805987 0.1483094 0.052210875 -0.21557719 -0.114766605 -0.17930521

output_layer.attn.weight f4 [1, 10]
00000000: de02 f1bc 5269 52be 5d36 933c 14b6 2cbe
00000010: e816 76be 7cab 3bbe d9c0 0f3e ea86 19be
00000020: ed39 6dbd 1dc9 7abd
-0.029420312 -0.20547989 0.017970258 -0.16866332 -0.24032176 -0.18327135 0.1403841 -0.14992872
-0.05791657 -0.061226953

fc1.weight f4 [5, 45]
00000000: 1072 d6bc a0e5 0fbd d13b 543c 63a7 e3bc
00000010: a890 d03c a6de e23d ed28 e63d 714b bbbd
00000020: 39dd 813b 2d68 473d 1d7c d7bd 09f7 cd3d
00000030: 8287 31be d9f3 f5bd 4edd ae3d 9b49 043e
00000040: dee1 6e3d e764 3b3b 23ce 913d 08e5 1a3e
00000050: 3629 cebd ab4e d8bd 2548 e4bd bdd6 de3c
00000060: cc25 6ab9 78ff a9bd dcf1 783d c369 f9bd
00000070: cb95 e6bd 0f00 ca3c f334 f43d 3799 dc3d
00000080: a2d1 87bc 5030 823c 6fb6 b2bd eb91 d7bc
00000090: 194a d2bd 0559 1dbe 1099 f53d ff9d cd3d
000000a0: 26f9 df3c 774f 95bb a2c8 51bb ff2e 703d
000000b0: 95cb 99bd e0f3 d83a 04c6 8dbd 8a2f 09bc
000000c0: 4fd9 723d fa1f b93d 3c8a 143e 3f2d fc3c
000000d0: 73f4 d6bd e163 fabd a803 183e ddb6 9fbd
000000e0: b946 cf3d 431b c4bd 38ba f43d 1687 113e
000000f0: 7706 d33d 87df 823d e31c 303b 94d9 98bd
00000100: 5126 013e 555b b5bd 2a37 febd c350 04bd
00000110: 9c82 9f3d 428a a63d c34a b63d bea9 a43d
00000120: 3bcd c0bd e40d 02be a6be 72bd a230 efbd
00000130: 8f8b 883c 1f15 2ebc eda6 41bd 13b4 eb3c
00000140: 3f53 d8bd 139c d83c d6e8 b23c d1a0 80bd
00000150: 5395 083e 55e8 2d3d a1f3 d63d ab1d a03d
00000160: 0337 ffbd c7c1 84bd ba0e 99bd dfbb af3a
00000170: 99da 32be fb21 6abc a69d 0f3e 75a6 e4bd
00000180: 156c 9abd 0575 3ebc d8ba 123e b1c4 40bb
00000190: eadf 13bd 25c5 f43d cd77 363d 6b25 db3d
000001a0: 3c23 213d 07aa 8d3d 1eb2 253d 0b00 fdbd
000001b0: 0745 003e 596f ca3d e5e7 f6bc c769 cb3d
000001c0: a4c0 ee3d ab68 013e 2bf0 093c f450 ff3d
000001d0: e8ef 853d 79e1 32bd 2024 8bbd de3b 883c
000001e0: 1f90 5cbc b140 09be 1c76 98bd d33a 313c
000001f0: 3983 20bd 386f 023e 73ef b93c 2d35 b4bd
00000200: 3bf0 e43d e008 a83d a6b0 1c3e 3bcc c9bc
00000210: 8cf4 033e 31a4 9dbd 3742 90bd 8b91 373b
00000220: dcde b9bc 1044 3c3d 3ec0 f5bb 5ab0 1fbd
00000230: 1998 713d 8b13 0cbe 6dda c53d b088 233e
00000240: d3b0 c83d f5bc 293e ecda d6bd 74e5 853d
00000250: 016a f03d 1621 023e 9715 88bc 3a3c adbd
00000260: bc74 8fbb 3fd9 0abe 40a0 90bd 9265 b8bd
00000270: 0b61 a1bc c920 903d dfa9 f83d 320b 8d3d
00000280: ae9c 103d fdcb b8bd 06ab 88ba f59d 09bd
00000290: 7496 703d 5383 c83c a093 f13d 9e91 be3d
000002a0: 0503 e73d 2687 623d e511 2d3d 6a00 693b
000002b0: be26 453d 2fb6 043e 6b5d 123e b388 5b3d
000002c0: c8ea 063e 801f ca3c 4cad 3dbd 77c7 eabc
000002d0: db65 b8bd 48c7 223e 2daa 373e a8b3 7cbd
000002e0: a35c 9bbd db86 c3bd eba9 093e 598e 5c3d
000002f0: 06e0 253b 18c9 cf3d f6ec 273d 6876 8e3c
00000300: 973f 563c ff35 023d cbc8 0bbd f37e 93bd
00000310: 095c be3d 9fd4 89bd 297a cd3d 028e 14bd
00000320: 47df 2bbe 7a27 e53d 9f5b 263e 0cd1 873d
00000330: 6bb1 35be bda5 27be ebc6 0b3e 146c 073e
00000340: b008 f2bd 860e 583d 0fb8 83bc f1ee 3e3e
00000350: 4f41 543d a929 813c 46d8 37be 5e90 42bd
00000360: 6127 843d 002f b63d 0c6c b3bd 30b6 11be
00000370: e6a3 1fbd 26f7 58bd 9f25 1b3d 7a18 c2bd
00000380: c986 2dbe
-0.026177436 -0.035131097 0.0129537145 -0.027789777 0.025459602 0.11077623 0.11238275 -0.09145249
0.0039631394 0.048683334 -0.105217196 0.10056884 -0.17336848 -0.12009401 0.08538304 0.12918703
0.058320872 0.0028594078 0.071193956 0.15126431 -0.10066454 -0.1056188 -0.11146573 0.027202005
-0.0002233006 -0.0830068 0.06077753 -0.121783756 -0.112590395 0.024658231 0.11924162 0.10771411
-0.016579453 0.015892178 -0.08726203 -0.026314696 -0.10268039 -0.1536599 0.11992085 0.10039901
0.027340483 -0.004556592 -0.0032010456 0.05863857 -0.07509533 0.0016552173 -0.06922534 -0.008373151
0.059289273 0.09039302 0.14505857 0.030783294 -0.10495844 -0.12226082 0.14845145 -0.0779855
0.10120911 -0.09575512 0.11949581 0.14211687 0.103039674 0.06390291 0.0026872687 -0.07463375
0.12612273 -0.08855311 -0.124128655 -0.032303583 0.07788584 0.08131839 0.089009784 0.08040188
-0.094141446 -0.12700611 -0.059263848 -0.11679198 0.01666811 -0.010625153 -0.047278333 0.02877239
-0.10562753 0.02644161 0.02183954 -0.06280673 0.13338213 0.042457897 0.10495687 0.07818159
-0.124616645 -0.064822726 -0.07473512 0.001340743 -0.17466201 -0.014290328 0.14024982 -0.11164562
-0.07540146 -0.011624579 0.14329088 -0.0029414112 -0.036102213 0.11951665 0.044547845 0.10700496
0.039340243 0.06917196 0.04045307 -0.12353524 0.12526332 0.09884519 -0.030139873 0.09932285
0.11657837 0.12637584 0.008419077 0.124666125 0.06539899 -0.04367206 -0.06794 0.01663011
-0.0134620955 -0.13403584 -0.074444026 0.010817247 -0.039187644 0.12737739 0.022697186 -0.08799205
0.11178633 0.08204818 0.15301761 -0.024633517 0.12886256 -0.07697333 -0.070438795 0.0028010334
-0.022689275 0.045963347 -0.0074997237 -0.03898654 0.058982942 -0.1367933 0.09660802 0.15970111
0.097993515 0.16575988 -0.10490975 0.06537905 0.11738969 0.12707934 -0.016611857 -0.08458753
-0.0043779295 -0.13559435 -0.07061815 -0.09003748 -0.019699594 0.07037503 0.12141775 0.06886901
0.03530567 -0.09023283 -0.0010426946 -0.033597905 0.058737233 0.024476683 0.11795735 0.09305118
0.11279873 0.05530467 0.042253394 0.0035553225 0.04813265 0.12960123 0.14293449 0.053597163
0.131755 0.024673223 -0.046307847 -0.028659565 -0.090038024 0.15896332 0.1793601 -0.06169477
-0.075860284 -0.09547206 0.13443725 0.05384669 0.002531053 0.101457775 0.040997468 0.017390445
0.013076684 0.031789776 -0.034127038 -0.07201948 0.09294898 -0.067300074 0.10033066 -0.03626824
-0.16784392 0.1118917 0.16245888 0.066316694 -0.17743461 -0.16371818 0.136501 0.13224822
-0.11818063 0.052748226 -0.016078977 0.18645836 0.051820096 0.015766935 -0.17953596 -0.04750096
0.064528234 0.08895683 -0.08760843 -0.14229655 -0.038974665 -0.052970074 0.037877675 -0.09477325
-0.16945948

fc1.bias f4 [5]
00000000: 0152 0bbc d830 0bbd e026 173e 7605 eb3b
00000010: c3ad f13d
-0.008503438 -0.033982128 0.14760923 0.007172282 0.118007205
